results/hideandseek_14/Seek/checkpoint.pt (torch, 881131 bytes, 36 tensors)

network_body._body_endoder.seq_layers.0.weight f4 [128, 149]
0	0x3d7c6412	0.061618872
1	0xbc98db88	-0.018659368
2	0xbb304926	-0.0026899069
3	0x3da9ffa2	0.08300711
4	0x3d597f33	0.053099822
5	0x3e24ba75	0.16086753
6	0x3a83958e	0.0010039078
7	0x3d76cd2b	0.060254257
8	0xbe826d08	-0.2547381
9	0xbd14af23	-0.036299836
10	0x3dd56cb7	0.10421126
11	0xbdd55a6c	-0.10417637
12	0xbd5e18ec	-0.054222986
13	0x3b8c17c8	0.004275296
14	0x3e199773	0.1499918
15	0xbc2be1f7	-0.010490886
16	0xbe09c17f	-0.13452719
17	0xbbb1752b	-0.005415579
18	0x3d10e54a	0.035374917
19	0xbe518fc2	-0.20464996
20	0x3e181ccf	0.1485474
21	0xbdacb30a	-0.084325865
22	0xbd7e3a37	-0.062067237
23	0x3df84e66	0.12124328
24	0xbc2b543e	-0.010457097
25	0x39d8d703	0.00041358927
26	0xbe843149	-0.25818852
27	0x3de70a6f	0.11281287
28	0x3ce8f255	0.028435865
29	0xbe2f210d	-0.17102452
30	0xbdb2dd94	-0.08733669
31	0xbe3c8e15	-0.18413575
32	0xbd0878c6	-0.033318304
33	0xbcf372af	-0.029717771
34	0x3db9512b	0.09048685
35	0x3dacccd8	0.08437508
36	0xbe6226dd	-0.22085138
37	0x3d97b616	0.07407777
38	0xbdb38622	-0.08765818
39	0x3c86b0e7	0.016441775
40	0xbcb6033c	-0.02221834
41	0xbdbd2696	-0.09235875
42	0x3e18d1e9	0.14923824
43	0xbe0b0afe	-0.13578412
44	0xbdc7a9ff	-0.09749221
45	0xbc9fe0cd	-0.019516373
46	0xbac066fd	-0.001467913
47	0xbd992d9f	-0.07479405
48	0x3da7744c	0.08176479
49	0xbd54b425	-0.05192961
50	0xbcb1e4a3	-0.021715468
51	0x3cf347dc	0.029697351
52	0x3dd7f84d	0.105454065
53	0xbb68618f	-0.003545854
54	0xbbecbc7f	-0.007224619
55	0x3e05b6ab	0.13057964
56	0xbe2e128a	-0.1699926
57	0x3da3ea30	0.08003652
58	0xbda76435	-0.0817341
59	0xbe01ca39	-0.12674798
60	0x3c82d453	0.015970385
61	0xbdb4f91d	-0.08836577
62	0xbe047209	-0.12934126
63	0xbc8226cd	-0.015887642
64	0xbd707060	-0.05870092
65	0x3d2e48a7	0.042549755
66	0xbd8ac815	-0.06776444
67	0xbd950d05	-0.07277874
68	0xbdec9fa9	-0.1155389
69	0xbdcffe13	-0.10155883
70	0x3dc08455	0.0940024
71	0xbe178959	-0.14798488
72	0x3dfaf201	0.1225319
73	0xbe5438db	-0.20724814
74	0xbdbc1a80	-0.09184742
75	0xbdf93683	-0.121686004
76	0xbd64a128	-0.055817753
77	0xbdbc8180	-0.09204388
78	0xbe91eac1	-0.28499416
79	0xbca65156	-0.020302456
80	0x3d179c45	0.037014265
81	0xbd97d0e2	-0.07412888
82	0xbe4b3917	-0.19845997
83	0xbd791c90	-0.060818255
84	0x3a6db010	0.0009067068
85	0xbd4e069d	-0.050299276
86	0xbd8d15d5	-0.0688893
87	0xbdc48653	-0.09595933
88	0xbe1441f0	-0.14478278
89	0xbe57b01a	-0.21063271
90	0xbc4b3379	-0.012402409
91	0x3dbbb62f	0.09165608
92	0xbd254e3a	-0.040357806
93	0xbdfc8359	-0.1232974
94	0x3bb39b72	0.005481177
95	0xbd1752e7	-0.036944296
96	0x3dabeb68	0.083945096
97	0xbdefe367	-0.117132954
98	0xbe390fdf	-0.1807246
99	0x3d9edeb4	0.07757321
100	0xbda5ad2a	-0.08089669
101	0xbe1ff6aa	-0.15621439
102	0xbd4ba2b2	-0.049715705
103	0xbe724f95	-0.2366317
104	0xbd7fcf35	-0.062453467
105	0x3c74d3c2	0.014943065
106	0xbd29084a	-0.04126767
107	0xbe295707	-0.16537105
108	0x3be2ac7d	0.006917535
109	0xbbacde42	-0.0052755186
110	0xbc8c3a92	-0.017117772
111	0x3d03ca9e	0.032175653
112	0xbdf9ad05	-0.12191204
113	0x3db9bdfd	0.090694405
114	0xbe165baf	-0.14683412
115	0xbde2b2be	-0.110692486
116	0xbd38d40d	-0.045124102
117	0xbe5467a8	-0.20742667
118	0xbdce8269	-0.100834675
119	0xbd89ec72	-0.067345515
120	0xbdd2204f	-0.102600686
121	0xbe48ba0e	-0.19602224
122	0xbd362127	-0.04446521
123	0xbd411d92	-0.04714734
124	0x3d09191f	0.033471223
125	0x3db829b0	0.08992326
126	0xbe09b6b8	-0.13448608
127	0xbda9bf32	-0.08288421
128	0xbdca7cde	-0.09887098
129	0xbde99ee1	-0.11407257
130	0xbcb5e892	-0.022205625
131	0xbd8fa588	-0.070139945
132	0xbd9a7e82	-0.07543661
133	0xbe21e941	-0.15811636
134	0xbd74c0cf	-0.05975419
135	0x3cd5fddb	0.026122024
136	0xbe46f2a6	-0.194285
137	0xbbee1f69	-0.007266928
138	0xb986df79	-0.00025724972
139	0xbd923f55	-0.07140986
140	0x3d8849a8	0.06654674
141	0x3b68085b	0.003540537
142	0xbd50eb8c	-0.051005885
143	0x3df83d91	0.12121118
144	0x3ccaa8df	0.024738727
145	0x3d805268	0.06265718
146	0xbdace428	-0.08441955
147	0xbd79ce56	-0.060987793
148	0x39e95ecf	0.0004451186
149	0x3d455537	0.04817697
150	0xbd1e6793	-0.038672995
151	0xbd5d8791	-0.054084364
152	0x3cafc4d1	0.021456154
153	0x3d92f30f	0.07175266
154	0x3db5ead8	0.088826835
155	0xbe94b81d	-0.29046717
156	0x3e42805e	0.1899428
157	0x3dec282e	0.11531101
158	0x3dc2fddf	0.09521078
159	0x3bd7d87d	0.0065870867
160	0xbdf4237e	-0.11920832
161	0xbdcd1ed1	-0.100156434
162	0xbe09b8ae	-0.13449356
163	0xbe015723	-0.12630896
164	0xbc083c9e	-0.0083152335
165	0xbdc47d51	-0.09594215
166	0xbdab8e09	-0.083767004
167	0xbd821148	-0.063509524
168	0x3de47da5	0.11156777
169	0x3df73f6d	0.120726444
170	0xbd849681	-0.06474019
171	0x3cb674f9	0.022272574
172	0x3dc3ea12	0.0956613
173	0x3de962a3	0.113957666
174	0xbd6273d6	-0.05528625
175	0xbe143684	-0.14473921
176	0x3bdd4f27	0.0067538205
177	0x3cd7667b	0.026293984
178	0x3d8afd86	0.06786637
179	0x3d76895e	0.060189597
180	0xbda1b881	-0.078965195
181	0xbde26dcb	-0.110560976
182	0x3ce7d54d	0.028299952
183	0x3d79dfcb	0.06100444
184	0xbcf96826	-0.03044517
185	0x3d2420c6	0.040070318
186	0x3d9d41fa	0.076786
187	0xbdc89f51	-0.09796012
188	0xbe174c27	-0.14775144
189	0xbe0836fb	-0.13302223
190	0xbde23fcf	-0.11047327
191	0x3de078bc	0.10960528
192	0x3d6588c1	0.05603862
193	0xbe3944fd	-0.18092723
194	0xbd071a17	-0.032983866
195	0xbda4d91f	-0.08049225
196	0xbd7c443d	-0.061588515
197	0xbda38928	-0.07985145
198	0x3e122699	0.14272536
199	0xbcd6e754	-0.026233353
200	0xbe8c0fe9	-0.27355888
201	0x3e06b347	0.13154326
202	0xbcaa92d9	-0.020821976
203	0x3d9b4017	0.075805835
204	0x3da5b4f5	0.080911554
205	0xbdb0b370	-0.08627975
206	0x3dc16bfd	0.09444425
207	0xbd020557	-0.031743374
208	0xbe1537c5	-0.14572056
209	0x3d162927	0.03666034
210	0x3d9f2631	0.07770956
211	0x3c32e428	0.0109186545
212	0x3e17435e	0.14771792
213	0xbb86dc43	-0.0041156127
214	0x3d7ba7a4	0.06143917
215	0xbd92d022	-0.071686044
216	0xbe0668a4	-0.13125855
217	0xbd286a0d	-0.041116763
218	0xbe1f39a5	-0.15549333
219	0xbd4e6d64	-0.05039729
220	0xbcb40952	-0.0219771
221	0x3dd57f52	0.10424675
222	0xbe020e8a	-0.12700859
223	0xbd1fca44	-0.039011255
224	0xbc9d75e9	-0.019221263
225	0xbc64718d	-0.013943088
226	0x3d84816e	0.06469999
227	0xbe5598c7	-0.20859061
228	0xbe27bb20	-0.16379976
229	0x3decc74e	0.11561452
230	0xbe1934f0	-0.149616
231	0x3df7b3f3	0.120948695
232	0xbd1a3c3d	-0.037655104
233	0xbe10edab	-0.14153163
234	0xbc9a8243	-0.018860942
235	0x3d73f9b3	0.059564304
236	0xbc5aa3b6	-0.013344696
237	0xbcf10443	-0.029420977
238	0xbdf21769	-0.118208714
239	0x3d3b1ef3	0.045683812
240	0xbe390dae	-0.18071625
241	0xbd206bbd	-0.039165247
242	0x3e3c63bf	0.18397425
243	0x3db0cf97	0.086333446
244	0xba794133	-0.00095083116
245	0xbdf1cafa	-0.11806293
246	0xbc8e54e3	-0.017374462
247	0xbd73259c	-0.05936204
248	0xbe3c707c	-0.18402284
249	0xbdc94ef8	-0.09829515
250	0xbc9d3b45	-0.019193301
251	0x3db6047e	0.088875756
252	0xbdfa021b	-0.12207433
253	0xbdf00012	-0.117187634
254	0xbd5b9493	-0.05360849
255	0x3d123c5d	0.0357021

network_body._body_endoder.seq_layers.0.bias f4 [128]
0	0xbde69e7c	-0.11260697
1	0xbd5fb821	-0.05461896
2	0xbe23e85b	-0.16006605
3	0xbda6c148	-0.08142334
4	0xbe268f6c	-0.16265649
5	0xbd9c8df2	-0.076442614
6	0xbd88eb50	-0.06685507
7	0xbd6dec80	-0.058086872
8	0xbd8c23de	-0.068427786
9	0x3d3ca4a1	0.04605544
10	0xba99ac47	-0.0011724316
11	0xbd54c754	-0.051947907
12	0xbc7f18a2	-0.015569838
13	0x3d5d936a	0.054095663
14	0xbdc3bdad	-0.09557662
15	0xbdd311b8	-0.10306114
16	0xbe0f1f9a	-0.13976899
17	0xbddea332	-0.10870971
18	0xbd8aba99	-0.06773872
19	0xbc059d54	-0.008155186
20	0xbe0e1ada	-0.1387743
21	0xbd5357ab	-0.05159728
22	0xbca1e7da	-0.019763876
23	0xbda784b5	-0.08179609
24	0xbd8f15a0	-0.069865465
25	0xbd6ae5b5	-0.057347972
26	0xbd0e5cd7	-0.034756508
27	0xbe0933be	-0.13398644
28	0xbd46d1e0	-0.048539996
29	0x3d24a7d6	0.040199123
30	0xbdc78cd0	-0.09743655
31	0xbc456240	-0.01204735
32	0xbe24caa1	-0.16092922
33	0xbd65a328	-0.0560638
34	0xbd8c288f	-0.068436734
35	0x3b0fda04	0.0021950016
36	0xbe616747	-0.22012053
37	0xbd296d4d	-0.041364003
38	0xbdf98e71	-0.12185372
39	0x3d4ed195	0.05049284
40	0xbde0a306	-0.10968594
41	0xbddceb1f	-0.10787033
42	0xbcd77941	-0.026302936
43	0xbd885cd5	-0.06658331
44	0xbdcd7644	-0.10032323
45	0xbddf9f00	-0.10918999
46	0x3c56fff1	0.013122545
47	0xbc98fbe0	-0.01867479
48	0x3caa14c1	0.02076185
49	0xbe098462	-0.13429406
50	0xbd244932	-0.040108867
51	0x3c83710c	0.016045116
52	0xbd9d0a87	-0.076680236
53	0xbd463b97	-0.048396673
54	0x3d1fd227	0.039018776
55	0xbe17f338	-0.14838874
56	0xbda0416e	-0.0782498
57	0x3d065eff	0.03280544
58	0xbddf4599	-0.109019466
59	0xbda0d4d9	-0.078530975
60	0xbe4061a3	-0.18787245
61	0xbde65491	-0.112465985
62	0xbc960790	-0.018314153
63	0xbd815e70	-0.06316841
64	0xbd5c8e94	-0.05384691
65	0xbe227d44	-0.15868098
66	0xbdcce494	-0.10004535
67	0xbd46b9a1	-0.048516873
68	0xbdec84da	-0.11548777
69	0xbd869b4d	-0.0657259
70	0x3c833abb	0.016019216
71	0xbdb9f08d	-0.090790845
72	0xbd43cb70	-0.047801435
73	0xbd938c1e	-0.072044596
74	0xbdcf44cd	-0.101205446
75	0xbd90eaa0	-0.07076001
76	0xbde73f89	-0.11291415
77	0xbe3e51a7	-0.18585835
78	0xbd484419	-0.048893068
79	0xbe000311	-0.1250117
80	0xbda5037f	-0.080573075
81	0xbddf55c6	-0.10905032
82	0xbe106667	-0.14101563
83	0xbde11589	-0.10990436
84	0xbcc28915	-0.023747006
85	0xbe5a2f58	-0.21307123
86	0xbd275f67	-0.040862467
87	0x3bf29d0a	0.0074039744
88	0xbdaa7b7a	-0.083243325
89	0xbdf7575a	-0.12077208
90	0xbdc04bd6	-0.093894646
91	0xbe067af8	-0.13132846
92	0xbdba4236	-0.0909466
93	0xbd1f86cb	-0.038946908
94	0xbdb4796e	-0.088122234
95	0xbde86142	-0.113466755
96	0xbd1617ea	-0.0366439
97	0xbdd4b9f3	-0.103870295
98	0x3d571cfc	0.052517876
99	0xbdf3d50d	-0.119058706
100	0xbd576f73	-0.05259652
101	0xbd654126	-0.055970334
102	0xbd983dcb	-0.07433661
103	0xbd896195	-0.067080654
104	0xbe19efac	-0.15032834
105	0x3d8a948b	0.067666136
106	0xbd636e33	-0.055525016
107	0xbdd6dd7f	-0.10491466
108	0xbd93c02a	-0.07214387
109	0xbda6b878	-0.08140653
110	0xbdab89d0	-0.08375895
111	0xbdc35f34	-0.09539643
112	0xbde49a1e	-0.11162208
113	0xbc1aff83	-0.009460333
114	0xbdbe2d92	-0.092860356
115	0x3c8ba624	0.017046995
116	0xbd1c0118	-0.03808698
117	0xbda13fed	-0.07873521
118	0xbb5c4ae7	-0.0033613981
119	0xbd9c2bfd	-0.076255776
120	0xbe5a711c	-0.2133221
121	0x3c8c5fc4	0.017135508
122	0x3d6e1137	0.058121886
123	0xbe678fe5	-0.22613485
124	0xbc9705ef	-0.018435447
125	0xbc2df540	-0.010617554
126	0xbd349022	-0.04408277
127	0xbe0b5ad1	-0.13608862

network_body._body_endoder.seq_layers.2.weight f4 [128, 128]
0	0x3dba6566	0.091013715
1	0x3cca4685	0.02469183
2	0xbdc1f9c2	-0.09471466
3	0xbd211144	-0.039323106
4	0x3e6f02db	0.23340933
5	0xbd024529	-0.031804238
6	0xbd271ebd	-0.0408008
7	0x3e14ac8b	0.14518945
8	0x3df2ffc0	0.11865187
9	0x3c4a88fb	0.01236176
10	0x3d84d842	0.064865604
11	0xbd5d8535	-0.054082114
12	0xbe0a2347	-0.1349002
13	0xbe68a375	-0.22718604
14	0xbd168ee1	-0.036757354
15	0x3ca8493d	0.020542735
16	0x3d906e7c	0.07052323
17	0xbe97c13d	-0.29639617
18	0x3dfd96f2	0.12382306
19	0xbdb4af51	-0.088225015
20	0x3d67865b	0.056524616
21	0xbe954303	-0.29152688
22	0xbdb0e0b8	-0.08636612
23	0xbd189fe2	-0.03726185
24	0xbdbed99f	-0.09318852
25	0xbe76c92d	-0.2410018
26	0xbcdf1949	-0.027233737
27	0x3dfd7e8a	0.12377651
28	0x3bda73bb	0.006666628
29	0xbd99d682	-0.07511617
30	0xbe5f6cee	-0.21818897
31	0xbd90afe3	-0.07064798
32	0xbca2235f	-0.019792257
33	0x3d8fde89	0.07024867
34	0xbda74a2a	-0.081684425
35	0xbe1aa747	-0.15102874
36	0xbd0a9b45	-0.033839483
37	0x3def6832	0.116897956
38	0xbcdb3570	-0.02675888
39	0xbdb5b4f5	-0.088724054
40	0x3c882847	0.016620768
41	0x3ddf0cc4	0.10891107
42	0xbdf6f155	-0.12057749
43	0x3d7d20bb	0.061798792
44	0x3aeca2b0	0.0018053856
45	0xbe2de7b4	-0.16982919
46	0xbd3da691	-0.04630143
47	0xbd621822	-0.055198796
48	0x39462f26	0.00018900316
49	0xbd467848	-0.048454553
50	0x3d61b4b6	0.05510398
51	0xbe03a475	-0.12855704
52	0xbc857706	-0.016292106
53	0xbd52563b	-0.051351767
54	0x3dfbed62	0.123011366
55	0x3e47a83e	0.19497773
56	0x3e02992e	0.12753746
57	0xbcf3a96d	-0.029743874
58	0xbd003fba	-0.031310774
59	0xbda800ca	-0.082032755
60	0x3e1655de	0.14681193
61	0xbddea657	-0.108715706
62	0xbd071ec0	-0.03298831
63	0xbcd8faba	-0.026486743
64	0xbd312f03	-0.043257724
65	0xbde30a8b	-0.11085995
66	0x3d74db07	0.059779193
67	0x3d9530ea	0.0728472
68	0xbccced8e	-0.025015619
69	0x3db61c22	0.08892085
70	0xbe8fcbfe	-0.2808532
71	0xbcde8bd8	-0.027166292
72	0x3be7c4bb	0.0070730126
73	0xbe2bd379	-0.16779889
74	0xbc92eefa	-0.017936219
75	0xbcd8017e	-0.026367899
76	0x3d1d0a7b	0.038340073
77	0xbd881774	-0.06645098
78	0x3de9aca6	0.11409883
79	0xbc07b8e7	-0.00828383
80	0xbe131fc0	-0.1436758
81	0xbacefa08	-0.0015791068
82	0x3cfba692	0.030719075
83	0x3d71218d	0.058869887
84	0x3e158fd4	0.14605647
85	0xbd613c41	-0.054989103
86	0xbe6eb68c	-0.23311824
87	0xbd880c5c	-0.06642982
88	0xbdb7769f	-0.08958172
89	0xbd60c39a	-0.05487404
90	0xbce1e0f9	-0.027573096
91	0xbc5a1396	-0.013310334
92	0x3d5b5ee9	0.05355731
93	0xbaffb418	-0.0019508628
94	0xbdd3d09e	-0.10342525
95	0xbd9ab924	-0.07554844
96	0x3deb442b	0.114876114
97	0x3dc1252d	0.09430919
98	0xbd66089f	-0.056160565
99	0xbbaeb6f9	-0.0053318706
100	0xbe6d06f7	-0.23147188
101	0x3d94d639	0.07267422
102	0xbc818ef3	-0.015815234
103	0xbcf83b3f	-0.030301688
104	0xbce1ba60	-0.02755469
105	0xbd1e100c	-0.038589522
106	0x3e047b8f	0.12937759
107	0xbda8dab9	-0.08244843
108	0xbe8f0f0c	-0.27941167
109	0x3e0eb77c	0.13937181
110	0xbb82f0b0	-0.0039959773
111	0xbdaaa163	-0.08331563
112	0xbd6de7ca	-0.05808238
113	0xbc8d74e9	-0.017267661
114	0xbd52fbef	-0.051509794
115	0xbe8793e0	-0.26480007
116	0xbc0b9d1f	-0.008521347
117	0xbe1bdc54	-0.15220767
118	0xbe3ced60	-0.18449926
119	0xbe51ce64	-0.20488888
120	0xbd8bd682	-0.068280235
121	0xbcacec5b	-0.021108797
122	0x3d871bb1	0.065970786
123	0xbe05b1ab	-0.13056056
124	0xbd12bf91	-0.035827223
125	0x3b949020	0.0045337826
126	0xbda7c3dd	-0.08191655
127	0x3c6519e1	0.013983221
128	0xbe36a090	-0.17834687
129	0x3e8c7212	0.2743078
130	0x3d36ecc9	0.04465941
131	0xbcf3ad51	-0.02974573
132	0x3dd36cd7	0.10323494
133	0xbd262ff2	-0.040573068
134	0x3d3b893b	0.04578517
135	0xbda0ec6c	-0.07857594
136	0x3e6593e4	0.22419697
137	0xbe5f8116	-0.21826586
138	0x3dfc733e	0.12326668
139	0xbd1811a5	-0.037126202
140	0xbe1f3d51	-0.15550734
141	0xbdc6d9ba	-0.09709497
142	0x3dda0794	0.10645977
143	0x3dbe1bfb	0.092826806
144	0x3d0a4f45	0.033767004
145	0x3d08ad7b	0.03336857
146	0xbd35f59e	-0.044423692
147	0xbd001a5a	-0.03127513
148	0xbc885fb3	-0.016647195
149	0xbe3cf0d3	-0.18451242
150	0x3d127ecb	0.03576545
151	0x3e0404f3	0.12892513
152	0xbccda0da	-0.025101114
153	0xbe549392	-0.20759419
154	0x3dfc2a67	0.12312775
155	0x3e84379d	0.2582368
156	0x3dec7822	0.11546351
157	0xbe673034	-0.22576982
158	0xbdd2256c	-0.10261044
159	0xbe4463dd	-0.1917872
160	0x3d172159	0.036897037
161	0xbb6709db	-0.0035253677
162	0x3d445ee0	0.047942042
163	0xbe7912b4	-0.24323541
164	0x3dba96a8	0.09110767
165	0xbbb58543	-0.0055395677
166	0xbd5799c2	-0.05263687
167	0xbdcbbcf4	-0.09948149
168	0xbba65ca7	-0.005076963
169	0x3dad350e	0.08457385
170	0x3d544e8f	0.05183273
171	0x3ded93a1	0.116004236
172	0x3d5c54ed	0.05379193
173	0xbd968d7a	-0.07351203
174	0xbe25e830	-0.16201854
175	0x3e1903aa	0.14942804
176	0xbe0c71ed	-0.13715334
177	0x3dd860de	0.10565351
178	0xbe14d116	-0.14532885
179	0xbe89755a	-0.26847345
180	0x3bb4c966	0.0055171726
181	0x3e5eb286	0.21747789
182	0xbcdeb785	-0.027187118
183	0x3e1835de	0.14864299
184	0xbd8b9958	-0.068163574
185	0xbe007624	-0.12545067
186	0xbd109991	-0.035302702
187	0x3d5351be	0.051591627
188	0x3ceb2bba	0.028707374
189	0xbe14daa1	-0.14536525
190	0xbdd64184	-0.10461715
191	0x3d8a6ac6	0.06758647
192	0xbd239620	-0.039938092
193	0xbe303d93	-0.17210989
194	0x3e0501c2	0.12988952
195	0x3dcda718	0.10041636
196	0x3e25441d	0.16139264
197	0xbcf0c004	-0.029388435
198	0x3ceb25e4	0.028704591
199	0x3dea9893	0.114548825
200	0xbe0fcf23	-0.1404386
201	0x3d972efe	0.0738201
202	0x3e3236e3	0.1740375
203	0x3d95712e	0.07296978
204	0x3e483722	0.19552281
205	0xbdef9ffa	-0.11700435
206	0xbdaba423	-0.08380916
207	0x3e31aa16	0.17350039
208	0x3dfb4ec0	0.1227088
209	0x3dd3b1f8	0.10336679
210	0x3dcfbde2	0.10143639
211	0xbdb2b993	-0.08726802
212	0xbe0893ad	-0.13337584
213	0xbd85f4b1	-0.06540812
214	0xbd0903fa	-0.033451058
215	0xbc8ebc30	-0.01742372
216	0xbdf3c651	-0.1190306
217	0x3e468664	0.19387203
218	0x3deb07de	0.1147611
219	0xbdb3f444	-0.08786824
220	0xbca46ac3	-0.02007044
221	0x3e177103	0.14789204
222	0xbe1591d2	-0.14606407
223	0x3e032718	0.12807882
224	0xbe17f103	-0.14838032
225	0xbcf1cc62	-0.029516403
226	0xbe26ae10	-0.16277337
227	0xbd25fc66	-0.04052391
228	0x3e145c6c	0.14488381
229	0xbc574c84	-0.013140801
230	0xbdc4c0a1	-0.096070535
231	0x3c5284eb	0.012849073
232	0x3e1b25b2	0.15151098
233	0xbdcd8438	-0.10034984
234	0xbd7ed018	-0.062210172
235	0x3d6167a4	0.05503048
236	0xbdf61cb1	-0.12017191
237	0xbe0a363d	-0.13497253
238	0x3d65da9b	0.05611668
239	0xbde26920	-0.11055207
240	0x3e09066d	0.13381357
241	0x3baa18c5	0.005190941
242	0xbd455f0f	-0.048186358
243	0x3cdf9ff2	0.027297948
244	0xbd096d30	-0.033551395
245	0xba5bad79	-0.00083800365
246	0xbe38f8b1	-0.18063618
247	0x3a321ad2	0.00067941577
248	0x3de5d684	0.11222556
249	0xbd4fc199	-0.05072174
250	0xbdd08f86	-0.10183625
251	0x3da5b1f3	0.08090582
252	0x3be4db1b	0.006984127
253	0xbd460e4e	-0.048353486
254	0x3d2242ef	0.039614614
255	0x3d129e26	0.035795353

network_body._body_endoder.seq_layers.2.bias f4 [128]
0	0xbd12dc4b	-0.03585462
1	0xbd84c914	-0.06483665
2	0xbe17434a	-0.14771762
3	0xbdb1bf90	-0.08679116
4	0xbd8f6e2b	-0.07003435
5	0xbdc475bf	-0.09592771
6	0xbcb9b0a3	-0.022667235
7	0xbdaee781	-0.085402496
8	0xbe22a9bc	-0.15885061
9	0xbde7706a	-0.11300738
10	0xbbb8dfba	-0.0056419047
11	0xbd8bf4f8	-0.068338335
12	0xbccffb09	-0.025388258
13	0xbe141070	-0.14459395
14	0xbdb32251	-0.0874678
15	0xbe0a919b	-0.13532107
16	0xbe0d6678	-0.1380862
17	0xbdf88869	-0.12135393
18	0xbe1d8946	-0.15384397
19	0xbc83aec5	-0.016074548
20	0xbd3d4be2	-0.046214946
21	0xbdf4e91f	-0.11958527
22	0xbe033886	-0.1281453
23	0xbca7fd6b	-0.020506581
24	0x3c8c6804	0.017139442
25	0xbe0a0f25	-0.1348234
26	0xbe00fc8e	-0.12596342
27	0xbce57274	-0.028008677
28	0xbc0d8c10	-0.0086393505
29	0xbdde38c0	-0.10850668
30	0xbda9615b	-0.08270522
31	0xbdd0b27a	-0.10190292
32	0xbdf62537	-0.12018817
33	0xbda57811	-0.080795415
34	0xbd69bbac	-0.057063743
35	0x3d415397	0.047198858
36	0xbdd15716	-0.102216884
37	0xbe1b5fce	-0.15173265
38	0xbe1ccacc	-0.15311736
39	0xbde5abc1	-0.112144
40	0xbe10d884	-0.14145094
41	0xbccf9820	-0.025341094
42	0xbe08bf2b	-0.13354175
43	0xbdb497d3	-0.08818021
44	0xbe06a0a4	-0.13147217
45	0xbcf5e95e	-0.030018505
46	0xbd593200	-0.0530262
47	0xbda490eb	-0.080354534
48	0xbdacbad5	-0.08434073
49	0xbd9dd2ba	-0.077062085
50	0xbca35280	-0.0199368
51	0xbe14df6a	-0.1453835
52	0xbe2bebc1	-0.16789152
53	0xbe1f0ab0	-0.1553142
54	0xbd29f7d9	-0.04149613
55	0xbe1dbf4e	-0.15405008
56	0xbdebf73d	-0.11521766
57	0xbda92cec	-0.08260521
58	0xbe0d4019	-0.13793983
59	0xbe167a8c	-0.14695185
60	0xbd86d64a	-0.06583841
61	0xbd9891e0	-0.074496984
62	0xbd10d5c2	-0.035360105
63	0xbd01b9c1	-0.03167129
64	0x3d163586	0.036672138
65	0xbdf487bb	-0.11939951
66	0x3c84642d	0.016161049
67	0x3d236f1d	0.039900888
68	0xbdc68a0f	-0.09694301
69	0xbb90af86	-0.0044154553
70	0xbe1727db	-0.14761297
71	0xbdcfd8d9	-0.10148782
72	0xbdc86eca	-0.09786756
73	0xbdd09aed	-0.101858
74	0x3ca9994a	0.020702977
75	0xba53c7fe	-0.00080788124
76	0xbd47da28	-0.048792034
77	0xbcb12b59	-0.021627115
78	0xbdf7692a	-0.12080605
79	0xbda90a21	-0.08253885
80	0xbdc48a6c	-0.095967144
81	0xbc8521be	-0.016251441
82	0xbe005a3d	-0.12534423
83	0xbe014ee6	-0.12627754
84	0xbdb6ea67	-0.089314274
85	0xbe4a3d87	-0.19750033
86	0x3d179e6f	0.03701633
87	0x3cc909fe	0.024540897
88	0x3bb140b8	0.0054093264
89	0xbc524cb3	-0.012835669
90	0xbe17f9c3	-0.1484137
91	0xbd1c0f0e	-0.038100295
92	0x3d2422a0	0.040072083
93	0x3d80bb71	0.062857516
94	0xbd078581	-0.033086304
95	0xbd8505da	-0.06495257
96	0xbdd864d6	-0.10566108
97	0xbd80ca17	-0.062885456
98	0xbd078fc8	-0.033096105
99	0xbdd7ac87	-0.10530954
100	0xbdf10cc9	-0.11770017
101	0xbdc4ca44	-0.096088916
102	0xbdb19ea6	-0.08672838
103	0xbcb968bb	-0.022632947
104	0xbe5ad47f	-0.21370123
105	0x3bd0564d	0.006357944
106	0xbd0bd1f8	-0.03413579
107	0xbd08bbdf	-0.033382293
108	0xbe0ed8d6	-0.13949904
109	0xbe3dc851	-0.18533446
110	0xbe28af5d	-0.16473146
111	0x3b38b0ce	0.0028181556
112	0xbdaa7334	-0.083227545
113	0xbe4a3c71	-0.19749619
114	0xbe0cbfc0	-0.13745022
115	0xbdaad239	-0.08340878
116	0xbd9d5a30	-0.076832175
117	0xbdf06702	-0.11738397
118	0xbd1e1a07	-0.03859904
119	0xbd147fd1	-0.036254708
120	0xbc0d7f61	-0.0086363265
121	0xbe4a0aa8	-0.19730628
122	0xbdb38259	-0.08765096
123	0xbe00d5df	-0.12581585
124	0xbc613f00	-0.0137479305
125	0xbd221321	-0.039569024
126	0xbd87c7c3	-0.066298984
127	0xbcde1dd1	-0.027113827

action_model._continuous_distribution.log_sigma f4 [1, 2]
0	0xbe849574	-0.25895274
1	0xbc6b030f	-0.014343991

action_model._continuous_distribution.mu.weight f4 [2, 128]
0	0x3d6b4305	0.05743696
1	0x3dbf0d4c	0.09328708
2	0x3d04e468	0.032444388
3	0x3d61f5dd	0.055166114
4	0x3d2695ef	0.04067033
5	0x3c91651d	0.01774841
6	0x3c58af4b	0.013225387
7	0x3d0adaf6	0.033900224
8	0x3d3c179d	0.045920957
9	0x3ce935a9	0.02846797
10	0x3db05fa6	0.086119935
11	0x3cf11885	0.029430637
12	0xbc994663	-0.01871032
13	0x3d2a0b8d	0.041514922
14	0xb9b63a83	-0.0003475734
15	0x3d393e6a	0.04522554
16	0x3d2c53ae	0.04207199
17	0x3d5022d0	0.05081445
18	0x3d0db843	0.034599554
19	0x3d0d305e	0.034469955
20	0xbb94deea	-0.004543175
21	0x3d90699b	0.07051393
22	0x3d7fc5ac	0.062444374
23	0x3c4174dd	0.0118076475
24	0x3c27ad37	0.010234169
25	0x3d02b0d5	0.03190692
26	0x3d833404	0.064064056
27	0x3cda9a61	0.026684942
28	0x3c611218	0.013737224
29	0x3d6ad77e	0.057334416
30	0x3d777003	0.060409557
31	0x3da1c3eb	0.078986965
32	0x3d16fb5c	0.03686081
33	0xbb2f67c1	-0.0026764723
34	0x3da29776	0.07939045
35	0xbc8cc922	-0.017185751
36	0x3d14c4b2	0.036320396
37	0x3d142ad4	0.036173657
38	0x3d867b45	0.065664805
39	0x3d644fc2	0.055740125
40	0x3d6bdb3d	0.05758213
41	0xbd020489	-0.031742606
42	0x3d61755e	0.05504357
43	0x3cfa79da	0.030575681
44	0x3d1db7c4	0.03850533
45	0xbd5d4b3a	-0.05402682
46	0x3d9d220f	0.07672512
47	0x3d7c5c91	0.061611716
48	0x3d7d7d2d	0.061886955
49	0x3d902c5c	0.07039711
50	0xbcaa0f6c	-0.020759307
51	0x3d0e93fe	0.034809105
52	0x3d2725e5	0.040807623
53	0x3d673f04	0.05645658
54	0x3bb83bcb	0.0056223623
55	0x3d8d315b	0.068941794
56	0x3d34c061	0.04412878
57	0x3dba31cc	0.09091529
58	0x3d27e517	0.04098996
59	0x3d2bf9ce	0.04198628
60	0xbc58f55f	-0.013242095
61	0x3d6b26fd	0.05741023
62	0x3d6a6cff	0.057232853
63	0xbc97c43c	-0.018526189
64	0x3d99216f	0.0747708
65	0x3c5c9183	0.013462427
66	0xbd1c748f	-0.038197096
67	0xbd172e44	-0.036909357
68	0x3df53121	0.11972261
69	0x3d1322bc	0.035921797
70	0x3cc8d918	0.02451758
71	0x3cac1d39	0.021010028
72	0x3dd4632e	0.103704795
73	0x3d93a276	0.07208721
74	0x3d2e46a5	0.04254784
75	0xbc6891f1	-0.014194951
76	0x3db436b0	0.08799493
77	0xb8f482db	-0.000116592004
78	0x3d781924	0.06057085
79	0x3d69b35b	0.057055812
80	0x3d5ec63f	0.05438828
81	0x3c4b240f	0.012398734
82	0x3cc10206	0.023560535
83	0x3d246a98	0.04014072
84	0xbca115e0	-0.019663751
85	0xbd06ca54	-0.0329078
86	0x3d54820a	0.051881827
87	0xbb0908ef	-0.0020909866
88	0xba5364fe	-0.000806406
89	0x3b1175d9	0.0022195487
90	0x3d664db9	0.056226466
91	0xbbd460f5	-0.0064812847
92	0x3c30d3ac	0.010792654
93	0xbcaf663c	-0.021411054
94	0x39d173dd	0.0003994991
95	0x3dba470b	0.090955816
96	0x3bab0dfa	0.005220172
97	0x3cedd4ed	0.029032195
98	0x3c0a82a5	0.008454
99	0x3d53da8f	0.051722106
100	0x3d939d6d	0.07207761
101	0x3d8ca7c8	0.06867939
102	0x3d5bf185	0.053697128
103	0xbd1c2d22	-0.03812898
104	0x3bf8510c	0.007578021
105	0x3d9b029d	0.07568858
106	0x3dbf88e9	0.093522854
107	0x3d9e171b	0.07719251
108	0x3d0c322f	0.034227546
109	0x3c867194	0.01641158
110	0x3d123621	0.035696153
111	0x3ce380df	0.027771411
112	0x3bf32883	0.007420601
113	0x3d96ef55	0.07369868
114	0x3d93657c	0.07197091
115	0x3db67b1d	0.08910201
116	0x3e068e25	0.13140161
117	0x3cee6889	0.02910258
118	0x3cf747be	0.030185577
119	0x3ba99156	0.005174796
120	0xbc3cc2cd	-0.0115210535
121	0x3d03448d	0.032047797
122	0x3da71398	0.08158034
123	0xbc2298a9	-0.009924092
124	0x3d491bd3	0.0490988
125	0x3d81209d	0.063050486
126	0x3d27ef43	0.040999662
127	0x3c8c852b	0.017153343
128	0xbbb964ce	-0.005657769
129	0x3d81fbf2	0.06346883
130	0x3cf1a732	0.02949867
131	0xbc4b055d	-0.012391415
132	0xbd0b0121	-0.033936623
133	0x3c74e912	0.014948146
134	0x3d6b6cc6	0.05747678
135	0xbd061d5f	-0.032742854
136	0xbd2154fe	-0.039387695
137	0x3cbc9f45	0.023025164
138	0x3d7abbee	0.06121438
139	0x3c26eb4f	0.010187938
140	0x3d997389	0.0749274
141	0xbcfd99cf	-0.03095713
142	0xbd06ec8d	-0.032940436
143	0x3c0d6ca8	0.008631863
144	0x3ca8c1f2	0.020600293
145	0xbcf82f09	-0.030295866
146	0xbce56b19	-0.02800517
147	0x3d8944a5	0.06702546
148	0x3cd59e27	0.02607639
149	0x3ca3f0e8	0.020012334
150	0xbd06045a	-0.032718994
151	0x3cdccced	0.026953185
152	0x3daf9a24	0.08574322
153	0x3c321bef	0.010870918
154	0xbcf54a36	-0.029942613
155	0x3d414bf4	0.047191575
156	0x3d6ecead	0.05830257
157	0x3bb3c2a3	0.005485849
158	0x3d45850b	0.048222583
159	0x3d6f9737	0.05849382
160	0x3d91ccef	0.07119166
161	0xbd22f31b	-0.039782625
162	0x3cae86c1	0.02130449
163	0xbd99ccb4	-0.07509747
164	0xbb970533	-0.004608774
165	0xbc5e4188	-0.013565429
166	0x3d2feff9	0.042953465
167	0xbd1d3131	-0.03837699
168	0x3cd2ae7b	0.025717964
169	0x3c54238b	0.012947927
170	0xbb9b54d9	-0.0047403392
171	0x3d8dff6a	0.06933482
172	0xbd127050	-0.03575164
173	0x3d149ba0	0.036281228
174	0xbd885d4c	-0.0665842
175	0xbce1991a	-0.027538825
176	0x3d9f4f8d	0.07778845
177	0x3d6f55b3	0.05843134
178	0x3dc7ed5c	0.097620696
179	0x3d12dd52	0.0358556
180	0x3b55bf2c	0.0032615168
181	0xbc908afe	-0.017644402
182	0x3d8ec156	0.0697047
183	0x3d01e751	0.03171474
184	0x3cdfa0a7	0.027298285
185	0xbd235549	-0.039876256
186	0xbd0204ef	-0.031742986
187	0xbca41350	-0.02002874
188	0x3d5e5755	0.054282505
189	0xbd2b2b4d	-0.04178934
190	0x3d04e7e3	0.032447707
191	0x3d3d1d98	0.0461708
192	0x3cfb263c	0.03065788
193	0xbb223ee1	-0.0024756717
194	0x3d209b2c	0.039210483
195	0x3ca70941	0.020390155
196	0xbd74f5f6	-0.05980488
197	0xbdbf5d6a	-0.09343989
198	0xbc33b0f9	-0.010967487
199	0x3d3f9dbc	0.046781287
200	0xbcc087b3	-0.023502206
201	0x3cff1593	0.031138217
202	0x3dc55e53	0.096371315
203	0x3db98d45	0.09060148
204	0x3cadcf25	0.021216938
205	0x3cbbaeff	0.022910593
206	0x3cb090c0	0.021553397
207	0x3cf67da5	0.030089209
208	0xbc9a3620	-0.018824637
209	0x3d45bbe3	0.048274886
210	0xbc1922e4	-0.0093466975
211	0x38e98338	0.00011134747
212	0x3ce201f4	0.027588822
213	0xbd08daa0	-0.033411622
214	0xbd076dfd	-0.033063877
215	0x3df0125d	0.117222525
216	0x3d31c12c	0.043397114
217	0xbd05ff10	-0.03271395
218	0xbcf1e971	-0.029530259
219	0xbd1e5ec8	-0.03866461
220	0x3cea47ab	0.028598627
221	0x3c4902de	0.01226875
222	0xbade6754	-0.001696805
223	0xbc62e070	-0.013847455
224	0xbcce76e1	-0.02520317
225	0xbd505b9c	-0.050868616
226	0xbc30f6d6	-0.010801038
227	0xbd9556c6	-0.07291941
228	0x3d39d1b0	0.04536599
229	0x3b9ff53c	0.004881529
230	0x3d65da4b	0.056116384
231	0xbd955e80	-0.07293415
232	0xbc6bfb92	-0.014403241
233	0x3d1f600f	0.038909968
234	0x3d658278	0.056032628
235	0xbc78babf	-0.0151812425
236	0x3ccb80c1	0.024841668
237	0xbd301c19	-0.042995546
238	0x3a9d5e5b	0.001200627
239	0x3dd9637b	0.106146775
240	0x3d2a9867	0.04164925
241	0x3c90a0ee	0.017654862
242	0x3d233772	0.0398478
243	0xbc83e683	-0.016101127
244	0x3c72f5f9	0.014829152
245	0x3cddfa5c	0.02709692
246	0x3d908afe	0.07057761
247	0x3cbacad5	0.022801796
248	0xbd694b96	-0.05695685
249	0xbcb0dcd3	-0.021589672
250	0x3ccd4f65	0.025062272
251	0xba966677	-0.0011474629
252	0x3d940e4d	0.0722929
253	0x3b7f97f5	0.0039000486
254	0x3bb47bcb	0.0055079213
255	0x3dc0d1b3	0.09414997

action_model._continuous_distribution.mu.bias f4 [2]
0	0xbccd45ae	-0.02505764
1	0x3d9439c6	0.07237582

exp_avg f4 [128, 149]
0	0x00000000	0.0
1	0x34db457c	4.0842485e-07
2	0x208179d5	2.1934072e-19
3	0x89fe91e6	-6.1285478e-33
4	0x3322537f	3.7794504e-08
5	0x00000000	0.0
6	0x34db457c	4.0842485e-07
7	0x21328fb5	6.049894e-19
8	0x89bdc109	-4.5681624e-33
9	0x33278aa2	3.9008803e-08
10	0x00000000	0.0
11	0x34db457c	4.0842485e-07
12	0x20dcfb96	3.7435935e-19
13	0x89bdc109	-4.5681624e-33
14	0x33278a98	3.9008768e-08
15	0x00000000	0.0
16	0x34db457c	4.0842485e-07
17	0x2027b0a2	1.4203893e-19
18	0x80000009	-1.3e-44
19	0x33390b31	4.3083848e-08
20	0x00000000	0.0
21	0x34db457c	4.0842485e-07
22	0x00000004	6e-45
23	0x2101bf7e	4.396034e-19
24	0x333900ae	4.3074287e-08
25	0x00000000	0.0
26	0x34db457c	4.0842485e-07
27	0x2092a0a3	2.4839663e-19
28	0x8dd27cae	-1.2972265e-30
29	0x335dc502	5.163475e-08
30	0x00000000	0.0
31	0x34db457c	4.0842485e-07
32	0x80000004	-6e-45
33	0xa1e91cce	-1.5796319e-18
34	0x335df3e1	5.167738e-08
35	0x00000000	0.0
36	0x34da3aec	4.0648536e-07
37	0x31054721	1.939448e-09
38	0x00000000	0.0
39	0x32be4912	2.215214e-08
40	0x00000000	0.0
41	0x34dc62f0	4.105018e-07
42	0xb10eb616	-2.0767223e-09
43	0x00000000	0.0
44	0x32401d4c	1.1182532e-08
45	0x00000000	0.0
46	0x34dc5bc0	4.104495e-07
47	0xb10b2253	-2.0246673e-09
48	0x00000000	0.0
49	0x32c816f8	2.329351e-08
50	0x00000000	0.0
51	0x34db739c	4.0876046e-07
52	0xafb8990c	-3.357815e-10
53	0x00000000	0.0
54	0x3148cc28	2.921988e-09
55	0x00000000	0.0
56	0x34da47dc	4.065795e-07
57	0x30deadcb	1.6202021e-09
58	0x00000000	0.0
59	0x32ce5491	2.4020013e-08
60	0x00000000	0.0
61	0x34dbf82c	4.0972498e-07
62	0xb0b2b155	-1.3001605e-09
63	0x80000004	-6e-45
64	0x2fdf7300	4.0645176e-10
65	0x00000000	0.0
66	0x34cb518c	3.787103e-07
67	0x329c372b	1.8185878e-08
68	0x32461038	1.1528805e-08
69	0x32c777c3	2.322111e-08
70	0x00000000	0.0
71	0x2119d907	5.212565e-19
72	0x2e9746f1	6.879287e-11
73	0x34db3bfc	4.0835573e-07
74	0x34db3fec	4.0838438e-07
75	0x00000000	0.0
76	0x34cbcd14	3.796091e-07
77	0xb2c88b93	-2.3346535e-08
78	0x33601d5f	5.2180777e-08
79	0x33a9fc50	7.915571e-08
80	0x00000000	0.0
81	0x32b3822d	2.089754e-08
82	0x32062165	7.80742e-09
83	0x34cbdc5c	3.797203e-07
84	0x34cf07d0	3.856244e-07
85	0x00000000	0.0
86	0x34be6fc4	3.5471578e-07
87	0x319c2675	4.5445696e-09
88	0x3353292e	4.916472e-08
89	0x3358ec18	5.0506145e-08
90	0x00000000	0.0
91	0x33089cf1	3.1807705e-08
92	0x0c8b8a56	2.14996e-31
93	0x34a28c18	3.0276783e-07
94	0x34b164c0	3.3042124e-07
95	0x00000000	0.0
96	0x34cfa49c	3.8676524e-07
97	0xb1b2d886	-5.2050977e-09
98	0x32e6c48a	2.68649e-08
99	0x3348dd0e	4.6767177e-08
100	0x00000000	0.0
101	0x32b0cb4f	2.058155e-08
102	0x8c99067a	-2.357728e-31
103	0x34e1c884	4.205541e-07
104	0x34d7d378	4.0200734e-07
105	0x00000000	0.0
106	0xb3d9d061	-1.0142754e-07
107	0x3508dcca	5.098524e-07
108	0x00000000	0.0
109	0x348bddf4	2.605226e-07
110	0x00000000	0.0
111	0x34db457c	4.0842485e-07
112	0x80000004	-6e-45
113	0x00000000	0.0
114	0x349dd0a4	2.9395335e-07
115	0x00000000	0.0
116	0x34db457c	4.0842485e-07
117	0x80000004	-6e-45
118	0x00000000	0.0
119	0x32eca670	2.7549703e-08
120	0x00000000	0.0
121	0x34db457c	4.0842485e-07
122	0x80000004	-6e-45
123	0x00000000	0.0
124	0x34ae4328	3.2458888e-07
125	0x00000000	0.0
126	0x34db457c	4.0842485e-07
127	0x8d0d7aa3	-4.35966e-31
128	0x00000000	0.0
129	0x3273be40	1.4187719e-08
130	0x00000000	0.0
131	0xb53c9452	-7.025129e-07
132	0x80000004	-6e-45
133	0x35951eba	1.1110308e-06
134	0x34ccbb48	3.8134226e-07
135	0x00000000	0.0
136	0x34db457c	4.0842485e-07
137	0x80000004	-6e-45
138	0x8e40d43c	-2.3768014e-30
139	0x3236e7d8	1.06465095e-08
140	0x37924602	1.7437156e-05
141	0x34548de0	1.9795652e-07
142	0x00000000	0.0
143	0x377022c8	1.4313213e-05
144	0x36fb2c90	7.4855707e-06
145	0x00000000	0.0
146	0x37cc1010	2.4326175e-05
147	0x34fc5290	4.699873e-07
148	0x00000000	0.0
149	0x00000000	0.0
150	0xb8cd687a	-9.794622e-05
151	0x240634d6	2.9101372e-17
152	0x8fff3964	-2.5167047e-29
153	0xb3df3621	-1.0394093e-07
154	0x00000000	0.0
155	0xb8cd687a	-9.794622e-05
156	0x24ab78b4	7.436391e-17
157	0x8f426458	-9.584264e-30
158	0xb3e661e3	-1.0728015e-07
159	0x00000000	0.0
160	0xb8cd687a	-9.794622e-05
161	0x271d7350	2.1850638e-15
162	0x8f426458	-9.584264e-30
163	0xb3e6621c	-1.07280556e-07
164	0x00000000	0.0
165	0xb8cd687a	-9.794622e-05
166	0x22aa01cd	4.60805e-18
167	0x80000004	-6e-45
168	0xb4009cf4	-1.1978028e-07
169	0x00000000	0.0
170	0xb8cd687a	-9.794622e-05
171	0x80000004	-6e-45
172	0xa60a89c3	-4.806507e-16
173	0xb3fe64e4	-1.18461486e-07
174	0x00000000	0.0
175	0xb8cd687a	-9.794622e-05
176	0xa1be86da	-1.2910596e-18
177	0x10bad179	7.368681e-29
178	0xb40d59b0	-1.3164276e-07
179	0x00000000	0.0
180	0xb8cd687a	-9.794622e-05
181	0x80000004	-6e-45
182	0x24bba726	8.138148e-17
183	0xb4189a1e	-1.421217e-07
184	0x00000000	0.0
185	0xb7297ca1	-1.0102202e-05
186	0xb8b838e4	-8.7844004e-05
187	0x00000000	0.0
188	0x36966ad4	4.482785e-06
189	0x00000000	0.0
190	0x38dc0be2	0.00010492631
191	0xb954ba2c	-0.0002028725
192	0x00000000	0.0
193	0x3691b5a8	4.3424843e-06
194	0x00000000	0.0
195	0x387f359d	6.084667e-05
196	0xb92681a3	-0.00015879287
197	0x00000000	0.0
198	0x384f55b8	4.9432478e-05
199	0x00000000	0.0
200	0xb81d11c6	-3.744827e-05
201	0xb87dbf2a	-6.0497936e-05
202	0x00000000	0.0
203	0xb46244c0	-2.1072901e-07
204	0x00000000	0.0
205	0x371a8d98	9.212083e-06
206	0xb8e0c9a9	-0.000107187145
207	0x00000000	0.0
208	0x375018c8	1.2403536e-05
209	0x00000000	0.0
210	0x38815b1f	6.168172e-05
211	0xb92761cb	-0.00015962792
212	0x00000004	6e-45
213	0xb4e094c0	-4.183148e-07
214	0x00000000	0.0
215	0xb6c0347e	-5.728157e-06
216	0xb91e792f	-0.00015113199
217	0x38771a5e	5.8913945e-05
218	0x38662c4e	5.4877535e-05
219	0x00000000	0.0
220	0x26af17ac	1.2149481e-15
221	0xb490d73a	-2.6978688e-07
222	0xb8ccd7a3	-9.7676435e-05
223	0xb8cd01ea	-9.775518e-05
224	0x00000000	0.0
225	0xb6c9754e	-6.003923e-06
226	0x3612b3ef	2.186043e-06
227	0xb8c587a2	-9.4189556e-05
228	0xb8c52e9b	-9.402373e-05
229	0x00000000	0.0
230	0xb8bdf68f	-9.0581474e-05
231	0xb5894e68	-1.0230115e-06
232	0xb6d4cb0a	-6.341729e-06
233	0xb771b722	-1.4407358e-05
234	0x00000000	0.0
235	0xb67e0291	-3.7850443e-06
236	0xb51c8a47	-5.831575e-07
237	0xb8c43f4f	-9.3578004e-05
238	0xb8c1c348	-9.239331e-05
239	0x00000000	0.0
240	0xb8c07783	-9.177534e-05
241	0x947fc170	-1.2912359e-26
242	0xb6db00b4	-6.5267905e-06
243	0xb7321838	-1.0615266e-05
244	0x00000000	0.0
245	0xb6f1af64	-7.202778e-06
246	0x357b7be2	9.368506e-07
247	0xb8c0447a	-9.168028e-05
248	0xb8c23f89	-9.262475e-05
249	0x00000000	0.0
250	0xb8c03e24	-9.166848e-05
251	0x954c6023	-4.127331e-26
252	0xb678f5db	-3.7097986e-06
253	0xb6f52924	-7.3063584e-06
254	0x00000000	0.0
255	0xb8cb5f5f	-9.6975586e-05

exp_avg_sq f4 [128, 149]
0	0x00000000	0.0
1	0x319031fd	4.1966346e-09
2	0x2fc85f3f	3.6447464e-10
3	0x312a0cfa	2.4745632e-09
4	0x31499e71	2.9339413e-09
5	0x00000000	0.0
6	0x31d8888a	6.30195e-09
7	0x2fdc0307	4.0019918e-10
8	0x2f989993	2.775776e-10
9	0x30805d52	9.339749e-10
10	0x00000000	0.0
11	0x319db1d7	4.5895194e-09
12	0x2e3f644c	4.3517454e-11
13	0x3129a074	2.4683944e-09
14	0x313956f6	2.6970475e-09
15	0x00000000	0.0
16	0x31ebc517	6.8618067e-09
17	0x2de4d571	2.6015386e-11
18	0x2f8f5462	2.6071506e-10
19	0x30376314	6.671581e-10
20	0x00000000	0.0
21	0x319e5923	4.608539e-09
22	0x2e10aa4d	3.2893067e-11
23	0x31289f75	2.4537858e-09
24	0x3130071d	2.5615414e-09
25	0x00000000	0.0
26	0x31f3ce18	7.095661e-09
27	0x2d1b253c	8.818998e-12
28	0x2f10b9a6	1.3162679e-10
29	0x30323b1b	6.4840017e-10
30	0x00000000	0.0
31	0x31ab606c	4.987717e-09
32	0x2def3503	2.7194696e-11
33	0x30d8aa44	1.5764461e-09
34	0x3128d70c	2.4569458e-09
35	0x00000000	0.0
36	0x31eeb67f	6.947459e-09
37	0x2f78ce30	2.2628721e-10
38	0x00000000	0.0
39	0x30b465f5	1.3125702e-09
40	0x00000000	0.0
41	0x31f403fe	7.1017885e-09
42	0x2e0704e2	3.0699783e-11
43	0x00000000	0.0
44	0x30ac9863	1.2557958e-09
45	0x00000000	0.0
46	0x31f682e0	7.174421e-09
47	0x2d69539e	1.3263083e-11
48	0x00000000	0.0
49	0x306a1260	8.5154817e-10
50	0x00000000	0.0
51	0x31c5e17f	5.7590905e-09
52	0x2d2abe7c	9.705677e-12
53	0x00000000	0.0
54	0x3094d627	1.0829283e-09
55	0x00000000	0.0
56	0x31f5c6f4	7.153057e-09
57	0x2d5f59dc	1.2696035e-11
58	0x00000000	0.0
59	0x30067243	4.891129e-10
60	0x00000000	0.0
61	0x31f62760	7.1640187e-09
62	0x2d7c015d	1.4324844e-11
63	0x2d84fac0	1.5118018e-11
64	0x3112f3ea	2.1384445e-09
65	0x00000000	0.0
66	0x31ecbe1e	6.890118e-09
67	0x2d4a679e	1.1505378e-11
68	0x2f9624bb	2.731094e-10
69	0x3008dbf1	4.978907e-10
70	0x00000000	0.0
71	0x314461a9	2.8577267e-09
72	0x30c8ca54	1.460942e-09
73	0x3131e432	2.5886604e-09
74	0x31612810	3.2764582e-09
75	0x00000000	0.0
76	0x31e182f2	6.5632486e-09
77	0x2d8acf5e	1.5780873e-11
78	0x2fc08d3f	3.5024958e-10
79	0x30225154	5.905083e-10
80	0x00000000	0.0
81	0x3156f707	3.1281517e-09
82	0x2d789df6	1.4132242e-11
83	0x3181126f	3.75649e-09
84	0x3188501b	3.967228e-09
85	0x00000000	0.0
86	0x31df1e35	6.4935883e-09
87	0x2d38dcaf	1.0508191e-11
88	0x2fc33ccd	3.5513495e-10
89	0x300b266a	5.0622495e-10
90	0x00000000	0.0
91	0x315ac522	3.1835232e-09
92	0x2e8f2725	6.5098406e-11
93	0x31801361	3.7274934e-09
94	0x31869cb8	3.91773e-09
95	0x00000000	0.0
96	0x31e5ceab	6.6882726e-09
97	0x2ce98094	6.6365333e-12
98	0x2f9cb945	2.8507877e-10
99	0x3002d349	4.759398e-10
100	0x00000000	0.0
101	0x3162882f	3.296474e-09
102	0x2edec713	1.0130754e-10
103	0x3179af30	3.6333851e-09
104	0x31849c05	3.859443e-09
105	0x00000000	0.0
106	0x31e94ff0	6.7902803e-09
107	0x2f2b3408	1.5570845e-10
108	0x00000000	0.0
109	0x3113ebdf	2.1525393e-09
110	0x00000000	0.0
111	0x31eee234	6.952428e-09
112	0x2d8ce3e6	1.6017365e-11
113	0x00000000	0.0
114	0x311e2779	2.3014464e-09
115	0x00000000	0.0
116	0x31ef4420	6.9635604e-09
117	0x2d67fc76	1.3186887e-11
118	0x00000000	0.0
119	0x30c55300	1.4357227e-09
120	0x00000000	0.0
121	0x31e8874c	6.76747e-09
122	0x2e868155	6.1165885e-11
123	0x00000000	0.0
124	0x313d99cd	2.7590545e-09
125	0x00000000	0.0
126	0x31edd874	6.9222157e-09
127	0x2db372b4	2.0400882e-11
128	0x00000000	0.0
129	0x305b264f	7.9726176e-10
130	0x00000000	0.0
131	0x31741a93	3.5521779e-09
132	0x2f148b23	1.3509953e-10
133	0x31654e26	3.3368308e-09
134	0x3181fe5a	3.7833106e-09
135	0x00000000	0.0
136	0x31ebbf3c	6.861141e-09
137	0x2e05de63	3.0438218e-11
138	0x2f0175a0	1.177427e-10
139	0x30162ad0	5.463052e-10
140	0x37056567	7.951027e-06
141	0x3668d7ef	3.4696384e-06
142	0x00000000	0.0
143	0x36898963	4.098912e-06
144	0x36334f68	2.67193e-06
145	0x00000000	0.0
146	0x37159d83	8.917766e-06
147	0x361de2ca	2.3526832e-06
148	0x00000000	0.0
149	0x00000000	0.0
150	0x36c3ec5e	5.8389696e-06
151	0x340e3305	1.3243341e-07
152	0x339a75cb	7.19261e-08
153	0x34edd6b2	4.4300901e-07
154	0x00000000	0.0
155	0x36b84b26	5.4923757e-06
156	0x34eda19d	4.426228e-07
157	0x33964a46	6.9984296e-08
158	0x34af4421	3.264586e-07
159	0x00000000	0.0
160	0x36c84442	5.9684107e-06
161	0x33098c1c	3.2025227e-08
162	0x339daae5	7.341968e-08
163	0x346a5d05	2.1826789e-07
164	0x00000000	0.0
165	0x36c80b98	5.961814e-06
166	0x3275b1ce	1.4301305e-08
167	0x3386e2a9	6.2810905e-08
168	0x34c51081	3.6706118e-07
169	0x00000000	0.0
170	0x36c9204c	5.9940267e-06
171	0x3233c287	1.0463402e-08
172	0x33986c42	7.0977435e-08
173	0x345c1403	2.0496377e-07
174	0x00000000	0.0
175	0x36c4cd7c	5.8651767e-06
176	0x3195df2c	4.3618424e-09
177	0x346dcd9d	2.2147147e-07
178	0x34eec520	4.4474382e-07
179	0x00000000	0.0
180	0x36c740ec	5.93822e-06
181	0x3358371d	5.0341544e-08
182	0x339ea906	7.3881935e-08
183	0x34775b4f	2.3036885e-07
184	0x00000000	0.0
185	0x368a380d	4.1192457e-06
186	0x35f5a73f	1.8302597e-06
187	0x00000000	0.0
188	0x360fac27	2.1408866e-06
189	0x00000000	0.0
190	0x36c6cb7a	5.9245476e-06
191	0x3413247b	1.3703713e-07
192	0x00000000	0.0
193	0x34c0c08d	3.5902886e-07
194	0x00000000	0.0
195	0x36c778f4	5.944743e-06
196	0x33e466ef	1.0635801e-07
197	0x00000000	0.0
198	0x3622f712	2.4283695e-06
199	0x00000000	0.0
200	0x36c91b3f	5.9934387e-06
201	0x3363df62	5.305572e-08
202	0x00000000	0.0
203	0x348b5279	2.5950774e-07
204	0x00000000	0.0
205	0x36b25d0a	5.3156446e-06
206	0x336a5ad8	5.4564993e-08
207	0x00000000	0.0
208	0x363e0be0	2.8319118e-06
209	0x00000000	0.0
210	0x36c92da4	5.99558e-06
211	0x3329a271	3.949612e-08
212	0x32fba0c8	2.929336e-08
213	0x348a7592	2.5790047e-07
214	0x00000000	0.0
215	0x3611cc8c	2.1725746e-06
216	0x340f0838	1.3320903e-07
217	0x367c0129	3.7551602e-06
218	0x36882e5f	4.058514e-06
219	0x00000000	0.0
220	0x3542072a	7.2281057e-07
221	0x35024100	4.852336e-07
222	0x36a496eb	4.90515e-06
223	0x36b1a511	5.2942273e-06
224	0x00000000	0.0
225	0x36008f7a	1.9157e-06
226	0x342ef608	1.6294518e-07
227	0x36282e7c	2.5061008e-06
228	0x3643db66	2.918497e-06
229	0x00000000	0.0
230	0x36964b53	4.4791173e-06
231	0x34129a46	1.3653434e-07
232	0x35bca3c4	1.4054754e-06
233	0x35db46b8	1.6337353e-06
234	0x00000000	0.0
235	0x35fc5cd4	1.880248e-06
236	0x33cc6382	9.5175906e-08
237	0x3681d61f	3.8694266e-06
238	0x3684f2dd	3.9621796e-06
239	0x00000000	0.0
240	0x3698c47c	4.552827e-06
241	0x338b33ae	6.4820924e-08
242	0x35be923d	1.4198664e-06
243	0x35d752d5	1.6042856e-06
244	0x00000000	0.0
245	0x36067e40	2.0041043e-06
246	0x334f20f2	4.8225907e-08
247	0x3681bf04	3.8667367e-06
248	0x3686d37a	4.0181303e-06
249	0x00000000	0.0
250	0x369464fa	4.422499e-06
251	0x331e886b	3.6911313e-08
252	0x35bd8f62	1.4123327e-06
253	0x35d084a9	1.5535817e-06
254	0x00000000	0.0
255	0x36c752c3	5.940297e-06

exp_avg f4 [128]
0	0x34db457c	4.0842485e-07
1	0xb8cd687a	-9.794622e-05
2	0x3626138c	2.4747305e-06
3	0xb963f6d2	-0.00021740355
4	0xb5c37dcc	-1.4565244e-06
5	0xb6e85df0	-6.9250746e-06
6	0x391abd75	0.00014757163
7	0x36579f6e	3.2130297e-06
8	0x3776996f	1.4698467e-05
9	0x38d0b949	9.952725e-05
10	0x38badc86	8.910247e-05
11	0xb8163f1e	-3.582157e-05
12	0xb90155d0	-0.00012334366
13	0xb8e81f5e	-0.00011068465
14	0x361f7981	2.376357e-06
15	0x358af991	1.0354435e-06
16	0xb62eb304	-2.6032221e-06
17	0x369fdbce	4.764158e-06
18	0xb8a69c04	-7.944557e-05
19	0xb787b3da	-1.6177004e-05
20	0x3584a4ab	9.882691e-07
21	0xb982e83f	-0.0002496857
22	0xb807f2cb	-3.2412627e-05
23	0x38eab670	0.00011191971
24	0xb8f82b96	-0.0001183368
25	0x39b72e29	0.00034938872
26	0xb6a8fe51	-5.0363965e-06
27	0xb601abe5	-1.9322554e-06
28	0xb8c48c08	-9.372091e-05
29	0xb7831e88	-1.5630634e-05
30	0xb664ad00	-3.4075347e-06
31	0x3767eba0	1.3823534e-05
32	0x373ac869	1.1133126e-05
33	0xb94f6716	-0.00019779461
34	0x353f32a0	7.1226714e-07
35	0xb6d95fbc	-6.478249e-06
36	0xb2b7f958	-2.1417392e-08
37	0x371cf680	9.355717e-06
38	0x34a538db	3.0775013e-07
39	0xb8aaa5cc	-8.137114e-05
40	0x383a0677	4.4351877e-05
41	0xb8305028	-4.203632e-05
42	0xba1383b6	-0.00056272314
43	0x3888b489	6.518613e-05
44	0x372ec366	1.0416703e-05
45	0xb90941c4	-0.00013089838
46	0x38c4831c	9.370429e-05
47	0xb80ba629	-3.329493e-05
48	0x3ac9c094	0.0015392476
49	0x364a17e0	3.0114243e-06
50	0x386e1c40	5.676993e-05
51	0x3870709f	5.7325346e-05
52	0x38a40615	7.821262e-05
53	0x383127cc	4.2237152e-05
54	0x39f894c0	0.00047413073
55	0x386490b2	5.4494194e-05
56	0xb81a2334	-3.6749247e-05
57	0xb6ae6180	-5.1969546e-06
58	0xb6b73af8	-5.46069e-06
59	0xb8ed3026	-0.00011310009
60	0xb59e220b	-1.1781825e-06
61	0x371ec758	9.463947e-06
62	0xb851d9db	-5.0032377e-05
63	0xb874d124	-5.836891e-05
64	0xb860134d	-5.3423737e-05
65	0x353f91d2	7.136524e-07
66	0x38a293e5	7.7523095e-05
67	0xb9032acd	-0.00012509078
68	0xba2903ac	-0.00064473855
69	0xb663e862	-3.39609e-06
70	0xb96e4184	-0.00022721855
71	0xb7b19ca5	-2.1172988e-05
72	0xb90818ca	-0.00012979205
73	0xb9064c24	-0.000128076
74	0xb8d0d33f	-9.9575605e-05
75	0x378240d1	1.552739e-05
76	0x365fd98a	3.3356214e-06
77	0x33c55f26	9.190835e-08
78	0x3880f1e2	6.14857e-05
79	0xb3a1773f	-7.5188375e-08
80	0x36880b7c	4.054453e-06
81	0x35dedb4d	1.6604114e-06
82	0xb7052391	-7.935699e-06
83	0xb6824c04	-3.8831513e-06
84	0xb78c303e	-1.6711765e-05
85	0x330a5052	3.220368e-08
86	0xb63f7624	-2.8529985e-06
87	0xb9f33e88	-0.0004639516
88	0x3827acbc	3.9976774e-05
89	0x36a95dbd	5.047505e-06
90	0xb5c742b8	-1.4846073e-06
91	0xb3b963e0	-8.632901e-08
92	0xb6fa1606	-7.4531445e-06
93	0xb89fc890	-7.6190685e-05
94	0xb5cdc40a	-1.5330745e-06
95	0x35d939b8	1.6184558e-06
96	0x38044cdc	3.1542833e-05
97	0x37282a54	1.0023436e-05
98	0xb8e55106	-0.00010934663
99	0x348f3b19	2.6678825e-07
100	0xb8e911d9	-0.0001111363
101	0xb942f15d	-0.00018591197
102	0xb691190c	-4.3242526e-06
103	0x36fa6a82	7.4629797e-06
104	0x35a5831e	1.2331618e-06
105	0x39924188	0.00027896115
106	0xb91e6a88	-0.0001510774
107	0x35d3aa16	1.5770227e-06
108	0x399c8591	0.00029854153
109	0xb8035f07	-3.1321335e-05
110	0xb623a8b8	-2.43871e-06
111	0xb95f2e16	-0.00021284106
112	0x3795c526	1.7853989e-05
113	0x351f4f28	5.9347303e-07
114	0xb75d90a9	-1.3206308e-05
115	0xb9851d78	-0.00025389693
116	0xb9d3b9d2	-0.00040383503
117	0xb541c94e	-7.219104e-07
118	0x391733b3	0.00014419742
119	0xb89fe4f9	-7.62436e-05
120	0xb4d3cb18	-3.9449583e-07
121	0x37984520	1.8152e-05
122	0x39c9753d	0.00038425057
123	0xb48bbf58	-2.6029988e-07
124	0xb810740e	-3.444036e-05
125	0xb902aa7a	-0.00012461274
126	0xb77c9368	-1.5054691e-05
127	0xb5472d40	-7.4199124e-07

exp_avg_sq f4 [128]
0	0x31f71dcf	7.192035e-09
1	0x36cbac59	6.0699354e-06
2	0x32196508	8.928744e-09
3	0x376ad9d3	1.3998203e-05
4	0x2fd9640f	3.9543166e-10
5	0x327db50c	1.47677035e-08
6	0x34d2b6b3	3.924848e-07
7	0x314d94f2	2.9916092e-09
8	0x32337cab	1.04475175e-08
9	0x36e35d03	6.775955e-06
10	0x35c82d2c	1.4914308e-06
11	0x3685ded3	3.989649e-06
12	0x36f64a94	7.3400533e-06
13	0x3689ca53	4.106472e-06
14	0x32134849	8.572962e-09
15	0x3273c7cf	1.4189893e-08
16	0x30f95728	1.8141906e-09
17	0x3211bcf4	8.483074e-09
18	0x34b98c16	3.456086e-07
19	0x363888ca	2.7497758e-06
20	0x312026dd	2.3305156e-09
21	0x352056fe	5.9731235e-07
22	0x34d04e0c	3.8799806e-07
23	0x34bd116b	3.5216667e-07
24	0x34a71762	3.1123187e-07
25	0x35f0974b	1.7925425e-06
26	0x32b6f1d8	2.1297566e-08
27	0x31dfb044	6.5101933e-09
28	0x3542f8ec	7.263286e-07
29	0x35c2da0a	1.4517584e-06
30	0x34c2f8f4	3.6316453e-07
31	0x3620e390	2.3974317e-06
32	0x32ae1a1b	2.0268137e-08
33	0x358133fa	9.626376e-07
34	0x349a39b6	2.8726726e-07
35	0x3525e7e4	6.1804735e-07
36	0x2d6df847	1.3527019e-11
37	0x3725bfdf	9.87944e-06
38	0x302af42c	6.219263e-10
39	0x35f9e9d5	1.862e-06
40	0x35adf757	1.296149e-06
41	0x33e175df	1.04988196e-07
42	0x361294d0	2.1842316e-06
43	0x33a43dcd	7.6480866e-08
44	0x32410009	1.12340865e-08
45	0x36206936	2.3903099e-06
46	0x35523db4	7.8320886e-07
47	0x369ba51e	4.638582e-06
48	0x378b21c6	1.6585818e-05
49	0x32d65d2b	2.4955247e-08
50	0x3667aa0e	3.4520667e-06
51	0x36316dec	2.6439038e-06
52	0x3499c879	2.8644334e-07
53	0x3484bd7b	2.472478e-07
54	0x361b5c34	2.315047e-06
55	0x33d2574f	9.7947684e-08
56	0x35888c67	1.0173652e-06
57	0x34e2f13b	4.22713e-07
58	0x3199ea34	4.479512e-09
59	0x34c5abf9	3.6819236e-07
60	0x3136a728	2.6579503e-09
61	0x34c6b314	3.701067e-07
62	0x36a21d5f	4.8313955e-06
63	0x34a2e3a8	3.0340493e-07
64	0x363d3e3b	2.8199418e-06
65	0x33646aee	5.318264e-08
66	0x334e0ffb	4.7977647e-08
67	0x3506a1a5	5.0154114e-07
68	0x3722091e	9.658075e-06
69	0x34aa6350	3.1737227e-07
70	0x35a790ce	1.2484613e-06
71	0x3370c7fd	5.6061243e-08
72	0x35a992b8	1.2634182e-06
73	0x352839bc	6.266889e-07
74	0x34acfbba	3.2220652e-07
75	0x3402bc22	1.2175636e-07
76	0x313182e2	2.5831288e-09
77	0x2f0036bd	1.1660979e-10
78	0x350cf242	5.2506596e-07
79	0x2f394898	1.6851442e-10
80	0x3237fac5	1.070902e-08
81	0x311bec26	2.2689703e-09
82	0x3152017e	3.055987e-09
83	0x320cf06b	8.203737e-09
84	0x357ab922	9.340166e-07
85	0x2e01e477	2.953412e-11
86	0x3481f6ba	2.420764e-07
87	0x36ab0550	5.0968156e-06
88	0x338c9148	6.5456845e-08
89	0x33c2f5b2	9.078521e-08
90	0x323d0d8d	1.1004329e-08
91	0x313f09c1	2.7799703e-09
92	0x34376ff4	1.7083931e-07
93	0x34641bfc	2.1244335e-07
94	0x31a41eab	4.7765147e-09
95	0x32435c86	1.1371531e-08
96	0x34a07dd6	2.989388e-07
97	0x31f04278	6.992476e-09
98	0x377591a0	1.4637044e-05
99	0x30cdf4f4	1.4985333e-09
100	0x350c4240	5.225047e-07
101	0x356696fa	8.5901377e-07
102	0x320aee47	8.086835e-09
103	0x32604dc7	1.3056201e-08
104	0x3053f367	7.710725e-10
105	0x35e2cc86	1.6897836e-06
106	0x3613854f	2.1982303e-06
107	0x316e2cd8	3.465905e-09
108	0x348f6f65	2.6716876e-07
109	0x366934ba	3.4750396e-06
110	0x32a1f9c0	1.885644e-08
111	0x366f7b09	3.5685391e-06
112	0x32a429d8	1.9111141e-08
113	0x350adc99	5.173002e-07
114	0x3585688a	9.939697e-07
115	0x369a1858	4.5923916e-06
116	0x36abc215	5.1187913e-06
117	0x31b3af17	5.229491e-09
118	0x36bbdd43	5.5987925e-06
119	0x345990e5	2.0262412e-07
120	0x2ffa3f51	4.5519724e-10
121	0x377aae6a	1.494177e-05
122	0x3660a5b8	3.3475062e-06
123	0x2fec32a6	4.2964138e-10
124	0x35522311	7.8282125e-07
125	0x3663a1d8	3.3919841e-06
126	0x349c0dcc	2.9067303e-07
127	0x2f07c499	1.2348024e-10
