results/hideandseek_04/Hide/Hide-499985.pt (torch, 881192 bytes, 36 tensors)

network_body._body_endoder.seq_layers.0.weight f4 [128, 149]
0	0xbde94979	-0.11390967
1	0x3ca73673	0.020411706
2	0xbc82f0e9	-0.015984016
3	0xbd9d1517	-0.07670038
4	0xbda9528b	-0.08267697
5	0xbd83c280	-0.06433582
6	0xbe19ff1f	-0.15038727
7	0xbddc2da3	-0.10750892
8	0x3e240d0d	0.16020603
9	0xbe3d92e2	-0.18513063
10	0x3e079a8a	0.13242546
11	0xbe5728ba	-0.2101163
12	0x3dd2bd87	0.10290056
13	0x3cdfc345	0.027314791
14	0xbdbac0b8	-0.091187894
15	0xbe0716dc	-0.13192314
16	0xbe722548	-0.23647034
17	0xbb97e85c	-0.0046358537
18	0x3c644ee2	0.013934823
19	0xbe2f1e96	-0.17101511
20	0xbd8d55ff	-0.06901168
21	0xbe2cdba4	-0.16880661
22	0x3d7655b4	0.060140327
23	0xbc5f8d2b	-0.013644497
24	0xbc402b7d	-0.011729118
25	0xbd724ae2	-0.059153445
26	0xbe87445a	-0.26419336
27	0xbd402ca6	-0.04691758
28	0xbd08e330	-0.033419788
29	0xbdbdaacd	-0.09261093
30	0xbd8a60b7	-0.06756728
31	0xbe8ee471	-0.27908662
32	0xbd9a2b9a	-0.075278476
33	0x3d048160	0.032349944
34	0xbe26bcf1	-0.16283013
35	0x3df7bf4f	0.12097036
36	0xbd2d3c86	-0.042294048
37	0x3c9d2395	0.019182006
38	0x3d96d42f	0.073646896
39	0xbc4b9336	-0.012425235
40	0x3ced1c9a	0.028944302
41	0xbe542f94	-0.20721275
42	0x3d76b3fa	0.060230233
43	0x3cba05ae	0.022707786
44	0x3d06da71	0.032923166
45	0x3e30a83d	0.17251678
46	0xbe1a0e99	-0.15044631
47	0xbda67c49	-0.08129174
48	0x3d721b6b	0.05910818
49	0xbe166998	-0.14688718
50	0xbc4a2732	-0.012338446
51	0xbdadd621	-0.084881075
52	0x3e0e47ba	0.13894549
53	0xbe19a200	-0.15003204
54	0xbe26405a	-0.16235486
55	0x3e293f8f	0.16528152
56	0xbe41f417	-0.18940769
57	0x3de89ec9	0.11358411
58	0xbe111345	-0.14167507
59	0xbe1b9139	-0.15192117
60	0xbd5abdef	-0.05340379
61	0xbe1e73e4	-0.15473896
62	0x3d745dff	0.059659954
63	0x3cc56b8d	0.024099136
64	0xbce52ffa	-0.027976979
65	0xbce5dd8c	-0.028059743
66	0xbe5da1cd	-0.21643753
67	0x3ce64812	0.028110538
68	0xbc817826	-0.015804362
69	0xbd560471	-0.05225033
70	0xbde0a6a8	-0.10969287
71	0xbdf49edb	-0.11944362
72	0x3def4e78	0.116848886
73	0x3d65d990	0.056115687
74	0xbdd72506	-0.105051085
75	0x3cb1b8cf	0.021694569
76	0xbe2ab7df	-0.16671704
77	0x3de500d6	0.111818
78	0xbe244376	-0.1604136
79	0xbe303e62	-0.17211297
80	0xbd0d0b48	-0.034434587
81	0xbdc9e0f5	-0.0985736
82	0xbe1e118c	-0.15436381
83	0x3e06a56d	0.13149042
84	0xbcb6211c	-0.022232585
85	0x3d1130b6	0.035446845
86	0xbe7ab693	-0.24483709
87	0xbd94eb0c	-0.07271394
88	0x381ac8d3	3.6903493e-05
89	0xbe2bab17	-0.16764484
90	0x3d72b6be	0.059256308
91	0xbd76433f	-0.060122725
92	0xbe11be39	-0.1423272
93	0xbe1cebfa	-0.15324393
94	0xbcd653f0	-0.026163071
95	0x3c78278f	0.01514615
96	0xbc98be26	-0.018645357
97	0xbe214b8d	-0.15751477
98	0x3dfdb423	0.12387874
99	0xbecd5c04	-0.40109265
100	0xbd4e2fdb	-0.050338607
101	0xbcc9f6de	-0.024653848
102	0xbde453d1	-0.11148799
103	0x3ad9fd01	0.0016631187
104	0xbe672b3a	-0.22575083
105	0x3e04e631	0.12978436
106	0xbe4f21be	-0.20227715
107	0xbd2c2d5d	-0.04203545
108	0x3d8084dd	0.06275342
109	0x3d3aa897	0.045570936
110	0xbd7f1694	-0.06227739
111	0xbe11aecf	-0.1422684
112	0xbdc6634d	-0.09686909
113	0x3d22678b	0.039649528
114	0xbe8ee43b	-0.279085
115	0x3d7a6c41	0.061138395
116	0xbddb947e	-0.10721682
117	0xbaee22b7	-0.0018168305
118	0xbb843c6c	-0.004035523
119	0xbe4a540a	-0.19758621
120	0xbd75e70a	-0.06003479
121	0xbe1cb7ba	-0.15304461
122	0x3ddf1c8f	0.10894119
123	0x3e01886d	0.12649699
124	0xbd9e9f4d	-0.07745228
125	0xbe0704d5	-0.13185437
126	0xbe14780d	-0.1449892
127	0xbc62c991	-0.0138420025
128	0x3d64c44a	0.05585126
129	0xbdaf971f	-0.08573746
130	0xbba3405b	-0.004982037
131	0xbdba0809	-0.09083564
132	0xbd77e65c	-0.060522422
133	0xbb9e8b1c	-0.0048383605
134	0xbdb40eb7	-0.08791869
135	0xbe4bb252	-0.19892243
136	0xbe1ab8b8	-0.15109527
137	0xbd3b7fb5	-0.045776088
138	0xbb67657c	-0.0035308292
139	0xbddf3df4	-0.109004885
140	0xbcbc5a3c	-0.022992246
141	0xbd9ac7e4	-0.07557657
142	0xbced3306	-0.028954994
143	0x3d0b3c0d	0.033992816
144	0xbbe28b37	-0.0069135684
145	0x3c9d47b2	0.019199226
146	0x3d95da12	0.07316984
147	0xbd0c8b33	-0.03431244
148	0x3c36fb30	0.011168286
149	0x3e1761a5	0.14783342
150	0xbda822bc	-0.0820975
151	0x3d32f700	0.04369259
152	0xbd94f751	-0.07273734
153	0xb9100b46	-0.0001373711
154	0xbd9e0bd5	-0.077171005
155	0xb8a399c4	-7.801087e-05
156	0x3df1a953	0.11799874
157	0xbe1f0be0	-0.15531874
158	0x3d1feef4	0.039046243
159	0x3e17ec94	0.14836341
160	0xbd0dd2f8	-0.034625024
161	0x3de54737	0.11195224
162	0x3dc18461	0.094490774
163	0x3e0f5a81	0.13999368
164	0xbd67b73f	-0.05657124
165	0xbd65dae4	-0.056116953
166	0xbca8c965	-0.020603845
167	0xbe1bf13f	-0.15228747
168	0xbda0c28f	-0.07849609
169	0x3d0694a2	0.03285659
170	0xbe1d20df	-0.1534457
171	0xbd9aedb6	-0.07564871
172	0x3df06c25	0.11739377
173	0x3dd8d2c3	0.105870746
174	0x3d5babe3	0.05363072
175	0x3dba92fe	0.09110068
176	0xbd834b99	-0.064109035
177	0x3e187cbd	0.14891334
178	0x3df9db5f	0.12200045
179	0x3d216ed5	0.03941234
180	0x3cdce805	0.026966104
181	0xbd907cec	-0.07055077
182	0x3dd19d6a	0.102351025
183	0x3dcf3415	0.10117356
184	0xbe2881a6	-0.16455707
185	0x3c9cb0ac	0.019127212
186	0xbca4161c	-0.020030074
187	0x3d2a69e9	0.04160491
188	0xbd6da7e7	-0.058021452
189	0xbd807ead	-0.062741615
190	0xbd4e4307	-0.05035689
191	0xbd3435e1	-0.043996695
192	0xbcfadf5c	-0.030624084
193	0xbdff39bc	-0.12462184
194	0x3d1a9392	0.03773839
195	0xbda14608	-0.078746855
196	0x3c9275d6	0.017878454
197	0x3ddaed7c	0.10689828
198	0xbd534540	-0.051579714
199	0xbe1cc553	-0.15309648
200	0x3dbdee46	0.09273963
201	0x3a21e09f	0.0006175134
202	0x3b14adaf	0.0022686531
203	0x3d68e222	0.056856282
204	0xbcc5fa90	-0.02416733
205	0xbdb0c4ee	-0.08631311
206	0xbe08e181	-0.13367273
207	0x3b6cdafe	0.0036141272
208	0xbe26918e	-0.16266462
209	0x3e1ab548	0.15108216
210	0xbd0328ca	-0.03202132
211	0x3d01e236	0.031709872
212	0xbd78be67	-0.060728457
213	0x3dcf7e99	0.101315685
214	0xbc248439	-0.01004129
215	0xbc2e6521	-0.010644228
216	0x3c246461	0.010033698
217	0xbdc5c0a2	-0.096558824
218	0xbe15db7b	-0.14634506
219	0xbdeb4b51	-0.11488975
220	0xbd8a9af8	-0.06767839
221	0xbbfb4513	-0.0076681464
222	0x3c377ca5	0.011199151
223	0x3d99ae9f	0.075040095
224	0x3e708a6c	0.23490304
225	0x3baef922	0.0053397575
226	0xbd452e86	-0.04814007
227	0xbd815b45	-0.063162364
228	0x3c258596	0.01010265
229	0xbe1fec27	-0.15617429
230	0x3d1d6608	0.038427383
231	0x3d8adac8	0.067800105
232	0xbdb83bde	-0.08995794
233	0xbe0d0cdf	-0.13774441
234	0xbd962141	-0.073305614
235	0xbd79d91c	-0.060998067
236	0x3d31e5f9	0.04343221
237	0xbd21892d	-0.03943746
238	0xbdabe766	-0.08393745
239	0x3ccb1a18	0.024792716
240	0x3e00afd5	0.12567075
241	0xbc4d771b	-0.012540604
242	0xbe4d6c37	-0.20060812
243	0xbe21f758	-0.1581701
244	0x3df41f7a	0.11920066
245	0x3b88dc4c	0.004176652
246	0xbdef920a	-0.116977766
247	0x3cad4d6a	0.021155078
248	0xbe4dace6	-0.20085487
249	0xbc721dd7	-0.014777622
250	0x3d3571fc	0.044298157
251	0x3d7e934b	0.06215219
252	0xbbcd65dd	-0.0062682466
253	0x3b88d9ab	0.0041763387
254	0x3dcc1a94	0.09966007
255	0x3c40f561	0.011777253

network_body._body_endoder.seq_layers.0.bias f4 [128]
0	0xbe2ea59c	-0.17055362
1	0xbc77a5e3	-0.015115234
2	0xbd9760ca	-0.07391508
3	0xbe5ce691	-0.21572329
4	0xbd03133d	-0.03200077
5	0xbdb58524	-0.08863285
6	0xbd20ad71	-0.039227907
7	0x3d923a5e	0.07140039
8	0xbd79efe1	-0.061019782
9	0xbdd53c23	-0.10411861
10	0xbc7db03f	-0.015483915
11	0xbdb10b5e	-0.08644746
12	0xb9a61964	-0.00031680905
13	0xbdb6f5c0	-0.08933592
14	0xbc766ad6	-0.01504012
15	0xbd3300d2	-0.043701954
16	0xbd039093	-0.0321203
17	0xbdd5fbdf	-0.10448431
18	0xbcd756f4	-0.02628658
19	0x3b8f5318	0.004373919
20	0xbd743b53	-0.05962689
21	0xbd885bcb	-0.06658133
22	0xbcfdbd21	-0.030973973
23	0xbd5a6446	-0.053318284
24	0x3bd590d7	0.0065175104
25	0xbd4cd4f9	-0.050007794
26	0xbdc6c463	-0.097054265
27	0xbe03ee5a	-0.12883893
28	0xbd7081f0	-0.058717668
29	0x3d6ffb77	0.058589425
30	0xbc9ca7c2	-0.019122962
31	0xbd063e37	-0.032774176
32	0xbcf39f55	-0.029739061
33	0xbd7e46f1	-0.062079374
34	0xbceb2faa	-0.028709251
35	0x3d863103	0.06552317
36	0xbd5489fc	-0.051889405
37	0xbd731c50	-0.059353173
38	0xbbc2c03b	-0.005943326
39	0xbd00f8fb	-0.031487446
40	0xbd2cc27d	-0.042177666
41	0xbdba7662	-0.09104611
42	0xbe18a481	-0.14906503
43	0xbd570ba2	-0.05250133
44	0xbdd8a2e1	-0.10577942
45	0xbc0c76e7	-0.00857327
46	0xbd6030df	-0.054734107
47	0x3d17942f	0.037006553
48	0xbb0cc63f	-0.0021480469
49	0x3d3e17bb	0.04640935
50	0xbcfa3f94	-0.030547895
51	0xbd5d3d99	-0.054013822
52	0xbd8cb2a0	-0.068700075
53	0x3c481931	0.012213037
54	0xbc9b38a6	-0.01894791
55	0xbd7b8a11	-0.061410967
56	0x3b470895	0.0030370106
57	0xbac6fe42	-0.0015181976
58	0xbdf6f007	-0.120575
59	0xbd6efc60	-0.058346152
60	0xbc8ce65b	-0.017199686
61	0xbd9366be	-0.07197331
62	0xbdceb515	-0.100931324
63	0xbd858d9a	-0.06521149
64	0x3c6a9064	0.014316652
65	0xbda96627	-0.08271437
66	0x3ba40e6b	0.0050066016
67	0x3c710033	0.01470952
68	0xbd9bd258	-0.07608479
69	0xbd37c316	-0.044863783
70	0x3c75817f	0.014984488
71	0xbd7f0080	-0.062256336
72	0x3d214f81	0.03938246
73	0x3c56416f	0.013077124
74	0x3c016255	0.007896979
75	0xbd63de89	-0.055632148
76	0xbd72c9cc	-0.05927448
77	0xbd7bdb25	-0.06148829
78	0xbdaaaae8	-0.08333379
79	0xbd4386cf	-0.047735985
80	0xbdd34310	-0.103155255
81	0xbe0392bf	-0.12848948
82	0xbd4fe247	-0.050752904
83	0xbb9a9914	-0.0047179554
84	0xbbb0d518	-0.0053964965
85	0xbbd76c38	-0.00657418
86	0xbd2bf6c3	-0.041983377
87	0x3c30a9f1	0.010782705
88	0x3d8526d8	0.065015495
89	0xbdc7846f	-0.097420566
90	0xbcb64fc0	-0.022254825
91	0x3cf412b1	0.029794069
92	0xbc97c00b	-0.01852419
93	0xbc120202	-0.0089116115
94	0xbd638f18	-0.055556387
95	0xbd215800	-0.039390564
96	0xbd98fb26	-0.07469778
97	0x3cb6269c	0.022235207
98	0x3bdf5502	0.0068155536
99	0x3d3e37e4	0.04644002
100	0xbd719d0a	-0.058987655
101	0xbd5f837d	-0.054568756
102	0xbe1f7fa4	-0.15576035
103	0xbd8fee4a	-0.07027872
104	0xbd0b2913	-0.03397472
105	0xbdb494c2	-0.08817436
106	0xbdfbc9af	-0.122943275
107	0xbe2dd917	-0.16977344
108	0xbda41337	-0.080114774
109	0xbda74c58	-0.08168858
110	0xbde98ebe	-0.11404179
111	0xbd28bb84	-0.041194454
112	0xbc4f5339	-0.012654119
113	0xba3b5937	-0.0007146778
114	0x3cbafa7f	0.022824524
115	0x39b95e7f	0.00035356355
116	0x3cc02065	0.023452947
117	0xbde15d6d	-0.11004148
118	0xbdba1b26	-0.090872094
119	0x3c34784f	0.011015012
120	0xbd3f50be	-0.04670786
121	0xbdd7dbda	-0.1053998
122	0xbd8a623a	-0.067570165
123	0xbb609251	-0.00342669
124	0xbd069a3e	-0.03286194
125	0xbd505f6a	-0.050872244
126	0xbd4dd1c0	-0.05024886
127	0x3b96f1c0	0.0046064556

network_body._body_endoder.seq_layers.2.weight f4 [128, 128]
0	0xbde55765	-0.1119831
1	0xbdd85577	-0.10563176
2	0xbd288d3c	-0.041150317
3	0xbc9c0cad	-0.019049013
4	0xbc05c778	-0.008165233
5	0xbda7fe70	-0.08202827
6	0x3e08d21c	0.133614
7	0xbd7d7e83	-0.06188823
8	0x3c5c2d9d	0.013438609
9	0xbcef6039	-0.029220687
10	0xbe15a2e4	-0.14612919
11	0xbe269cbd	-0.16270728
12	0xbc85a286	-0.016312849
13	0xbe0f2242	-0.13977912
14	0x3de4ca34	0.1117138
15	0x3c90f92e	0.017696943
16	0x3d291437	0.041279044
17	0xbc49cef8	-0.012317412
18	0x3d899a77	0.06718915
19	0xbd7bf128	-0.06150928
20	0x3d8837f7	0.066512994
21	0xbd837877	-0.06419461
22	0x3d04c977	0.032418694
23	0xbbd36877	-0.006451662
24	0xbc83329a	-0.01601534
25	0x3baaa21a	0.0052073123
26	0xbc61d82f	-0.013784452
27	0xbc0aca3e	-0.00847107
28	0x3e2c0ddd	0.16802163
29	0xbe0eaee6	-0.13933906
30	0x3dd81851	0.10551513
31	0xbdac0f88	-0.084014
32	0xbe13cf97	-0.14434658
33	0x3d09080e	0.033454947
34	0x3d41e0b5	0.047333438
35	0xbdfffbef	-0.124992244
36	0xbd995982	-0.074877754
37	0x3d41bab9	0.047297213
38	0xbdf593da	-0.11991091
39	0xbe2b55e4	-0.16731983
40	0x3e3354ed	0.17512865
41	0xbd91d877	-0.071213655
42	0x3e55fc8c	0.2089712
43	0x3dbbb0f2	0.09164609
44	0x3b9d940f	0.0048089097
45	0xbd9aad3d	-0.07552574
46	0x3d4bc12d	0.049744774
47	0xbd839965	-0.06425742
48	0xbe2f863a	-0.17141047
49	0xbd8c74a5	-0.06858186
50	0x3e048a3e	0.1294336
51	0xbbfee312	-0.0077785337
52	0xbe68cc88	-0.22734272
53	0xbd589997	-0.05288085
54	0xbda0ed7f	-0.07857799
55	0xbe02f6ec	-0.12789506
56	0xbdd386bb	-0.10328432
57	0xbe21f1df	-0.15814923
58	0x3d95fe6c	0.07323918
59	0x3de325b8	0.11091179
60	0xbead5dc0	-0.33860588
61	0x3df16b89	0.11788089
62	0x3d1d899e	0.03846132
63	0x3d77c464	0.060490027
64	0x3d4afffa	0.049560525
65	0x3d991ddd	0.07476399
66	0x3d2fc934	0.04291649
67	0x3ca03f02	0.019561294
68	0x3d9a457c	0.07532784
69	0xbdbf32fe	-0.09335898
70	0x3e698333	0.22803955
71	0xbde34e6d	-0.11098943
72	0xbd8ade38	-0.06780666
73	0xbe0c2f8b	-0.13690011
74	0xbe579705	-0.21053703
75	0xbc82f721	-0.01598698
76	0x3e399669	0.18123783
77	0xbc77328c	-0.015087735
78	0xbc520229	-0.012817898
79	0x3de0e08a	0.109803274
80	0xbc15aac4	-0.009134952
81	0xbd10c52a	-0.03534428
82	0xbd574454	-0.052555397
83	0x3c89ef8a	0.016837854
84	0xbcad1ecd	-0.021132851
85	0xbe09ef9d	-0.13470311
86	0x3db66810	0.08906567
87	0xbe1cd719	-0.15316428
88	0xbe75f1d9	-0.24018039
89	0x3d356c6f	0.044292863
90	0xbe09dfd7	-0.13464294
91	0xbd9cf642	-0.076641575
92	0xbd1388db	-0.036019187
93	0xbd6c9e99	-0.057768438
94	0x3cbe537c	0.023233168
95	0xbd694390	-0.0569492
96	0xbd86f469	-0.06589586
97	0x3cf78275	0.030213574
98	0xbe35ee83	-0.17766766
99	0x3c838a43	0.01605714
100	0x3d3a4416	0.045475088
101	0xbd80ca30	-0.06288564
102	0xbd2e7962	-0.04259623
103	0x3d53be4d	0.051695157
104	0xbe034ff5	-0.1282347
105	0x3d95158f	0.072795026
106	0x3e193ff8	0.14965808
107	0x3cf4ab40	0.029866815
108	0x3e3b8f4e	0.18316385
109	0x3db5a3d3	0.088691376
110	0x3d81b326	0.06332998
111	0xbda53d32	-0.08068313
112	0xbe423b00	-0.18967819
113	0xbe2cbe9f	-0.16869591
114	0x3d8ef23c	0.06979796
115	0xbc24ad53	-0.010051089
116	0xbd8d2bf1	-0.06893147
117	0x3e1c5a01	0.15268709
118	0x3dd172c0	0.10226965
119	0xbc7331ec	-0.014843445
120	0xbd26b9ce	-0.04070454
121	0xbcb5029c	-0.02209597
122	0xbe060276	-0.13086876
123	0xbe451107	-0.19244777
124	0x3b8b9533	0.0042597293
125	0xbe058e1d	-0.13042493
126	0x3cc05898	0.023479745
127	0xbe4719a4	-0.19443375
128	0x3cddd892	0.027080808
129	0x3ddd1e3c	0.107967824
130	0xbde11370	-0.109900355
131	0xbdad0370	-0.08447921
132	0xbc1ec7c0	-0.009691179
133	0xbdd09e78	-0.101864755
134	0x3d4c656b	0.049901407
135	0xbe846992	-0.25861794
136	0xbe048354	-0.12940723
137	0xbbf52e79	-0.0074823466
138	0x3c8176e4	0.015803762
139	0xbdb83b0d	-0.08995638
140	0x3db27b2a	0.08714898
141	0x3e0faa71	0.14029862
142	0x3d8be646	0.068310305
143	0x3db4b2d3	0.088231705
144	0x3c720e73	0.014773953
145	0xbcc838a1	-0.024441065
146	0x3df13b89	0.117789336
147	0xbd457acd	-0.048212815
148	0x3e69b80f	0.22824119
149	0xbd85e1b2	-0.065371886
150	0xbe4f6675	-0.20253928
151	0x3d3a4d8b	0.045484107
152	0xbc722699	-0.01477971
153	0xbdcbb1d9	-0.09946031
154	0x3d1ec381	0.038760666
155	0xbd5cb4a1	-0.0538832
156	0xbcef95f1	-0.029246302
157	0xbda63fd2	-0.081176415
158	0xbca71a55	-0.020398298
159	0xbd99829a	-0.074956134
160	0xbb30585b	-0.0026908133
161	0x3d6e4ad9	0.05817685
162	0xbb69e954	-0.0035692053
163	0xbd0f40e2	-0.034973986
164	0x3cf1fbc0	0.029538989
165	0x3e1ffee7	0.15624581
166	0x3e0a2e20	0.13494158
167	0xbd5feb51	-0.054667775
168	0xbc33eb65	-0.010981415
169	0x3dcaaca8	0.09896213
170	0x3d56d545	0.052449483
171	0x3d290aeb	0.041270178
172	0xbda38d9b	-0.079859935
173	0xbdc14f85	-0.09438995
174	0x3e174db5	0.14775737
175	0xbdc1e013	-0.09466567
176	0xbd780737	-0.060553756
177	0xbd614b32	-0.055003352
178	0x3ce7719d	0.028252417
179	0x3d155a38	0.036462992
180	0xbc78d066	-0.015186405
181	0xbd429b42	-0.047511347
182	0xbc121eae	-0.008918447
183	0x3d7d1650	0.061788857
184	0x3e40158a	0.18758217
185	0xbe273915	-0.16330369
186	0x3c43a16d	0.011940342
187	0x3c93b6f7	0.01803158
188	0x3ac322e8	0.0014887722
189	0x3c7e35a5	0.01551572
190	0xbdeb0b0a	-0.11476715
191	0x3dc1ceec	0.09463295
192	0xbe2b0831	-0.16702344
193	0xbe34a29f	-0.1764016
194	0x3d4141a2	0.047181733
195	0x3daac58f	0.083384626
196	0x3dbb0239	0.09131283
197	0x3c9100f0	0.017700642
198	0x3d9eaabd	0.077474095
199	0x3b3a6ed6	0.002844741
200	0x3dbf7ea6	0.09350328
201	0xbc941a9d	-0.018079096
202	0x3c8d3dc3	0.017241364
203	0x3c2d0571	0.010560379
204	0xbc061a23	-0.008184942
205	0xbc807e8b	-0.01568534
206	0xbd89a93b	-0.06721731
207	0x3c3ab81b	0.011396433
208	0xbd216dd9	-0.0394114
209	0xbe00a4c1	-0.12562849
210	0xbd1145ea	-0.035467066
211	0xbe1f1684	-0.15535933
212	0xbe0e8ce5	-0.13920934
213	0x3cb3b6de	0.021937784
214	0x3d87d30e	0.06632052
215	0xbd3b246d	-0.045689035
216	0xbe03a891	-0.12857272
217	0x3dcfd5ac	0.101481766
218	0x3ceb58fb	0.028728953
219	0x3c92a127	0.017899109
220	0xbcbf0014	-0.023315467
221	0x3e14dc13	0.14537077
222	0x3cc03b87	0.023465885
223	0xbdd6b24a	-0.10483225
224	0x3e2440d2	0.16040352
225	0xbdf928dd	-0.12165997
226	0xbde3d4a2	-0.11124541
227	0xbd000769	-0.031257067
228	0xbd6d8814	-0.057991102
229	0x3ddb04d5	0.10694281
230	0xbc491fad	-0.0122756185
231	0x3d86010a	0.06543167
232	0x3e40cad1	0.18827368
233	0x3e17b63a	0.14815608
234	0x3df1b1ad	0.11801467
235	0x3e298ba8	0.16557181
236	0xbded0f0d	-0.11575136
237	0x3daa84f8	0.08326143
238	0x3e12fbd0	0.14353871
239	0xbe0df8c0	-0.13864422
240	0xbdcbc859	-0.09950323
241	0xbc995947	-0.018719329
242	0x3e040584	0.12892729
243	0x3da66d27	0.08126288
244	0xbe3d7c0c	-0.18504351
245	0xb8df0b69	-0.00010635594
246	0xbc6b83b8	-0.014374666
247	0xbd11dc0b	-0.03561024
248	0x3d760ba4	0.060069695
249	0xbda3610d	-0.07977495
250	0x3dd9ca21	0.10634256
251	0xbd9a69dd	-0.07539723
252	0x3ce6fc8a	0.028196592
253	0x3df846b3	0.1212286
254	0xba65a455	-0.0008760144
255	0xbdf2dadb	-0.118581496

network_body._body_endoder.seq_layers.2.bias f4 [128]
0	0xbdc92c02	-0.09822847
1	0xbc4b4e0e	-0.012408746
2	0xbd271c38	-0.040798396
3	0xbd2683b4	-0.040652946
4	0xbda12b73	-0.078696154
5	0xbd6c2d11	-0.057660166
6	0x3d0bca6d	0.034128595
7	0x3d073811	0.033012453
8	0x3cc432d8	0.023950025
9	0x3cf26c3b	0.029592624
10	0x3d8b232c	0.06793818
11	0xbd1512fe	-0.036395065
12	0xbaf2440c	-0.0018483414
13	0x3d5edf32	0.054412074
14	0xbbee476a	-0.007271697
15	0x3bb70074	0.005584771
16	0xbce1302b	-0.027488789
17	0xbd158bc4	-0.036510244
18	0xbdb579d7	-0.0886113
19	0xbd77a535	-0.060460288
20	0xbccb735d	-0.024835283
21	0x3c49a7b2	0.012308048
22	0xbda4b1ce	-0.08041726
23	0xbb64dfae	-0.0034923363
24	0x3b964644	0.004586013
25	0x3c9e7f4c	0.01934781
26	0xbd7dab0f	-0.061930712
27	0xbcaa496a	-0.02078696
28	0xbd980ba0	-0.07424092
29	0x3995270b	0.00028448584
30	0xbda7407c	-0.08166596
31	0xbda837f6	-0.08213799
32	0xbc899650	-0.016795307
33	0xbd0fee1c	-0.03513919
34	0xbd7327fd	-0.059364308
35	0xbcb88663	-0.022525018
36	0xbd848e60	-0.064724684
37	0xbcbe566d	-0.02323457
38	0x3b09d1ac	0.0021029515
39	0xbd9c3538	-0.07627338
40	0xba11947a	-0.0005553436
41	0xbd49c0fa	-0.049256302
42	0xbb1d03c1	-0.0023958536
43	0xbd40a96a	-0.047036566
44	0x3d0aab8b	0.033855002
45	0x3d8e46e7	0.06947117
46	0xbb6564a9	-0.0035002625
47	0xbc48c4dd	-0.012253967
48	0xbbaa9189	-0.0052053374
49	0xbdda009f	-0.1064465
50	0x3c8c0015	0.017089883
51	0xbbd1a822	-0.006398217
52	0x3c5e4462	0.013566108
53	0xbd441acc	-0.047877118
54	0x3b327f74	0.0027236613
55	0xbd0ca169	-0.03433362
56	0x3c4215dd	0.011846033
57	0x3c56ce57	0.013110719
58	0x3ccf4676	0.025302153
59	0x3ca1b973	0.01974175
60	0xbd7ba8c4	-0.061440244
61	0xbd5a9024	-0.05336012
62	0xbb53dbd3	-0.003232707
63	0xbdcb0680	-0.09913349
64	0xbda715cb	-0.081584536
65	0xbe068a7c	-0.13138765
66	0xbd56b442	-0.052418
67	0xbc48cfc6	-0.012256568
68	0xbd0135c9	-0.031545434
69	0x3bead3a8	0.0071663447
70	0xbda0b586	-0.07847123
71	0xbd19a9ca	-0.03751544
72	0xbab15650	-0.0013529751
73	0xbda3cd5c	-0.079981536
74	0xbce6ccc2	-0.028173808
75	0xbddd5e77	-0.10809033
76	0xbb7a6d46	-0.0038212105
77	0xbcd8e604	-0.026476867
78	0xbd8f7156	-0.07004039
79	0xbca3d9b3	-0.020001268
80	0xbd14387c	-0.03618668
81	0x3b9ba36a	0.004749705
82	0xbd82ebbc	-0.06392619
83	0x39f69599	0.00047032235
84	0xbce37aa8	-0.027768448
85	0xbd8bde8c	-0.06829557
86	0xbdad0ae4	-0.08449343
87	0xbb1dd758	-0.0024084654
88	0xbd1fab1c	-0.038981542
89	0xbcec806a	-0.028869826
90	0x3d9a0ed2	0.07522358
91	0x3ca03a95	0.019559184
92	0x3c61df1f	0.013786106
93	0xbc8a986c	-0.016918384
94	0xb998b55a	-0.00029126817
95	0xbd1aaf5b	-0.03776489
96	0xbd8b3efa	-0.06799121
97	0x3d933d9c	0.071894854
98	0xbde02a8e	-0.10945617
99	0x3ab71b81	0.0013969989
100	0xbbe36e7c	-0.006940661
101	0xbb9551ad	-0.0045568557
102	0x3bd3f9e2	0.0064689973
103	0xbe061721	-0.1309476
104	0xbbfa2642	-0.007633955
105	0x3d513d76	0.051084004
106	0xbd545f49	-0.051848684
107	0xbccd6daa	-0.025076706
108	0x3cf7af4a	0.030234952
109	0xbdaa35c6	-0.08311038
110	0xbcc72668	-0.024310306
111	0xbd0b8001	-0.03405762
112	0x3d0d84c3	0.03455044
113	0x3c6628e5	0.014047836
114	0xbcbc61ba	-0.022995818
115	0x3d6c7a30	0.057733715
116	0xbd02d3e9	-0.031940375
117	0x3d947c2e	0.07250248
118	0xbbb1f2b0	-0.005430542
119	0xbd7659ff	-0.06014442
120	0x3d230fe5	0.03981008
121	0x3b857023	0.0040722056
122	0xbb8909a2	-0.0041820565
123	0xbc1ede6c	-0.009696584
124	0xba999478	-0.0011717221
125	0x3c4457e2	0.0119838435
126	0xbc23115c	-0.009952869
127	0xbd19b1c4	-0.037523046

action_model._continuous_distribution.log_sigma f4 [1, 2]
0	0x3e728b2a	0.236859
1	0x3df46763	0.11933782

action_model._continuous_distribution.mu.weight f4 [2, 128]
0	0x3cc38896	0.02386884
1	0x3cf4ab3f	0.029866813
2	0xbd2a009a	-0.04150448
3	0xbbdf5121	-0.0068150912
4	0xbd41e97b	-0.047341805
5	0xbcb8a47d	-0.022539372
6	0xbd7be67a	-0.061499096
7	0xbcea113d	-0.028572673
8	0xb9ff590d	-0.00048703738
9	0xbd724cdf	-0.05915534
10	0xbd10a6f8	-0.035315484
11	0xbd3f5490	-0.046711504
12	0xbd46c36f	-0.048526224
13	0xbd3dc255	-0.046327908
14	0x3d1412c8	0.036150724
15	0xbd21dac8	-0.039515287
16	0x3cf679a7	0.030087305
17	0x3caf131e	0.02137142
18	0xbc05391f	-0.0081312945
19	0xbc91de07	-0.017806066
20	0xbd5ed263	-0.05439986
21	0x3d319acb	0.043360513
22	0x3cacb556	0.021082561
23	0xbd3dbb89	-0.046321426
24	0xbd19bf06	-0.03753569
25	0xbd133d91	-0.035947386
26	0xbc2c2e0d	-0.010509026
27	0xbc84ee4a	-0.016226906
28	0x3cbcdc47	0.023054255
29	0x3d0c76e2	0.034293063
30	0xbcb51619	-0.022105264
31	0x38b62387	8.685054e-05
32	0x3d1b6bde	0.037944667
33	0x3c741051	0.014896468
34	0xbcb25b9d	-0.0217722
35	0x3c71215f	0.014717429
36	0x3b94ca21	0.004540697
37	0xbc251bc4	-0.010077421
38	0x3d3602d5	0.044436295
39	0xbd47f4b1	-0.04881734
40	0xbd2f04f0	-0.04272932
41	0xbc7f0b05	-0.015566592
42	0xbd1ad8a3	-0.037804257
43	0x3d04506c	0.03230326
44	0xbd8259a6	-0.06364755
45	0xbdab953a	-0.08378072
46	0x3c9f30e3	0.01943249
47	0x3bfa680a	0.007641797
48	0x3d5af8e8	0.05346003
49	0x3b1919a5	0.0023361233
50	0xbd697801	-0.05699921
51	0xbd51f477	-0.05125853
52	0xbd0479ac	-0.032342598
53	0x3bd02314	0.006351838
54	0xbd6e9329	-0.05824581
55	0x3bfd9fac	0.0077399816
56	0x3809d254	3.285923e-05
57	0x3d7249ee	0.059152536
58	0xbd0f822e	-0.03503626
59	0x3d84d175	0.06485263
60	0xbd356683	-0.044287216
61	0xbad72737	-0.0016414885
62	0xbd284ae5	-0.04108705
63	0xbccd30a7	-0.025047613
64	0xbd056ddd	-0.032575477
65	0xbd0b4725	-0.034003396
66	0xbbec98e7	-0.007220376
67	0x3c3b32bb	0.011425669
68	0x3b69fb83	0.0035702891
69	0xbd04ce22	-0.032423146
70	0xbc534d8f	-0.012896909
71	0x3cdecaab	0.027196249
72	0x3d37dd42	0.044888742
73	0xbbcb5e66	-0.0062063215
74	0x3a74fbbf	0.00093453744
75	0x3ca3d510	0.019999057
76	0x3d59ac64	0.05314292
77	0x3abf90ba	0.0014615275
78	0x3cd4ad81	0.02596164
79	0xbd4ed782	-0.050498493
80	0xbd56a70a	-0.052405395
81	0x3d333000	0.04374695
82	0x3d28c9ce	0.04120808
83	0xbd4dede9	-0.050275717
84	0xbd093824	-0.033500805
85	0x3cdebef7	0.027190669
86	0x3ccf2029	0.02528389
87	0xbd3ae6cb	-0.045630258
88	0xbc81adeb	-0.01583
89	0xbccf874b	-0.025333067
90	0xbd991236	-0.074741766
91	0xbd2b3b82	-0.041804798
92	0x3cab8e17	0.020941777
93	0x3d1aac0b	0.03776173
94	0xbd08ca08	-0.033395797
95	0xbc109be2	-0.008826228
96	0xbb28073c	-0.0025639078
97	0x3d84b16e	0.064791545
98	0xbc495aff	-0.012289762
99	0xbd493766	-0.049125098
100	0xbd2f25de	-0.042760722
101	0x3d6fc46c	0.058536932
102	0xbcaba67b	-0.020953408
103	0xbd839740	-0.06425333
104	0x3d3ba48b	0.045811217
105	0xbd25e113	-0.04049785
106	0xbcddd38d	-0.027078414
107	0xbcb0b623	-0.021571225
108	0xbd4e5829	-0.050377045
109	0xbccbd7d1	-0.024883183
110	0xbcedd1dc	-0.029030733
111	0x3c79977f	0.015233873
112	0xbd118d90	-0.035535395
113	0x3c07f971	0.008299218
114	0x3d9bdf42	0.076109424
115	0x3daa8aa4	0.08327225
116	0x3cd14567	0.025545789
117	0xbd576740	-0.0525887
118	0xbc82749d	-0.015924746
119	0x3d17ba83	0.037043106
120	0x3d4959b2	0.049157806
121	0xbcdbaa2f	-0.026814548
122	0x3d3add51	0.04562122
123	0xbcd81984	-0.026379354
124	0xbcb6e747	-0.022327079
125	0xbc0379fc	-0.008024689
126	0xbc930da1	-0.017950835
127	0x3d8a0d17	0.06740778
128	0xbd88b1af	-0.066745155
129	0xbd2df5e3	-0.042470824
130	0xbbdc577d	-0.0067242966
131	0xbd3b2758	-0.045691818
132	0x3b09ad44	0.0021007815
133	0xbc949c46	-0.018140923
134	0x3d39f7a6	0.04540219
135	0xbcbe539c	-0.023233227
136	0xbd952caf	-0.07283913
137	0x3c93f248	0.018059865
138	0x3cce2d80	0.02516818
139	0x3c550f6e	0.013004167
140	0xbd9ba29d	-0.075993754
141	0xbc7966dd	-0.015222278
142	0xbd21ddb2	-0.039518066
143	0xbd2e58b5	-0.042565066
144	0xbd5e1225	-0.054216523
145	0xbd2b443d	-0.041813124
146	0xbd891515	-0.06693474
147	0xbd9ab6f5	-0.075544275
148	0x3c77697f	0.015100836
149	0xbd5d4a1e	-0.05402576
150	0xbc862a6e	-0.016377654
151	0xbcfd25aa	-0.030901749
152	0xbd7443e9	-0.059635077
153	0xbbd51fc6	-0.006504032
154	0xbda979e0	-0.08275199
155	0xbd8b4e9d	-0.06802104
156	0xbc9f7fbd	-0.01947009
157	0xbd0eb75a	-0.034842826
158	0xbd970493	-0.07373919
159	0x3ca8ec21	0.020620408
160	0x3d1c8126	0.038209103
161	0xbd74b984	-0.059747234
162	0xbd4de4cc	-0.050267026
163	0x3cf23f3d	0.02957117
164	0xbd51f01a	-0.05125437
165	0xbd89cc89	-0.06728465
166	0xbd0a6995	-0.033792097
167	0xbbb224b0	-0.0054365024
168	0xbbe2e4b4	-0.006924236
169	0xbd881592	-0.06644739
170	0xbced1da1	-0.028944792
171	0xbcf3ec7e	-0.029775854
172	0xbc8d0580	-0.017214537
173	0xbbf36bf8	-0.0074286424
174	0xbd1e1cb3	-0.03860159
175	0xbd157075	-0.0364842
176	0xbd5c88a0	-0.053841233
177	0xbcdb2a52	-0.026753578
178	0x3b9ee6c8	0.0048492886
179	0xbd400918	-0.046883672
180	0xbd00fdba	-0.031491973
181	0xbd187368	-0.037219435
182	0x3bb8d14f	0.005640186
183	0x3ba5539a	0.0050453665
184	0xbc77f7b9	-0.015134745
185	0xbda51da2	-0.08062293
186	0xbd60e24e	-0.05490332
187	0xbd28ed27	-0.04124179
188	0xbdac4e87	-0.084134154
189	0xbd406520	-0.04697144
190	0xbb023e71	-0.0019873644
191	0xbd6a54e2	-0.057209857
192	0xbd05ac93	-0.032635283
193	0xbd8f8850	-0.070084214
194	0xbd54f747	-0.051993635
195	0xbd81d865	-0.06340102
196	0xbd78c892	-0.060738154
197	0xbc5fd6c6	-0.013662046
198	0x3c103318	0.008801244
199	0xbcf32ac7	-0.029683484
200	0xbd128e70	-0.03578037
201	0xbd9b1dce	-0.07574044
202	0xbd91b673	-0.071148776
203	0xbc78a4ea	-0.015176037
204	0xbd451168	-0.048112303
205	0xbcd15f9e	-0.02555829
206	0xbd62e23a	-0.055391528
207	0xbbf94f54	-0.0076083336
208	0xba5c4c4e	-0.0008403704
209	0x3d0a7208	0.033800155
210	0xbd2f336a	-0.04277364
211	0xbbb5dbfe	-0.0055499068
212	0xbd88ea41	-0.066853054
213	0xbcdccf9b	-0.026954463
214	0xbc4646ba	-0.012101823
215	0xbc28f9b8	-0.010313444
216	0xbce94745	-0.028476367
217	0xbd85b117	-0.06527918
218	0xbc7a3a90	-0.015272751
219	0xbc507a75	-0.0127245085
220	0xbde94625	-0.11390332
221	0x3bf0cd93	0.007348725
222	0xbd795137	-0.060868468
223	0xbcdad47e	-0.026712652
224	0xbd986d26	-0.074426934
225	0xbbcfd3ce	-0.0063423878
226	0xbca7fad8	-0.020505354
227	0xbcee6c6d	-0.029104436
228	0xbda4068d	-0.08009062
229	0xbd25e3aa	-0.04050032
230	0xbc30f6d7	-0.010801039
231	0xbd5564bd	-0.052098025
232	0xbd293139	-0.041306708
233	0x3a8bcfc4	0.0010666777
234	0x3d5b359c	0.053517923
235	0x3cba824f	0.022767214
236	0xbca92051	-0.020645292
237	0xbd82a720	-0.06379533
238	0xbd9249dd	-0.071429946
239	0xbda020df	-0.0781877
240	0x3d1e8948	0.03870514
241	0xbd9b2acb	-0.075765215
242	0xba05530a	-0.0005085921
243	0x3d944c8d	0.072411634
244	0xbd8c6f50	-0.06857169
245	0xbd375bc3	-0.044765245
246	0xbcd02755	-0.02540938
247	0x3aaeb50c	0.0013329103
248	0x3d6758aa	0.05648104
249	0x3cd30247	0.025757922
250	0xbd2d6ffa	-0.042343117
251	0xbc105f62	-0.008811804
252	0xbda6ba25	-0.08140973
253	0xbd5b2b59	-0.053508136
254	0x3c35bce0	0.011092395
255	0xbcb46933	-0.02202282

action_model._continuous_distribution.mu.bias f4 [2]
0	0x3d73c62a	0.059515156
1	0x3b7f9be7	0.0039002837

exp_avg f4 [128, 149]
0	0x2f0d48c4	1.2849727e-10
1	0xb82d7c8c	-4.1362408e-05
2	0x00000004	6e-45
3	0x317b2204	3.6544643e-09
4	0xb32bc923	-3.9996973e-08
5	0x2f00247d	1.1654495e-10
6	0xb82d789c	-4.135874e-05
7	0x00000000	0.0
8	0x00000004	6e-45
9	0xb340e2e8	-4.4909854e-08
10	0x2f0fc957	1.3077305e-10
11	0xb82d80b0	-4.1366264e-05
12	0x00000000	0.0
13	0x3200e0ea	7.50172e-09
14	0xb3257e81	-3.853211e-08
15	0x2f00247d	1.1654495e-10
16	0xb82d789c	-4.135874e-05
17	0x80000004	-6e-45
18	0x00000000	0.0
19	0xb34b115b	-4.7280405e-08
20	0x2f21e391	1.4723713e-10
21	0xb82d78a7	-4.135878e-05
22	0x00000000	0.0
23	0x00000000	0.0
24	0xb3434ec3	-4.547361e-08
25	0x80000004	-6e-45
26	0xb82d787f	-4.1358635e-05
27	0x80000004	-6e-45
28	0x00000000	0.0
29	0xb37a8d67	-5.8336266e-08
30	0x2fabed1c	3.1273195e-10
31	0xb82d78d6	-4.135895e-05
32	0x00000000	0.0
33	0x00000000	0.0
34	0xb377ae0f	-5.7667474e-08
35	0x00000004	6e-45
36	0xb82d787f	-4.1358635e-05
37	0x00000000	0.0
38	0x00000000	0.0
39	0xb64a4d0a	-3.0145188e-06
40	0x2fa8850d	3.065356e-10
41	0xb82d78d2	-4.1358937e-05
42	0x00000000	0.0
43	0x00000000	0.0
44	0xb650cd1c	-3.1113805e-06
45	0x00000004	6e-45
46	0xb82d787f	-4.1358635e-05
47	0x00000000	0.0
48	0x00000000	0.0
49	0xb650d4d8	-3.1118307e-06
50	0xad1a5e68	-8.774849e-12
51	0xb82d787a	-4.1358617e-05
52	0x00000000	0.0
53	0x00000000	0.0
54	0xb60a6a9d	-2.062566e-06
55	0x80000004	-6e-45
56	0xb82d787f	-4.1358635e-05
57	0x00000000	0.0
58	0x00000000	0.0
59	0xb666a036	-3.4365926e-06
60	0x2ec3d695	8.905691e-11
61	0xb82d7895	-4.1358715e-05
62	0x00000000	0.0
63	0x00000000	0.0
64	0xb5e73426	-1.7226018e-06
65	0x80000004	-6e-45
66	0xb82d787f	-4.1358635e-05
67	0x00000000	0.0
68	0x00000000	0.0
69	0xb68a5aad	-4.1232765e-06
70	0x80000004	-6e-45
71	0xb7d84f31	-2.5786083e-05
72	0x80000004	-6e-45
73	0xb782a1cd	-1.5572552e-05
74	0xb7ce14e4	-2.4566842e-05
75	0x80000004	-6e-45
76	0xb82d787f	-4.1358635e-05
77	0x00000000	0.0
78	0x00000004	6e-45
79	0xb789f045	-1.6443557e-05
80	0xb7bd482e	-2.2564167e-05
81	0xb79da8ce	-1.8794464e-05
82	0x80000004	-6e-45
83	0x80000004	-6e-45
84	0xb7c24e72	-2.3163131e-05
85	0x00000004	6e-45
86	0xb82d787f	-4.1358635e-05
87	0x00000000	0.0
88	0x00000000	0.0
89	0xb70e5ee2	-8.485951e-06
90	0x80000004	-6e-45
91	0xb82d787f	-4.1358635e-05
92	0x00000000	0.0
93	0x00000000	0.0
94	0xb6c78bec	-5.946951e-06
95	0x00000004	6e-45
96	0xb82d787f	-4.1358635e-05
97	0x00000000	0.0
98	0x00000000	0.0
99	0xb6c848fc	-5.968961e-06
100	0x80000004	-6e-45
101	0xb82d787f	-4.1358635e-05
102	0x00000000	0.0
103	0x00000000	0.0
104	0x36821a00	3.8773287e-06
105	0x00000004	6e-45
106	0xb82d787f	-4.1358635e-05
107	0x00000000	0.0
108	0x00000000	0.0
109	0xb59043bf	-1.0748553e-06
110	0x00000004	6e-45
111	0xb82d787f	-4.1358635e-05
112	0x00000000	0.0
113	0x00000000	0.0
114	0xb59573aa	-1.1135028e-06
115	0x80000004	-6e-45
116	0xb82d787f	-4.1358635e-05
117	0x00000000	0.0
118	0x00000000	0.0
119	0xb594e2c8	-1.1092861e-06
120	0x80000004	-6e-45
121	0xb82d787f	-4.1358635e-05
122	0x00000000	0.0
123	0x00000000	0.0
124	0xb5a51a4e	-1.2301114e-06
125	0x00000000	0.0
126	0xb82d787f	-4.1358635e-05
127	0x00000000	0.0
128	0x00000000	0.0
129	0xb58d992a	-1.0549895e-06
130	0x00000000	0.0
131	0xb82d787f	-4.1358635e-05
132	0x00000000	0.0
133	0x00000000	0.0
134	0xb5c61c64	-1.4760412e-06
135	0x00000000	0.0
136	0xb82d787f	-4.1358635e-05
137	0x00000000	0.0
138	0x00000000	0.0
139	0xb5703d13	-8.949584e-07
140	0x3a122e88	0.00055763917
141	0x38b07426	8.413968e-05
142	0x00000000	0.0
143	0xba137182	-0.0005624519
144	0x39053f20	0.00012707384
145	0x00000000	0.0
146	0x34c6ab75	3.7005125e-07
147	0xb881dcc6	-6.1923216e-05
148	0x00000000	0.0
149	0x3296aa08	1.753962e-08
150	0xb87ffb04	-6.1030514e-05
151	0x00000004	6e-45
152	0x37638f74	1.3563655e-05
153	0x36c67f40	5.9156737e-06
154	0x328c87c1	1.6359879e-08
155	0xb84715e6	-4.746569e-05
156	0x00000000	0.0
157	0x00000004	6e-45
158	0xb8064f68	-3.2022042e-05
159	0x32963269	1.7485222e-08
160	0xb82d7ebd	-4.136445e-05
161	0x00000000	0.0
162	0xb6ccc2ef	-6.102367e-06
163	0xb86561d3	-5.468896e-05
164	0x328c87be	1.6359873e-08
165	0xb84715e6	-4.746569e-05
166	0x00000004	6e-45
167	0x00000000	0.0
168	0xb86754f2	-5.5153803e-05
169	0x32b0ed84	2.0597106e-08
170	0xb8471a70	-4.746992e-05
171	0x00000000	0.0
172	0x00000000	0.0
173	0xb7f08922	-2.8674087e-05
174	0x80000004	-6e-45
175	0xb8470454	-4.7449328e-05
176	0x00000004	6e-45
177	0x00000000	0.0
178	0xb7a3d41f	-1.952989e-05
179	0x336a4552	5.4545417e-08
180	0xb8473ee5	-4.7503872e-05
181	0x00000000	0.0
182	0x00000000	0.0
183	0xb83a1516	-4.4365494e-05
184	0x00000004	6e-45
185	0xb8470454	-4.7449328e-05
186	0x00000000	0.0
187	0x00000000	0.0
188	0xb750fc83	-1.2456559e-05
189	0x341857e4	1.4188078e-07
190	0xb8479caa	-4.7591202e-05
191	0x00000000	0.0
192	0x00000000	0.0
193	0xb757c5c4	-1.28610445e-05
194	0x00000004	6e-45
195	0xb8470454	-4.7449328e-05
196	0x00000000	0.0
197	0x00000000	0.0
198	0xb679dd27	-3.723262e-06
199	0x323c99e6	1.0978033e-08
200	0xb8471020	-4.7460315e-05
201	0x00000000	0.0
202	0x00000000	0.0
203	0xb785d32e	-1.5953174e-05
204	0x00000004	6e-45
205	0xb8470454	-4.7449328e-05
206	0x00000000	0.0
207	0x00000000	0.0
208	0xb3a27600	-7.565177e-08
209	0x33287787	3.9224258e-08
210	0xb8472e73	-4.7488556e-05
211	0x00000000	0.0
212	0x00000000	0.0
213	0xb82b5132	-4.0845196e-05
214	0x80000004	-6e-45
215	0xb8470454	-4.7449328e-05
216	0x00000000	0.0
217	0x00000000	0.0
218	0x35eb13e9	1.7514659e-06
219	0x00000004	6e-45
220	0xb823c463	-3.9045128e-05
221	0x80000004	-6e-45
222	0xb70cffc2	-8.4041985e-06
223	0x359dcb7e	1.1756636e-06
224	0x00000004	6e-45
225	0xb8470454	-4.7449328e-05
226	0x00000000	0.0
227	0x80000004	-6e-45
228	0x376b4b2c	1.4024594e-05
229	0x3831c879	4.2386793e-05
230	0xb8bc6666	-8.983612e-05
231	0x80000004	-6e-45
232	0x00000004	6e-45
233	0x37d274f8	2.5088419e-05
234	0x00000004	6e-45
235	0xb8470454	-4.7449328e-05
236	0x00000000	0.0
237	0x00000000	0.0
238	0x36f2da73	7.237593e-06
239	0x00000004	6e-45
240	0xb8470454	-4.7449328e-05
241	0x00000000	0.0
242	0x00000000	0.0
243	0x34cef60c	3.8549513e-07
244	0x80000004	-6e-45
245	0xb8470454	-4.7449328e-05
246	0x00000000	0.0
247	0x00000000	0.0
248	0x36aad248	5.0908748e-06
249	0x00000004	6e-45
250	0xb8470454	-4.7449328e-05
251	0x00000000	0.0
252	0x00000000	0.0
253	0xb791db00	-1.7387327e-05
254	0x00000004	6e-45
255	0xb8470456	-4.7449335e-05

exp_avg_sq f4 [128, 149]
0	0x2a808b65	2.2834092e-13
1	0x315701c4	3.1287621e-09
2	0x000001f4	7e-43
3	0x2f859f92	2.430594e-10
4	0x2fa1a75c	2.9404645e-10
5	0x299e28b2	7.023669e-14
6	0x3169f148	3.4043115e-09
7	0x00000000	0.0
8	0x25dfcaa8	3.882166e-16
9	0x2f640d29	2.0741155e-10
10	0x2bacb8a7	1.2272586e-12
11	0x3161e089	3.2869443e-09
12	0x00000000	0.0
13	0x2eeefce5	1.086791e-10
14	0x2f90a523	2.6310784e-10
15	0x29985c2e	6.7661466e-14
16	0x3169f1dc	3.4043444e-09
17	0x072ce6a8	1.3007626e-34
18	0x00000000	0.0
19	0x2ef9ab8c	1.1353682e-10
20	0x2b315028	6.299427e-13
21	0x3169f00f	3.404242e-09
22	0x00000000	0.0
23	0x00000000	0.0
24	0x2f0196eb	1.1786098e-10
25	0x000001f4	7e-43
26	0x3169f7cd	3.404682e-09
27	0x072ce6a8	1.3007626e-34
28	0x00000000	0.0
29	0x2e20b34b	3.6539032e-11
30	0x2b594108	7.7184136e-13
31	0x3169df37	3.4032845e-09
32	0x00000000	0.0
33	0x00000000	0.0
34	0x2eed500b	1.0791731e-10
35	0x000001f4	7e-43
36	0x3169f7d0	3.4046828e-09
37	0x00000000	0.0
38	0x00000000	0.0
39	0x2d7df0e3	1.4434873e-11
40	0x2b530e2e	7.4981937e-13
41	0x3169f53f	3.4045369e-09
42	0x00000000	0.0
43	0x00000000	0.0
44	0x2d8726da	1.5364977e-11
45	0x000001f4	7e-43
46	0x3169f7d0	3.4046828e-09
47	0x00000000	0.0
48	0x00000000	0.0
49	0x2d3fa7b7	1.0894333e-11
50	0x2b9235c0	1.0388843e-12
51	0x3169fdee	3.4050305e-09
52	0x00000000	0.0
53	0x00000000	0.0
54	0x2d859b70	1.5189378e-11
55	0x000001f4	7e-43
56	0x3169f7ce	3.4046823e-09
57	0x00000000	0.0
58	0x00000000	0.0
59	0x2d31b6dc	1.0101888e-11
60	0x2badc868	1.2348013e-12
61	0x3169dca9	3.4031393e-09
62	0x00000000	0.0
63	0x00000000	0.0
64	0x2e573854	4.893537e-11
65	0x000001f4	7e-43
66	0x3169f7ce	3.4046823e-09
67	0x00000000	0.0
68	0x00000000	0.0
69	0x2d6caa2e	1.3452834e-11
70	0x2301aa6e	7.029194e-18
71	0x3083bfd8	9.58603e-10
72	0x000001f4	7e-43
73	0x311e4561	2.3031463e-09
74	0x31246a8e	2.392571e-09
75	0x2154c728	7.2091975e-19
76	0x3169f7ce	3.4046823e-09
77	0x00000000	0.0
78	0x0a5db569	1.06748824e-32
79	0x2f8622e5	2.4399252e-10
80	0x2f4720d7	1.8110612e-10
81	0x315ddd65	3.228558e-09
82	0x000001f4	7e-43
83	0x10512fcc	4.1254804e-29
84	0x3026fc4f	6.0749e-10
85	0x000d5eb2	1.227832e-39
86	0x3169f7ce	3.4046823e-09
87	0x00000000	0.0
88	0x00000000	0.0
89	0x2e8ee63c	6.49831e-11
90	0x000001f4	7e-43
91	0x3169f7ce	3.4046823e-09
92	0x00000000	0.0
93	0x00000000	0.0
94	0x2fc028a8	3.4953485e-10
95	0x00000f89	5.573e-42
96	0x3169f7ce	3.4046823e-09
97	0x00000000	0.0
98	0x00000000	0.0
99	0x2e0d691d	3.2153048e-11
100	0x000001f4	7e-43
101	0x3169f7ce	3.4046823e-09
102	0x00000000	0.0
103	0x00000000	0.0
104	0x2f7b0a94	2.2832075e-10
105	0x25a13e47	2.797125e-16
106	0x3169f7d1	3.404683e-09
107	0x00000000	0.0
108	0x00000000	0.0
109	0x2f1dcbcc	1.435147e-10
110	0x1a6f758c	4.9518995e-23
111	0x3169f7d0	3.4046828e-09
112	0x00000000	0.0
113	0x00000000	0.0
114	0x2d8a36d5	1.5713134e-11
115	0x000001f4	7e-43
116	0x3169f7d0	3.4046828e-09
117	0x00000000	0.0
118	0x00000000	0.0
119	0x2f27ce62	1.5261883e-10
120	0x000001f4	7e-43
121	0x3169f7d0	3.4046828e-09
122	0x00000000	0.0
123	0x00000000	0.0
124	0x2d7460c4	1.38912805e-11
125	0x00000000	0.0
126	0x3169f7d0	3.4046828e-09
127	0x00000000	0.0
128	0x00000000	0.0
129	0x2eaf0b70	7.9601103e-11
130	0x00000000	0.0
131	0x3169f7d0	3.4046828e-09
132	0x00000000	0.0
133	0x00000000	0.0
134	0x2da3a3e8	1.8603744e-11
135	0x00000000	0.0
136	0x3169f7d0	3.4046828e-09
137	0x00000000	0.0
138	0x00000000	0.0
139	0x2e666c14	5.2391938e-11
140	0x360589c3	1.9898732e-06
141	0x346c87f5	2.2028674e-07
142	0x00000000	0.0
143	0x36058e36	1.9901322e-06
144	0x3420285b	1.4915842e-07
145	0x00000000	0.0
146	0x358b3e5f	1.0374459e-06
147	0x34c88554	3.7349912e-07
148	0x00000000	0.0
149	0x3433f988	1.6761453e-07
150	0x36d7a04f	6.4261617e-06
151	0x000001f4	7e-43
152	0x370337ae	7.821172e-06
153	0x3704f6e2	7.925295e-06
154	0x32413c5f	1.1247805e-08
155	0x37659b0c	1.3685563e-05
156	0x00000000	0.0
157	0x2083aff6	2.2308704e-19
158	0x3661c49c	3.3642054e-06
159	0x3457a0fe	2.0082004e-07
160	0x37546ccb	1.2661515e-05
161	0x00000000	0.0
162	0x356c21e3	8.796616e-07
163	0x36958fc5	4.457283e-06
164	0x319d2077	4.572992e-09
165	0x37653c10	1.3663448e-05
166	0x017b7aa3	4.6189407e-38
167	0x00000000	0.0
168	0x364712be	2.966422e-06
169	0x3485d6ec	2.4929557e-07
170	0x37651bf4	1.3655972e-05
171	0x00000000	0.0
172	0x00000000	0.0
173	0x362c4802	2.5671911e-06
174	0x000001f4	7e-43
175	0x376521b6	1.3657313e-05
176	0x017b7aa3	4.6189407e-38
177	0x00000000	0.0
178	0x359847b1	1.1345747e-06
179	0x34eb5101	4.38311e-07
180	0x375e850a	1.3263207e-05
181	0x00000000	0.0
182	0x00000000	0.0
183	0x36807eb6	3.8294484e-06
184	0x000001f4	7e-43
185	0x376521b6	1.3657313e-05
186	0x00000000	0.0
187	0x00000000	0.0
188	0x34a7ec05	3.12779e-07
189	0x351c09f8	5.8129035e-07
190	0x375aecd7	1.3048956e-05
191	0x00000000	0.0
192	0x00000000	0.0
193	0x34aec8a4	3.255601e-07
194	0x000001f4	7e-43
195	0x376521b6	1.3657313e-05
196	0x00000000	0.0
197	0x00000000	0.0
198	0x33d67b2d	9.987557e-08
199	0x360f4e38	2.135419e-06
200	0x374027be	1.1453345e-05
201	0x00000000	0.0
202	0x00000000	0.0
203	0x34ca8df0	3.7728705e-07
204	0x0026d224	3.565133e-39
205	0x376521b6	1.3657313e-05
206	0x00000000	0.0
207	0x00000000	0.0
208	0x32f956c6	2.9026875e-08
209	0x34a0d091	2.9954074e-07
210	0x37601ecd	1.3358612e-05
211	0x00000000	0.0
212	0x00000000	0.0
213	0x36246f88	2.4502824e-06
214	0x0016b77c	2.086203e-39
215	0x376521b6	1.3657313e-05
216	0x00000000	0.0
217	0x00000000	0.0
218	0x327cc863	1.4713893e-08
219	0x2105c2b8	4.531986e-19
220	0x3764dee2	1.3641753e-05
221	0x000001f4	7e-43
222	0x3281d4d2	1.5114356e-08
223	0x3288b4a1	1.5914624e-08
224	0x2132cb13	6.057751e-19
225	0x376521b6	1.3657313e-05
226	0x00000000	0.0
227	0x0abbec3e	1.809631e-32
228	0x313cb615	2.7461102e-09
229	0x318f3715	4.16811e-09
230	0x3765090a	1.3651568e-05
231	0x000001f4	7e-43
232	0x0a914d3e	1.3992047e-32
233	0x31c06aa9	5.6000613e-09
234	0x02f7311c	3.6321575e-37
235	0x376521b6	1.3657313e-05
236	0x00000000	0.0
237	0x00000000	0.0
238	0x3049083c	7.3135076e-10
239	0x000001f4	7e-43
240	0x376521b6	1.3657313e-05
241	0x00000000	0.0
242	0x00000000	0.0
243	0x311e93b6	2.307599e-09
244	0x024d402c	1.5079438e-37
245	0x376521b6	1.3657313e-05
246	0x00000000	0.0
247	0x00000000	0.0
248	0x2fc6ed2b	3.6184508e-10
249	0x000001f4	7e-43
250	0x376521b6	1.3657313e-05
251	0x00000000	0.0
252	0x00000000	0.0
253	0x30b1a593	1.2925504e-09
254	0x193f868e	9.901642e-24
255	0x376521b7	1.36573135e-05

exp_avg f4 [128]
0	0xb82d787f	-4.1358635e-05
1	0xb8470454	-4.7449328e-05
2	0xb7497868	-1.2008568e-05
3	0xb63caa87	-2.8113443e-06
4	0xb8af6a50	-8.3644525e-05
5	0xb8aa59bc	-8.122946e-05
6	0x3702faa6	7.8069625e-06
7	0xbab070ad	-0.0013461314
8	0xb7ea7694	-2.7950191e-05
9	0xb8a611fa	-7.918845e-05
10	0x37f85b9e	2.9606566e-05
11	0xb7be14f2	-2.2659518e-05
12	0xba97a184	-0.0011568521
13	0x39cf52af	0.0003954372
14	0x37235606	9.735586e-06
15	0xb8afbdc7	-8.379999e-05
16	0x3aa98ddd	0.0012935955
17	0xb87574db	-5.8521382e-05
18	0x388191cc	6.178356e-05
19	0x39e16217	0.00042988427
20	0x382529f7	3.937815e-05
21	0xb8fd7512	-0.00012085786
22	0x39837d7e	0.00025079766
23	0xb7879210	-1.616127e-05
24	0xbac45e51	-0.0014981722
25	0xb8c4828a	-9.370323e-05
26	0x39c4032c	0.00037386396
27	0xb8ce3365	-9.8324184e-05
28	0xb835566c	-4.323425e-05
29	0xbad22078	-0.0016031405
30	0x39b3d46c	0.00034299807
31	0x3a0e6672	0.00054321357
32	0x39047e0b	0.00012635456
33	0x39eb796e	0.00044913165
34	0x3a065972	0.0005125023
35	0xbb0d47f9	-0.0021557792
36	0x3889198e	6.537429e-05
37	0x38a765bc	7.98213e-05
38	0xba86371c	-0.0010239813
39	0xb91d6336	-0.00015009646
40	0xb99f90f0	-0.0003043483
41	0xb94d474d	-0.00019576885
42	0xb789a8b4	-1.6410231e-05
43	0xb8af891b	-8.370188e-05
44	0xb7e01a1f	-2.6715044e-05
45	0xb96462e3	-0.00021780613
46	0x39fa359e	0.00047723664
47	0xba9723e6	-0.0011531084
48	0x38159a78	3.566823e-05
49	0xb94d1ee1	-0.00019561827
50	0x38a3a13c	7.802478e-05
51	0xb90fcf3c	-0.00013714744
52	0xb929cc60	-0.00016193232
53	0x39e02e2d	0.00042759013
54	0xb8bd42e9	-9.024685e-05
55	0xb7a3aceb	-1.9511635e-05
56	0xba8d1876	-0.0010764736
57	0xb9212641	-0.00015368407
58	0xb844e2c2	-4.6941226e-05
59	0xb8a5af1b	-7.900429e-05
60	0x39813205	0.00024642065
61	0x391cdfd8	0.00014960708
62	0xb87d433d	-6.038252e-05
63	0x38ae6645	8.316016e-05
64	0xb882cdb7	-6.2372004e-05
65	0xb9465f56	-0.00018918267
66	0x3988456a	0.0002599166
67	0xb7238260	-9.745912e-06
68	0xb906a509	-0.00012840716
69	0xb8f0d858	-0.00011484389
70	0x37dfa561	2.6660682e-05
71	0xb897aeed	-7.2328236e-05
72	0xbad55b17	-0.0016277757
73	0xb88a8ff2	-6.607165e-05
74	0xb7adb2e0	-2.0706502e-05
75	0xb843aaad	-4.6650577e-05
76	0x3a3d2fe2	0.0007216913
77	0xb7ff2e16	-3.041983e-05
78	0x38953b0b	7.115871e-05
79	0xb8dd1e9f	-0.00010543805
80	0xb8816427	-6.169854e-05
81	0xb8242edd	-3.914429e-05
82	0xb9942ef5	-0.00028263745
83	0x37483cb5	1.1935063e-05
84	0xb8d03c73	-9.9294724e-05
85	0x39677e7c	0.00022076996
86	0x382b2912	4.0807827e-05
87	0xb979d637	-0.00023826292
88	0xbadc4ffa	-0.0016808503
89	0xb8baaaea	-8.9010064e-05
90	0x3a881982	0.0010383578
91	0xb7a5d7d8	-1.9770043e-05
92	0xb8221287	-3.8641065e-05
93	0xb91e63d6	-0.00015105246
94	0xb8dd08c0	-0.00010539731
95	0xba59499b	-0.0008288861
96	0x38caf6a8	9.678054e-05
97	0xb7b96709	-2.2101698e-05
98	0xba063cf0	-0.0005120775
99	0xba2df665	-0.0006636142
100	0x3a0df16b	0.0005414697
101	0xb896ed33	-7.196739e-05
102	0xb77a7440	-1.4928228e-05
103	0x39e8bcaa	0.00044391054
104	0x39bac930	0.0003562658
105	0xb8b55b0a	-8.64771e-05
106	0xb8b42d84	-8.591547e-05
107	0xb3ace958	-8.051819e-08
108	0x387a3a6f	5.9659065e-05
109	0xb8b5fd51	-8.6779364e-05
110	0x3a69d073	0.0008919306
111	0xb8c34c44	-9.31253e-05
112	0x39961e6c	0.00028632896
113	0x37fc8374	3.0101954e-05
114	0xba7f5c7c	-0.0009741259
115	0xb9eb5fa3	-0.00044893948
116	0xb95ac64a	-0.00020863969
117	0xb8155ef3	-3.5612797e-05
118	0xb90deeeb	-0.00013535812
119	0xb87ebf37	-6.07364e-05
120	0xb88db6fb	-6.757487e-05
121	0xb8708906	-5.7348072e-05
122	0xb851dc0b	-5.0034414e-05
123	0x38e39db6	0.000108535794
124	0xb7a575f3	-1.9724457e-05
125	0x39a758ff	0.0003191903
126	0xba230ac6	-0.0006219562
127	0x38d23977	0.00010024284

exp_avg_sq f4 [128]
0	0x3169f7d0	3.4046828e-09
1	0x376521b6	1.3657313e-05
2	0x365479f2	3.1661443e-06
3	0x2e5bd41d	4.998323e-11
4	0x3458d781	2.0194967e-07
5	0x32f79a2e	2.8824697e-08
6	0x365acf8e	3.2605344e-06
7	0x36ae3d63	5.1927505e-06
8	0x332440ef	3.8243282e-08
9	0x3299f1ff	1.7921591e-08
10	0x3763b9ce	1.3573515e-05
11	0x33697ffa	5.4365934e-08
12	0x38045b5a	3.155633e-05
13	0x36560986	3.1894028e-06
14	0x35c5c725	1.4735602e-06
15	0x35ac3274	1.2829682e-06
16	0x36e600a4	6.8546087e-06
17	0x3508342d	5.0739874e-07
18	0x366121ad	3.3547215e-06
19	0x37827261	1.555047e-05
20	0x362fd592	2.6201346e-06
21	0x350989ef	5.1237197e-07
22	0x3676db0f	3.6784365e-06
23	0x3283cb65	1.53429e-08
24	0x369d7f80	4.6938076e-06
25	0x33a68181	7.753534e-08
26	0x374f75f3	1.2365624e-05
27	0x3309df46	3.2100864e-08
28	0x3271c6a5	1.4073213e-08
29	0x37ae66ca	2.0790281e-05
30	0x381ce9be	3.7410988e-05
31	0x361eb8d6	2.3651423e-06
32	0x3635533f	2.7019557e-06
33	0x3690835f	4.306828e-06
34	0x3836da35	4.3595403e-05
35	0x376bc701	1.4053426e-05
36	0x371bfa5c	9.297011e-06
37	0x331ef0f7	3.7006398e-08
38	0x370b8ee1	8.318312e-06
39	0x374b77b1	1.2127611e-05
40	0x36d4cbad	6.3418033e-06
41	0x3705b086	7.968518e-06
42	0x2ffe9169	4.630565e-10
43	0x32c9f254	2.3509678e-08
44	0x32a9390e	1.9700135e-08
45	0x370d1b01	8.410542e-06
46	0x3687adaa	4.0435307e-06
47	0x3704aab9	7.907563e-06
48	0x370cfb60	8.403178e-06
49	0x37b1b797	2.1185535e-05
50	0x34eb49bb	4.3825807e-07
51	0x3657bb89	3.2146656e-06
52	0x3402dacd	1.2186793e-07
53	0x36bb58ab	5.5833566e-06
54	0x3549e82e	7.52162e-07
55	0x32aa73fc	1.9843348e-08
56	0x37207eb5	9.566244e-06
57	0x37d562e6	2.5437632e-05
58	0x321afdb5	9.021666e-09
59	0x3474068e	2.2726655e-07
60	0x384e5d18	4.9200928e-05
61	0x33fa27a3	1.1648742e-07
62	0x31e1a480	6.5670633e-09
63	0x35c5ed2b	1.4746669e-06
64	0x37500e89	1.240115e-05
65	0x35441038	7.303929e-07
66	0x37c4565a	2.3405231e-05
67	0x368ec393	4.2546976e-06
68	0x3619707d	2.2864253e-06
69	0x358cc860	1.048913e-06
70	0x3627829b	2.4960962e-06
71	0x36a31d67	4.8612014e-06
72	0x370f6c5d	8.5486945e-06
73	0x3835a9fb	4.331207e-05
74	0x37ba1e08	2.2186912e-05
75	0x36920276	4.3514256e-06
76	0x370291b4	7.782528e-06
77	0x3305356a	3.1015055e-08
78	0x31f38d86	7.08832e-09
79	0x3378902d	5.7873127e-08
80	0x32cb9757	2.3701132e-08
81	0x329c7a0a	1.8216287e-08
82	0x36de4573	6.6242005e-06
83	0x35cf236e	1.5433013e-06
84	0x3554d58f	7.9286923e-07
85	0x37004c11	7.647105e-06
86	0x35fce9ad	1.8843472e-06
87	0x3490e5fb	2.6989423e-07
88	0x37822ced	1.5518128e-05
89	0x32ee0ca9	2.7712604e-08
90	0x38207888	3.8259226e-05
91	0x37e45c75	2.7222772e-05
92	0x3416d56e	1.4047484e-07
93	0x37176a18	9.025003e-06
94	0x33a2a810	7.574283e-08
95	0x372001a4	9.537125e-06
96	0x366434ec	3.4005452e-06
97	0x368f4099	4.2692523e-06
98	0x3735b19b	1.0829793e-05
99	0x35f55226	1.8277831e-06
100	0x34e82d7d	4.3246465e-07
101	0x329242d7	1.7027032e-08
102	0x3143ee60	2.8511735e-09
103	0x35892338	1.0217545e-06
104	0x34bc22c9	3.5043038e-07
105	0x3264e6b2	1.3323801e-08
106	0x32d20b9a	2.4452493e-08
107	0x3081a26c	9.432148e-10
108	0x332aa865	3.9734363e-08
109	0x35f7574d	1.8428342e-06
110	0x35bdda89	1.4145199e-06
111	0x35ebd95e	1.7572127e-06
112	0x36e503fb	6.825195e-06
113	0x360f5873	2.1360145e-06
114	0x361e6ec0	2.36083e-06
115	0x376de773	1.4180189e-05
116	0x37a95eb2	2.0190466e-05
117	0x32b41c0e	2.0967516e-08
118	0x33b36578	8.353794e-08
119	0x3415b64d	1.3943027e-07
120	0x366281f3	3.3752265e-06
121	0x33283cdd	3.9170903e-08
122	0x32714aa5	1.40450185e-08
123	0x3412fbde	1.3688938e-07
124	0x31e7a97c	6.742253e-09
125	0x37a7eedb	2.0019177e-05
126	0x36eefb87	7.1222344e-06
127	0x35b60fb3	1.3564626e-06
