results/hideandseek_07/Seek.onnx (onnx, 149513 bytes, 6 tensors)

network_body._body_endoder.seq_layers.0.weight f4 [128, 152]
000000 83 44 66 3d 6b 66 af bc 77 ca cb 3d 21 6b a2 3d
       0.05621768 -0.021411141 0.099507265 0.079305895
000010 73 97 16 3d dd a0 a7 bd 80 ca 32 be 8d 20 c1 bd
       0.036765527 -0.08184979 -0.1746006 -0.09430037
000020 99 45 ad bd e4 65 16 3e 45 b5 21 bd 2b 42 0a 3b
       -0.0846054 0.14687306 -0.039479513 0.0021096568
000030 da 14 42 3d a9 1d ea 3c 05 22 48 3d 27 a4 f0 3c
       0.047383167 0.028578596 0.04886057 0.029375149
000040 c5 d4 a5 3d 64 bc 0a bd 2b d3 53 bd d5 07 93 3c
       0.08097223 -0.03387107 -0.051715057 0.01794807
000050 20 a9 46 bc 2f e1 26 be a7 a8 62 bc f8 8d 70 3c
       -0.0121252835 -0.16296838 -0.013834155 0.0146822855
000060 6a ca 92 3c a9 57 30 bd 44 dc 03 bd 65 07 0e 3d
       0.017918784 -0.04305235 -0.032192484 0.03467502
000070 29 4b aa 3c b2 74 1e bd f4 5e 23 be c6 76 98 3d
       0.020787792 -0.038685508 -0.1595419 0.07444529
000080 85 bc 30 3c 31 83 99 3d 18 46 eb 3a a8 1f 37 bd
       0.010787134 0.07495726 0.0017949967 -0.044707924
000090 04 d6 39 3d 39 91 0d 3c 0b 7b b6 bd 7f ed b7 bd
       0.045370117 0.008640581 -0.08910187 -0.08980846
0000a0 e8 d0 73 3a 54 55 f2 3d 3f f2 d3 3d 8e 53 34 be
       0.0009300844 0.11832681 0.10348939 -0.17609999
0000b0 80 b3 4a be ac da 58 bc a5 de 24 be 85 5d a7 bd
       -0.19795036 -0.013235729 -0.16100557 -0.08172134
0000c0 fc d5 e1 3c a9 3d ef 3d af 27 23 3e d6 ec 4c bd
       0.027567856 0.116816826 0.15933107 -0.05003055
0000d0 93 dc 66 3e 5d f1 ee 3c 79 87 a6 bd dd 84 d9 3c
       0.2254508 0.029167825 -0.08131308 0.026552612
0000e0 9a bd a7 bd cf 71 88 bd d6 26 31 3d 3e 0b 59 bd
       -0.081904605 -0.06662332 0.043249927 -0.052989237
0000f0 d3 64 b3 bd 78 c5 0c 3e da 17 00 3e bd 0e 8b 3b
       -0.08759465 0.13747203 0.12509099 0.0042437003
000100 06 79 43 3d 58 e4 64 39 32 67 d8 3d 05 7c fd bd
       0.04772284 0.00021828839 0.10566558 -0.123771705
000110 2c 3d 5b bc d0 e3 23 3d 3b 8f 61 3d 8b d0 05 be
       -0.013381284 0.04001218 0.055068236 -0.13067834
000120 16 81 e1 3b 03 c7 64 be 24 5b 1d 3e db 65 4b bd
       0.0068818433 -0.22341542 0.15366799 -0.049657684
000130 6e 01 47 3d e4 bc 0b bb 7f 1b 25 3d 69 07 8c bd
       0.048585348 -0.0021322304 0.040309425 -0.06837351
000140 a2 95 c5 3d f9 fb 88 3d 2a a6 a6 3c 0b 55 de 3b
       0.09647681 0.06688685 0.020342905 0.0067850403
000150 b4 31 0d bd b5 57 9d bd fa 9a 03 3e 2b 35 3f bd
       -0.03447123 -0.076827444 0.12852088 -0.046681564
000160 0d 2c f8 bc 5d 60 bc 3d 1b ec 5e bd 6b 46 9f 3d
       -0.030294443 0.09198067 -0.054424386 0.07777103
000170 e3 f7 54 bd 1c f3 47 3d 09 91 0b bd 6e 76 e7 3d
       -0.051994216 0.04881583 -0.034073863 0.113018855
000180 fe 46 48 bd bb 29 28 bd f4 f5 95 bd 67 8f de 3d
       -0.04889583 -0.041055422 -0.073223025 0.108671956
000190 c4 e9 32 3e f3 66 b7 3d 90 5b 2f bd 9d fd 58 bd
       0.17471987 0.08955183 -0.04281193 -0.05297624
0001a0 1c 73 73 3c f2 da 1e 3e 45 79 b4 bd 1d 7d 94 bd
       0.014858987 0.15513209 -0.08812193 -0.07250426
0001b0 61 1b bf 3a 46 87 96 bd 0d 62 9b bd 43 a0 a2 bd
       0.0014580303 -0.0735002 -0.07587061 -0.07940724
0001c0 b0 c0 71 3d e0 f9 2c bd 11 71 02 be b6 42 9d bc
       0.05902165 -0.042230487 -0.12738444 -0.01919685
0001d0 d7 52 fc ba d4 ce 06 3c 9f 19 8d 3d 4a 5a b4 3b
       -0.0019250762 0.008228023 0.068896525 0.0055039274
0001e0 90 71 3f 3d 2e 29 44 3e 3d 5c b6 3c 2c 3e 95 bd
       0.04673916 0.19156334 0.02226078 -0.07287249
0001f0 68 4f 09 bd 5d 97 08 be a0 b0 14 3e 59 ee ec 3c
       -0.033522993 -0.1333899 0.14520502 0.028922247
000200 34 ef 26 bd e3 57 ad bc 9a 14 f0 3b bf e8 0c 3c
       -0.040755466 -0.021160072 0.0073266746 0.008600413
000210 03 d0 13 be e3 ef 42 bd 11 8c b3 bd 20 79 03 3c
       -0.14434819 -0.047592055 -0.0876695 0.008024484
000220 09 fb d6 3c aa aa 08 3d a2 06 0f 3d ae 1e 1f 3d
       0.02624275 0.033365883 0.034918435 0.038847618
000230 52 fe 0d be 21 e5 f4 3c ec 6a 3f 3e 15 6e 37 3d
       -0.13866547 0.029894413 0.18693131 0.044782717
000240 ee 54 4f 3e 74 7a 2d bd 69 e4 c7 ba 6d 7a 05 bd
       0.20247242 -0.04235311 -0.0015250567 -0.032587457
000250 e7 0e 9b 3d dd 96 ff 3c f8 0c 87 3d ac ce be bc
       0.07571202 0.031199867 0.065942705 -0.023291908
000260 72 69 57 bd 49 fe 8b bd 33 b5 ac 3d c9 28 44 bb
       -0.052590795 -0.068356104 0.084329985 -0.0029931536
000270 a0 51 98 3d 36 d7 7b 3d 45 ea ab 3b 8f a8 a6 bd
       0.07437444 0.061484538 0.005246433 -0.08137619
000280 39 5f 41 bd d1 d9 98 bc 0d 7a 93 bd b4 31 b6 3c
       -0.047209952 -0.01865855 -0.07201014 0.022240497
000290 1b ad ba 3c 8a a6 35 be 9b 3d b5 bd 3c 92 47 ba
       0.022787621 -0.17739311 -0.08849641 -0.0007613038
0002a0 d2 ca 67 bd cb 12 1d 3a 16 17 a5 3d 23 c1 fd 3c
       -0.05658991 0.0005991875 0.08061044 0.030975884
0002b0 2e 2b bd 3d bf ff d2 3c 79 3c 94 3d 6b c8 be 3d
       0.092367515 0.025756715 0.07238097 0.093155704
0002c0 94 b5 ff 3c 8c 98 cf bd e3 d2 a9 bd aa 4d db 3d
       0.031214513 -0.10136518 -0.082921766 0.107081726
0002d0 90 68 fc bd a3 63 a5 3d ce 28 12 bd 09 cf 22 bc
       -0.12324631 0.08075645 -0.035683446 -0.009937056
0002e0 f7 13 c2 bd 0e a4 a6 bd 0b 33 63 3d 31 49 5c bc
       -0.09476464 -0.0813676 0.0554686 -0.013445185
0002f0 14 5d ad 3d b4 61 89 bd ce 12 c3 bd 3a 90 ed bd
       0.08465019 -0.067080885 -0.09525071 -0.11599775
000300 69 45 11 3d 74 1f e8 bd fb ca f5 3c b1 ea 0d be
       0.035466585 -0.11334124 0.030004015 -0.13859059
000310 0b 1d b3 bc 53 20 c9 bc 24 cd d5 bd a7 28 99 bc
       -0.021864435 -0.024551546 -0.10439518 -0.018696142
000320 00 94 84 bd 01 03 61 bd 01 c0 eb 3d 02 f8 c6 3c
       -0.06473541 -0.054934505 0.11511231 0.024288181
000330 08 9b b8 3d 0f 58 08 3e e4 d1 6b bc ec c6 ab bc
       0.09013945 0.13314842 -0.014393304 -0.020968877
000340 ee d2 87 bc 49 f8 25 be 8b 81 b0 ba 0b da a3 bd
       -0.016580071 -0.16207995 -0.0013466341 -0.08000573
000350 8c b2 1c bb 45 1d b4 3c 94 b7 ca 3d 49 bc 9f bc
       -0.0023910133 0.021986613 0.09898296 -0.019498961
000360 8e 33 b0 3c 31 72 d5 bc 33 ea 50 3d a4 79 52 bc
       0.021508958 -0.026055427 0.0510046 -0.012846384
000370 d4 8e dd bd 98 98 5e bc 4b a5 be bd c7 63 18 3c
       -0.10818258 -0.013586186 -0.09308871 0.0093011325
000380 d3 e1 ba bd 1d 07 f5 bc 2f e8 df bd 37 c2 c7 3d
       -0.09125104 -0.029910618 -0.109329574 0.097538404
000390 3e 99 0f 3e 9e 5c a2 3d 63 d0 0d 3e 8e d7 f2 bb
       0.14023301 0.079278216 0.13849024 -0.00741095
0003a0 7a db d9 3b 69 93 28 3d 13 ce c5 3b 3b fe b9 3d
       0.006648478 0.041156206 0.006036529 0.09081694
0003b0 72 96 42 bd 12 83 19 bd 89 27 97 bb f9 95 e4 3c
       -0.047506757 -0.037478514 -0.0046128673 0.027903544
0003c0 14 ba 91 3d 41 9b d1 3c 5d 20 9a 3c 00 ca be 3d
       0.0711557 0.025586726 0.01881426 0.09315872
0003d0 16 2a 99 3d 1b 4e 52 bd b5 10 ea bd f0 d2 8a bb
       0.074787304 -0.05134402 -0.11428968 -0.0042365715
0003e0 4a 56 15 bb 08 24 12 3d f3 c2 d3 bd ec 53 d6 bc
       -0.0022787028 0.035678893 -0.10339918 -0.026163064
0003f0 ff bc 99 bd 28 53 5d 3c 69 c5 d2 3d a2 d5 2a 3e
       -0.07506751 0.0135085955 0.10291559 0.16683057

network_body._body_endoder.seq_layers.0.bias f4 [128]
000000 00 00 00 00 00 00 00 00 00 00 00 00 00 00 00 00
       0.0 0.0 0.0 0.0
000010 00 00 00 00 00 00 00 00 00 00 00 00 00 00 00 00
       0.0 0.0 0.0 0.0
000020 00 00 00 00 00 00 00 00 00 00 00 00 00 00 00 00
       0.0 0.0 0.0 0.0
000030 00 00 00 00 00 00 00 00 00 00 00 00 00 00 00 00
       0.0 0.0 0.0 0.0
000040 00 00 00 00 00 00 00 00 00 00 00 00 00 00 00 00
       0.0 0.0 0.0 0.0
000050 00 00 00 00 00 00 00 00 00 00 00 00 00 00 00 00
       0.0 0.0 0.0 0.0
000060 00 00 00 00 00 00 00 00 00 00 00 00 00 00 00 00
       0.0 0.0 0.0 0.0
000070 00 00 00 00 00 00 00 00 00 00 00 00 00 00 00 00
       0.0 0.0 0.0 0.0
000080 00 00 00 00 00 00 00 00 00 00 00 00 00 00 00 00
       0.0 0.0 0.0 0.0
000090 00 00 00 00 00 00 00 00 00 00 00 00 00 00 00 00
       0.0 0.0 0.0 0.0
0000a0 00 00 00 00 00 00 00 00 00 00 00 00 00 00 00 00
       0.0 0.0 0.0 0.0
0000b0 00 00 00 00 00 00 00 00 00 00 00 00 00 00 00 00
       0.0 0.0 0.0 0.0
0000c0 00 00 00 00 00 00 00 00 00 00 00 00 00 00 00 00
       0.0 0.0 0.0 0.0
0000d0 00 00 00 00 00 00 00 00 00 00 00 00 00 00 00 00
       0.0 0.0 0.0 0.0
0000e0 00 00 00 00 00 00 00 00 00 00 00 00 00 00 00 00
       0.0 0.0 0.0 0.0
0000f0 00 00 00 00 00 00 00 00 00 00 00 00 00 00 00 00
       0.0 0.0 0.0 0.0
000100 00 00 00 00 00 00 00 00 00 00 00 00 00 00 00 00
       0.0 0.0 0.0 0.0
000110 00 00 00 00 00 00 00 00 00 00 00 00 00 00 00 00
       0.0 0.0 0.0 0.0
000120 00 00 00 00 00 00 00 00 00 00 00 00 00 00 00 00
       0.0 0.0 0.0 0.0
000130 00 00 00 00 00 00 00 00 00 00 00 00 00 00 00 00
       0.0 0.0 0.0 0.0
000140 00 00 00 00 00 00 00 00 00 00 00 00 00 00 00 00
       0.0 0.0 0.0 0.0
000150 00 00 00 00 00 00 00 00 00 00 00 00 00 00 00 00
       0.0 0.0 0.0 0.0
000160 00 00 00 00 00 00 00 00 00 00 00 00 00 00 00 00
       0.0 0.0 0.0 0.0
000170 00 00 00 00 00 00 00 00 00 00 00 00 00 00 00 00
       0.0 0.0 0.0 0.0
000180 00 00 00 00 00 00 00 00 00 00 00 00 00 00 00 00
       0.0 0.0 0.0 0.0
000190 00 00 00 00 00 00 00 00 00 00 00 00 00 00 00 00
       0.0 0.0 0.0 0.0
0001a0 00 00 00 00 00 00 00 00 00 00 00 00 00 00 00 00
       0.0 0.0 0.0 0.0
0001b0 00 00 00 00 00 00 00 00 00 00 00 00 00 00 00 00
       0.0 0.0 0.0 0.0
0001c0 00 00 00 00 00 00 00 00 00 00 00 00 00 00 00 00
       0.0 0.0 0.0 0.0
0001d0 00 00 00 00 00 00 00 00 00 00 00 00 00 00 00 00
       0.0 0.0 0.0 0.0
0001e0 00 00 00 00 00 00 00 00 00 00 00 00 00 00 00 00
       0.0 0.0 0.0 0.0
0001f0 00 00 00 00 00 00 00 00 00 00 00 00 00 00 00 00
       0.0 0.0 0.0 0.0

network_body._body_endoder.seq_layers.2.weight f4 [128, 128]
000000 04 f1 52 3d 28 90 77 3c 3e ea fa bd c3 6e 15 bc
       0.05149938 0.015110053 -0.122517094 -0.009120646
000010 b5 27 91 bc 25 fd 9e bc 16 8f 90 3d 96 6e e9 3d
       -0.01771913 -0.019407818 0.070585415 0.11398046
000020 b8 64 88 bd a6 1b c8 bd 09 57 f3 3a c4 dd c9 3d
       -0.066598356 -0.097708985 0.0018565367 0.098567516
000030 88 e8 a3 bc 1b c4 84 3c c7 e1 29 bb 3a 13 d0 bd
       -0.02000834 0.016206792 -0.0025921927 -0.10159917
000040 19 e2 83 bd 84 1b 4e bc 1e 0e e6 bd 8e c9 f3 3c
       -0.06439609 -0.012579802 -0.112331614 0.029759195
000050 90 e1 f8 3c 5b 05 b1 3b a5 7f 25 bd 6a aa d7 bc
       0.030380994 0.0054022497 -0.040404934 -0.026326377
000060 d5 11 ac 3d b6 b4 fe 3d ce c3 66 3d d6 34 91 3c
       0.08401839 0.124368116 0.056339078 0.01772539
000070 84 c8 e8 bd 49 a5 7f 3d e5 fc 2b bc 5a 2a 3c 3d
       -0.1136637 0.062413488 -0.0104973065 0.045938827
000080 a7 51 cb bc 7c ed ae bd 56 9e c9 3d fc 87 19 be
       -0.024819208 -0.0854139 0.09844653 -0.1499328
000090 e0 5a 1b bd c1 75 5a 3d ed 6b 7c 3d fe 45 b7 bd
       -0.037928462 0.053334955 0.061626364 -0.08948897
0000a0 ab 29 04 3e aa b6 43 3e 93 e7 fe bb ad c9 14 3d
       0.1290652 0.1911265 -0.0077790706 0.036325146
0000b0 28 a8 ed bd 6e 80 42 3d e3 57 56 bc c9 56 74 3c
       -0.11604339 0.04748576 -0.013082477 0.014913269
0000c0 d1 f7 24 3d d4 ed 42 bc 89 26 6c 3d 4f b9 11 3e
       0.0402754 -0.011897523 0.057653937 0.14230846
0000d0 51 79 e5 bd b9 b4 e9 bd fd 43 93 bd 22 2c 31 be
       -0.1120478 -0.11411423 -0.07190702 -0.17301992
0000e0 2b e3 34 be 7b 3e 20 bd 1f ff c4 3d 18 eb e4 bc
       -0.17664783 -0.039122086 0.09618973 -0.027944133
0000f0 4d 28 cd 3d 04 17 03 be 0d 90 15 be c6 97 4c bd
       0.100174524 -0.12801749 -0.14605732 -0.04994943
000100 89 f4 a0 ba 50 63 56 3b 27 da 01 3a c7 85 3b 3e
       -0.0012279908 0.0032713003 0.00049534667 0.18312751
000110 b0 91 a9 bc 3f c6 50 3d 35 71 49 bd a2 f2 21 3e
       -0.020699352 0.050970312 -0.04918023 0.15815213
000120 4d 54 b6 3d d7 36 80 3d de 4d bb 3d 1d 79 81 3d
       0.08902798 0.0626046 0.09145711 0.06321929
000130 33 d7 20 bd 36 68 74 3d 98 47 ef bd 88 15 16 3c
       -0.03926773 0.059669696 -0.11683577 0.009160407
000140 5d d9 ab bc f1 c0 64 3d f8 b2 9b 3d bb 39 87 3d
       -0.02097767 0.055848066 0.07602495 0.06602808
000150 1d 2f 86 bb a9 fa bc bc 79 75 0f bc 36 0d 17 be
       -0.004094972 -0.023068743 -0.008756035 -0.14751133
000160 79 b8 7b bd e3 51 f6 bc c9 34 1a be 9b e5 cc bd
       -0.061455224 -0.030068344 -0.15059198 -0.10004731
000170 fd 9a 27 3e f0 df 15 be 73 54 16 bd 44 74 4c 3d
       0.16367717 -0.14636207 -0.03670163 0.049915567
000180 c5 91 3e 3e a5 da 20 3d 6b dd 2a 3d 2d 46 20 bd
       0.18610294 0.039271016 0.041715067 -0.039129425
000190 ab 8e ed 3d e3 c6 e4 bc 69 59 a7 bd 87 f9 c2 3d
       0.115994774 -0.027926868 -0.081713505 0.0952025
0001a0 ef 69 01 3e af 72 72 3c 2e 52 26 3b fb 58 f6 3d
       0.12638067 0.0147978505 0.0025378573 0.120286904
0001b0 15 7e 24 be f5 0b 84 bd 6e d3 5e 3c ff f9 aa bc
       -0.16063721 -0.06447593 0.013600213 -0.02087116
0001c0 12 5a 05 be 17 e0 d3 bd f2 84 41 3e 61 9e 5c 3d
       -0.1302264 -0.10345476 0.18898371 0.05386198
0001d0 1e f3 cf bd b9 a5 3d 3d fc 77 ff 3b 31 98 ab bc
       -0.10153793 0.046300624 0.0077962857 -0.020946594
0001e0 8f 6f b9 3d d3 e1 56 3e a3 c3 aa 3d 72 69 a6 bc
       0.09054481 0.20984583 0.08338096 -0.020313952
0001f0 16 6f 4a 3e f3 c3 87 3c 40 84 a3 bd 80 43 47 3d
       0.19768938 0.016572928 -0.07984209 0.048648357
000200 ba 56 04 bd bc 23 da 3d f3 d4 4d 3d b3 db 21 bd
       -0.03230927 0.10651347 0.050251912 -0.039516162
000210 4d 42 f4 3b 4b 21 31 be 00 f1 c7 bd b4 0a 88 bc
       0.0074541927 -0.17297857 -0.09762764 -0.016606666
000220 20 1f bb 3c 7e 6f 01 3d 32 b0 f4 3d 3e 7b be bd
       0.02284199 0.031600468 0.11947669 -0.0930085
000230 35 2f e6 3b 23 15 70 bd 00 bb d9 3c 6a 8a f1 3d
       0.0070246705 -0.058613908 0.026578426 0.117939785
000240 a9 5c 40 bd c7 71 d8 3c c8 7d 2a bd 71 23 3d 3d
       -0.046963368 0.02642144 -0.04162386 0.046176378
000250 aa 67 cb 3d 3e 3c bd 3d e2 17 b8 bd fb 48 7f bc
       0.09931882 0.09240006 -0.0898893 -0.015581365
000260 c2 23 0b 3d d6 60 1e 3e cc 5f 73 3d f5 fc 8d 3d
       0.03396965 0.15466627 0.05941753 0.06933013
000270 60 a0 c7 3b fb 32 a6 3c b2 89 00 be d4 0c a7 bc
       0.0060921162 0.020287981 -0.12552527 -0.02039186
000280 a6 37 ce 3d 06 ca 75 3d 15 d3 a3 bd 26 93 d8 3c
       0.10069208 0.060007118 -0.07999245 0.026437353
000290 8c 94 a5 3d 60 d2 87 be 18 f9 43 3d c0 7d 7b 3d
       0.08084974 -0.2652769 0.047844976 0.06139922
0002a0 a5 3e 31 bd f5 cb f7 3d 16 db 8c bd 2e 96 9a bd
       -0.043272633 0.120994486 -0.06877725 -0.07548176
0002b0 37 9a 2f bd 96 55 6d bd 93 85 a6 3d 7d e0 74 bd
       -0.04287168 -0.05794295 0.08130946 -0.0597844
0002c0 47 88 88 bc 89 6e b5 3d 3b 34 da bd f1 25 51 3d
       -0.016666545 0.088589735 -0.106544934 0.051061574
0002d0 e3 2c e0 bd 5c 30 82 bc 58 90 da 3d 78 d7 df bd
       -0.109460615 -0.0158922 0.10672063 -0.10929769
0002e0 6d f4 4e 3e 8f 82 a4 3d f8 67 fa bb c2 1d 08 bd
       0.20210429 0.080327146 -0.0076417886 -0.033231504
0002f0 2e d9 d3 3d 4c 20 30 bd 69 ce e1 38 d0 6b aa 3d
       0.10344158 -0.04299955 0.00010767283 0.08321345
000300 63 dc 4b 3d 8c 97 83 bd 10 3f ef 3d 2c 5a e2 bc
       0.049770724 -0.0642539 0.1168195 -0.027630888
000310 de ca f7 bc 7e f4 e9 3d 07 ad 83 bd 3c a6 52 bd
       -0.030248102 0.11423586 -0.06429487 -0.051428065
000320 44 d1 cf bd 28 e5 81 3c 64 82 79 3c c3 d7 b3 ba
       -0.10147336 0.01585634 0.015228841 -0.0013720918
000330 a3 54 38 be 59 30 da bc 5e b6 b9 ba 0b 43 a8 bd
       -0.18001036 -0.026634382 -0.001416873 -0.082159124
000340 19 5e e5 3d 36 50 f4 3d c1 80 88 bd 6e 36 5d bd
       0.11199588 0.119293615 -0.06665183 -0.054006986
000350 a4 4f 27 bd 70 13 b4 3c 01 f8 7b 3d 5c c7 04 bc
       -0.040847436 0.021981925 0.06151581 -0.008104172
000360 a1 77 5c 3c fd 39 65 bc d0 c2 f6 3d 2a 66 da 3d
       0.013456256 -0.013990876 0.12048876 0.106640175
000370 27 8f e8 3d 21 aa 5e 3d b6 a8 36 be 00 d3 46 3d
       0.11355429 0.054361466 -0.17837796 0.04854107
000380 8c 70 bb 3d 81 29 b4 3d 4a 7a 0e bd 91 e6 a4 3d
       0.09152326 0.08796979 -0.034784593 0.080517896
000390 de f4 31 be fe e3 be 3d 33 c5 18 bd f7 31 44 3c
       -0.17378566 0.0932083 -0.03729744 0.011974803
0003a0 15 d8 16 3e ea 25 67 3d e9 1c c3 3d cb 25 ec 3d
       0.14730866 0.056432642 0.095269985 0.11530646
0003b0 db ea e6 bd ef e2 bc bc fe f8 24 3e 4b d1 29 3c
       -0.11275264 -0.02305743 0.16110608 0.010364841
0003c0 b1 5d e5 3c 6c 57 4c 3e 76 b5 06 be d9 99 42 3c
       0.027998777 0.19955224 -0.1315516 0.0118775
0003d0 95 dc d4 3b d1 99 f5 bc 05 b5 e3 3c d8 71 6c 3c
       0.006496022 -0.029980572 0.027796278 0.014431439
0003e0 d5 8f f8 bd d1 a6 db bd f5 58 12 3d 9d f3 eb bd
       -0.12136809 -0.10725177 0.035729367 -0.11521075
0003f0 db 50 ae bc 43 8b 94 bd 45 45 01 bc b6 b8 81 bc
       -0.02127879 -0.072531246 -0.00789005 -0.015835147

action_model._continuous_distribution.log_sigma f4 [1, 2]
000000 00 00 00 00 00 00 00 00
       0.0 0.0

action_model._continuous_distribution.mu.weight f4 [2, 128]
000000 e7 70 be 3a 06 d0 b0 3b e9 b9 97 3c 40 94 b4 bc
       0.0014529497 0.005395892 0.018521266 -0.022043347
000010 85 2c 3b bd df 42 37 3c e8 da d0 bc cf a1 55 bc
       -0.045696754 0.011185377 -0.025495008 -0.013039066
000020 f7 bc 1b bc e0 40 e8 3b e0 54 63 bb 8f 9e a4 bc
       -0.009505502 0.007087812 -0.003468804 -0.020095138
000030 5b 1a 38 bc 7d bd 1b 3c 27 0f ef 3b cd 77 37 ba
       -0.011236752 0.009505627 0.0072955075 -0.00069987477
000040 6b 78 d1 bc 22 97 7c 3c 21 d2 ab 3c 03 1f fa bc
       -0.025570115 0.015416892 0.02097422 -0.030532366
000050 32 62 6b bc 92 b7 f4 bc 70 bd 66 bc 6f d6 3f 3b
       -0.014366673 -0.02987269 -0.014083251 0.00292721
000060 5e ec c3 3a a9 12 ae 3c 0f 92 82 3c 4b 41 a4 bb
       0.0014947762 0.021249132 0.015938787 -0.0050126663
000070 17 fe 1f bc 57 ee b3 bc 56 3f 15 3c c7 f1 79 bb
       -0.00976517 -0.021964235 0.009109339 -0.0038138495
000080 e0 95 09 bd af b2 c7 bb 88 d6 b4 3c a3 29 4e 3b
       -0.033590198 -0.006094299 0.022074953 0.0031457923
000090 25 aa 7d bc b8 a8 af 3b 75 10 6a 3c 46 f4 2d bd
       -0.01548246 0.005360689 0.01428615 -0.042469285
0000a0 27 dd 47 bc 0b d0 5a bc 49 7c 80 bc 00 a7 34 3c
       -0.012198723 -0.013355265 -0.015684264 0.011026144
0000b0 55 8b e8 3c ba 41 8c bb 58 c8 38 3d a3 08 a4 bc
       0.028386751 -0.004280296 0.045112938 -0.02002365
0000c0 ab ed 21 bb c8 d5 f5 3b 9c 97 12 bc 85 87 db 3b
       -0.0024708312 0.0075022914 -0.008947279 0.006699505
0000d0 fa 87 11 bc 93 80 66 bc 37 1e d5 bb 43 8e 9d 3b
       -0.008882517 -0.01406874 -0.006503846 0.0048082187
0000e0 bb e0 a7 3b c5 d6 92 bc 76 0f 15 bd 50 f5 90 3c
       0.0051232255 -0.017924676 -0.036391698 0.0176951
0000f0 bb 7b 13 bc e9 21 25 3d ab 6e 51 3a 01 53 bb 3c
       -0.009001668 0.040315542 0.0007989208 0.022866728
000100 c5 4b f4 3a ca fc 31 bc b3 39 20 bc 91 c7 80 bd
       0.0018638304 -0.010863492 -0.009779382 -0.06288064
000110 6f 44 d0 bb 60 68 1f 3c af e5 a5 3c 4c b9 2c 39
       -0.006355814 0.009729475 0.020251123 0.00016472227
000120 cb c4 60 ba 1b fd 95 bc 95 32 34 bd 5d 70 1b bc
       -0.00085742463 -0.018309167 -0.04399355 -0.009487239
000130 ba 86 f3 3c 9c 76 95 bb 35 0f d5 3c 73 ce c7 bc
       0.029727329 -0.0045612585 0.026008228 -0.024390435
000140 79 ed 02 bb ad 6a 00 3c f0 2b 8c 3c f3 73 a2 bc
       -0.001997797 0.0078379335 0.017110795 -0.01983068
000150 ab 7e a0 bb 5b d1 02 bd 5b 08 e2 3b cb b2 b1 bc
       -0.0048979125 -0.03193794 0.0068979687 -0.0216917
000160 00 34 bc 3c 87 ec f4 bb 9d 44 c4 bb 5f 65 48 bc
       0.022974014 -0.0074744853 -0.0059896247 -0.0122312
000170 51 e3 b2 3c 83 87 d4 bc 4d c4 9a 3c 2b 1c f2 bc
       0.021836909 -0.025943523 0.018892432 -0.029554447
000180 34 02 b0 bb 5f 91 c4 bb af 8c 6a 3c db 26 80 3c
       -0.0053713564 -0.005998775 0.014315768 0.015643528
000190 7b 72 b7 bb 4d da 2c bc d3 37 d4 bc cd 2c 40 bc
       -0.005598364 -0.010550094 -0.025905525 -0.011729431
0001a0 39 cb 8a bc f8 a5 f9 3c 18 96 f3 bb f9 13 43 bc
       -0.016942607 0.030474648 -0.007433664 -0.011906617
0001b0 93 82 e6 3a b0 8f a4 ba fd 3d 15 bc 05 ac 0c 3d
       0.0017586522 -0.0012555029 -0.009109017 0.034343738
0001c0 ef 55 03 3d 23 2d d3 bb 78 7f c4 bb 84 1a 1b bc
       0.032064375 -0.0064445897 -0.005996641 -0.009466771
0001d0 07 d7 de 3b 8d 1f 16 bc b5 ae d5 3c d5 9a d3 3c
       0.0068005356 -0.009162796 0.026084283 0.025830666
0001e0 0e fb 9f bc b8 d5 eb bb c7 6c f2 bb 43 7e 77 3c
       -0.019528892 -0.007197108 -0.007398221 0.015105787
0001f0 b3 51 5f bb b5 85 9f bc 0f ff c7 bb 73 48 36 bc
       -0.0034075796 -0.019472936 -0.0061034034 -0.011125672
000200 04 0e 16 bb 53 36 8a bc f5 3b b1 bb b2 63 5b 3c
       -0.0022896538 -0.016871607 -0.0054087588 0.013390468
000210 b3 83 17 3c 43 a2 53 3c 0a 12 04 3c af 88 48 bb
       0.009247708 0.012917104 0.0080609415 -0.0030599048
000220 cb 8f 32 3c e7 c4 ec 3c ea 6b 16 bc 9b c5 32 3c
       0.010898541 0.028902484 -0.009181002 0.010911371
000230 6e 71 37 bc b0 6d 3e bc 77 f1 84 3c 78 24 8b bc
       -0.011196477 -0.011622831 0.01622842 -0.016985163
000240 e5 da e0 bc c5 62 17 bb 77 95 12 bb 17 2a d3 3b
       -0.027448127 -0.0023099643 -0.002236692 0.0064442265
000250 8f f7 ba 3c e0 61 50 3b ee d1 0d bc 0b 0d a1 3c
       0.022823123 0.003179662 -0.008656008 0.01965954
000260 d1 6e ad bc 7f 6b 0f bc 18 78 5b 3b ef 8b 77 3b
       -0.021171005 -0.008753656 0.003348833 0.0037772616
000270 99 18 a1 3a a8 a1 86 bc 53 a5 fb bb 18 cf 6e 3b
       0.0012290656 -0.016434506 -0.0076796203 0.0036439355
000280 b9 9f bf 3c d6 f8 c1 bc b1 84 ae 3c f3 b4 30 bb
       0.023391591 -0.023678225 0.021303507 -0.0026963323
000290 65 13 28 3c 12 73 49 3d fb 91 11 bc f2 90 ed bb
       0.01025853 0.049182005 -0.008884902 -0.007249945
0002a0 17 57 a1 bb 43 a8 b9 3b ab 89 a3 bc 66 53 a2 3c
       -0.004923712 0.0056658103 -0.019963106 0.019815158
0002b0 ea e4 fd 39 f7 25 ec 3a 2d ee 3a 3b 3b c4 26 bd
       0.00048426475 0.0018016685 0.0028523311 -0.040714484
0002c0 eb 89 0b bc 62 e7 0a 3c 41 a7 aa bc 5a a4 ed b9
       -0.008516769 0.0084780175 -0.020831706 -0.00045326614
0002d0 29 81 85 3c 67 18 58 bc 6c 25 11 bd dd d6 bc bc
       0.01629694 -0.013189412 -0.03543608 -0.023051674
0002e0 37 9b f6 3b 9e 9e c7 bb 98 a8 cb bb 85 28 c2 3c
       0.0075258273 -0.0060919067 -0.0062151663 0.023700962
0002f0 b4 dd 0c 3d 23 08 35 3b 0c ba 2b bc 80 59 4c bc
       0.03439112 0.0027623258 -0.010481369 -0.01247251
000300 ce 63 3e bc 73 2b 08 bc 78 61 5a bb 0b a3 b2 3c
       -0.011620475 -0.00831114 -0.0033322256 0.02180626
000310 7c dd 2f 3c 5b e7 7e 3c 98 7b d7 3a 90 7f c8 3c
       0.010733958 0.015558089 0.0016440032 0.024474889
000320 53 38 39 bc f6 99 13 3c eb bc 42 3c d0 3a f7 3b
       -0.011304933 0.009008875 0.011885862 0.007544853
000330 e3 4a 80 3c 17 16 f5 3b 77 24 df 3b 80 cd c9 bb
       0.015660709 0.00747944 0.006809767 -0.0061585307
000340 ff 54 01 3d 90 d3 77 bc 0c 9b a4 3c 3c 5a 35 bb
       0.0315752 -0.015126124 0.020093463 -0.0027672192
000350 10 f5 ac 3c 9d 09 53 3c 21 6f c1 3c 97 4b b4 3c
       0.021112949 0.01288071 0.02361256 0.0220087
000360 b8 2c 6b ba 40 9f e0 bb 64 48 84 bc a3 35 a9 bb
       -0.0008971202 -0.0068549216 -0.0161478 -0.0051638647
000370 5d c7 d8 3a aa ff d4 3c ca 8c 78 3b 5e 59 b0 bc
       0.0016538907 0.026000816 0.0037925714 -0.021526989
000380 53 8d 6d bc 37 f1 a3 bb 8a 84 75 bc c0 a7 fc 3c
       -0.014499026 -0.0050031203 -0.014985213 0.030841708
000390 35 8f 63 3b 2a 4a bd bc 0d 7d 67 3c 8b dc 42 bb
       0.003472281 -0.023106653 0.0141289355 -0.0029733505
0003a0 63 47 e1 bc ea 96 7a 3c b0 c8 b2 3c ec 2a 20 3c
       -0.02749986 0.01529477 0.02182421 0.009775858
0003b0 2a 3c 71 bc 17 9c f3 3c 13 54 a9 3b 35 90 61 3c
       -0.014723817 0.029737515 0.005167493 0.013767292
0003c0 ca 05 3c bb 72 b4 22 bc 6d 70 6d 3b 8d b1 9e 3b
       -0.0028689974 -0.009930717 0.003623034 0.004842943
0003d0 a6 b1 01 3c 37 ea 3e bc 42 89 4e bc 03 52 a3 bb
       0.00791589 -0.011652521 -0.012605967 -0.004984142
0003e0 cc f6 c4 bc 38 d6 3d bc 67 5c 71 bc 15 f5 b3 3c
       -0.024043463 -0.011586718 -0.014731503 0.02196745
0003f0 e3 6c bf 3b 07 95 88 bc 6a 42 5a bc 20 c6 0d 3d
       0.0058418377 -0.016672624 -0.013321498 0.034612775

action_model._continuous_distribution.mu.bias f4 [2]
000000 00 00 00 00 00 00 00 00
       0.0 0.0
