results/hideandseek_23/Hide/Hide-31368.onnx (onnx, 162766 bytes, 7 tensors)

network_body._body_endoder.seq_layers.0.weight f4 [128, 177]
000000 03 9c 31 3e 04 85 98 bc 0e d9 cb bd 8d c4 d5 bc
       0.1734467 -0.018618114 -0.09953509 -0.0260947
000010 87 2c 2a bd c6 5d 4e bd 4b c7 be 3d 3a 11 a6 3d
       -0.04154637 -0.050382398 0.09315356 0.081087545
000020 03 6d e5 3d 52 37 6a 3d ee fb 56 3d a9 40 0d bd
       0.11202433 0.057181664 0.052486353 -0.034485493
000030 ad 06 49 bd 6c c6 3a bc b3 5c a9 3d 6e 81 ef bc
       -0.049078632 -0.0113998465 0.08269634 -0.029236522
000040 58 97 2a bd dc cd 8a 3c 32 83 6b 3d b2 cf 53 3d
       -0.04164824 0.016943865 0.057498164 0.051711746
000050 54 40 8f 3c 7a d4 4a bd 0e 59 90 bc 5e 8b ad bd
       0.017486729 -0.04951904 -0.01762059 -0.08473848
000060 eb fe 15 3d 60 6a ab 3b a0 17 30 3d dd 45 27 be
       0.03662006 0.0052311867 0.04299128 -0.16335244
000070 5a 0d 4b bc b5 95 78 bc 24 87 01 be a1 d3 85 3d
       -0.01239332 -0.015172412 -0.12649208 0.06534506
000080 28 81 34 bd 74 d7 1d bd e2 bc dd bc a1 ff 55 3b
       -0.044068485 -0.03853555 -0.027067605 0.0032653587
000090 72 92 09 3d ce fe 8e 3d 27 3f 9c 3c 51 49 cf 3d
       0.033586927 0.06982194 0.019073082 0.10121406
0000a0 36 a1 9e 3d 2d 95 09 3d 0c 01 26 3d 40 56 39 3d
       0.07745592 0.03358953 0.040528342 0.04524827
0000b0 2b e3 88 bd c0 a9 0a 3e 2e d5 e0 3a 41 1a 5a 3d
       -0.06683954 0.13541317 0.0017153376 0.053247694
0000c0 c8 33 c6 3c db ca d3 3d ab 3a af bc b6 ac 4d bc
       0.024194613 0.10341426 -0.02139028 -0.0125533845
0000d0 53 20 02 be 36 36 b9 bd 2e fe 09 bd 94 07 42 3d
       -0.12707643 -0.09043543 -0.03368967 0.04737051
0000e0 cb 2c 15 bd ab 51 79 3b cf ae cf bd a2 cb fb 3d
       -0.03641967 0.0038043063 -0.10140764 0.12294699
0000f0 be 03 32 bd 94 0f 72 3c 7f 3c 3c 3d 80 a9 af 3c
       -0.0434606 0.014774222 0.04595613 0.021443129
000100 af 41 82 3d 6f 2d 8b 3d 50 5a 1f bd 68 2d bb 3d
       0.063601844 0.06795775 -0.038904488 0.0913952
000110 d1 b6 ae bd 3e 17 43 3d 68 b4 b7 bc 08 c6 7c 3d
       -0.08530963 0.047629587 -0.022424892 0.061712295
000120 ab 7f 0d bd d5 32 a4 3d af ed b5 3c 4b 14 96 bd
       -0.03454558 0.08017508 0.022208063 -0.07328089
000130 25 6f f9 3c 8c d4 ea bd d3 84 1e bd 0b d9 d6 bd
       0.030448506 -0.11466321 -0.03870089 -0.104906164
000140 8a 39 64 be 3c 5a 45 3d d2 d9 f6 3d 33 c3 4a bc
       -0.22287574 0.048181757 0.12053265 -0.012375641
000150 7d da b9 bd 77 16 75 3c b9 0f f1 3c 3b 14 52 3d
       -0.090748765 0.014958969 0.029426442 0.051288825
000160 62 ee 62 bd a7 f1 e3 3c be 89 16 bc ec 96 54 3e
       -0.05540312 0.02782519 -0.009188114 0.20760697
000170 4c 42 34 bd 1a 19 6a 3c b6 b7 e1 3d 9b 08 0b 3e
       -0.044008538 0.014288211 0.11021368 0.13577501
000180 0d 83 b9 bc b8 d1 4e bd ac fe 4e be 4a 21 35 3d
       -0.022645498 -0.050492972 -0.20214337 0.0442212
000190 12 57 a9 bd 59 2d 07 bd 17 b9 fc bd 8d 51 34 be
       -0.082685605 -0.03300223 -0.123399906 -0.17609234
0001a0 6a 2a b5 3c 84 2f 34 3c c3 61 d1 bd d1 c9 ad 3d
       0.022114951 0.010997657 -0.10223725 0.08485759
0001b0 0d 92 27 bd 68 ed 8e 3b b0 fe 51 be c4 a2 b1 3d
       -0.04091077 0.004361797 -0.20507312 0.08673623
0001c0 ef 4a 11 3d ac 10 8f b9 74 48 8a bd d5 d6 1d bd
       0.035471853 -0.00027287507 -0.067521006 -0.038534958
0001d0 74 75 73 3c 6a 1e a7 3d 5c be 2d bd a3 20 97 bd
       0.014859546 0.08160098 -0.04241787 -0.07379272
0001e0 4c 3c 16 be ba d1 86 bd 9c 1f f4 3c 40 3f 91 bc
       -0.14671439 -0.06582971 0.029800229 -0.017730355
0001f0 06 74 70 bd f7 37 f0 3d 82 78 7a bc 38 9a e8 bc
       -0.0587044 0.117294244 -0.01528752 -0.02839385
000200 71 a2 27 bd 86 cc cf 3c f2 8f e3 bd f2 65 a0 bc
       -0.0409264 0.025366079 -0.1111144 -0.019579861
000210 7d bd 2a 3d d5 51 94 3d 24 2d 45 3e db 53 49 bd
       0.041684616 0.07242171 0.19255501 -0.049152236
000220 27 42 f5 bc 85 c5 a1 bd 71 94 94 3d c3 5b 90 3d
       -0.02993877 -0.07899002 0.072548755 0.07048752
000230 2e c5 d4 bd 0c 77 53 3c 75 69 90 3b 7c c3 33 3c
       -0.103891715 0.012906801 0.0044071027 0.0109719
000240 ce 05 a9 3d f5 78 21 3d 73 81 d3 bd e4 67 0f bd
       0.0825306 0.039421994 -0.10327425 -0.035011187
000250 9e 42 4a 3c 3e f8 71 3d 2e 77 cb 3d c1 0d b1 bb
       0.012344984 0.059074633 0.09934841 -0.005403251
000260 36 47 b7 3d 48 a4 3f bd 62 0a fb bb 72 47 46 be
       0.08949129 -0.04678753 -0.00766115 -0.19363192
000270 c7 b6 d1 3c 7a 90 13 3d d7 17 97 bd fb 9c 5a bc
       0.02559985 0.036026455 -0.07377594 -0.013343091
000280 db 81 55 bd 88 ea 2f bc 64 9f 80 3c 62 4c 78 ba
       -0.052125793 -0.010737069 0.015701003 -0.0009471831
000290 5e 85 a1 3d 13 8c 65 bd 65 b3 57 bc f1 bc 4f 3d
       0.07886766 -0.05604179 -0.01316533 0.050717298
0002a0 ec ff 47 bd 50 72 90 3d cf bf 12 3e 45 80 b0 3d
       -0.04882805 0.070530534 0.14330982 0.086182155
0002b0 bb d0 5c 3d 16 dc 4f 3d 65 98 9c 3d d4 12 29 3e
       0.05391 0.050747 0.076462545 0.16511089
0002c0 87 b1 5b 3d 5a 39 9d bd d8 f8 7b 3d 9d 90 07 be
       0.0536361 -0.076769546 0.061516613 -0.1323876
0002d0 cf 62 5a bd 62 62 67 bd 1b fc 94 3c 0c 31 79 bc
       -0.053316887 -0.05649031 0.01818662 -0.015209448
0002e0 93 36 ba 3d 6f 8c 87 bd 1a 27 e2 3b 35 bc 9f 3d
       0.090924405 -0.066185825 0.006901634 0.077995695
0002f0 d2 99 c9 bd aa dd c2 3d cf 4d 6e bd 49 27 13 3d
       -0.09843792 0.09514935 -0.058179673 0.035926137
000300 f6 a1 1d be 23 49 6e bd cd 59 e5 3c 4e ad 8b 3d
       -0.15393814 -0.058175217 0.027996922 0.068201646
000310 65 92 6b bd a4 39 47 be de e7 92 bd 63 a5 af bd
       -0.05751266 -0.19455582 -0.071731314 -0.08576467
000320 15 2f fe 3d 22 25 82 bd 5d c6 bd bd c3 24 71 bd
       0.12411324 -0.06354739 -0.092663504 -0.05887295
000330 53 84 a2 3c a9 c5 a7 bc 4e b5 1c bd 06 38 dd bd
       0.019838488 -0.020479994 -0.038258843 -0.10801701
000340 d8 a4 8f bc ab 35 60 bd 1e bc 49 bd c2 ab 1e bd
       -0.017534658 -0.05473868 -0.04925167 -0.03873802
000350 a8 66 9e bd da 71 9a 3d 66 fc 85 3b a5 43 90 3d
       -0.07734424 0.07541247 0.004088926 0.07044152
000360 ef 5a 3c bd de a3 93 3d 9e c5 38 bd 6b 0f 6e 3c
       -0.04598516 0.072089896 -0.045110337 0.014530043
000370 b4 44 5d bd bd bf e4 bd 15 a5 16 3e f2 fc 66 bd
       -0.0540206 -0.11169384 0.14711411 -0.05639357
000380 4c 0b 57 3d 41 bd 89 3c 55 5c 2b bd d7 c9 13 bd
       0.052501008 0.016813876 -0.0418361 -0.03608116
000390 14 16 cb 3d e8 b1 98 3c 7d 02 56 3d 4b 33 91 bb
       0.099163204 0.01863952 0.052248467 -0.0044311634
0003a0 a7 77 b2 bd 4c 57 8e 3d b5 c3 43 3c 33 42 8c bd
       -0.08714228 0.06950244 0.011948516 -0.06848564
0003b0 f9 e4 99 3d 5f 32 f7 bc ef 43 02 bd 25 e4 7e 3d
       0.07514376 -0.030175386 -0.031803068 0.062229294
0003c0 00 e7 0c 3e f9 7b 5b bd ee 4f 79 3d 75 bd 02 bb
       0.13759995 -0.053585026 0.060867243 -0.001994935
0003d0 97 33 31 3e b5 3e ac 3b e1 ad b6 3d f6 f4 f9 3d
       0.17304836 0.0052564987 0.089198835 0.12204926
0003e0 69 07 22 be eb af 02 be 29 f9 00 3e 28 0a 35 3d
       -0.15823139 -0.1276242 0.12595047 0.04419914
0003f0 63 a4 0a 3d e7 84 61 bd 09 9d 7c 3c 9a e7 b0 3d
       0.033848178 -0.055058386 0.0154182995 0.086379245

network_body._body_endoder.seq_layers.0.bias f4 [128]
000000 ce ac 97 b9 fa e6 e7 ba 39 bd ca ba fd d9 74 3b
       -0.00028929714 -0.0017692738 -0.001546777 0.0037361376
000010 a4 35 a8 3a 74 ef 1c 3a 8d 96 a9 bb 00 9a 7e bb
       0.0012833369 0.0005986609 -0.0051754178 -0.0038849115
000020 79 d5 90 ba 93 b8 cf b9 05 00 fc ba 33 92 20 bb
       -0.0011049948 -0.00039619635 -0.001922608 -0.0024501204
000030 1a 07 aa b9 8c e2 11 3b dc e5 db 3a 10 b3 4a 39
       -0.00032430218 0.0022260277 0.0016776877 0.00019330927
000040 ec ae ab 3b 64 fd aa 37 39 08 1e bb 86 ab cd ba
       0.005239358 2.0383573e-05 -0.0024113788 -0.0015691377
000050 9d 30 3b bb 5c c8 4e 3b c6 23 97 bb 8f c4 a0 3a
       -0.0028562911 0.003155253 -0.004612419 0.001226561
000060 d4 3a cf 39 d2 81 17 3b 40 44 00 3b 49 fd 5f 3a
       0.00039525947 0.002311815 0.001957193 0.00085445173
000070 cd 91 ba ba 04 13 ab ba 5f c2 a8 b9 d9 0e 4c bb
       -0.0014234126 -0.0013051932 -0.00032188275 -0.003113678
000080 0b 9f 83 3b 30 9e 43 bb 38 13 ae b9 a5 c4 97 3b
       0.004016762 -0.0029848926 -0.00033202185 0.004631596
000090 41 9e 8e 38 a9 42 3b ba 48 4e 37 b9 9c 89 ba 3a
       6.800565e-05 -0.0007143417 -0.00017481402 0.0014231685
0000a0 e0 75 a0 3a 7c 40 74 ba c0 2e 9b 3b ce f6 19 39
       0.0012242161 -0.000931747 0.0047357976 0.00014683159
0000b0 06 77 0b 3b 62 4e ea ba 92 22 f4 ba f2 43 3b 3b
       0.002128066 -0.0017876143 -0.0018626025 0.0028574434
0000c0 cc b2 6e 3a a3 f7 9e 3b fc 93 85 3a 21 b8 41 3b
       0.00091056223 0.004851298 0.0010191198 0.0029559212
0000d0 87 92 ef ba e8 c1 a5 ba 01 ae 15 3b 87 52 9e bb
       -0.0018277921 -0.001264629 0.002283931 -0.0048316154
0000e0 99 43 9c 3b 3a 8a 4d bb 34 c7 bf ba b9 71 08 3b
       0.0047688005 -0.0031362907 -0.0014631511 0.0020819737
0000f0 61 ea f6 b9 ca 05 32 b9 3d ee b6 bb 98 b4 33 37
       -0.00047095402 -0.0001697756 -0.0055825994 1.0711279e-05
000100 d0 82 8e ba 28 9b 34 bb 1d f1 98 3a 9f 4a 4e 3a
       -0.0010872725 -0.00275583 0.0011668537 0.0007869396
000110 c9 85 a3 3a e6 05 af bb 2e bf d0 3a a5 7e 27 3b
       0.0012475784 -0.0053412793 0.0015926117 0.0025557664
000120 3c 7e 83 3a 25 17 c8 3b a9 9d e2 b9 0a d9 fe ba
       0.0010032128 0.0061062747 -0.00043223545 -0.0019443345
000130 a0 b7 22 3a 5c b8 de 38 75 c8 9d bb cd 8e 22 3b
       0.0006207172 0.000106201245 -0.004815156 0.0024804354
000140 6c 37 e5 ba fe b6 60 3b f8 90 6d 3a c4 f4 57 b9
       -0.001748783 0.003428876 0.00090624345 -0.0002059518
000150 1b e9 68 bb d6 c8 12 b9 87 45 f4 b9 c4 b6 7c 3b
       -0.0035539332 -0.00013998462 -0.0004659111 0.0038561085
000160 02 84 5e 39 d1 f4 3f 3b 4f e1 f1 3b 13 fc 2d 3a
       0.00021220747 0.002929021 0.007381595 0.0006636988
000170 3f ce bb ba 9c a1 3a b9 df e4 83 3a 4b d1 48 3b
       -0.0014328434 -0.00017798546 0.0010062716 0.0030642326
000180 3d f9 10 3b 1a 55 8b 3b cb 76 ac 37 23 8e 20 3a
       0.0022121214 0.0042520883 2.0559315e-05 0.00061246956
000190 17 2a 3b bb b8 26 20 bb 7a 02 1e bb a6 79 5d bb
       -0.0028559023 -0.002443714 -0.0024110363 -0.0033794432
0001a0 cd 6d b7 38 9b 32 1b b9 d8 78 27 ba 9e 88 31 ba
       8.746572e-05 -0.00014800804 -0.00063885516 -0.00067723717
0001b0 68 bb bb 3a 42 71 90 bb 11 07 9b 3a 51 69 02 bb
       0.0014322819 -0.0044080326 0.0011827667 -0.00198992
0001c0 03 88 55 b7 8d 89 4f ba 3f a1 57 3a 28 4a 3a bb
       -1.2727457e-05 -0.000791692 0.00082256267 -0.0028425548
0001d0 b6 d4 3b ba 86 e5 ad bb 8f bb 0e 3b c6 e9 68 bb
       -0.000716518 -0.0053069023 0.0021779274 -0.003553973
0001e0 a1 05 4f ba 33 77 46 3b 15 86 fa ba 04 b1 4e 3b
       -0.0007897262 0.003028345 -0.0019113446 0.0031538615
0001f0 6d 44 4f ba 4c 02 94 3a dc 92 86 3a 4d 5f db ba
       -0.00079066196 0.0011292188 0.0010267156 -0.0016736776

network_body._body_endoder.seq_layers.2.weight f4 [128, 128]
000000 df 0d c1 3c 17 61 d4 bd 08 ff 0d 3e dd ea a1 3d
       0.023566185 -0.10370081 0.13866818 0.07906125
000010 25 1c 00 be a5 45 58 3d 44 97 3d 3d 14 c4 8d bb
       -0.12510736 0.052800793 0.046286836 -0.004326353
000020 22 8b 08 be 2a 37 ef bd 9f b7 de 3c 66 fb 54 3e
       -0.13334325 -0.116804436 0.027187167 0.20799026
000030 fe e4 9c 3c 34 b8 aa 3c 28 dd a1 3d 49 33 87 3d
       0.01915216 0.020839788 0.0790351 0.06601579
000040 2f 43 f6 bd d3 3f 2c 3e f2 84 bf 3d 9f ef f4 bd
       -0.12024533 0.16821222 0.09351529 -0.119597666
000050 74 bd ee bd f0 8a 15 bd d7 98 1f bd 18 14 c4 bd
       -0.11657229 -0.036509454 -0.03896412 -0.09574145
000060 5e 8d 34 3d 73 e5 dc 3c 38 e9 22 3e 1a 72 91 bd
       0.04408013 0.026964879 0.15909278 -0.07101841
000070 6e 94 fb 3c 30 b4 f1 3d fc 92 86 3d cb 84 10 3b
       0.030710425 0.11801946 0.06571004 0.0022051807
000080 1d bd 25 bd 8c f8 a5 bc 06 74 0f 3d 42 1e b3 bd
       -0.040463556 -0.020260118 0.035022758 -0.087460056
000090 74 73 2e 3e 76 23 bb 3d 8f 74 08 be e2 c7 d3 3c
       0.1703623 0.09137623 -0.13325714 0.025852147
0000a0 3f 28 e7 bb fe 40 ae bb 34 69 ed 3b b9 26 b9 3d
       -0.0070543583 -0.0053178063 0.007245207 0.09040589
0000b0 c3 ec e4 3c 98 84 17 be 83 00 42 3d 1c 8b 49 bd
       0.027944928 -0.14796674 0.04736377 -0.04920493
0000c0 46 25 48 3e eb cc 21 3d 16 7f 9b 3d a4 1d 58 3d
       0.19545469 0.039502066 0.07592599 0.052762643
0000d0 2d eb 4a 3d cd 75 b4 bd 2b 5c 7b bd 0e e0 9e bc
       0.049540687 -0.08811531 -0.061367195 -0.019393947
0000e0 05 71 48 3d f0 23 26 3d bd 30 67 3d 06 08 87 bc
       0.04893591 0.040561616 0.056442965 -0.016483318
0000f0 72 d0 a8 bd 8c 4b d6 bc b1 f2 08 3e e9 37 3f 3d
       -0.08242883 -0.02615907 0.1337383 0.04668418
000100 06 03 14 bc b3 30 b2 3c 09 00 77 3d 1b 29 30 bc
       -0.009033924 0.021751737 0.060302768 -0.010751988
000110 94 9b 3c 3c ec 41 cb 3c 51 02 90 bc 47 8b 8c bd
       0.011511702 0.024811707 -0.01757923 -0.068625025
000120 ec 4b 6d bd 46 22 c7 3d 81 28 24 bd 9a 43 71 be
       -0.057933733 0.09723334 -0.04007769 -0.23560944
000130 47 1c c0 3d ff 31 98 3d 5c 24 b8 3d 77 e6 f8 bc
       0.093803935 0.07431411 0.0899131 -0.030383332
000140 b5 32 03 3c bb 9e 50 3d 0b 59 d1 3c 24 e9 f9 3c
       0.008007695 0.050932627 0.025555154 0.030506678
000150 0f 59 f2 bc c5 1a d8 bd 9d cd d5 3d b2 58 b0 3d
       -0.029583482 -0.10551981 0.10439608 0.08610667
000160 36 89 57 3d 80 6d db 3d e7 d1 61 bc e5 9d 89 3d
       0.05262109 0.10714245 -0.013782955 0.06719569
000170 84 27 69 bc 02 00 6c 3d 57 d3 ee 3d 55 dc 41 3d
       -0.014230613 0.057617195 0.116614036 0.047329266
000180 2d 9d 33 3d 9e 2f 5b bd 5b ad 20 3d aa fd e8 3d
       0.043851066 -0.05351221 0.039227825 0.113765076
000190 ac 30 5b bb 72 c2 90 3d ff a4 68 3d 08 9d 0a be
       -0.0033445759 0.070683375 0.056797978 -0.13536465
0001a0 67 cf 2c bb e6 b7 de 3d d0 29 bd bc 17 7d 4f 3d
       -0.0026368739 0.108749196 -0.023091227 0.050656404
0001b0 a7 63 f5 3d 28 3c 00 be a1 fa 0e bd 8f c8 1a bd
       0.11981898 -0.12522948 -0.034906987 -0.037788924
0001c0 83 de dc 3d ee 13 6f be 31 a6 0d 3d 19 82 96 3d
       0.10784628 -0.23347446 0.03458232 0.07349033
0001d0 f4 46 a7 3c 40 53 a2 bd fe a2 0f 3d 8f b1 37 ba
       0.020419575 -0.07926035 0.03506755 -0.0007007354
0001e0 a0 a7 19 be 9e 5c 13 bb bf 7b f0 bc 29 14 18 bd
       -0.1500535 -0.0022485624 -0.029355882 -0.0371286
0001f0 54 d6 6f 3b 93 2c cf 3c 64 64 5f 3d 28 ca 76 3d
       0.0036596255 0.02528981 0.0545391 0.060251385
000200 3c 0a 51 bd fc cf 10 be 0d 7b 07 be a2 8e b3 bb
       -0.05103515 -0.1414184 -0.13230534 -0.0054796496
000210 54 1a 33 3d 51 29 55 3b c8 45 e4 bc 67 2d ac bd
       0.04372628 0.0032525847 -0.027865306 -0.08407097
000220 e3 92 09 bc 4c 69 6a 3d bc 72 84 3b 46 76 79 bb
       -0.008396837 0.057229325 0.0040419977 -0.0038064881
000230 74 4a 9e bb c4 28 5b bd 1b 4b 8b 3d dc bf 9f bd
       -0.004830653 -0.053505674 0.068014346 -0.07800266
000240 9a 91 3b bd 26 20 5a bd 4d ac af 3d e2 f3 5c 3a
       -0.045793153 -0.053253315 0.08577786 0.00084286754
000250 71 45 a9 bd ac 63 04 bd 61 bd 84 bd 59 da d7 bc
       -0.08265198 -0.032321617 -0.06481434 -0.026349233
000260 94 d4 83 bd 2d f3 b6 3d 24 87 b7 bd ef 62 1a 3e
       -0.064370304 0.08933101 -0.08961323 0.15076803
000270 89 32 ba 3d 8f 9a 8e bc 70 27 c6 ba 4a 03 30 be
       0.0909167 -0.017407684 -0.0015117954 -0.17188755
000280 56 d5 b1 ba 25 54 94 3c 68 36 4b ba 91 43 fb 3c
       -0.0013567607 0.01810653 -0.00077519426 0.030671867
000290 83 f9 24 3e d0 37 12 3e 7c 62 03 3c 85 5c 66 be
       0.16110806 0.14279103 0.008019086 -0.22496231
0002a0 7d b8 4f 3d 57 66 32 be d3 5e 06 bb 57 59 2d bd
       0.05071305 -0.17421852 -0.0020503297 -0.04232153
0002b0 93 74 0e bd f0 ff 07 3e 48 0b e6 bd 06 a9 12 3d
       -0.034779143 0.13281226 -0.112326205 0.035805725
0002c0 bc 4c a9 3d 43 47 6b bc 66 87 fc 3d 41 db f1 3c
       0.08266589 -0.014360252 0.12330513 0.029523494
0002d0 d0 1a 11 3e 7f b1 7a bd f6 b9 3c bd 00 1b a5 bc
       0.14170384 -0.06120443 -0.046075784 -0.020154476
0002e0 5d e9 d2 3d 40 28 0b be 22 f6 d2 3d 5e 7d e3 3c
       0.10298417 -0.13589573 0.10300852 0.02776974
0002f0 e8 af 80 3e 2c a5 9e bd 8b 10 80 3d c6 fe c4 3d
       0.25134206 -0.07746348 0.06253155 0.09618907
000300 97 a4 40 3d 74 08 4a 3c fa 7e 01 3e 3c d0 91 3d
       0.047031965 0.012331117 0.12646094 0.07119796
000310 0f c6 99 bd f1 4c d7 3c bd ad a1 bd bb 21 ad bd
       -0.0750848 0.026281806 -0.07894466 -0.08453699
000320 55 aa 34 be 65 80 e5 bc 1b 47 ec 3c 6e c4 6a be
       -0.17643102 -0.028015325 0.0288425 -0.22926494
000330 e7 d4 fc bc 55 97 48 3d 18 4b be bd 51 3c 21 bd
       -0.030863238 0.048972446 -0.09291667 -0.039364163
000340 00 5c 86 bc 55 5c 17 be ef 67 88 bd e1 9b b0 bb
       -0.01640129 -0.14781316 -0.06660449 -0.005389676
000350 30 fb f9 3d 2f 0b f2 3d 53 8b 87 bd c6 13 3f 3c
       0.12206113 0.11818539 -0.06618371 0.011662429
000360 2f 30 b8 3d 0e 07 df bd 9e 62 0b bd 93 16 a3 3d
       0.08993565 -0.108900174 -0.034029596 0.0796329
000370 8f ef 5f 3c 47 d7 92 bd 9d f7 d4 bd 6d d7 2a 3d
       0.013667955 -0.07169967 -0.10398791 0.041709352
000380 6e a9 22 3e 47 3a 44 3d 3e 29 47 3b e0 4a 5b 3d
       0.15884945 0.04790714 0.0030389572 0.053538203
000390 aa 4a 43 bc 97 f5 57 bd c2 50 b1 bc 38 4a 13 bd
       -0.011919657 -0.052724447 -0.021644954 -0.035959452
0003a0 64 ea 4f bc c2 63 fe bd 99 39 2d 3c d7 a1 96 bd
       -0.01269016 -0.12421371 0.010572814 -0.07355087
0003b0 18 ed b1 bd f9 fa 04 3e 34 15 94 3d c7 83 3a bc
       -0.086878 0.12986363 0.07230607 -0.011383957
0003c0 00 8b c3 3d e8 1f 3e 3e c3 04 90 bc 39 8a fe 3d
       0.095479965 0.18566859 -0.017580396 0.12428708
0003d0 fe 5f ac 3c 95 db 49 bc a3 43 ab 3d 91 85 73 bb
       0.021041866 -0.012320419 0.0836251 -0.003715847
0003e0 1f 9f 3c bd 1b a8 5c bd 30 ea 84 bd b6 69 18 be
       -0.046050187 -0.053871255 -0.0648998 -0.14884076
0003f0 51 8b 76 3d 2d 51 20 3e 8d 93 95 bd e1 1d de bb
       0.060191456 0.15655966 -0.07303534 -0.006778464

network_body._body_endoder.seq_layers.2.bias f4 [128]
000000 ce 86 c7 39 17 1e 66 ba c0 be b1 39 2b 31 14 bb
       0.00038056675 -0.00087782874 0.0003390219 -0.0022612314
000010 5c 48 44 3b 3f 54 90 3a a5 bd 3a 3b 89 60 c3 39
       0.0029950356 0.0011011435 0.0028494385 0.00037265223
000020 2b 73 7e bb 5e 7f 70 3a f8 8a 4a 3a 1b 1f a9 3a
       -0.003882597 0.00091742526 0.00077263964 0.0012902947
000030 03 23 9a 3a 01 36 8d 39 0b 40 ab 3a 7c 0a b1 ba
       0.0011759702 0.00026933852 0.0013065351 -0.0013507153
000040 b5 5d 8d 3a e3 c7 2d 3a 3f e8 8f b9 7b e7 2b 3a
       0.0010785373 0.0006629212 -0.00027448122 0.00065576256
000050 c8 73 17 3a 34 62 30 3b c5 a4 10 bb 95 48 2d b9
       0.00057774456 0.0026914002 -0.0022070867 -0.00016525605
000060 b2 19 43 39 b5 6e c1 3a 77 97 d1 3a 90 e7 a4 3a
       0.00018606221 0.0014757725 0.0015990575 0.0012581218
000070 3e 1e d0 b9 e3 4d 40 3a f8 ea 4d 37 03 c9 14 bb
       -0.00039695384 0.0007335825 1.227366e-05 -0.002270282
000080 da 8a f9 b9 5d 6a ad ba 4a e9 d6 ba 74 e6 d0 b9
       -0.00047596433 -0.0013230551 -0.001639643 -0.00039844553
000090 95 71 bb 39 22 5a 31 ba 45 f7 35 bb 67 5e 6a bb
       0.00035752045 -0.0006765445 -0.0027765792 -0.0035761835
0000a0 ed e2 31 ba d6 02 0f ba b3 19 2e 3b 5e 1a b1 ba
       -0.0006785829 -0.00054554397 0.002656561 -0.0013511886
0000b0 58 2f e0 38 6a 3b 5a 3a 2a b2 d3 ba 02 9d ae 3a
       0.00010689971 0.00083248934 -0.001615112 0.0013321938
0000c0 52 1b 1f 3b 39 f0 d0 ba 90 6f 2c 3b 4e ee 99 b9
       0.0024277759 -0.0015940733 0.0026311614 -0.00029359985
0000d0 f5 dc 1a bb 83 80 98 3a d9 b3 9d ba 89 82 1a 3b
       -0.0023630236 0.0011634979 -0.0012031748 0.002357634
0000e0 07 8b 8e ba ae 47 9d 3a f2 2e a1 38 da 59 9c 3a
       -0.0010875174 0.0011999512 7.6858225e-05 0.0011928633
0000f0 0d 42 9f bb b1 dc a3 ba e1 a0 ea ba 60 3c 9d ba
       -0.004860169 -0.0012501684 -0.0017900729 -0.0011996143
000100 1c 77 e1 b7 76 ad 0d 38 95 f9 05 3b 30 41 51 bb
       -2.6877555e-05 3.3778568e-05 0.0020442952 -0.0031929724
000110 95 bf c5 39 56 72 91 39 b7 0d a8 3a f6 a9 b5 39
       0.00037717508 0.00027741742 0.001282147 0.0003464964
000120 e3 61 ae ba 4d 91 f7 39 51 b9 62 ba 8a c2 0f bb
       -0.0013304319 0.0004721977 -0.000864883 -0.0021936023
000130 34 98 ce ba 17 6d ae ba 99 dc e0 b9 11 88 99 ba
       -0.0015761913 -0.0013307658 -0.00042888967 -0.0011713525
000140 59 17 50 ba e6 21 4b bb a2 22 61 bb fe 61 2f 3a
       -0.00079380494 -0.0030995547 -0.0034352918 0.0006690322
000150 59 d3 08 ba fd 0e 1c bb 1d 57 2f bb bb e1 38 bb
       -0.00052194815 -0.0023812645 -0.0026754804 -0.0028210718
000160 8a 29 92 3a 23 bc 05 ba 0e 30 1d 3a 22 92 2b bb
       0.0011151296 -0.0005101582 0.00059962354 -0.0026179631
000170 09 6b 36 bb 9b a4 af ba d6 ca c8 38 fc 06 47 3a
       -0.0027834794 -0.0013400497 9.574524e-05 0.00075922883
000180 88 72 84 b9 de 62 fa ba 13 9e 7b ba c6 c5 00 ba
       -0.00025262334 -0.0019102951 -0.0009598445 -0.0004912283
000190 2c d0 bf 3a 99 13 72 ba af 6c a2 3a ef 32 f0 3a
       0.0014634184 -0.00092344877 0.0012392009 0.0018325726
0001a0 91 9e 95 ba e5 d2 80 ba 1f 80 94 ba 4f b7 0a 3a
       -0.0011415054 -0.0009828476 -0.0011329687 0.00052915973
0001b0 5a ee 65 39 73 63 72 ba 50 3b 58 3a 29 73 cd 3a
       0.00021927935 -0.00092463865 0.00082485843 0.0015674579
0001c0 e2 0a 92 ba 98 52 96 ba 94 b5 e9 b9 e4 db c1 3a
       -0.0011142159 -0.0011468707 -0.0004457651 0.0014790264
0001d0 9a 7d 7f b9 db 2a ea 3a d1 a9 07 3b 50 ec f7 3a
       -0.00024365485 0.0017865555 0.0020700584 0.0018915031
0001e0 6b e5 ba 3a d7 57 0a 3b ff ab c8 ba c1 5e e5 ba
       0.0014259046 0.0021109486 -0.0015310048 -0.0017499552
0001f0 3b 3c 1f b9 23 2e 90 39 4f 2b 81 bb a2 42 a5 ba
       -0.00015185859 0.00027500195 -0.0039419304 -0.0012608359

action_model._continuous_distribution.log_sigma f4 [1, 2]
000000 cc c3 b7 3b 3e 2c 26 3c
       0.0056080576 0.010142384

action_model._continuous_distribution.mu.weight f4 [2, 128]
000000 5e 4b 21 3d 11 37 7c 3c 60 48 7c 3c 84 3c 49 bc
       0.039378516 0.015393988 0.015398115 -0.012282494
000010 3b af 06 3d c2 40 11 3c 98 3d 24 3d 98 11 de b9
       0.032881957 0.008865537 0.040097803 -0.00042356248
000020 c6 bd 1a bc dc 4b 0c bb 08 e3 79 bc b4 f8 da 39
       -0.00944466 -0.002140752 -0.015251882 0.00041765498
000030 bc 7b 86 3c d4 85 30 bc 7a 21 e2 3c 59 db 3f 3c
       0.016416423 -0.010774095 0.027603853 0.011710011
000040 22 10 01 3c 14 31 4c 3d 59 15 91 bb 6e 9f 94 3c
       0.0078773815 0.049851492 -0.0044275937 0.018142428
000050 74 45 da 3c d8 69 06 3c 2b 8a b9 bb 76 8a 50 3c
       0.026644446 0.008203946 -0.005662223 0.012728324
000060 dc 4d b7 3b 9f 19 aa bc 83 f4 00 3c 27 99 64 3c
       0.0055939984 -0.02076417 0.007870796 0.01395253
000070 a4 83 dc bc 15 6d e5 3c f3 14 ce 3b f5 81 76 bc
       -0.02691824 0.028006116 0.0062891184 -0.015045633
000080 58 a7 96 3c 50 a5 96 3c d2 72 1f 3c da e9 5e bc
       0.018390343 0.018389374 0.009731965 -0.013605559
000090 0d b3 8e bb de 8b ea 3b 91 5c 15 bc 18 8b 3e 3a
       -0.0043548406 0.0071577867 -0.009116308 0.00072686514
0000a0 4d 76 54 3c be 01 80 bc b3 22 0a 3c 51 95 b6 bc
       0.012967658 -0.01562583 0.0084311245 -0.022287996
0000b0 c6 36 eb bc 78 a6 69 3b 6a fa 2d bc 82 2a 91 3b
       -0.028712641 0.0035652202 -0.010618785 0.004430116
0000c0 75 ef 1d 3d 46 e4 d8 bc a6 7a 27 3d b8 dc 8c 3b
       0.038558442 -0.026476037 0.04088845 0.0042987727
0000d0 0e a5 82 bc 86 7c c5 3c e1 d7 ad bc 4a ab 56 3a
       -0.015947845 0.024107229 -0.021221103 0.0008188976
0000e0 46 41 5f bb ee 80 22 3d df bb 4e ba b0 52 2f 3c
       -0.0034066006 0.03967374 -0.00078862713 0.010700867
0000f0 d7 35 92 bb f4 fe f1 bc d9 0b 00 bc 35 37 0f bc
       -0.0044619846 -0.029540516 -0.007815325 -0.00874119
000100 ed 0e 35 3c 5e 1a 1b bc 72 34 f6 3c 6c 7a 12 bb
       0.011050922 -0.009466736 0.030054305 -0.00223508
000110 86 6c b8 3b fe 87 83 3c 6b 57 0c 3d b3 ef 9d 3c
       0.0056281714 0.016056057 0.034263056 0.019279337
000120 bd 92 d4 ba 79 31 da bc d3 96 67 bc 0d 9f 5e 3b
       -0.0016218048 -0.026634919 -0.01413508 0.0033969313
000130 0d d1 b3 3c 6f a7 80 3c f6 ce 47 bc ab f7 90 bc
       0.02195027 0.015704839 -0.012195339 -0.017696222
000140 57 3b 53 3b a7 2f 6c bc 74 58 35 ba 39 55 7c 3c
       0.0032231414 -0.014415658 -0.00069177826 0.015401178
000150 6f dc cc bb 71 92 16 bc 7a 21 87 bb 94 a3 a3 3b
       -0.0062518637 -0.009190188 -0.0041238638 0.0049938653
000160 41 6c 04 3d 71 8a 11 bd b1 05 16 3d 56 0d 09 3c
       0.0323298 -0.03553242 0.03662652 0.008364996
000170 24 80 82 bc 6b 44 42 bc 2d 9a 60 bb 89 a4 c4 3c
       -0.015930243 -0.011857132 -0.0034271583 0.024004238
000180 c4 d3 5f bc a0 2b 72 3b 3b c7 fd 3b b4 e7 72 bc
       -0.013661329 0.0036952272 0.0077446974 -0.01482575
000190 72 66 39 3b 6f d7 4a 3d e5 a3 32 ba 14 e7 13 3c
       0.0028289822 0.04952186 -0.00068145833 0.009027261
0001a0 a9 fa 4b bb c4 5e c8 3c e9 83 06 3c 44 0a 22 bd
       -0.0031124747 0.02445925 0.008210161 -0.03956057
0001b0 77 a8 1c 3c 95 50 ca 3b 60 6c 8f 3c 50 06 93 3c
       0.0095616495 0.006174157 0.017507732 0.017947346
0001c0 4f 45 d8 ba f7 0d e3 3c e5 b8 84 bc f2 0b 74 3c
       -0.0016500148 0.02771662 -0.016201446 0.014895426
0001d0 41 8d 96 3c c9 b9 99 3b 54 8f b0 3b 57 24 00 3c
       0.018377902 0.004691337 0.00538818 0.007821164
0001e0 27 29 c3 3c 40 8b 1b 3b 7e 40 d6 3b 53 df 50 3b
       0.023823334 0.0023734123 0.00653845 0.0031871393
0001f0 e2 73 8e bc a9 b1 82 3c d2 d1 05 3b 06 df f6 bc
       -0.017389242 0.015953856 0.0020419252 -0.030135643
000200 e1 90 21 3d ac c1 38 bc b9 c8 6e 3c 7f 36 50 bb
       0.039444808 -0.011276644 0.014574223 -0.0031770763
000210 b4 21 9b 3c 8b 5a 22 bc 0b 71 57 3c ff 08 c2 3b
       0.01893697 -0.009909282 0.01314951 0.0059214826
000220 7a e8 60 bc bc 31 c9 bb 54 33 0b 3d e8 e7 62 bb
       -0.013727302 -0.006139962 0.033984497 -0.003462309
000230 aa 22 9e bc 6e 7e 4c 3c d3 a9 84 bc 55 97 ff 39
       -0.019303638 0.012481315 -0.01619426 0.0004875014
000240 28 df 5b bc 9f 57 18 bc 5c eb 41 bd 55 5b b7 bc
       -0.013419904 -0.009298234 -0.047343597 -0.022382418
000250 03 a7 32 3c 45 92 17 3b dc c9 d3 3b e6 91 94 bb
       0.0109040765 0.0023127955 0.0064632725 -0.004533994
000260 d5 76 c7 3b ef 06 2d bc 9c 65 3c 3c d1 45 57 bc
       0.006087164 -0.010560735 0.011498835 -0.013139204
000270 63 e5 ae bc 7c f5 92 3b 61 ee 13 bc a3 cd 37 3c
       -0.021349614 0.0044848304 -0.009029002 0.011218461
000280 ad 04 a6 3c d0 d0 00 bc d3 ab 84 3b 5c 31 76 3d
       0.020265901 -0.007862285 0.0040488034 0.060105667
000290 7d db 11 bd 7f f3 bf bc 49 e7 bd bc e4 7d c7 3b
       -0.03560971 -0.023431538 -0.023181574 0.0060880054
0002a0 40 ac c7 ba fe 79 5b 3c b8 6e 50 bd 22 16 06 3d
       -0.001523383 0.013395784 -0.05088684 0.03273595
0002b0 32 b5 18 bc fc ad 96 3c 8d 4b 63 3b d2 58 47 3b
       -0.009320544 0.01839351 0.0034682483 0.0030417931
0002c0 21 7f 6c 3c 2a 2b ac bc 58 62 01 3c 58 7c 87 3c
       0.014434607 -0.021016676 0.007896982 0.016538784
0002d0 14 35 61 bc f3 a0 a9 3b 04 da 44 3c 22 4e 98 3c
       -0.013745565 0.0051766573 0.01201487 0.018591944
0002e0 47 e3 00 3d 64 fc 14 3b f8 2d b3 bc 16 61 65 3c
       0.03146675 0.0022733444 -0.021872506 0.014000198
0002f0 18 c4 dd 3c 1a 98 8a 3c f7 30 69 bc aa af b9 bb
       0.027071044 0.01691823 -0.014232866 -0.0056666927
000300 4a 8e a6 ba a2 fe 87 3c 9e b9 62 bb 74 ec 2d ba
       -0.00127072 0.01660091 -0.00345955 -0.00066346605
000310 fc c4 93 bc 53 a0 aa 3c 6a 99 eb 3c bd 32 01 bc
       -0.018038265 0.020828402 0.028759677 -0.007885632
000320 02 5b 48 3c 1c 0e 45 3c 5a 36 7a 3b 0b 0a 21 bd
       0.012228729 0.01202729 0.0038179369 -0.03931622
000330 cc 85 90 bb d8 a3 79 bc 26 ae fb b9 49 d2 4b 3c
       -0.004410481 -0.015236817 -0.000480042 0.012440273
000340 dd 2e bd bc 52 fb ac bb 06 28 db 3a 03 9c cd 3c
       -0.023093635 -0.005278983 0.0016720302 0.025098806
000350 85 53 1b bc 27 fc 13 3c 6c 05 5c 3c 8e 9e 9b bb
       -0.009480362 0.009032286 0.013429027 -0.004749126
000360 2f f6 93 b9 e0 4a 03 bd 61 39 78 bc c5 27 b0 3c
       -0.00028221446 -0.03205383 -0.015150399 0.021503339
000370 03 84 7a bb c5 3f b1 3b f3 4a 5e bc 0d 09 81 bc
       -0.0038225658 0.0054092132 -0.013567674 -0.015751386
000380 97 61 b1 bb 0c 0f a1 3a 8d 13 fb bc 4f 9a 00 bc
       -0.005413245 0.001228781 -0.030648971 -0.00784929
000390 74 31 eb bb ea 28 6f ba ea 83 de bb 05 b5 15 bc
       -0.007177526 -0.0009123223 -0.0067906277 -0.009137397
0003a0 c3 73 b3 3c a6 96 d3 3c d3 5a 05 3c a3 1e 86 bb
       0.021905785 0.02582867 0.00813933 -0.0040930077
0003b0 ba bb ba bb 59 1b 03 3d 8e 00 c9 bc 30 9d bc bc
       -0.0056986483 0.032008503 -0.024536397 -0.023024172
0003c0 35 36 5d bb 05 f7 a6 bc 94 35 bf 3c 78 08 d5 bc
       -0.0033754234 -0.02038146 0.023340978 -0.026005015
0003d0 c4 65 07 bc ac b6 4f 3c 28 13 09 bc eb 6a be 3c
       -0.008264009 0.01267783 -0.008366384 0.023244342
0003e0 af e0 68 bc a2 8e bf 3c 98 93 56 3c 71 b0 2d 3c
       -0.014213725 0.023383442 0.0130967125 0.010601149
0003f0 c8 e9 ef 3c 93 6b a6 bc 36 49 18 3c ee d8 89 3c
       0.02928628 -0.020314967 0.009294799 0.016827073

action_model._continuous_distribution.mu.bias f4 [2]
000000 8b c9 28 3a 2a 91 5d 38
       0.00064387236 5.28257e-05
