results/hideandseek_15/Seek/Seek-10042.onnx (onnx, 148430 bytes, 7 tensors)

network_body._body_endoder.seq_layers.0.weight f4 [128, 149]
0	0x3d7c6412	0.061618872
1	0xbd9748d0	-0.07386935
2	0x3b4763f6	0.0030424572
3	0x390f75cc	0.00013681425
4	0xbd23e766	-0.0400156
5	0x3e24ba75	0.16086753
6	0xbd82b7f2	-0.06382741
7	0x3db8c957	0.090227775
8	0xbeb35f27	-0.35033533
9	0xbdfd77db	-0.12376376
10	0x3dd56cb7	0.10421126
11	0xbe339259	-0.17536296
12	0xbe262997	-0.16226803
13	0xbb37b456	-0.0028031073
14	0x3dae43cb	0.08509024
15	0xbc2be1f7	-0.010490886
16	0xbe411524	-0.18855721
17	0xbcb96ba6	-0.022634339
18	0xbd046cd1	-0.032330338
19	0xbe7b16c4	-0.24520403
20	0x3e181ccf	0.1485474
21	0xbdee4edb	-0.11636134
22	0xbda9fdb8	-0.08300346
23	0x3c87ea42	0.016591195
24	0xbdbda304	-0.092596084
25	0x39d8d703	0.00041358927
26	0xbe959a6a	-0.2921937
27	0x3da6b3a7	0.08139735
28	0xbd6a1af8	-0.057154626
29	0xbe545752	-0.20736435
30	0xbdb2dd94	-0.08733669
31	0xbe8537fb	-0.26019272
32	0xbd9d893b	-0.0769219
33	0xbd96eaad	-0.073689796
34	0x3c083c35	0.008315136
35	0x3dacccd8	0.08437508
36	0xbe9fcb85	-0.3120996
37	0x3d383fb5	0.04498263
38	0xbdb38622	-0.08765818
39	0xbd83b1b8	-0.064303815
40	0xbcb6033c	-0.02221834
41	0xbe3f1038	-0.1865853
42	0x3e153d6e	0.14574215
43	0xbe0b0afe	-0.13578412
44	0xbe3ab4da	-0.18233052
45	0xbc9fe0cd	-0.019516373
46	0xbdb5ea05	-0.08882526
47	0xbd84e7e5	-0.06489543
48	0x3da7744c	0.08176479
49	0xbe03c1e0	-0.12866926
50	0xbcb1e4a3	-0.021715468
51	0xbd9602c5	-0.07324747
52	0x3da25b48	0.07927567
53	0xbb68618f	-0.003545854
54	0xbdcbedd4	-0.099574715
55	0x3e05b6ab	0.13057964
56	0xbe80c101	-0.2514725
57	0x3e1d9083	0.15387158
58	0xbda76435	-0.0817341
59	0xbe4cd670	-0.20003676
60	0x3c82d453	0.015970385
61	0xbe293465	-0.16523893
62	0xbe0cd9cb	-0.13754956
63	0xbd7d7be1	-0.06188572
64	0xbe13dd03	-0.14439778
65	0x3d2e48a7	0.042549755
66	0xbe229654	-0.15877658
67	0x3d76686b	0.060158174
68	0xbdd10bb6	-0.10207312
69	0xbe295471	-0.16536118
70	0x3dc08455	0.0940024
71	0xbe76ea51	-0.24112822
72	0x3df65517	0.12027948
73	0xbe77faf8	-0.2421683
74	0xbe1923cc	-0.14955062
75	0xbdf93683	-0.121686004
76	0xbe160ecc	-0.14654082
77	0xbde27421	-0.11057306
78	0xbe9bb5df	-0.30412194
79	0xbdcfa149	-0.101381846
80	0x3d179c45	0.037014265
81	0xbe296825	-0.16543634
82	0xbe785bf3	-0.24253826
83	0xbdba6827	-0.09101897
84	0xbd532d00	-0.051556587
85	0xbd4e069d	-0.050299276
86	0xbe1f46f1	-0.15554406
87	0xbda81e7c	-0.082089394
88	0xbe21e73c	-0.15810865
89	0xbe8eb338	-0.27871108
90	0xbc4b3379	-0.012402409
91	0xbb2295db	-0.002480856
92	0xbd696fd6	-0.05699142
93	0xbe177a01	-0.14792635
94	0xbd2e8795	-0.04260977
95	0xbd1752e7	-0.036944296
96	0xbc8903e4	-0.016725488
97	0xbd5c549c	-0.053791627
98	0xbe2039bd	-0.15647025
99	0x3bf09790	0.0073422864
100	0xbda5ad2a	-0.08089669
101	0xbe80f755	-0.251887
102	0xbd865efb	-0.06561085
103	0xbe7bc1ee	-0.24585697
104	0xbdde1dfe	-0.10845564
105	0x3c74d3c2	0.014943065
106	0xbe034dbf	-0.12822627
107	0xbe75e0e5	-0.24011572
108	0x3be2ac7d	0.006917535
109	0xbd77de4e	-0.06051474
110	0xbc8c3a92	-0.017117772
111	0xbd550edf	-0.052016135
112	0xbe01fc0a	-0.12693802
113	0x3db9bdfd	0.090694405
114	0xbe4da578	-0.20082653
115	0xbde2b2be	-0.110692486
116	0xbdd842ee	-0.10559641
117	0xbe5a71e0	-0.21332502
118	0xbdce8269	-0.100834675
119	0xbdc6d327	-0.09708243
120	0xbdd2204f	-0.102600686
121	0xbe8ea36b	-0.27859053
122	0xbd0b13d9	-0.033954475
123	0xbd411d92	-0.04714734
124	0xbc8622ab	-0.016373953
125	0x3db829b0	0.08992326
126	0xbe4aafd2	-0.19793633
127	0xbd9c400e	-0.07629405
128	0xbdca7cde	-0.09887098
129	0xbe18b0c7	-0.14911185
130	0xbcb5e892	-0.022205625
131	0xbe12c58b	-0.14333169
132	0xbd9b8540	-0.07593775
133	0xbe30f203	-0.1727982
134	0xbdcee8cc	-0.10102996
135	0x3cd5fddb	0.026122024
136	0xbe818f6a	-0.2530473
137	0xbbe4f455	-0.0069871345
138	0xbd336420	-0.04379666
139	0xbde5e2c9	-0.112248965
140	0x3c8e0de5	0.01734061
141	0xbd31890d	-0.043343592
142	0xbd50eb8c	-0.051005885
143	0x3de6c179	0.11267371
144	0xbc794be2	-0.015215846
145	0x3d805268	0.06265718
146	0xbdfc22f4	-0.12311354
147	0xbdf8af53	-0.121428154
148	0x39e95ecf	0.0004451186
149	0x3d455537	0.04817697
150	0x3ca83976	0.020535212
151	0x3c89c663	0.016818231
152	0xbe8700f3	-0.26367912
153	0x3d45ebbd	0.04832052
154	0x3db5ead8	0.088826835
155	0xbe864633	-0.26225433
156	0x3d05e18e	0.03268581
157	0x3d999a66	0.07500152
158	0x3dda694b	0.10664614
159	0x3bd7d87d	0.0065870867
160	0xbd717b28	-0.05895534
161	0xbe6e2960	-0.23257971
162	0xbe6582fd	-0.2241325
163	0xbd7e8279	-0.062136147
164	0xbc083c9e	-0.0083152335
165	0xbd98ea67	-0.07466584
166	0xbe7abe91	-0.24486758
167	0xbdd24402	-0.10266878
168	0x3e0d0623	0.13771872
169	0x3df73f6d	0.120726444
170	0xbcd63a79	-0.026150929
171	0xbe95005c	-0.29101837
172	0x3da97ac3	0.08275368
173	0x3dede1bd	0.11615322
174	0xbd6273d6	-0.05528625
175	0xbdd974d8	-0.10617989
176	0xbe93f2c3	-0.2889615
177	0xbcc123fa	-0.023576725
178	0x3db121f8	0.08649057
179	0x3d76895e	0.060189597
180	0xbcbbf096	-0.022941869
181	0xbc30d137	-0.010792068
182	0xbe49a090	-0.19690156
183	0x3dc3161a	0.095257
184	0xbcf96826	-0.03044517
185	0x3cae357a	0.021265734
186	0x3d5b681d	0.053566087
187	0xbdc89f51	-0.09796012
188	0xbe3837f0	-0.17990088
189	0xbe0836fb	-0.13302223
190	0xbe0db221	-0.13837482
191	0x3dbaa3bb	0.0911326
192	0x3d6588c1	0.05603862
193	0xbe23b485	-0.15986831
194	0xbd071a17	-0.032983866
195	0xbda70a95	-0.08156315
196	0x3c36303c	0.011119898
197	0xbda38928	-0.07985145
198	0x3e0618ca	0.13095394
199	0xbcd6e754	-0.026233353
200	0xbe6c5abb	-0.23081486
201	0x3e0fbc42	0.14036658
202	0xbcaa92d9	-0.020821976
203	0x3e0c70b6	0.13714871
204	0x3da5b4f5	0.080911554
205	0xbcd719fe	-0.026257511
206	0x3d395013	0.04524238
207	0xbd020557	-0.031743374
208	0xbe04ef0f	-0.12981819
209	0x3d162927	0.03666034
210	0x3dcf55c5	0.10123781
211	0x3e1663e1	0.14686538
212	0x3b4b66b9	0.003103657
213	0x3cc33c77	0.023832543
214	0x3d7ba7a4	0.06143917
215	0xbe01adf5	-0.12664016
216	0x3d2ee0cc	0.04269485
217	0xbd5b7ff2	-0.053588815
218	0xbe1cd837	-0.15316854
219	0xbd4e6d64	-0.05039729
220	0xbde13bc6	-0.10997729
221	0x3cdab16f	0.026695935
222	0xbd75a18c	-0.059968516
223	0xbc327b6a	-0.010893682
224	0xbc9d75e9	-0.019221263
225	0x3ca60c6c	0.020269595
226	0xbdab1c35	-0.083549894
227	0xbe2d05ce	-0.16896746
228	0xbde360a3	-0.11102416
229	0x3decc74e	0.11561452
230	0xbe564669	-0.20925297
231	0x3c997c96	0.018736165
232	0x3d71f9d2	0.059076138
233	0xbdd22afd	-0.102621056
234	0xbc9a8243	-0.018860942
235	0x3dd83a38	0.10557979
236	0x3b2b3c82	0.0026128595
237	0xbd93e2dd	-0.07221005
238	0xbda7e4be	-0.08197926
239	0x3d3b1ef3	0.045683812
240	0xbe39cbf3	-0.18144207
241	0xbdb67478	-0.089089334
242	0x3e60cf73	0.21954136
243	0x3e0d79d1	0.13816
244	0xba794133	-0.00095083116
245	0xbdb5e7e3	-0.088821195
246	0x3dc7a4ee	0.09748255
247	0xbe067f4d	-0.13134499
248	0xbe186419	-0.14881934
249	0xbdc94ef8	-0.09829515
250	0x3c686085	0.014183168
251	0xbc4c1fa8	-0.012458719
252	0xbe0d47d2	-0.13796929
253	0xbd638ef4	-0.055556253
254	0xbd5b9493	-0.05360849
255	0x3ac78013	0.0015220664

network_body._body_endoder.seq_layers.0.bias f4 [128]
0	0xbe513b5d	-0.20432802
1	0xbd600628	-0.05469337
2	0xbe31880e	-0.17337057
3	0xbe21ba04	-0.15793616
4	0xbe3ac0d3	-0.18237619
5	0xbd85f0ae	-0.06540047
6	0xbdb9572e	-0.09049831
7	0xbe131d41	-0.14366628
8	0xbdbf8c6f	-0.093529575
9	0xbc5054f0	-0.012715563
10	0xbd3d0ee2	-0.04615677
11	0xbdf28015	-0.11840836
12	0xba69c513	-0.0008917611
13	0x3e014cab	0.12626903
14	0xbdf7b610	-0.120952725
15	0xbdc20f47	-0.0947557
16	0xbe2935f6	-0.1652449
17	0xbe2954ca	-0.1653625
18	0xbd7fc66a	-0.06244508
19	0xbc8c0f7a	-0.017097224
20	0xbe52db16	-0.20591387
21	0xbe156fc8	-0.14593422
22	0xbdf60bca	-0.12013967
23	0xbdaf0441	-0.08545733
24	0xbdb2623c	-0.08710143
25	0xbe0bd7d2	-0.13656548
26	0xbddefd7b	-0.10888191
27	0xbd8b8831	-0.06813086
28	0x3ce5d695	0.028056422
29	0xbd4a2e50	-0.049360573
30	0xbdc82126	-0.097719476
31	0xbd99d1ab	-0.07510694
32	0xbe59b5ba	-0.2126073
33	0xbddf4ec2	-0.10903694
34	0xbe098194	-0.13428336
35	0xbca48aa5	-0.020085642
36	0xbe9901ab	-0.29884085
37	0xbdecfc85	-0.11571602
38	0xbe682c82	-0.22673228
39	0x3d610f53	0.054946255
40	0xbe19b676	-0.1501101
41	0xbe156f34	-0.14593202
42	0xbe30beb8	-0.17260253
43	0xbe0190f8	-0.12652957
44	0xbe179cdc	-0.14805931
45	0xbe211cce	-0.15733644
46	0xbd5bb544	-0.053639665
47	0xbdfc9013	-0.123321675
48	0x3bf2be59	0.007407945
49	0xbe1298ed	-0.14316149
50	0xbdb2ec5c	-0.08736488
51	0xbba422e9	-0.0050090444
52	0xbdfcb2b1	-0.1233877
53	0xbd6fadff	-0.058515545
54	0xbd10547c	-0.03523682
55	0xbe1cd033	-0.15313797
56	0xbe1c4e40	-0.15264225
57	0xbcb2d3b9	-0.021829473
58	0xbe12c27e	-0.14332005
59	0xbdd0a15f	-0.10187029
60	0xbe452db7	-0.1925572
61	0xbe320a4f	-0.17386745
62	0xbd31031d	-0.04321586
63	0xbda49065	-0.080353536
64	0xbe1ab59c	-0.15108341
65	0xbe2963a3	-0.16541915
66	0xbde1e5be	-0.11030148
67	0xbdc443e4	-0.095832616
68	0xbe539d1d	-0.20665403
69	0xbdc98613	-0.09840026
70	0xbdadb1aa	-0.08481152
71	0xbe0d4794	-0.13796836
72	0xbdcd2da2	-0.100184694
73	0xbdf4b5c4	-0.119487315
74	0xbe07d39d	-0.13264318
75	0xbdf84726	-0.121229455
76	0xbe3962d2	-0.18104103
77	0xbe8db52c	-0.27677286
78	0xbda5b554	-0.08091226
79	0xbe511c8c	-0.20421046
80	0xbdd8e2fa	-0.10590167
81	0xbe0b27ea	-0.13589445
82	0xbe3e1894	-0.18564063
83	0xbdf31b63	-0.11870458
84	0xbda71ba6	-0.081595704
85	0xbd0c1120	-0.03419602
86	0xbdc905cf	-0.09815561
87	0x3dacacde	0.08431409
88	0xbded0591	-0.11573327
89	0xbe1b074f	-0.15139507
90	0xbe2f75fd	-0.17134853
91	0xbe1bbb4a	-0.15208164
92	0xbe27eb3c	-0.16398329
93	0xbd1cf04b	-0.0383151
94	0xbe1f84cf	-0.15578006
95	0xbe1e040b	-0.1543123
96	0xbdd25d35	-0.10271684
97	0xbe1014d2	-0.14070442
98	0x3ddac369	0.10681803
99	0xbe42cdda	-0.19023839
100	0xbdf901ad	-0.12158523
101	0xbdd1fa00	-0.10252762
102	0xbdf06f7e	-0.117400154
103	0xbdfa9434	-0.12235299
104	0xbe45e445	-0.19325359
105	0x3b086057	0.0020809376
106	0xbd9f4c25	-0.07778195
107	0xbdfffe04	-0.124996215
108	0xbe2cfb5f	-0.16892765
109	0xbe2cbc35	-0.1686867
110	0xbdde0947	-0.10841613
111	0xbdff2dd0	-0.1245991
112	0xbe0a396e	-0.1349847
113	0xbe155d54	-0.14586383
114	0xbdd5334e	-0.10410176
115	0x3c23ec81	0.010005117
116	0xbd1c7891	-0.03820092
117	0xbe4b6c80	-0.19865608
118	0xbd4e61b6	-0.050386153
119	0xbdedb52d	-0.11606822
120	0xbe65b99b	-0.22434084
121	0xbd28c7e9	-0.041206274
122	0x3db32f6d	0.0874928
123	0xbe5f2137	-0.21790014
124	0xbd152db8	-0.036420554
125	0xbc8b6496	-0.017015737
126	0xbdab007e	-0.08349703
127	0xbe324866	-0.1741043

network_body._body_endoder.seq_layers.2.weight f4 [128, 128]
0	0x3d91221e	0.070865855
1	0x3d9c8988	0.076434195
2	0xbdfb0dd9	-0.122585006
3	0xbca18901	-0.019718649
4	0x3e36ff5e	0.17870852
5	0xbcb6206d	-0.022232259
6	0xbd4007a4	-0.046882287
7	0x3dbdbbad	0.09264312
8	0x3d26a3fe	0.04068374
9	0x3d2383df	0.039920684
10	0x3d7eff2e	0.062255077
11	0xbd693e6d	-0.0569443
12	0xbe2d9bd0	-0.16953969
13	0xbe8d0c74	-0.27548563
14	0xbd5e4ccc	-0.054272458
15	0x3c0ec58a	0.008714089
16	0xbce4e0ef	-0.027939288
17	0xbe8ec5b3	-0.27885208
18	0x3e02b1bf	0.12763117
19	0xbddf3cc4	-0.10900262
20	0x3d440cc1	0.047863726
21	0xbeb0b357	-0.34511825
22	0xbdb7beb6	-0.08971922
23	0xbd95b757	-0.0731036
24	0xbca07b9c	-0.019590192
25	0xbe4f99ca	-0.2027351
26	0xbd241ac4	-0.04006459
27	0x3e035ec4	0.12829119
28	0xbc4ac148	-0.012375183
29	0xbd8a81e3	-0.06763055
30	0xbe38c8f0	-0.18045402
31	0xbd8c1bd5	-0.06841246
32	0xbd1572a0	-0.036486268
33	0x3d444326	0.0479156
34	0xbe037296	-0.1283668
35	0xbe23f47a	-0.16011229
36	0xbe036d69	-0.12834705
37	0x3de5f650	0.11228621
38	0xbd4f672d	-0.050635505
39	0xbe1071f3	-0.14105968
40	0xbd63904f	-0.055557545
41	0x3b65e438	0.0035078656
42	0xbe83c1c1	-0.2573376
43	0x3d07e222	0.03317464
44	0xbcf9dc75	-0.03050063
45	0xbe076999	-0.13223876
46	0xbd34e1c9	-0.044160638
47	0xbd866560	-0.065623045
48	0xbcd1ad55	-0.025595346
49	0xbda45c93	-0.0802547
50	0xbc0f507a	-0.008747214
51	0xbe0120de	-0.12610194
52	0xbd175654	-0.036947563
53	0xbe0edf26	-0.13952312
54	0x3d8b76f9	0.068098016
55	0x3e2ba943	0.16763787
56	0x3e00a313	0.12562208
57	0xbd993494	-0.074807316
58	0xbcf7f80d	-0.030269647
59	0xbcf3022c	-0.029664122
60	0x3d806a39	0.0627026
61	0xbddd2ad4	-0.107991844
62	0xbd867c9d	-0.06566737
63	0xbd16fcea	-0.03686229
64	0xbd17af14	-0.037032202
65	0xbe03759a	-0.1283783
66	0x3d1185f8	0.035528153
67	0x3d885c73	0.06658258
68	0xbd43f484	-0.04784061
69	0xbcc176e9	-0.023616271
70	0xbe9cec43	-0.30649003
71	0xbd44bd47	-0.04803207
72	0xbc97c5a3	-0.018526858
73	0xbe2fd17b	-0.17169754
74	0xbc080646	-0.008302277
75	0xbdc9ccc5	-0.0985351
76	0xbb8d9558	-0.0043207817
77	0xbd96358d	-0.07334433
78	0x3dc721b1	0.09723223
79	0xbd268cd1	-0.040661637
80	0xbe3210bd	-0.17389198
81	0xbcb1b31a	-0.021691848
82	0x3d1b2959	0.03788123
83	0x3cb4b673	0.022059655
84	0x3e6170eb	0.22015731
85	0xbbda8511	-0.006668695
86	0xbe6f4740	-0.23367023
87	0xbd21d93a	-0.039513804
88	0xbdf4da11	-0.11955655
89	0xbd9f0bb4	-0.07765904
90	0xbdc1a1dc	-0.094547
91	0xbd14809c	-0.036255464
92	0x3dfd7a88	0.123768866
93	0xbd0da3d7	-0.034580078
94	0xbe007dce	-0.1254799
95	0xbd7514c0	-0.059834242
96	0x3ddeb942	0.10875179
97	0x3dc9b42b	0.098488174
98	0xbd5987c9	-0.05310801
99	0x3b223142	0.0024748598
100	0xbe8219b4	-0.25410235
101	0x3c9cc680	0.01913762
102	0xbdebf6e3	-0.11521699
103	0xbdc8d1cf	-0.09805643
104	0xbd834f58	-0.06411618
105	0xbce9bd86	-0.028532755
106	0x3de8e184	0.11371139
107	0xbdb8f91e	-0.0903189
108	0xbe9ae48d	-0.30252495
109	0x3e11dfc1	0.14245512
110	0xbc9b472d	-0.018954838
111	0xbda405d2	-0.08008923
112	0xbdbfbde9	-0.09362394
113	0xbd13987f	-0.036034103
114	0xbbbc0c40	-0.005738765
115	0xbe94b648	-0.2904532
116	0xbb76df8d	-0.0037669868
117	0xbddf5683	-0.10905173
118	0xbe2343f4	-0.15943891
119	0xbe633cdc	-0.22191185
120	0xbde693fc	-0.112586945
121	0xbd238c8d	-0.03992896
122	0x3d743520	0.059620976
123	0xbe8486b0	-0.25884008
124	0x3c970d57	0.018438978
125	0x3aed03a2	0.0018082748
126	0xbd841d3b	-0.06450888
127	0x3e471833	0.19442825
128	0xbe1d72ba	-0.15375796
129	0x3e5eb82f	0.21749948
130	0x3ddc0d8c	0.10744771
131	0xbd966638	-0.073437154
132	0x3db307eb	0.087417446
133	0xbc925a2f	-0.017865269
134	0x3d86bbf9	0.06578822
135	0xbd5c8802	-0.053840645
136	0x3e6e7527	0.23286878
137	0xbe2b52ad	-0.16730757
138	0x3ddfc54f	0.109263055
139	0xbdbc53b9	-0.09195656
140	0xbe3a8c43	-0.18217568
141	0xbdc9123f	-0.09817933
142	0x3e0d5e82	0.13805583
143	0x3dc639bc	0.09678981
144	0x3c9fd777	0.019511921
145	0x3d921534	0.071329504
146	0xbba54d72	-0.0050446326
147	0xbdc1bcae	-0.09459816
148	0x3c65f93d	0.014036474
149	0xbe02ac7f	-0.12761115
150	0x3de26e6e	0.11056219
151	0x3e23dec5	0.16002949
152	0xbdf8ceb8	-0.121488035
153	0xbe445b9b	-0.1917557
154	0x3dee8d7b	0.11648079
155	0x3e5d7fa4	0.21630722
156	0x3dfb4b14	0.122701794
157	0xbe7da0c8	-0.24768364
158	0xbd82b60a	-0.063823774
159	0xbe29e700	-0.16592026
160	0xbc54af23	-0.012981209
161	0x3c84f6ec	0.016231023
162	0x3c1c1266	0.009525871
163	0xbe4e7ea7	-0.20165502
164	0x3e2f02d6	0.17090926
165	0xbd239986	-0.039941333
166	0xbcdab6ce	-0.026698496
167	0xbde80838	-0.113296926
168	0x3dce8947	0.10084777
169	0x3e217ce4	0.15770298
170	0x3a53decd	0.0008082211
171	0x3daec981	0.085345276
172	0x3d4b4609	0.049627338
173	0xbdcea3ca	-0.10089834
174	0xbe3ca5c9	-0.18422617
175	0x3dc1dba7	0.094657235
176	0xbe015d59	-0.12633266
177	0x3e06a430	0.1314857
178	0xbd953e1b	-0.07287236
179	0xbe718b1c	-0.23588222
180	0x3cf0256d	0.029314721
181	0x3e87ec3a	0.26547414
182	0x3d5c3096	0.053757273
183	0x3e295bf3	0.16538982
184	0xbd91f74d	-0.07127247
185	0xbdeae196	-0.11468808
186	0xbb8e8394	-0.0043491814
187	0xbc1976b8	-0.009366684
188	0xbad7c75b	-0.0016462611
189	0xbde03822	-0.109482065
190	0xbe1ab78f	-0.15109085
191	0x3dbcf28d	0.092259504
192	0xbd8fbda4	-0.07018593
193	0xbdad989e	-0.08476375
194	0x3dd38835	0.10328714
195	0x3d848225	0.064701356
196	0x3dd11c11	0.10210431
197	0x3c2e005f	0.010620206
198	0x3d36b119	0.044602487
199	0x3da39c77	0.07988828
200	0xbe255757	-0.16146599
201	0x3d9510be	0.07278584
202	0x3e3f40a5	0.18677004
203	0x3de572cc	0.112035364
204	0x3e481c86	0.19542131
205	0xbd0df41c	-0.03465663
206	0xbd5cc5e9	-0.05389968
207	0x3e4a295f	0.19742344
208	0x3db5e8d9	0.08882303
209	0x3dddf005	0.10836796
210	0x3de3089a	0.11085625
211	0xbddc719e	-0.10763858
212	0xbe1e6d89	-0.15471472
213	0xbb37f7f0	-0.0028071366
214	0x3d49cc71	0.049267236
215	0x3df97f4d	0.12182484
216	0xbda51e0c	-0.080623716
217	0x3e669b8c	0.22520274
218	0x3d92073d	0.07130287
219	0xbd70f948	-0.058831483
220	0x3d8133a3	0.06308677
221	0x3d715647	0.05892017
222	0xbe0e4678	-0.13894069
223	0x3cd802c4	0.026368506
224	0xbe24b289	-0.16083731
225	0xbc6c10bb	-0.014408286
226	0xbe484b14	-0.1955989
227	0xbd82308e	-0.06356917
228	0x3e2faadd	0.17155023
229	0x3b22dfa3	0.0024852536
230	0xbe0fa679	-0.14028348
231	0x3d186719	0.037207697
232	0x3e2706f6	0.16311249
233	0xbcf1065a	-0.029421974
234	0xbdd37810	-0.103256345
235	0x3d423ae5	0.047419447
236	0xbd7d1b05	-0.061793346
237	0xbe124786	-0.14285097
238	0x3db46b9f	0.088095896
239	0xbe3e61b4	-0.18591958
240	0x3e17053d	0.14748092
241	0x3a07bd62	0.00051780615
242	0xbdd22ff7	-0.10263055
243	0xba325571	-0.0006802893
244	0xbdac01fb	-0.08398815
245	0x3d326763	0.04355563
246	0xbe0b58c6	-0.13608083
247	0xbbf247af	-0.0073937993
248	0x3e09275e	0.13393924
249	0xbdf78322	-0.120855585
250	0xbde8b156	-0.11361949
251	0x3e2026b1	0.1563976
252	0xbbc4b40f	-0.00600291
253	0xbda8e255	-0.082462944
254	0x3d180a98	0.037119478
255	0x3dd9fb86	0.106436774

network_body._body_endoder.seq_layers.2.bias f4 [128]
0	0xbd490a2f	-0.049081977
1	0xbdf6b441	-0.120460995
2	0x3c48b805	0.012250905
3	0xbe22a017	-0.15881382
4	0xbe2543e3	-0.16139178
5	0xbe4042e4	-0.18775517
6	0xbd71932a	-0.058978237
7	0xbdd1dbb6	-0.10246985
8	0xbea6199d	-0.32441416
9	0xbe50ee0a	-0.20403305
10	0xbcd0634c	-0.025437973
11	0xbe207ead	-0.15673323
12	0xbdafb294	-0.08578983
13	0xbead02db	-0.3379124
14	0xbe21febb	-0.15819828
15	0xbe8612c9	-0.26186207
16	0xbe915716	-0.28386754
17	0xbe86fa74	-0.26362956
18	0xbe6a987c	-0.2290973
19	0x3bde7ae4	0.006789552
20	0xbdcb6f94	-0.09933391
21	0xbe27ece7	-0.16398965
22	0xbe8a6862	-0.27032763
23	0xbdd2fbfc	-0.103019685
24	0x3c765993	0.015036005
25	0x3b443d36	0.002994371
26	0xbe69cef7	-0.22832857
27	0xbd3267e1	-0.043556098
28	0xbdc55a03	-0.09636309
29	0xbdec5e76	-0.115414545
30	0xbdfa6f97	-0.12228315
31	0xbe061e8e	-0.13097593
32	0xbe55e2a4	-0.20887238
33	0xbe26e4e7	-0.16298257
34	0xbe1c5ab5	-0.15268977
35	0xbbdee63e	-0.0068023494
36	0xbe87aa5f	-0.2649717
37	0xbec23551	-0.37931302
38	0xbe3c1163	-0.18366008
39	0xbe32f511	-0.17476298
40	0xbe894845	-0.2681295
41	0xbe0e824b	-0.1391689
42	0xbe5ebc5b	-0.2175154
43	0xbb6e4a21	-0.0036360102
44	0xbe3e0c03	-0.1855927
45	0xbced7202	-0.028985027
46	0xbe300721	-0.1719022
47	0xbdd28bc2	-0.10280563
48	0xbd9f0140	-0.0776391
49	0xbdab736a	-0.08371623
50	0x3aeb10ed	0.0017934121
51	0xbe83808b	-0.25684008
52	0xbe2187e7	-0.15774499
53	0xbec89ba7	-0.39181253
54	0x3957f9f3	0.00020597111
55	0xbe75d418	-0.24006689
56	0xbe32b8cc	-0.17453307
57	0xbe507395	-0.20356591
58	0xbe31d4d4	-0.17366344
59	0xbe788bbc	-0.24272054
60	0xbd5862b0	-0.05282849
61	0x3dadc7af	0.08485352
62	0xbe0e6195	-0.13904412
63	0xbdc5d95c	-0.09660599
64	0x3be5617b	0.007000146
65	0xbe22e6bc	-0.1590833
66	0xbd843845	-0.06456045
67	0xbdda4db5	-0.10659353
68	0xbdea2928	-0.11433631
69	0xbd4a694f	-0.049416836
70	0xbec829e5	-0.39094463
71	0xbe0c89f1	-0.13724495
72	0xbe3d70e0	-0.1850009
73	0xbe60472d	-0.21902151
74	0xbd25ab8e	-0.04044681
75	0xbd9a4618	-0.075329006
76	0x3db25886	0.08708291
77	0xbe0c7ee8	-0.13720286
78	0xbe50e0de	-0.2039828
79	0xbe2a8d0e	-0.1665537
80	0xbe4a184c	-0.19735831
81	0x3b89d8ff	0.004206776
82	0xbe5fff52	-0.2187474
83	0xbe878a5a	-0.2647274
84	0xbd835a69	-0.06413729
85	0xbe770387	-0.2412244
86	0xbe05f781	-0.13082696
87	0x3d07bdd0	0.033140004
88	0xbb9e8ed5	-0.0048388042
89	0xbd8a8755	-0.06764094
90	0xbe5bac31	-0.21452405
91	0xbe09922f	-0.13434671
92	0xbd875f88	-0.06610018
93	0xbc50d352	-0.012745695
94	0xbe2e9405	-0.17048652
95	0xbda57dbf	-0.08080625
96	0xbe71bad8	-0.23606431
97	0xbdc46a22	-0.09590556
98	0xbdec3c85	-0.11534981
99	0xbe2e8904	-0.17044455
100	0xbe4600e1	-0.19336273
101	0xbd0deb0e	-0.034647994
102	0xbdef6b4b	-0.116903864
103	0xbdc99848	-0.098434985
104	0xbe7239d2	-0.23654869
105	0xbc75b29d	-0.014996198
106	0xbcd01351	-0.025399836
107	0xbdbf0f7e	-0.09329127
108	0xbe5e3859	-0.21701182
109	0xbe881fee	-0.2658686
110	0xbe73e488	-0.23817647
111	0xbd468faa	-0.048476852
112	0xbe3af919	-0.18259086
113	0xbeb7254f	-0.35770652
114	0xbe2af330	-0.16694331
115	0xbe4ac58f	-0.19801925
116	0xbde76eba	-0.11300416
117	0xbe6a2782	-0.22866634
118	0xbd96c396	-0.07361524
119	0xbe17363e	-0.14766786
120	0xbda9b4ae	-0.08286415
121	0xbe9513a2	-0.2911654
122	0xbe3a2d7b	-0.18181412
123	0xbe577d6f	-0.21043943
124	0xbdfe87ee	-0.1242827
125	0xbdbf409c	-0.09338495
126	0xbe05c482	-0.13063243
127	0xbd78331f	-0.060595628

action_model._continuous_distribution.log_sigma f4 [1, 2]
0	0xbc587974	-0.01321255
1	0x3e152389	0.14564337

action_model._continuous_distribution.mu.weight f4 [2, 128]
0	0xbd822566	-0.063547894
1	0x3d320b54	0.043467835
2	0xbd601960	-0.0547117
3	0xbbb39862	-0.005480812
4	0xbd3745b7	-0.04474422
5	0xbc63169b	-0.01386037
6	0xbcd19ce1	-0.025587501
7	0xbd308427	-0.04309478
8	0xbd104cc6	-0.035229467
9	0x3d5de339	0.054171775
10	0x3d61189c	0.05495511
11	0x3cb2e016	0.021835368
12	0x3d06622f	0.03280848
13	0x3cfd88d2	0.03094903
14	0xbd267374	-0.04063745
15	0xbd3697df	-0.04457843
16	0xbb81d1c1	-0.003961772
17	0xbd26030c	-0.04053025
18	0xbaf41fe0	-0.0018625222
19	0x3d5b839c	0.05359231
20	0x3b21f61c	0.0024713343
21	0x3d2e00c5	0.042481203
22	0x3c3623ca	0.011116931
23	0x3a970e77	0.0011524697
24	0x3aea4bc3	0.0017875362
25	0x3e3cd90a	0.18442169
26	0xbc0f1490	-0.00873293
27	0x3d543d03	0.051815998
28	0x3b227ed2	0.002479483
29	0x3cc15ec6	0.023604762
30	0x3c8eb1e4	0.01741881
31	0xbb4df051	-0.0031423757
32	0x3c62409a	0.0138093475
33	0xbd273c5f	-0.04082906
34	0x3c00127d	0.007816908
35	0xbbf452a0	-0.0074561387
36	0xba8af73e	-0.0010602248
37	0x3ba65034	0.005075479
38	0x3c34b8c3	0.011030379
39	0x3d3c9108	0.04603675
40	0xbc5f12f0	-0.013615355
41	0xbb81733c	-0.0039505046
42	0xbcefcc20	-0.02927214
43	0x3d9400c5	0.07226709
44	0x3c9537c4	0.018215068
45	0xbcc14bff	-0.023595808
46	0xbc30ea74	-0.0107980855
47	0x3b2dd2d9	0.002652338
48	0x3d652ab9	0.055948947
49	0x3bb737b8	0.005591359
50	0x3bb42c30	0.0054984316
51	0x3c1fafb7	0.0097464835
52	0xbceb37a1	-0.02871305
53	0x3d4d7ba5	0.050166745
54	0x3d685837	0.056724753
55	0x3c9968be	0.018726703
56	0xbc178d9e	-0.009250073
57	0x3c710a6f	0.01471196
58	0x3cb44b9d	0.022008711
59	0x3cb6ec4c	0.022329472
60	0x3c49ad07	0.012309319
61	0x3e355865	0.17709501
62	0x3d4e05e3	0.050298583
63	0xbaba9a6e	-0.0014236697
64	0x3b611f29	0.0034350848
65	0x3c143c71	0.0090476135
66	0x3c838cbc	0.016058318
67	0x3d6736f5	0.056448895
68	0x3dcb0ea2	0.099149
69	0x3d0cb682	0.03435374
70	0xbd10a189	-0.035310302
71	0xbcf9878d	-0.030460143
72	0xbc1c7951	-0.009550408
73	0x3cbee016	0.023300212
74	0x3d024f9b	0.0318142
75	0xbc87c272	-0.016572211
76	0x3e4a4abc	0.19755071
77	0xbd0ba315	-0.034091074
78	0xbc91e28c	-0.017808221
79	0x3c7a366c	0.015271764
80	0x3cacc860	0.02109164
81	0xbc0673cb	-0.008206318
82	0xbc739f82	-0.014869573
83	0xbc202ffb	-0.009777064
84	0xbbca541b	-0.006174577
85	0xbd196f62	-0.03745974
86	0xbda50519	-0.08057613
87	0x3bd68e33	0.006547713
88	0x3b8867ed	0.0041627795
89	0x3b8df6b1	0.0043323864
90	0x3d2f8567	0.04285183
91	0x3c671975	0.0141051905
92	0x3d80f4dd	0.06296704
93	0xbbe717b6	-0.007052387
94	0xbca3dd43	-0.020002967
95	0x3cbdf151	0.023186358
96	0x3ccacb09	0.024755018
97	0xbd0f18a3	-0.034935605
98	0xbc7286c5	-0.014802639
99	0xbc8d70de	-0.017265733
100	0x3d5ed9cc	0.054406926
101	0x3b337db1	0.002738815
102	0x3c07da10	0.008291736
103	0xbd5b037e	-0.053470127
104	0xbbef5961	-0.007304356
105	0x3d58bfba	0.05291722
106	0x3b372e09	0.0027951023
107	0xbc45f9a1	-0.012083442
108	0x3c7858f4	0.015157927
109	0x3cded481	0.02720094
110	0xbb19185b	-0.0023360464
111	0xbc3ffbd6	-0.011717757
112	0xb8eeca4a	-0.00011386404
113	0x3cc40d23	0.023932045
114	0x3c2461e1	0.010033102
115	0x3d06fde8	0.032956988
116	0x3d32c6ce	0.043646626
117	0xbbc76982	-0.0060855756
118	0xbd6aab02	-0.057291992
119	0xbc19b80e	-0.009382261
120	0x3dcadef1	0.09905804
121	0xbb01edcb	-0.0019825574
122	0xbb567bd5	-0.0032727618
123	0x3c5b778e	0.013395203
124	0xbbc07c52	-0.005874195
125	0x3cde8c3e	0.027166482
126	0x3ba16b2b	0.0049261055
127	0x3c19e832	0.009393739
128	0x3db919cc	0.090381235
129	0xbd666705	-0.05625059
130	0x3e10fcc0	0.14158916
131	0x3bf2a908	0.007405404
132	0x3dcf8f99	0.10134811
133	0x3d1c70b7	0.03819343
134	0x3ab83e88	0.0014056722
135	0xbcaf1efa	-0.021377075
136	0xbcebf36b	-0.028802594
137	0x3d044a30	0.032297313
138	0x3da6e19e	0.08148502
139	0x3d60de3a	0.05489943
140	0x3dcaab29	0.098959275
141	0xbd0910bd	-0.03346323
142	0x3d20e7c1	0.039283518
143	0xbafa269a	-0.001908499
144	0x3c846fc8	0.016166583
145	0x3c4fbeb5	0.012679745
146	0x3b579d24	0.003290006
147	0x3e2fa90f	0.17154334
148	0xbcb2c04f	-0.021820216
149	0x3ddcf6d2	0.10789265
150	0xbe535a97	-0.20640026
151	0x3b85a9b8	0.00407907
152	0x3d141412	0.036151953
153	0x3e229bd9	0.15879764
154	0xbca884e3	-0.020571178
155	0x3daec1a7	0.0853303
156	0x3d358d9d	0.044324506
157	0x3daba320	0.08380723
158	0x3dcade61	0.09905697
159	0x3d8f73d6	0.07004516
160	0x3d360d51	0.044446293
161	0x3c6afbc5	0.014342253
162	0x3d3b6c5c	0.045757636
163	0xbdae98d6	-0.08525245
164	0x3c99377d	0.018703217
165	0xbd1df7de	-0.038566463
166	0x3da02b5e	0.07820772
167	0xbc3f9daf	-0.01169531
168	0x3c9fd3d5	0.01951019
169	0x3d08316e	0.033250265
170	0xbcdb7d83	-0.026793247
171	0x3e2de8e2	0.16983369
172	0xbd41948e	-0.047260813
173	0x3d9938ee	0.074815616
174	0xbdb6e4d4	-0.08930364
175	0x3cf3ea9e	0.02977496
176	0x3e0b774f	0.13619731
177	0x3dd71c32	0.10503425
178	0x3e2b4fe2	0.16729692
179	0x3d1915d6	0.03737434
180	0x3ad51fed	0.0016260125
181	0xbdc62033	-0.0967411
182	0x3e19f6c8	0.15035546
183	0x3e05c976	0.13065132
184	0x3d3c25a2	0.045934327
185	0xbb98c6a6	-0.0046623526
186	0xbc473556	-0.012158712
187	0x3d304722	0.043036588
188	0x3e205176	0.15656075
189	0x3e896bdd	0.26840106
190	0xbc2430c5	-0.010021393
191	0xbc61f441	-0.013791145
192	0x3d6b6e0c	0.057477996
193	0x3d8c42d1	0.06848682
194	0x3d92d3a1	0.07169271
195	0x3d8e73ce	0.06955682
196	0xbd4c4f55	-0.049880344
197	0xbd2f2f1d	-0.04276954
198	0xbcae161f	-0.021250783
199	0xbc1c9c8d	-0.009558809
200	0x3cbd82e4	0.023133703
201	0xbc8caf16	-0.017173331
202	0x3dfc56aa	0.12321217
203	0x3d56a1ae	0.052400284
204	0x3e218935	0.15774997
205	0x3c8a2343	0.016862517
206	0x3c8bc6ef	0.017062632
207	0x3dd795f7	0.105266504
208	0x3c4e63e2	0.012597056
209	0x3bb975c5	0.005659791
210	0x3c9b30e1	0.018944206
211	0x3d0b59dd	0.034021247
212	0x3be72a85	0.0070546293
213	0x3c79b6d4	0.0152413435
214	0xbcb02385	-0.021501312
215	0x3e4ac343	0.19801049
216	0x3dc0cbcf	0.094138734
217	0x3bb1f443	0.0054307296
218	0x3d1ea4d1	0.0387314
219	0x3c17d841	0.009267868
220	0x3d1952bd	0.03743242
221	0x3cad27d4	0.021137156
222	0xbc203626	-0.009778535
223	0x3cd9d0cc	0.02658882
224	0x3c27c20c	0.0102391355
225	0x3d86294f	0.06550848
226	0x3beb7f95	0.00718684
227	0xbcfdbc50	-0.030973583
228	0x3df463d5	0.11933104
229	0x3e2300c4	0.15918261
230	0xbc94433b	-0.018098464
231	0xbd2320d7	-0.03982624
232	0x3d8088bd	0.06276081
233	0x3e18d7de	0.14926097
234	0x3d825266	0.063633725
235	0x3ddc4d1a	0.107568935
236	0x3d773048	0.06034878
237	0xbc5a5699	-0.013326311
238	0x3d01c6e8	0.031683832
239	0x3d5ef7c2	0.0544355
240	0xbd05f891	-0.032707755
241	0xb9a89411	-0.00032153775
242	0x3d971fbb	0.07379099
243	0xba867e78	-0.0010261079
244	0x3d42a4a8	0.04752031
245	0x3d5b3d54	0.053525284
246	0x3db9f42a	0.09079774
247	0xbbe354de	-0.006937607
248	0x3c799b74	0.015234817
249	0x3d5e2b98	0.054240793
250	0x3d8b961a	0.06815739
251	0x3cf58efe	0.02997541
252	0x3d8f2d80	0.069911
253	0x3dc9c828	0.0985263
254	0x3d990ce0	0.07473159
255	0x3ddfb2e7	0.10922795

action_model._continuous_distribution.mu.bias f4 [2]
0	0xbe0127ee	-0.12612888
1	0x3dabc3b3	0.08386936
