results/hideandseek_13/Hide/checkpoint.pt (torch, 967147 bytes, 36 tensors)

network_body._body_endoder.seq_layers.0.weight f4 [128, 177]
-0.02564876 -0.22963333 0.14550893 0.008614562 0.06350042 0.04036833 0.085279875 -0.044975165
0.09428663 -0.04800915 -0.07355509 -0.06854218 0.031203784 -0.08119103 0.05243412 -0.07532506
-0.048758604 -0.030114973 0.02418092 0.05368459 0.07641741 0.038382865 0.052624226 -0.0500087
-0.026534785 -0.14501978 -0.044570837 -0.2740746 -0.04656368 -0.14865129 -0.027884461 -0.18802595
0.0029386163 0.05720472 0.01885486 0.05712188 -0.041123245 -0.115494646 -0.064031325 -0.2802208
0.078889854 -0.16861664 -0.033957805 -0.039622564 -0.041958522 0.19766943 -0.019621126 -0.04831564
0.11735335 -0.040478997 0.06461881 -0.18605347 0.012320689 -0.009758892 0.07766215 -0.0059002107
-0.019837748 0.019580929 -0.056237716 -0.049606945 -0.060097307 -0.079587944 -0.0022052908 -0.09796052
-0.0837068 -0.11368247 0.054116257 -0.1440229 -0.08702192 0.07437452 0.006438135 -0.084943235
-0.0075469776 -0.07889379 0.13629432 -0.16244727 -0.016893232 -0.18650627 -0.09993635 0.0075995307
-0.026079247 0.1251856 0.065081544 0.07428303 0.15629262 -0.08547547 0.2090913 0.062427852
-0.13596442 -0.11678238 0.1024545 -0.19405825 -0.046317 0.12517294 -0.08721637 -0.06904973
0.019404767 -0.015168933 0.04965618 -0.007814574 -0.069973364 0.06322326 0.048735827 -0.01980961
0.06931958 -0.06257235 0.0530882 0.040547315 0.12600574 -0.06917767 -0.15309507 0.06359778
-0.08908953 -0.10309827 -0.08439724 -0.11763567 0.012584692 -0.22949529 0.047846027 -0.14909749
-0.055588897 -0.2773663 0.052468386 0.1252188 -0.018466596 -0.021570444 -0.0050871726 -0.036394525
-0.041886393 0.033837557 -0.08697686 -0.09701611 0.019983923 -0.18604133 0.118242286 0.04613921
-0.05764043 -0.08250597 -0.013060178 -0.019195737 0.009365089 -0.12899704 -0.005390306 -0.061502457
-0.015445376 -0.09764181 -0.017451534 0.26557958 -0.040584896 -0.119039826 -0.0015833625 -0.031721856
-0.14858387 -0.044074718 0.09980457 -0.09167496 0.017710324 -0.06902608 0.024992216 0.06365235
-0.0421803 -0.17360343 -0.0006862531 0.039311323 -0.024050415 -0.20709053 0.06332011 -0.0020769318
0.06953934 -0.092418656 -0.0725627 0.054969132 -0.022339007 -0.002057851 -0.06779163 -0.10704946
-0.040252637 0.10098417 0.19489172 0.14919513 0.04217458 -0.03728952 -0.018460631 -0.0028826392
-0.21853796 0.099763915 -0.24978149 0.04483007 0.0013877052 0.15174866 0.025551148 -0.15964112
0.024634592 -0.024291603 -0.047795642 -0.055913165 0.06781347 -0.089149274 -0.074499115 -0.010534349
0.0042358604 0.09431916 -0.060080726 -0.006303238 0.003728525 -0.054942984 -0.09168595 0.08774106
0.0032377797 0.02506592 -0.20246638 0.040157344 -0.054785788 -0.00050713477 -0.016239017 -0.07271316
0.11682179 0.11043514 -0.032356426 0.018807156 -0.041742045 0.02331617 -0.187127 0.07114816
-0.14570624 -0.17538059 -0.0068133837 -0.16577484 -0.10636183 -0.049669158 -0.24782757 0.02134581
-0.050190307 0.11223521 -0.06970279 -0.07013907 -0.10189517 -0.05110297 0.019326124 0.049838465
0.15185562 -0.02385864 -0.095159136 0.013288459 -0.006394687 0.023914576 0.08428224 -0.13236985
-0.08946959 -0.06251709 -0.05001112 0.0417663 -0.10109574 0.016712751 -0.0036062147 -0.15344143
00000000: 591d d2bc 0025 6bbe 4b00 153e 1824 0d3c
00000010: 820c 823d 4359 253d 37a7 ae3d e137 38bd
00000020: 5919 c13d 3ea5 44bd 0da4 96bd d85f 8cbd
00000030: 149f ff3c 7c47 a6bd 29c5 563d 0644 9abd
00000040: 1ab7 47bd adb3 f6bc 1117 c63c 5fe4 5b3d
00000050: bb80 9c3d 5a37 1d3d 808c 573d ecd5 4cbd
00000060: 7a5f d9bc 1180 14be e98f 36bd 8253 8cbe
00000070: 8fb9 3ebd 0b38 18be f46d e4bc e089 40be
00000080: cd95 403b 7f4f 6a3d 8275 9a3c a2f8 693d
00000090: d970 28bd 7588 ecbd db22 83bd 1a79 8fbe
000000a0: 0191 a13d d7a9 2cbe 5717 0bbd 454b 22bd
000000b0: b3dc 2bbd db69 4a3e 7cbc a0bc 9fe6 45bd
000000c0: f456 f03d 4ecd 25bd de56 843d cd84 3ebe
000000d0: b7dc 493c c2e3 1fbc 550d 9f3d 8e56 c1bb
000000e0: c682 a2bc 2f68 a03c 8559 66bd a730 4bbd
000000f0: 9828 76bd 01ff a2bd a486 10bb 869f c8bd
00000100: 796e abbd 5bd2 e8bd 02a9 5d3d bd7a 13be
00000110: 8c38 b2bd ab51 983d fef6 d23b b8f6 adbd
00000120: a34c f7bb 1193 a1bd bd90 0b3e 9458 26be
00000130: ad63 8abc 80fb 3ebe 6eab ccbd 7c05 f93b
00000140: 25a4 d5bc a730 003e 7949 853d b421 983d
00000150: 2c0b 203e c30d afbd 081c 563e 59b4 7f3d
00000160: 423a 0bbe 9a2b efbd aad3 d13d 35b7 46be
00000170: e5b6 3dbd 562d 003e 7f9e b2bd f269 8dbd
00000180: bff6 9e3c 1e87 78bc 4764 4b3d b308 00bc
00000190: 324e 8fbd 327b 813d 389f 473d c347 a2bc
000001a0: 6df7 8d3d ef25 80bd 0373 593d f114 263d
000001b0: a607 013e 06ad 8dbd f4c4 1cbe 8e3f 823d
000001c0: 9274 b6bd 3025 d3bd 76d8 acbd f8ea f0bd
000001d0: 0630 4e3c d000 6bbe 32fa 433d 03ad 18be
000001e0: 2fb1 63bd f502 8ebe 17e9 563d 5b39 003e
000001f0: 4247 97bc 80b4 b0bc 4cb2 a6bb 6d12 15bd
00000200: 1191 2bbd 4099 0a3d ed20 b2bd 62b0 c6bd
00000210: 53b5 a33c 9e81 3ebe 0329 f23d 78fc 3c3d
00000220: 5f18 6cbd e4f8 a8bd 5bfa 55bc 6140 9dbc
00000230: 0870 193c cd17 04be 2aa1 b0bb 00ea 7bbd
00000240: 9a0e 7dbc 6ef8 c7bd 85f6 8ebc 0cfa 873e
00000250: 593c 26bd 27cb f3bd d488 cfba c7ee 01bd
00000260: 5f26 18be b187 34bd 5766 cc3d 15c0 bbbd
00000270: 3e15 913c 8c5d 8dbd 7abc cc3c 2a5c 823d
00000280: 40c5 2cbd 19c5 31be aae5 33ba e904 213d
00000290: 6005 c5bc 8a0f 54be f9ad 813d 221d 08bb
000002a0: a46a 8e3d fe45 bdbd c19b 94bd 5027 613d
000002b0: 4b00 b7bc 03dd 06bb 57d6 8abd bf3c dbbd
000002c0: f3df 24bd cad0 ce3d b291 473e 9cc6 183e
000002d0: 41bf 2c3d e5bc 18bd c03a 97bc a9ea 3cbb
000002e0: 6ac8 5fbe 0651 cc3d b8c6 7fbe bc9f 373d
000002f0: a9e3 b53a 0064 1b3e a450 d13c f678 23be
00000300: 7cce c93c 2fff c6bc 5dc5 43bd 3405 65bd
00000310: cae1 8a3d e593 b6bd fe92 98bd 4398 2cbc
00000320: f9cc 8a3b 672a c13d 3517 76bd 658b cebb
00000330: 455a 743b e50b 61bd d8c5 bbbd 96b1 b33d
00000340: ee30 543b 0b57 cd3c 5953 4fbe 077c 243d
00000350: 1067 60bd 3df1 04ba b007 85bc a3ea 94bd
00000360: 4340 ef3d d22b e23d 2c88 04bd 7711 9a3c
00000370: b5f9 2abd 8d01 bf3c 389e 3fbe 20b6 913d
00000380: 0434 15be f896 33be ce42 dfbb e1c0 29be
00000390: 3bd4 d9bd e371 4bbd 83c6 7dbe 68dd ae3c
000003a0: 5a94 4dbd 93db e53d 56c0 8ebd 13a5 8fbd
000003b0: 6aae d0bd 5951 51bd d251 9e3c 6b23 4c3d
000003c0: 0a80 1b3e 3273 c3bc cbe2 c2bd d6b7 593c
000003d0: 868a d1bb 80e8 c33c 2b9c ac3d f68b 07be
000003e0: d53b b7bd f608 80bd 76d8 4cbd 2413 2b3d
000003f0: 490b cfbd 2ee9 883c 3e56 6cbb c01f 1dbe

network_body._body_endoder.seq_layers.0.bias f4 [128]
-0.079114705 -0.04091863 -0.062312245 -0.026962828 -0.024097258 -0.10284922 -0.053658288 -0.017540578
-0.1613489 -0.041292693 -0.058234293 -0.090945564 -0.16279988 -0.007652416 -0.0956077 -0.0870929
-0.0981253 -0.0007294596 -0.045026172 -0.017758159 -0.1649124 -0.09522467 -0.048450258 -0.06824091
-0.12199945 -0.032637656 -0.053707074 -0.12678003 -0.02473586 -0.053905502 -0.034204148 -0.007716496
-0.07517384 0.011625849 -0.06058409 -0.08407234 -0.14190675 -0.044424865 -0.097775884 -0.08010276
-0.09614842 -0.04633985 0.01897647 -0.061325874 0.018142886 -0.07161995 -0.024612358 -0.01776656
-0.11891654 -0.13502666 -0.03689375 -0.025220657 0.046993326 -0.058333986 0.052966222 -0.020059692
-0.1366707 -0.06822268 -0.053534422 -0.039709583 0.005292219 0.06614861 -0.03351331 0.03346678
-0.023931937 -0.0770394 -0.09261261 -0.051493898 -0.08807756 -0.1708407 -0.059270293 -0.03542439
-0.04259417 0.036965687 0.04554805 -0.07417251 -0.07332794 -0.06231812 -0.069738194 0.033683345
-0.09974676 -0.039954156 -0.048571 0.011604311 0.044773895 -0.008835111 -0.101209305 -0.02760306
-0.06185982 0.0061667687 -0.037616666 -0.05335489 -0.06422437 -0.057233147 -0.1059409 -0.025724875
-0.05060992 -0.049659185 -0.046120763 -0.032787222 -0.07445787 0.061343618 -0.13137062 -0.0515942
0.0147515405 0.006006652 -0.06783268 -0.0504517 -0.03744161 -0.04881311 -0.064012304 -0.044367366
0.0066101095 -0.079663046 -0.022242798 -0.07597723 -0.026515428 -0.039232284 -0.122237 -0.13458222
-0.10200402 -0.1382969 -0.08043933 0.0046961815 0.024774874 -0.019524137 -0.036039412 -0.039796136
00000000: e406 a2bd 4b9a 27bd 203b 7fbd 26e1 dcbc
00000010: 9d67 c5bc 9da2 d2bd cbc8 5bbd 42b1 8fbc
00000020: a538 25be 8722 29bd 1587 6ebd ab41 babd
00000030: 03b5 26be 1ec1 fabb f8cd c3bd c35d b2bd
00000040: ebf5 c8bd 3539 3fba 5d6d 38bd 8f79 91bc
00000050: ccde 28be 2705 c3bd c773 46bd e4c1 8bbd
00000060: d9da f9bd 10af 05bd f3fb 5bbd a0d2 01be
00000070: dca2 cabc 04cc 5cbd a619 0cbd a9da fcbb
00000080: bef4 99bd 587a 3e3c 0627 78bd 1e2e acbd
00000090: 0150 11be d9f6 35bd b93e c8bd ea0c a4bd
000000a0: 76e9 c4bd dbce 3dbd 8b74 9b3c d730 7bbd
000000b0: 64a0 943c 7bad 92bd db9f c9bc 2d8b 91bc
000000c0: 848a f3bd 6e44 0abe e71d 17bd 8d9b cebc
000000d0: 137c 403d 9eef 6ebd 1cf3 583d 3954 a4bc
000000e0: 67f3 0bbe 55b8 8bbd e946 5bbd 84a6 22bd
000000f0: 5a6a ad3b ec78 873d 4145 09bd 7614 093d
00000100: e90c c4bc d5c6 9dbd aeab bdbd 44eb 52bd
00000110: 0262 b4bd ddf0 2ebe 68c5 72bd 2a19 11bd
00000120: 3977 2ebd 5569 173d 9890 3a3d c2e7 97bd
00000130: f62c 96bd 4941 7fbd e6d2 8ebd 8cf7 093d
00000140: 0848 ccbd f8a6 23bd 63f2 46bd 0220 3e3c
00000150: d564 373d 24c1 10bc d346 cfbd d01f e2bc
00000160: b960 7dbd 9b12 ca3b ef13 1abd a88a 5abd
00000170: 1188 83bd 4e6d 6abd 8bf7 d8bd f9bc d2bc
00000180: 594c 4fbd 6e67 4bbd 20e9 3cbd e54b 06bd
00000190: 5e7d 98bd 7243 7b3d 0586 06be 7154 53bd
000001a0: 72b0 713c 73d3 c43b dceb 8abd 71a6 4ebd
000001b0: 605c 19bd 41f0 47bd e218 83bd 8eba 35bd
000001c0: 9e99 d83b 6126 a3bd 8736 b6bc f399 9bbd
000001d0: e236 d9bc 08b2 20bd 6457 fabd eccf 09be
000001e0: 7ce7 d0bd b49d 0dbe 60bd a4bd 6de2 993b
000001f0: adf4 ca3c 15f1 9fbc 109e 13bd 4601 23bd

network_body._body_endoder.seq_layers.2.weight f4 [128, 128]
0.03890563 -0.082480974 0.25004956 0.061054323 -0.08559796 0.14744261 0.068396315 -0.18483004
0.18593837 0.061142668 0.15274702 0.07030129 -0.095981 0.053577848 0.014954205 0.041696254
-0.14190423 0.020280004 -0.005226181 0.075058 -0.060274795 0.21608353 0.0051716245 -0.1443212
-0.063277535 -0.029482896 -0.010044634 0.07818378 -0.08163427 0.056616124 0.05837686 -0.036782622
0.07712068 -0.003384471 -0.012454649 -0.06149405 0.070181206 -0.031340633 -0.11932598 0.18738018
0.10399689 -0.0041932915 -0.108465545 0.044605292 -0.076420195 -0.06635687 0.004894155 0.08179209
0.020462895 -0.09198745 -0.045423497 0.073831886 -0.23667301 0.058497716 -0.17398661 -0.019345243
0.1077723 0.05330777 0.037911642 -0.13406561 0.089524165 -0.24582167 0.05034037 -0.026481789
-0.10847587 -0.039038844 -0.009112109 0.079266064 -0.044227008 0.0480395 -0.15905686 -0.03325396
-0.11857005 0.015394067 -0.15832311 -0.093084216 0.016014919 0.041907925 0.033178095 -0.018884536
-0.013098765 0.06978623 0.0052454025 0.009141858 -0.01329724 0.049636852 -0.20237154 -0.069119826
-0.2229077 -0.061382964 -0.078216664 0.07232906 0.02570198 0.0017333085 -0.15849091 -0.092033975
0.00080543285 0.01382282 -0.039197765 0.13261342 -0.07932387 -0.2413836 0.021300115 0.14312327
0.010599893 -0.03657649 -0.008673601 0.0015456612 -0.13778336 0.004422931 0.082296975 0.02220938
0.048180807 -0.023554074 -0.0027275803 0.14825065 -0.11171485 0.052325323 0.09294928 -0.05928007
0.09515438 0.0380212 0.036769867 0.10252377 0.023242928 0.07439105 0.016123613 0.040258426
0.11078393 -0.0035919102 0.03473339 0.12804885 0.005595867 0.025722127 0.15738015 0.021182895
0.08512324 0.1444878 0.10512274 0.04014297 -0.013345912 0.082211375 0.02466634 -0.082950085
-0.043436367 0.1347208 0.052186485 0.054385602 0.03027632 -0.058086656 -0.042703234 0.06343151
0.24067895 -0.031147024 -0.030697592 -0.09979931 0.12974373 0.010242221 0.02087335 -0.119502865
0.09574488 -0.09617088 -0.049094584 0.1637887 -0.0028179153 -0.0043860557 -0.110200055 -0.021596797
-0.025049336 -0.118449464 0.072662964 0.037003882 -0.113777205 0.036677387 -0.027939914 -0.039356343
-0.059771948 0.045267437 0.024476236 0.024388941 -0.17533082 -0.013052203 0.012276584 -0.28363922
0.07684537 0.019870965 0.0073307524 0.035034865 0.060471877 -0.10253885 0.08519874 -0.18466686
-0.16214599 0.049441922 0.124903634 0.1758901 -0.13969707 0.013171398 0.02252296 0.15107882
0.042649098 -0.14960513 0.0026817382 -0.077151485 -0.009109147 0.15680988 0.081871964 -0.105214536
0.02436973 -0.13809131 0.25421262 -0.019973075 -0.0073010805 -0.14974262 -0.030143566 -0.18941057
-0.0004803196 0.1835138 0.07499156 -0.057995398 0.055993415 -0.009814583 0.11460766 0.08842758
-0.018977128 0.084273405 -0.056398664 0.13282074 -0.021764355 -0.10496777 -0.08653344 0.20336899
-0.2447832 0.07171432 -0.013899649 -0.091245286 0.1789709 -0.020427791 0.108076274 0.12784854
0.012751587 0.002338616 -0.001083336 0.14020707 0.12798266 0.051957916 0.11910662 -0.0013786114
-0.14333422 0.0166415 0.14144208 0.005328277 -0.07124501 0.053164095 -0.012590858 -0.27694008
00000000: 835b 1f3d c9eb a8bd 7f06 803e 1914 7a3d
00000010: fc4d afbd 32fb 163e 5e13 8c3d 1644 3dbe
00000020: a166 3e3e bc70 7a3d b769 1c3e 1ffa 8f3d
00000030: b091 c4bd 7274 5b3d 7b02 753c b1c9 2a3d
00000040: 584f 11be 4022 a63c 6240 abbb 02b8 993d
00000050: b4e2 76bd 0045 5d3e bb76 a93b f0c8 13be
00000060: a797 81bd 1d86 f1bc 4092 24bc d11e a03d
00000070: de2f a7bd 4fe6 673d 931c 6f3d 60a9 16bd
00000080: 72f1 9d3d 00ce 5dbb 960e 4cbc 2fe1 7bbd
00000090: 2abb 8f3d 095f 00bd 2e61 f4bd 97e0 3f3e
000000a0: 52fc d43d e167 89bb 2f23 debd 0ab4 363d
000000b0: 3182 9cbd 1ce6 87bd 265f a03b 9c82 a73d
000000c0: cda1 a73c eb63 bcbd fd0d 3abd 2c35 973d
000000d0: 695a 72be 4d9b 6f3d 8c29 32be ea79 9ebc
000000e0: b9b7 dc3d 4059 5a3d 3d49 1b3d 7f48 09be
000000f0: 7258 b73d adb8 7bbe b431 4e3d 56f0 d8bc
00000100: 9928 debd 32e7 1fbd f54a 15bc 3f56 a23d
00000110: 6127 35bd 11c5 443d cddf 22be 4e35 08bd
00000120: dbd4 f2bd 6637 7c3c 741f 22be f0a2 bebd
00000130: b831 833c a5a7 2b3d c1e5 073d beb3 9abc
00000140: 349c 56bc 15ec 8e3d a0e1 ab3b bbc7 153c
00000150: abdc 59bc 0350 4b3d 7c3a 4fbe b28e 8dbd
00000160: eb41 64be b46c 7bbd 0f30 a0bd 4221 943d
00000170: f58c d23c 2f30 e33a 714b 22be 4f7c bcbd
00000180: af23 533a 1c79 623c d68d 20bd d0cb 073e
00000190: 8e74 a2bd 432d 77be 947d ae3c e88e 123e
000001a0: 2cab 2d3c 3bd1 15bd b81b 0ebc c997 ca3a
000001b0: 1517 0dbe 3cee 903b 518b a83d 72f0 b53c
000001c0: 3d59 453d 79f4 c0bc 34c1 32bb 05cf 173e
000001d0: c1ca e4bd 1453 563d 315c be3d a9cf 72bd
000001e0: 4de0 c23d 1ebc 1b3d 009c 163d fbf7 d13d
000001f0: f467 be3c 565a 983d ab15 843c 05e6 243d
00000200: afe2 e23d 4166 6bbb 9944 0e3d 3d1f 033e
00000210: 895d b73b 36b7 d23c 4328 213e c087 ad3c
00000220: 1855 ae3d 9cf4 133e 974a d73d f46c 243d
00000230: d0a8 5abc 705e a83d 1011 ca3c bce1 a9bd
00000240: 55ea 31bd 40f4 093e 7fc1 553d 70c3 5e3d
00000250: 0c06 f83c 46ec 6dbd 96e9 2ebd 61e8 813d
00000260: 8b74 763e 0b28 ffbc 8479 fbbc 9563 ccbd
00000270: 8adb 043e fdce 273c 96fe aa3c ebbd f4bd
00000280: e415 c43d 3df5 c4bd 6717 49bd 3ab8 273e
00000290: c6ac 38bb e7b8 8fbb 91b0 e1bd c4eb b0bc
000002a0: 4434 cdbc a295 f2bd 52d0 943d 6291 173d
000002b0: 0604 e9bd 073b 163d 3fe2 e4bc 1e34 21bd
000002c0: 6ed3 74bd 596a 393d 6382 c83c 51cb c73c
000002d0: ec89 33be e8d8 55bc ba23 493c 2939 91be
000002e0: 1b61 9d3d 6fc8 a23c cf36 f03b b880 0f3d
000002f0: 5cb1 773d e3ff d1bd ad7c ae3d 4f19 3dbe
00000300: 9909 26be 9d83 4a3d 7acd ff3d 891c 343e
00000310: c00c 0fbe d9cc 573c 1282 b83c 68b4 1a3e
00000320: d2b0 2e3d 1632 19be 1ac0 2f3b 9901 9ebd
00000330: 883e 15bc c592 203e 7dac a73d b87a d7bd
00000340: 07a3 c73c cf67 0dbe 2828 823e 939e a3bc
00000350: e73d efbb 2156 19be a4ef f6bc d8f4 41be
00000360: 68d3 fbb9 0beb 3b3e 2d95 993d 958c 6dbd
00000370: 5a59 653d 58cd 20bc 6cb7 ea3d 8519 b53d
00000380: ec75 9bbc 8997 ac3d 4902 67bd 2902 083e
00000390: 294b b2bc 58f9 d6bd 7238 b1bd f63f 503e
000003a0: 72a8 7abe f5de 923d 5abb 63bc cfde babd
000003b0: 2644 373e 2f58 a7bc 1857 dd3d baea 023e
000003c0: 08ec 503c 7743 193b b9fe 8dba 7192 0f3e
000003d0: e30d 033e d3d1 543d 2cee f33d 86b2 b4ba
000003e0: 35c6 12be c153 883c 31d6 103e d498 ae3b
000003f0: e7e8 91bd 98c2 593d e349 4ebc 17cb 8dbe

network_body._body_endoder.seq_layers.2.bias f4 [128]
-0.073336676 -0.055970367 -0.10483613 -0.0992934 -0.11769852 -0.12297683 -0.02735436 -0.018205637
-0.054036446 -0.10493243 0.01673842 0.002685414 -0.042387407 0.050484974 0.0039481726 -0.027698375
-0.041142154 -0.07924672 -0.09149112 -0.08272983 0.01967962 -0.1230896 -0.09072664 -0.071040995
0.026866479 -0.134686 -0.010357799 -0.1354541 -0.23185249 -0.017632911 -0.0583364 -0.08582859
-0.061272614 0.025901152 -0.14157689 -0.0704894 -0.07562375 -0.054179594 -0.09787215 -0.08400197
-0.037476167 -0.014633809 -0.09090783 -0.0932818 -0.05127358 -0.028069668 0.008176796 -0.07111251
-0.037397783 -0.007750572 0.0015457736 -0.16106941 -0.12640855 -0.09315417 -0.060483303 -0.083163686
-0.020008042 -0.012059171 -0.030032478 -0.09680239 -0.0395762 -0.041594367 0.014146476 -0.12667629
-0.07690983 -0.036643717 -0.08494476 -0.09635688 -0.17485757 -0.07458784 0.03717927 -0.10831927
-0.047444806 -0.076137245 -0.11256556 -0.15233792 -0.059385322 -0.034153353 -0.07482482 -0.111762665
-0.008694618 -0.052592624 -0.05179416 -0.03995514 -0.05064019 -0.06737399 -0.0464739 -0.0646198
0.019794498 0.003056945 -0.08418886 -0.108346134 -0.009236892 5.4437445e-05 -0.08626837 -0.06994249
-0.035511 -0.07150916 -0.0022623474 -0.11416135 -0.011105219 0.028455669 -0.05047124 0.015608832
-0.017536476 -0.078205384 -0.08636889 -0.02346279 -0.015023829 -0.057534076 -0.11121598 -0.04579238
0.014498546 -0.12595089 -0.025034258 -0.025745273 -0.019374104 -0.04980938 -0.04498491 -0.08294945
-0.122212954 -0.02365403 -0.09323305 -0.064586416 -0.1563881 -0.055906847 -0.094207495 -0.040028803
00000000: 8a31 96bd 2f41 65bd 53b4 d6bd 575a cbbd
00000010: ec0b f1bd 47db fbbd 4016 e0bc fd23 95bc
00000020: 5255 5dbd d0e6 d6bd 031f 893c c5fd 2f3b
00000030: 6b9e 2dbd 55c9 4e3d ac5f 813b b4e7 e2bc
00000040: ad84 28bd 1b4c a2bd b25f bbbd 426e a9bd
00000050: 2837 a13c 6616 fcbd e3ce b9bd f17d 91bd
00000060: 1717 dc3c 20eb 09be c2b3 29bc 7bb4 0abe
00000070: bd6a 6dbe e572 90bc 26f2 6ebd e6c6 afbd
00000080: fef8 7abd a72e d43c 88f9 10be bf5c 90bd
00000090: a0e0 9abd 6ceb 5dbd 3271 c8bd 3a09 acbd
000000a0: 9c80 19bd a5c2 6fbc e22d babd 870a bfbd
000000b0: 3f04 52bd 5cf2 e5bc f8f7 053c 70a3 91bd
000000c0: 6b2e 19bd 83f8 fdbb 8e9b ca3a 61ef 24be
000000d0: 3e71 01be 9dc7 bebd 57bd 77bd b951 aabd
000000e0: e8e7 a3bc d493 45bc ac06 f6bc 5540 c6bd
000000f0: a71a 22bd db5e 2abd 9fc6 673c 6eb7 01be
00000100: e782 9dbd b917 16bd 85f7 adbd c256 c5bd
00000110: dd0d 33be 82c1 98bd 4a49 183d 7ed6 ddbd
00000120: 7c55 42bd d8ed 9bbd c688 e6bd 79fe 1bbe
00000130: 063e 73bd 63e4 0bbd c13d 99bd d3e3 e4bd
00000140: df73 0ebc 5d6b 57bd 1d26 54bd 00a8 23bd
00000150: 166c 4fbd 60fb 89bd 6b5b 3ebd 6357 84bd
00000160: 1228 a23c 0757 483b 366b acbd 94e4 ddbd
00000170: 5556 17bc c353 6438 79ad b0bd 023e 8fbd
00000180: fb73 11bd 6573 92bd e443 14bb 6dcd e9bd
00000190: aaf2 35bc dd1b e93c eeba 4ebd 30bc 7f3c
000001a0: a8a8 8fbc 252a a0bd 2ce2 b0bd 0935 c0bc
000001b0: 8226 76bc daa8 6bbd 34c5 e3bd ca90 3bbd
000001c0: 4f8b 6d3c 45f9 00be a514 cdbc c0e7 d2bc
000001d0: 71b6 9ebc ec04 4cbd 1942 38bd 67e1 a9bd
000001e0: c94a fabd 19c6 c1bc f8f0 bebd e245 84bd
000001f0: 3424 20be 94fe 64bd dcef c0bd 3ef5 23bd

action_model._continuous_distribution.log_sigma f4 [1, 2]
-0.3623508 -0.4969686
00000000: 0b86 b9be ab72 febe

action_model._continuous_distribution.mu.weight f4 [2, 128]
0.05648566 0.075031124 0.0022621464 0.028490668 0.031041186 0.04016685 0.03586744 -0.014213258
-0.020772107 0.032175057 -0.035688072 -0.028593836 0.056040827 -0.030691862 -0.02621291 0.06712287
0.014395223 0.06560372 0.056115896 0.029025583 0.013700227 -0.01192761 0.043383528 0.02969518
0.00761725 0.037268702 0.018721532 0.012604161 0.022354148 0.016934 0.03265919 -0.053674463
0.04793921 0.04256266 0.021082126 0.05891416 0.034453385 0.001981927 0.05149601 0.04529377
0.056025878 0.053321727 0.05243321 0.05189251 0.060292467 0.104095854 -0.034167852 -0.016709864
-0.013016552 -0.020699391 0.025616217 0.019425934 0.015191353 0.037457503 0.064190716 0.04051796
0.10217245 0.06979762 -0.009560221 0.011722167 0.02489189 0.012832007 0.026581682 0.03523503
-0.026985252 0.03150846 0.058499757 0.028515805 0.025536628 0.017367218 0.052287817 0.022771163
0.054775268 0.05072227 0.056298055 0.034548927 0.06954253 0.025527634 -0.035846222 0.017841758
0.030276142 0.05277246 0.023998592 0.06295071 0.014428316 0.018483028 0.047597744 0.014092865
0.07933219 0.06656531 0.046732917 -0.041168205 0.041390684 0.033273276 0.058990326 0.04054144
0.08295684 0.058199707 0.009322543 -0.024893636 0.031114746 0.05568395 0.031150173 0.048005253
0.051428463 -0.012058577 -0.01175781 0.0008199819 0.025808958 0.010228598 0.064028695 0.06348743
0.08242303 0.04105237 0.06684675 0.058021884 -0.0116057955 0.06544767 0.069836184 0.045574155
0.058048666 0.02583141 0.011637667 0.08021243 0.031270176 0.042871065 0.01498057 0.008487487
0.02809047 0.03916563 0.008357825 -0.020276181 -0.0057754307 -0.047010206 0.07871197 -0.07455569
-0.038628977 -0.022315789 -0.037475437 0.017513476 0.033475265 -0.019431647 -0.025106547 0.0732934
0.04743027 0.0064090607 0.029181108 0.009173357 -0.06310675 -0.023238426 -0.046609566 0.011316747
0.03221951 0.028161353 0.06745395 -0.036945414 0.011827064 -0.06247389 -0.0044059213 -0.061770454
0.06171782 0.057090115 0.015412701 -0.006311711 0.021209344 -0.057326563 0.024316492 0.016863775
0.00020079796 0.018121136 0.0011408391 0.029472195 0.060980327 -0.02627052 0.021981305 -0.09309129
-0.046442583 -0.011726839 0.08090177 0.015637403 -0.050473664 -0.010474782 -0.04476158 0.0149764735
-0.0766952 0.03672886 0.026665183 -0.012771341 0.07197999 -0.029033272 0.04936368 0.003844969
-0.023980571 -0.025257457 0.025532587 -0.008284771 0.0024645415 0.021523446 0.09740751 -0.008472732
0.05862974 -0.008096486 0.016275626 0.01841124 0.03348941 -0.04552433 -0.026326042 0.020940963
-0.007484479 0.035545226 0.04332224 -0.032064307 -0.058060795 0.0030764283 0.021745134 0.041265644
-0.035739403 -0.03873157 0.018294271 0.03470293 -0.0039442517 0.013772127 0.029657753 -0.04611707
-0.011421704 0.034412783 0.020726584 -0.024382632 0.087349266 0.081238866 0.020846747 0.034206435
0.0004963729 -0.0078498395 -0.012638652 0.057951722 0.054110136 0.045069914 0.011243127 -0.018845215
0.03215993 -0.017611455 -0.00020630329 0.024608033 -0.023849882 0.007645094 0.0069464697 0.016301217
0.02210389 -0.05089231 -0.04971433 0.006592895 0.007141536 -0.0067823674 -0.02746199 0.061522085
00000000: 825d 673d eba9 993d 8540 143b 4365 e93c
00000010: 164a fe3c ff85 243d bde9 123d bade 68bc
00000020: 442a aabc fec9 033d a82d 12bd 9f3d eabc
00000030: 118b 653d 806d fbbc 75bc d6bc b777 893d
00000040: f1d9 6b3c 3e5b 863d c8d9 653d 0fc7 ed3c
00000050: eb76 603c 066c 43bc edb2 313d 4e43 f33c
00000060: 209a f93b 11a7 183d e65d 993c af81 4e3c
00000070: 0c20 b73c 2cb9 8a3c a5c5 053d c1d9 5bbd
00000080: e85b 443d 2f56 2e3d 6cb4 ac3c f94f 713d
00000090: fe1e 0d3d 38e3 013b 7bed 523d f685 393d
000000a0: 647b 653d e267 5a3d 35c4 563d 3e8d 543d
000000b0: 3cf5 763d 3530 d53d 97f3 0bbd 20e3 88bc
000000c0: 6043 55bc c591 a9bc 1ad9 d13c 2323 9f3c
000000d0: 27e5 783c 0a6d 193d 6c76 833d 29f6 253d
000000e0: ca3f d13d 0ef2 8e3d 79a2 1cbc 550e 403c
000000f0: 14ea cb3c 573d 523c d4c1 d93c 9b52 103d
00000100: 2d10 ddbc 040f 013d 719d 6f3d fa99 e93c
00000110: 3132 d13c b245 8e3c c02b 563d 978a ba3c
00000120: 085c 603d 28c2 4f3d ca98 663d 2d83 0d3d
00000130: 506c 8e3d 541f d13c 7dd3 12bd e128 923c
00000140: ac05 f83c ef27 583d b298 c43c 4dec 803d
00000150: be64 6c3c b869 973c daf5 423d c3e5 663c
00000160: ea78 a23d 6553 883d 046b 3f3d fe9f 28bd
00000170: 4789 293d 8f49 083d d79f 713d c80e 263d
00000180: 47e5 a93d d162 6e3d 94bd 183c bded cbbc
00000190: 5ae4 fe3c db14 643d a62e ff3c 28a1 443d
000001a0: a7a6 523d 5691 45bc d4a3 40bc 0ef4 563a
000001b0: 4f6d d33c d995 273c 7a21 833d b305 823d
000001c0: 68cd a83d 8826 283d f3e6 883d 5ba8 6d3d
000001d0: 3c26 3ebc 6e09 863d 4606 8f3d f7ab 3a3d
000001e0: 70c4 6d3d 659c d33c eaab 3e3c 6a46 a43d
000001f0: 2815 003d 9299 2f3d 1171 753c 1a0f 0b3c
00000200: fc1d e63c 246c 203d 42ef 083c 3c1a a6bc
00000210: d33f bdbb c68d 40bd be33 a13d a7b0 98bd
00000220: 6b39 1ebd 9acf b6bc d87f 19bd 6c78 8f3c
00000230: 5c1d 093d 1e2f 9fbc 3fac cdbc da1a 963d
00000240: 3e46 423d 1903 d23b 380d ef3c d94b 163c
00000250: 1d3e 81bd 835e bebc ace9 3ebd e169 393c
00000260: 9bf8 033d a3b2 e63c 4c25 8a3d 1354 17bd
00000270: 4dc6 413c 9fe4 7fbd 8c5f 90bb 0403 7dbd
00000280: d3cb 7c3d 53d7 693d 8e85 7c3c 78d2 cebb
00000290: 38bf ad3c 42cf 6abd 6133 c73c e625 8a3c
000002a0: 4b8d 5239 c772 943c 3588 953a ac6f f13c
000002b0: 82c6 793d 4635 d7bc 2312 b43c a5a6 bebd
000002c0: 943a 3ebd ed21 40bc d4af a53d 031a 803c
000002d0: 79bd 4ebd 6c9e 2bbc eb57 37bd e25f 753c
000002e0: 5f12 9dbd 0071 163d f170 da3c e33e 51bc
000002f0: 3f6a 933d 2fd7 edbc 9231 4a3d e0fb 7b3b
00000300: e772 c4bc bae8 cebc b729 d13c d9bc 07bc
00000310: 2584 213b f051 b03c 977d c73d 37d1 0abc
00000320: bd25 703d 20a7 04bc 7654 853c 2bd3 963c
00000330: 312c 093d b877 3abd b6a9 d7bc 628c ab3c
00000340: 5c40 f5bb df97 113d a972 313d dd55 03bd
00000350: 28d1 6dbd e79d 493b da22 b23c 2a06 293d
00000360: 7b63 12bd ffa4 1ebd dedd 953c a924 0e3d
00000370: c83e 81bb 7da4 613c d1f4 f23c 41e5 3cbd
00000380: 1922 3bbc 6bf4 0c3d ccca a93c 16be c7bc
00000390: 2ce4 b23d 9060 a63d ccc6 aa3c 0c1c 0c3d
000003a0: 051f 023a 9d9c 00bc 5912 4fbc c95e 6d3d
000003b0: 97a2 5d3d 3b9b 383d 1835 383c 4861 9abc
000003c0: 21ba 033d e645 90bc 1e53 58b9 c996 c93c
000003d0: d460 c3bc b283 fa3b 369f e33b 218a 853c
000003e0: 3813 b53c 7474 50bd 41a1 4bbd 3609 d83b
000003f0: 8c03 ea3b 9f3e debb f8f7 e0bc 95fe 7b3d

action_model._continuous_distribution.mu.bias f4 [2]
-0.038249735 -0.061531417
00000000: c1ab 1cbd 5e08 7cbd

exp_avg f4 [128, 177]
0.0 3.4821946e-07 -6e-45 -1.9384556e-09 -7.686677e-11 -3.2840607e-08 0.0 3.4620408e-07
6e-45 6e-45 2.447206e-30 -3.280362e-08 0.0 3.4620408e-07 -6e-45 -6e-45
6e-45 -9.7794075e-09 0.0 3.4620408e-07 -6e-45 6e-45 0.0 -2.6492863e-08
0.0 3.4620408e-07 -6e-45 6e-45 0.0 -4.548694e-09 0.0 3.4620408e-07
-6e-45 6e-45 0.0 -2.443829e-08 0.0 3.4620408e-07 -6e-45 6e-45
0.0 -2.7353697e-09 0.0 3.4620408e-07 0.0 6e-45 0.0 1.4586618e-10
0.0 3.4620408e-07 0.0 6e-45 0.0 1.5055261e-10 0.0 3.4620408e-07
0.0 -6e-45 0.0 1.5055261e-10 0.0 3.4620408e-07 0.0 6e-45
0.0 1.6624335e-10 0.0 3.4620408e-07 0.0 6e-45 0.0 1.6624335e-10
0.0 3.4620408e-07 0.0 6e-45 0.0 1.9944685e-10 0.0 3.4620408e-07
0.0 6e-45 0.0 1.9944685e-10 0.0 -2.9223712e-09 0.0 -1.0026259e-07
4.4938915e-07 4.1798896e-07 0.0 3.4620408e-07 0.0 -3.2999888e-30 -6e-45 3.64163e-08
0.0 3.9630325e-07 0.0 -5.723824e-30 -5.009911e-08 8.759758e-08 0.0 3.4620408e-07
0.0 4.8721863e-29 0.0 1.879052e-08 0.0 3.4620408e-07 0.0 1.6793515e-29
0.0 1.9412481e-07 0.0 3.4620408e-07 0.0 -6e-45 0.0 1.32118085e-08
0.0 3.4620408e-07 0.0 -6e-45 0.0 2.6845103e-07 0.0 3.4622752e-07
0.0 6e-45 0.0 -1.3450782e-08 0.0 3.4620408e-07 0.0 -6e-45
0.0 2.9477073e-08 0.0 3.4620408e-07 0.0 6e-45 0.0 9.289223e-09
0.0 3.4620408e-07 0.0 6e-45 0.0 3.3668716e-08 0.0 3.4620408e-07
0.0 6e-45 0.0 -3.0661244e-08 0.0 3.4620408e-07 0.0 -6e-45
0.0 4.8454346e-08 0.0 3.4620408e-07 6e-45 6e-45 0.0 -3.385483e-08
1.0496828e-05 -3.2694393e-06 0.0 1.1197057e-05 1.9520864e-06 0.0 1.0263146e-05 3.4510294e-06
0.0 0.0 -0.0007240345 -6e-45 -1.2976821e-07 -0.005209796 -0.0058050985 0.0
-0.005933961 6e-45 6e-45 1.0712126e-24 -0.002085823 0.0 -0.005933961 -6e-45
-6e-45 6e-45 -0.0006193765 0.0 -0.005933961 -6e-45 6e-45 0.0
-0.0027980702 0.0 -0.005933961 -6e-45 6e-45 0.0 -0.00031963835 0.0
-0.005933961 -6e-45 -6e-45 0.0 -0.003165372 0.0 -0.005933961 -6e-45
-6e-45 0.0 -0.00022483183 0.0 -0.005933961 0.0 -6e-45 0.0
-2.0165721e-06 0.0 -0.005933961 0.0 6e-45 0.0 -2.08136e-06 0.0
-0.005933961 0.0 6e-45 0.0 -2.08136e-06 0.0 -0.005933961 0.0
-6e-45 0.0 -2.298283e-06 0.0 -0.005933961 0.0 6e-45 0.0
-2.298283e-06 0.0 -0.005933961 0.0 -6e-45 0.0 -2.7573137e-06 0.0
00000000: 0000 0000 ebf2 ba34 0400 0080 ac35 05b1
00000010: 2508 a9ae a10c 0db3 0000 0000 eddd b934
00000020: 0400 0000 0400 0000 7b8a 460e f6e3 0cb3
00000030: 0000 0000 eddd b934 0400 0080 0400 0080
00000040: 0400 0000 4a02 28b2 0000 0000 eddd b934
00000050: 0400 0080 0400 0000 0000 0000 6c92 e3b2
00000060: 0000 0000 eddd b934 0400 0080 0400 0000
00000070: 0000 0000 bc4a 9cb1 0000 0000 eddd b934
00000080: 0400 0080 0400 0000 0000 0000 5eec d1b2
00000090: 0000 0000 eddd b934 0400 0080 0400 0000
000000a0: 0000 0000 22f9 3bb1 0000 0000 eddd b934
000000b0: 0000 0000 0400 0000 0000 0000 ae61 202f
000000c0: 0000 0000 eddd b934 0000 0000 0400 0000
000000d0: 0000 0000 cb88 252f 0000 0000 eddd b934
000000e0: 0000 0000 0400 0080 0000 0000 cb88 252f
000000f0: 0000 0000 eddd b934 0000 0000 0400 0000
00000100: 0000 0000 58c9 362f 0000 0000 eddd b934
00000110: 0000 0000 0400 0000 0000 0000 58c9 362f
00000120: 0000 0000 eddd b934 0000 0000 0400 0000
00000130: 0000 0000 4c4b 5b2f 0000 0000 eddd b934
00000140: 0000 0000 0400 0000 0000 0000 4c4b 5b2f
00000150: 0000 0000 e6d2 48b1 0000 0000 f14f d7b3
00000160: 9343 f134 f767 e034 0000 0000 eddd b934
00000170: 0000 0000 0bdd 858e 0400 0080 2568 1c33
00000180: 0000 0000 81c3 d434 0000 0000 962f e88e
00000190: 8e2c 57b3 471d bc33 0000 0000 eddd b934
000001a0: 0000 0000 980c 7710 0000 0000 ca68 a132
000001b0: 0000 0000 eddd b934 0000 0000 754e aa0f
000001c0: 0000 0000 9f70 5034 0000 0000 eddd b934
000001d0: 0000 0000 0400 0080 0000 0000 26fa 6232
000001e0: 0000 0000 eddd b934 0000 0000 0400 0080
000001f0: 0000 0000 a11f 9034 0000 0000 26e1 b934
00000200: 0000 0000 0400 0000 0000 0000 2a15 67b2
00000210: 0000 0000 eddd b934 0000 0000 0400 0080
00000220: 0000 0000 c534 fd32 0000 0000 eddd b934
00000230: 0000 0000 0400 0000 0000 0000 6f96 1f32
00000240: 0000 0000 eddd b934 0000 0000 0400 0000
00000250: 0000 0000 259b 1033 0000 0000 eddd b934
00000260: 0000 0000 0400 0000 0000 0000 65b0 03b3
00000270: 0000 0000 eddd b934 0000 0000 0400 0080
00000280: 0000 0000 1e1c 5033 0000 0000 eddd b934
00000290: 0400 0000 0400 0000 0000 0000 c767 11b3
000002a0: 881b 3037 8a68 5bb6 0000 0000 feda 3b37
000002b0: 9700 0336 0000 0000 e02f 2c37 3c98 6736
000002c0: 0000 0000 0000 0000 22cd 3dba 0400 0080
000002d0: 6a56 0bb4 f0b6 aabb b238 bebb 0000 0000
000002e0: ac71 c2bb 0400 0000 0400 0000 1ac3 a517
000002f0: 4eb2 08bb 0000 0000 ac71 c2bb 0400 0080
00000300: 0400 0080 0400 0000 a75d 22ba 0000 0000
00000310: ac71 c2bb 0400 0080 0400 0000 0000 0000
00000320: d45f 37bb 0000 0000 ac71 c2bb 0400 0080
00000330: 0400 0000 0000 0000 2295 a7b9 0000 0000
00000340: ac71 c2bb 0400 0080 0400 0080 0000 0000
00000350: 2172 4fbb 0000 0000 ac71 c2bb 0400 0080
00000360: 0400 0080 0000 0000 d6c0 6bb9 0000 0000
00000370: ac71 c2bb 0000 0000 0400 0080 0000 0000
00000380: 7254 07b6 0000 0000 ac71 c2bb 0000 0000
00000390: 0400 0000 0000 0000 7ead 0bb6 0000 0000
000003a0: ac71 c2bb 0000 0000 0400 0000 0000 0000
000003b0: 7ead 0bb6 0000 0000 ac71 c2bb 0000 0000
000003c0: 0400 0080 0000 0000 343c 1ab6 0000 0000
000003d0: ac71 c2bb 0000 0000 0400 0000 0000 0000
000003e0: 343c 1ab6 0000 0000 ac71 c2bb 0000 0000
000003f0: 0400 0080 0000 0000 4a0a 39b6 0000 0000

exp_avg_sq f4 [128, 177]
0.0 3.5303411e-09 2.436324e-32 2.2351716e-10 7.0467287e-12 2.0226687e-10 0.0 3.760521e-09
6.613697e-23 1.05400494e-22 2.8526765e-14 8.349988e-11 0.0 3.7604955e-09 2.436324e-32 1.19054e-15
4.9092065e-14 1.9704741e-11 0.0 3.76055e-09 9.136369e-27 1.7729294e-15 0.0 8.669966e-11
0.0 3.7605434e-09 2.436324e-32 9.215537e-16 0.0 4.638118e-12 0.0 3.7605528e-09
9.136369e-27 1.3022126e-20 0.0 8.41014e-11 0.0 3.7397783e-09 6.8685207e-26 2.1239527e-11
0.0 7.573554e-12 0.0 3.760408e-09 0.0 2.4663805e-13 0.0 3.4092742e-12
0.0 3.760552e-09 0.0 9.402305e-16 0.0 3.5588327e-12 0.0 3.7605274e-09
0.0 1.8846752e-15 0.0 1.6653272e-12 0.0 3.7605528e-09 0.0 1.81345e-15
0.0 1.5588713e-12 0.0 3.76055e-09 0.0 2.9385347e-15 0.0 2.3097542e-12
0.0 3.7605528e-09 0.0 1.8628366e-15 0.0 1.0185186e-12 0.0 3.760547e-09
0.0 7.8589335e-15 0.0 1.1881642e-12 0.0 4.644824e-10 0.0 2.1745352e-09
1.0535676e-09 1.9977195e-09 0.0 3.759053e-09 0.0 4.087981e-12 2.1956768e-12 6.019869e-11
0.0 3.7382e-09 0.0 3.7505524e-12 8.3463575e-12 4.6078094e-10 0.0 3.760552e-09
0.0 6.8320216e-16 0.0 1.578489e-11 0.0 3.760552e-09 0.0 5.6099426e-16
0.0 7.506913e-10 0.0 3.7605425e-09 0.0 6.4236256e-15 0.0 8.6301825e-12
0.0 3.7605528e-09 0.0 2.2394418e-16 0.0 1.0979455e-09 0.0 3.7542107e-09
0.0 9.3860604e-21 0.0 4.5168636e-11 0.0 3.7605417e-09 0.0 1.1725298e-19
0.0 4.4690338e-11 0.0 3.7606025e-09 0.0 1.0861589e-17 0.0 4.1839796e-11
0.0 3.7575267e-09 0.0 5.999473e-26 0.0 6.311374e-11 0.0 3.7605528e-09
0.0 4.869197e-22 0.0 2.9362925e-11 0.0 3.7605528e-09 0.0 3.5371257e-31
0.0 7.43152e-11 0.0 3.7605528e-09 7e-43 7.57324e-22 0.0 2.558153e-11
1.8952348e-06 5.8560833e-08 0.0 3.0242525e-06 4.3671517e-07 0.0 2.1690075e-06 1.8073557e-07
0.0 0.0 9.108398e-06 2.2583164e-32 2.89887e-07 2.9743998e-05 3.4716333e-05 0.0
3.834931e-05 3.340858e-18 4.239718e-09 1.1687277e-06 7.293895e-06 0.0 3.967754e-05 2.2583164e-32
1.01705034e-07 4.827797e-11 1.9325303e-06 0.0 3.9793988e-05 1.0628586e-18 3.8115306e-08 0.0
1.06085035e-05 0.0 3.977181e-05 2.2583164e-32 3.4389889e-09 0.0 2.9027532e-07 0.0
3.9836377e-05 1.0628586e-18 8.22327e-12 0.0 6.607151e-06 0.0 3.9738654e-05 2.247434e-16
3.9685e-08 0.0 1.638251e-07 0.0 3.977899e-05 0.0 5.787014e-08 0.0
1.14027245e-07 0.0 3.9818293e-05 0.0 1.4712166e-08 0.0 1.2497642e-07 0.0
3.9812006e-05 0.0 2.9681607e-08 0.0 1.1342704e-07 0.0 3.981653e-05 0.0
1.5365531e-08 0.0 1.270818e-07 0.0 3.9808554e-05 0.0 2.8482217e-08 0.0
1.4730907e-07 0.0 3.9825354e-05 0.0 6.9504233e-09 0.0 9.376823e-08 0.0
00000000: 0000 0000 6b9a 7231 9a00 fd0a 7dc2 752f
00000010: 4aef f72c 1065 5e2f 0000 0000 e435 8131
00000020: cde8 9f1a bfd7 fe1a 1f79 0029 419e b72e
00000030: 0000 0000 ab35 8131 9a00 fd0a 2c93 ab26
00000040: 4c17 5d29 2253 ad2d 0000 0000 2636 8131
00000050: e5f6 3414 8d81 ff26 0000 0000 92a7 be2e
00000060: 0000 0000 1736 8131 9a00 fd0a 55cf 8426
00000070: 0000 0000 7430 a32c 0000 0000 2c36 8131
00000080: e5f6 3414 23fb 751e 0000 0000 e1f0 b82e
00000090: 0000 0000 707f 8031 6c0e aa15 2ad3 ba2d
000000a0: 0000 0000 413c 052d 0000 0000 e634 8131
000000b0: 0000 0000 4ad8 8a2a 0000 0000 06e8 6f2c
000000c0: 0000 0000 2a36 8131 0000 0000 6280 8726
000000d0: 0000 0000 3b6e 7a2c 0000 0000 f335 8131
000000e0: 0000 0000 1fce 0727 0000 0000 bc5f ea2b
000000f0: 0000 0000 2c36 8131 0000 0000 3fac 0227
00000100: 0000 0000 4264 db2b 0000 0000 2636 8131
00000110: 0000 0000 66be 5327 0000 0000 d588 222c
00000120: 0000 0000 2c36 8131 0000 0000 453b 0627
00000130: 0000 0000 0058 8f2b 0000 0000 1f36 8131
00000140: 0000 0000 ef92 0d28 0000 0000 2038 a72b
00000150: 0000 0000 165a ff2f 0000 0000 d46e 1531
00000160: 1dcd 9030 4148 0931 0000 0000 fb28 8131
00000170: 0000 0000 42d5 8f2c cc81 1a2c da60 842e
00000180: 0000 0000 8e71 8031 0000 0000 f9f5 832c
00000190: a7d4 122d 2751 fd2f 0000 0000 2a36 8131
000001a0: 0000 0000 6ceb 4426 0000 0000 6ad8 8a2d
000001b0: 0000 0000 2a36 8131 0000 0000 12b2 2126
000001c0: 0000 0000 3459 4e30 0000 0000 1536 8131
000001d0: 0000 0000 7d6f e727 0000 0000 e3d2 172d
000001e0: 0000 0000 2c36 8131 0000 0000 5418 8125
000001f0: 0000 0000 86e6 9630 0000 0000 63fe 8031
00000200: 0000 0000 344c 311e 0000 0000 5da7 462e
00000210: 0000 0000 1336 8131 0000 0000 8a6d 0a20
00000220: 0000 0000 d98c 442e 0000 0000 9c36 8131
00000230: 0000 0000 675c 4823 0000 0000 6c03 382e
00000240: 0000 0000 8e1b 8131 0000 0000 2e8a 9415
00000250: 0000 0000 e1c9 8a2e 0000 0000 2c36 8131
00000260: 0000 0000 9629 131c 0000 0000 b723 012e
00000270: 0000 0000 2c36 8131 0000 0000 9592 e50c
00000280: 0000 0000 bd6b a32e 0000 0000 2c36 8131
00000290: f401 0000 1be3 641c 0000 0000 7c04 e12d
000002a0: c65f fe35 5184 7b33 0000 0000 43f4 4a36
000002b0: ad75 ea34 0000 0000 448f 1136 3710 4234
000002c0: 0000 0000 0000 0000 46d0 1837 5984 ea0a
000002d0: c4a1 9b34 c082 f937 619c 1138 0000 0000
000002e0: 42d9 2038 0683 7622 f4ac 9131 2edd 9c35
000002f0: 15be f436 0000 0000 6f6b 2638 5984 ea0a
00000300: ef68 da33 2954 542e 9eb0 0136 0000 0000
00000310: 78e8 2638 aad9 9c21 39b4 2333 0000 0000
00000320: 2dfb 3137 0000 0000 a8d0 2638 5984 ea0a
00000330: 5553 6c31 0000 0000 23d7 9b34 0000 0000
00000340: fc15 2738 aad9 9c21 51aa 102d 0000 0000
00000350: ffb2 dd36 0000 0000 0ead 2638 468e 8125
00000360: 1e72 2a33 0000 0000 e7e7 2f34 0000 0000
00000370: 5ed8 2638 0000 0000 e48c 7833 0000 0000
00000380: 24df f433 0000 0000 9102 2738 0000 0000
00000390: cac0 7c32 0000 0000 4231 0634 0000 0000
000003a0: d1fb 2638 0000 0000 8bf6 fe32 0000 0000
000003b0: 2d95 f333 0000 0000 ac00 2738 0000 0000
000003c0: 29fd 8332 0000 0000 fb73 0834 0000 0000
000003d0: 1cf8 2638 0000 0000 0fa9 f432 0000 0000
000003e0: 022c 1e34 0000 0000 260a 2738 0000 0000
000003f0: 92d0 ee31 0000 0000 a15d c933 0000 0000

exp_avg f4 [128]
3.4620408e-07 -0.005933961 -2.3394654e-07 0.004011899 -4.871487e-06 -1.4823839e-07 -1.2575376e-07 0.00062151306
-1.2629991e-08 2.089238e-07 1.0171475e-08 -7.321212e-09 8.8777284e-08 1.1985127e-06 9.332628e-08 -4.771517e-07
3.421455e-07 -0.0037964955 0.00024269507 -2.5664954e-06 -2.2104498e-08 1.5563106e-12 9.741736e-10 3.5687426e-05
-6.0456783e-05 -0.00074343686 -8.138618e-08 1.5613684e-07 -9.06591e-05 5.9933484e-08 -0.0002652596 -0.0066266926
-1.3920692e-07 -0.0030223504 -0.0024144321 -1.9888313e-07 -2.851599e-08 1.7742323e-07 0.00058969634 2.844307e-07
8.806456e-08 0.00055404863 0.00014975292 1.392189e-05 -0.00057321286 3.4446398e-07 9.877653e-05 -0.0015076294
-4.716244e-08 -1.5987428e-07 3.389839e-05 7.2439952e-06 0.004724781 0.00035013142 -0.00092242204 -0.0023471839
-1.9010822e-07 0.00013935045 -8.090685e-08 2.7659853e-06 -1.7741871e-07 0.0027825173 0.00042274158 0.0006943647
3.3458812e-06 -7.670661e-08 -1.8850935e-07 1.6200688e-07 -4.8474647e-08 -1.1756916e-08 6.4940974e-07 -5.3851277e-06
4.4911332e-07 3.3840377e-05 0.0076045655 0.00031994455 -1.3008602e-07 1.0253484e-06 -3.160033e-08 -0.0023329246
-0.0014424971 -2.5644827e-05 8.047224e-06 -0.0028879284 -6.14129e-06 -3.998731e-06 2.2138806e-07 0.0018066481
3.6776225e-07 2.6087791e-06 1.5282758e-07 0.002555541 -1.5414352e-07 -1.1645736e-06 -9.628354e-07 0.0016922066
-1.0293905e-06 1.2401085e-06 3.8014804e-07 8.259691e-08 5.055132e-07 0.0027981761 -8.285201e-08 3.2158707e-07
3.7454015e-06 -0.00037726903 -1.8710332e-07 -1.3812523e-05 3.531514e-07 3.42505e-06 -3.3069531e-07 4.9736013e-06
0.00043412036 -2.3909465e-06 2.0976217e-06 -2.2781829e-07 0.00043414542 4.875704e-08 6.790702e-08 2.4952657e-08
4.236241e-09 -3.4956324e-07 -5.3822202e-08 -0.0010983688 9.9180004e-05 -0.0001947167 -0.0033740853 4.1908325e-07
00000000: eddd b934 ac71 c2bb bc32 7bb4 3f76 833b
00000010: c175 a3b6 752b 1fb4 ee06 07b4 09ed 223a
00000020: 4afb 58b2 8954 6034 9fbe 2e32 108e fbb1
00000030: d4a5 be33 95dc a035 aa6a c833 9d15 00b5
00000040: 1fb0 b734 a0ce 78bb f67b 7e39 0e3c 2cb6
00000050: 4ee0 bdb2 0008 db2b b0e3 8530 15af 1538
00000060: fa92 7db8 34e3 42ba 87c6 aeb3 91a6 2734
00000070: 3c20 beb8 c8b4 8033 8a12 8bb9 ba24 d9bb
00000080: e878 15b4 a012 46bb 733b 1ebb 948c 55b4
00000090: 53f3 f4b2 ba81 3e34 da95 1a3a dcb3 9834
000000a0: 011e bd33 933d 113a fe06 1d39 1092 6937
000000b0: aa43 16ba c5ee b834 3f26 cf38 a69b c5ba
000000c0: a78f 4ab3 e8a9 2bb4 1e2e 0e38 7211 f336
000000d0: 56d2 9a3b d891 b739 b2ce 71ba 36d3 19bb
000000e0: 8d20 4cb4 9a1e 1239 03bf adb3 449f 3936
000000f0: 7c80 3eb4 e55a 363b 6aa3 dd39 0706 363a
00000100: cd89 6036 e8b9 a4b3 0e69 4ab4 1df4 2d34
00000110: 7032 50b3 77fb 49b2 1953 2e35 e5b1 b4b6
00000120: aa1d f134 d4ef 0d38 b82f f93b 3bbe a739
00000130: c6ad 0bb4 b49e 8935 eeb8 07b3 fbe3 18bb
00000140: 2c12 bdba d91f d7b7 9002 0737 6643 3dbb
00000150: 4811 ceb6 d62c 86b6 b0b6 6d34 0dcd ec3a
00000160: dc70 c534 7c12 2f36 ed18 2434 dd7a 273b
00000170: a682 25b4 724e 9cb5 c63a 81b5 08cd dd3a
00000180: 9729 8ab5 ce71 a635 2617 cc34 2260 b133
00000190: 9ab2 0735 9b61 373b 60ec b1b3 97a6 ac34
000001a0: 8259 7b36 31cc c5b9 92e6 48b4 56bc 67b7
000001b0: c298 bd34 e9d9 6536 6b8a b1b4 e9e2 a636
000001c0: a69a e339 2674 20b6 dec4 0c36 379e 74b4
000001d0: 039e e339 ef68 5133 47d4 9133 7957 d632
000001e0: 5f8e 9131 9bab bbb4 232a 67b3 24f7 8fba
000001f0: dcfe cf38 de2c 4cb9 c21f 5dbb 5dfe e034

exp_avg_sq f4 [128]
3.7605528e-09 3.983639e-05 1.8305895e-08 4.7498143e-05 3.340375e-07 1.27063435e-08 7.957041e-09 4.054465e-06
1.0324466e-09 1.4876129e-08 8.6621144e-10 3.85668e-09 2.2508115e-10 9.809967e-07 6.196014e-09 8.485604e-08
1.2233289e-08 2.7205264e-05 2.2660827e-06 1.0581425e-06 2.029161e-11 3.4041214e-09 2.401435e-06 1.2868308e-07
5.456609e-07 8.2360875e-06 1.7076557e-06 4.8254883e-10 9.353759e-06 3.3847653e-07 6.921923e-06 4.9779675e-05
5.781378e-09 1.5179702e-05 1.5486292e-05 1.3517511e-08 2.215802e-09 7.7925355e-09 7.332351e-07 1.0348686e-09
1.8238164e-09 1.0915212e-06 2.1442285e-05 6.0554777e-07 6.8667428e-06 6.098828e-09 2.5480635e-06 2.6446592e-06
6.9214673e-10 1.35828975e-08 3.261099e-06 1.4348683e-07 3.820214e-05 7.5759126e-06 1.4117512e-05 1.3110837e-05
1.4280053e-08 2.280861e-06 2.5648967e-08 6.6409452e-06 1.1531349e-06 4.1943993e-05 1.104675e-06 1.132788e-05
3.225613e-07 1.9490878e-07 8.728397e-07 2.6974998e-08 1.2314315e-08 4.987561e-12 3.695826e-08 1.7361553e-07
1.0542861e-08 1.1879632e-06 8.610346e-05 3.0056867e-07 6.368961e-08 2.9831045e-07 2.9599429e-08 5.9539376e-05
2.0689256e-06 9.2688275e-08 9.5324886e-08 1.6263293e-05 2.1562093e-06 3.7195593e-06 8.223219e-07 5.7309144e-06
6.1728254e-09 1.0936551e-07 2.6430223e-06 1.1778577e-05 7.2362187e-09 1.0974492e-09 2.3048077e-08 1.1471349e-05
6.532521e-07 3.7198653e-08 3.1490666e-09 1.6791606e-08 1.4754437e-08 1.6707892e-05 3.241722e-10 1.2830776e-07
2.4462668e-06 8.9079293e-07 1.1800073e-08 8.391568e-07 4.1219312e-08 6.961726e-07 1.3117635e-09 9.6715596e-08
8.567773e-06 6.3548015e-07 1.5099766e-06 1.01268846e-07 7.712971e-06 2.8089621e-08 2.2210297e-07 1.13996865e-08
6.818723e-07 3.3906205e-09 1.6964316e-08 1.5961095e-05 4.9339287e-06 2.0661805e-06 9.788307e-06 6.583747e-07
00000000: 2c36 8131 0016 2738 173f 9d32 be38 4738
00000010: c455 b334 174b 5a32 70b3 0832 970b 8836
00000020: fce5 8d30 e891 7f32 361a 6e30 b783 8431
00000030: b67a 772f caaa 8335 b7e4 d431 1a3a b633
00000040: 932a 5232 dc36 e437 0113 1836 8005 8e35
00000050: a57c b22d f0ed 6931 5728 2136 232c 0a34
00000060: 8879 1235 ba2d 0a37 9a32 e535 5ba4 0430
00000070: 17ee 1c37 dcb7 b534 de42 e836 85ca 5038
00000080: 8aa5 c631 53ac 7e37 8fe8 8137 a43a 6832
00000090: cd44 1831 efdf 0532 88d3 4435 343b 8e30
000000a0: d6a9 fa30 6280 9235 f5de b337 ed8c 2235
000000b0: df68 e636 dc8d d131 66ff 2a36 e67a 3136
000000c0: 7f41 3e30 375a 6932 41d9 5a36 5c11 1a34
000000d0: 3c3b 2038 9834 fe36 41da 6c37 9ef6 5b37
000000e0: 5654 7532 e510 1936 ad52 dc32 49d5 de36
000000f0: 6ac5 9a35 05ed 2f38 5844 9435 e00c 3e37
00000100: 7d2c ad34 1e48 5134 164d 6a35 a6b6 e732
00000110: ee8e 5332 f57b af2c 09bc 1e33 136b 3a34
00000120: fe1f 3532 1b72 9f35 7192 b438 d85d a134
00000130: bcc5 8833 7a27 a034 d541 fe32 ebb9 7938
00000140: dfd7 0a36 eb0b c733 69b5 cc33 286d 8837
00000150: 65b3 1036 8b9d 7936 88bd 5c35 2e4c c036
00000160: bf18 d431 53dc ea33 c75e 3136 9a9c 4537
00000170: 74a2 f831 10d5 9630 42fb c532 1275 4037
00000180: 245b 2f35 5ac4 1f33 f766 5831 223d 9032
00000190: b37a 7d32 ed27 8c37 2e37 b22f f8c4 0934
000001a0: 8b2a 2436 d31e 6f35 45b9 4a32 6b42 6135
000001b0: 1d09 3133 9ee0 3a35 9349 b430 f6b1 cf33
000001c0: 4ebe 0f37 dd95 2a35 67aa ca35 2379 d933
000001d0: f566 0137 bb49 f132 337b 6e34 5ad8 4332
000001e0: e809 3735 6d00 6931 edb8 9132 31e4 8537
000001f0: 208e a536 b6a8 0a36 7538 2437 2abb 3035

exp_avg f4 [128, 128]
-2.646421e-07 1.1103731e-07 -2.0090043e-07 -1.9142929e-06 3.470256e-07 -6.6093094e-08 -2.262616e-07 -4.5750872e-07
-2.1989264e-08 -1.6942776e-07 -6.0368365e-08 -4.0178492e-07 -9.250623e-09 -1.10314e-07 -7.1011534e-08 -2.767703e-08
-2.7205263e-07 6.661025e-08 -2.619525e-07 9.828991e-07 -6.225076e-09 -2.4803198e-08 -8.7550085e-08 -2.3601922e-07
2.580947e-08 -3.0022136e-06 -9.68316e-09 -3.1689275e-08 2.206011e-06 -4.1505803e-08 -2.2926426e-07 -1.0376631e-07
-4.201261e-07 1.0154736e-07 -1.3929211e-06 -1.6767441e-07 -2.1292697e-08 -9.75319e-08 -2.729102e-07 -2.1855124e-07
-6.171271e-08 -3.2958795e-07 2.4849047e-08 -2.8455764e-07 6.329702e-06 -2.560345e-07 3.3477047e-06 -1.2634103e-08
-5.2691437e-08 -5.0832625e-08 7.413836e-09 3.5334082e-07 -3.7673092e-06 -1.0118879e-06 -8.088928e-06 1.0196192e-07
-7.075405e-08 1.1708091e-08 -4.2302202e-07 7.1059226e-06 -5.302413e-08 -2.8662917e-06 8.544597e-08 -4.335939e-06
-2.0423346e-07 -2.5373164e-09 -2.886669e-08 -1.9226403e-07 -2.494685e-07 -9.561174e-09 -3.9213748e-07 2.3770665e-08
-9.616878e-08 6.685616e-06 -1.4785186e-06 -5.702338e-08 -3.675819e-07 1.146036e-06 -3.7343906e-07 6.9647294e-06
1.18289336e-07 -2.3983924e-07 5.1737004e-07 -1.3463612e-06 4.30408e-06 2.7509238e-06 -2.2147123e-08 -5.221118e-07
-3.182402e-07 -4.004904e-07 -2.1178004e-09 -7.1987665e-07 -2.1595847e-07 -4.1891767e-07 -1.1017059e-07 -4.1253293e-06
4.973999e-07 -2.606291e-07 -7.8638365e-08 -4.3239697e-07 -3.352564e-07 -4.960051e-06 -9.3541686e-08 -2.4568024e-07
8.694182e-06 8.963516e-06 -1.4569513e-07 -3.1876226e-08 -2.3038164e-07 5.5587334e-06 -2.3005514e-07 -1.0247334e-07
-1.0366135e-07 -8.433743e-08 1.2267267e-05 -7.419545e-08 -1.0103656e-06 -2.41196e-07 -6.5472605e-09 -3.371008e-08
-1.4959902e-08 -1.1051774e-07 -6.534672e-08 -3.50035e-06 -3.3081585e-06 5.9608988e-06 1.780252e-08 -2.7097408e-07
-3.595152e-07 4.879049e-06 -2.9984926e-07 -7.4259595e-05 5.9249453e-07 -1.0275022e-07 -3.4011927e-07 -1.9295308e-05
-3.341543e-08 -8.314651e-08 -8.6411355e-08 -3.479115e-07 -1.9477753e-09 1.498289e-07 -6.9945656e-08 4.0910226e-08
-3.9709766e-07 2.1744918e-06 6.5573668e-06 4.3769187e-06 -9.162873e-09 -2.5063224e-08 -5.805355e-08 1.2982414e-06
8.7416237e-07 -0.00017569266 -1.0835636e-08 -4.82474e-08 -7.385891e-05 2.2630202e-08 -1.7458249e-06 -3.462148e-05
-5.8289226e-07 4.287562e-06 -4.1477564e-05 -2.5489692e-07 -2.8810216e-08 -1.3651118e-07 6.909683e-06 -3.404444e-07
-9.0660926e-08 4.836179e-07 8.0097016e-07 -2.5790673e-06 -3.686604e-05 -3.0581754e-07 1.2228158e-05 1.2015524e-06
-8.0701284e-08 1.115364e-07 4.218203e-06 6.6073553e-06 -0.0003175504 -0.00014669311 -0.0005473716 4.7128615e-06
-1.0316844e-07 1.271483e-06 -4.0988462e-07 1.151949e-05 4.2802736e-07 -0.00032946505 2.791279e-06 -0.00031977036
3.0243364e-06 2.1956263e-08 -1.5085057e-08 -1.2820624e-07 -1.760765e-07 -1.4967366e-08 -4.90677e-07 2.243577e-07
3.743131e-08 1.612357e-05 -0.00020100661 5.2571377e-06 -2.8400206e-07 2.914593e-06 4.60906e-07 -4.3374406e-05
7.966323e-06 1.6550091e-06 2.2169997e-06 -0.00012304672 1.1283402e-05 4.431935e-06 5.136901e-08 -5.6769436e-06
-4.252764e-07 1.14838954e-07 4.1169102e-08 -9.543383e-05 4.892744e-08 -3.3402497e-07 -5.178361e-08 -0.00018816916
2.0930715e-06 6.2955274e-07 -1.2189346e-07 -6.569822e-07 -5.1746446e-07 -0.0003958678 -1.4552516e-07 -7.803463e-08
1.7095868e-05 2.293393e-05 -2.1287538e-07 1.2693072e-06 -3.4274112e-07 8.7687995e-06 -3.4726648e-07 -1.3547697e-07
2.1284502e-06 5.9519687e-07 2.033377e-05 8.1453373e-07 -4.3114058e-05 6.21739e-08 -3.0639875e-09 -3.7509583e-08
-5.995622e-09 -1.659125e-07 -9.017335e-08 -0.00023815871 -0.00021359697 1.8210534e-05 1.0106094e-06 -1.9943563e-07
00000000: 2214 8eb4 6873 ee33 17b7 57b4 4d77 00b6
00000010: d64e ba34 10ef 8db3 51f2 72b4 859f f5b4
00000020: e7e2 bcb2 f3eb 35b4 dca3 81b3 e6b4 d7b4
00000030: acec 1eb2 c3e5 ecb3 017f 98b3 6fbe edb2
00000040: a10e 92b4 5f0b 8f33 7aa2 8cb4 28ec 8335
00000050: 59e4 d5b1 cf0e d5b2 2b03 bcb3 786c 7db4
00000060: a0b3 dd32 a379 49b6 fd5a 26b2 ba1a 08b3
00000070: fb0a 1436 1d44 32b3 ae2b 76b4 22d6 deb3
00000080: b18d e1b4 4012 da33 68f4 bab5 fe09 34b4
00000090: 23e7 b6b2 bb72 d1b3 7e84 92b4 e8aa 6ab4
000000a0: ec86 84b3 39f2 b0b4 a273 d532 4ec5 98b4
000000b0: ba63 d436 1d75 89b4 21a9 6036 5f0d 59b2
000000c0: d94e 62b3 1053 5ab3 cbbc fe31 cbb2 bd34
000000d0: e1d1 7cb6 34d0 87b5 aeb5 07b7 29f6 da33
000000e0: 73f1 97b3 bb24 4932 b41b e3b4 696f ee36
000000f0: a6bc 63b3 845a 40b6 6b7e b733 6f7d 91b6
00000100: 444b 5bb4 f15c 2eb1 86f6 f7b2 2271 4eb4
00000110: b1ee 85b4 7d42 24b2 f786 d2b4 3f30 cc32
00000120: 5985 ceb3 0155 e036 8371 c6b5 dfe9 74b3
00000130: 1258 c5b4 7fd1 9935 137d c8b4 92b2 e936
00000140: 4006 fe33 41c3 80b4 66e1 0a35 9eb4 b4b5
00000150: c46b 9036 839c 3836 0a3e beb2 4027 0cb5
00000160: 9ada aab4 fb02 d7b4 bd88 11b1 8c3d 41b5
00000170: 36e2 67b4 9be7 e0b4 ec96 ecb3 4f6c 8ab6
00000180: 1085 0535 97ec 8bb4 e6df a8b3 3024 e8b4
00000190: 4afd b3b4 836e a6b6 16e1 c8b3 09e6 83b4
000001a0: 3add 1137 0262 1637 5f70 1cb4 48e8 08b3
000001b0: d35e 77b4 2885 ba36 1305 77b4 500f dcb3
000001c0: 6e9c deb3 fe1c b5b3 83cf 4d37 6155 9fb3
000001d0: e69b 87b5 ba7d 81b4 50f6 e0b1 a0c8 10b3
000001e0: 2c81 80b2 c555 edb3 bd54 8cb3 8ee7 6ab6
000001f0: bb01 5eb6 bb03 c836 28ec 9832 657a 91b4
00000200: 6503 c1b4 b6b6 a336 f8fa a0b4 d1bb 9bb8
00000210: ea0b 1f35 88a7 dcb3 a399 b6b4 5cdc a1b7
00000220: a784 0fb3 478e b2b3 2591 b9b3 98c8 bab4
00000230: a0d9 05b1 a8e0 2034 0835 96b3 45b5 2f33
00000240: b030 d5b4 7ced 1136 5a07 dc36 72dd 9236
00000250: be6a 1db2 9d4a d7b2 8e56 79b3 3c3f ae35
00000260: fba7 6a35 243a 38b9 a227 3ab2 9438 4fb3
00000270: b3e4 9ab8 5764 c232 1652 eab5 8836 11b8
00000280: 0d78 1cb5 e1dd 8f36 32f8 2db8 c4d8 88b4
00000290: 567a f7b2 e893 12b4 bad9 e736 52c6 b6b4
000002a0: 5fb1 c2b3 f8d1 0135 4002 5735 0a14 2db6
000002b0: 9ca0 1ab8 3e2f a4b4 8a27 4d37 0745 a135
000002c0: 004e adb3 c985 ef33 168a 8d36 c0b4 dd36
000002d0: e57c a6b9 a2d1 19b9 7c7d 0fba 2c23 9e36
000002e0: 738d ddb3 d3a7 aa35 1d0e dcb4 d543 4137
000002f0: a2cb e534 0dbc acb9 cf51 3b36 daa6 a7b9
00000300: b4f5 4a36 559a bc32 6494 81b2 10a9 09b4
00000310: 8a0f 3db4 9691 80b2 11b7 03b5 fae6 7034
00000320: 29c4 2033 1a41 8737 4dc5 52b9 7866 b036
00000330: f278 98b4 5498 4336 7072 f734 eaec 35b8
00000340: 19a7 0537 ae21 de35 c4c7 1436 1a06 01b9
00000350: d84d 3d37 08b6 9436 d3a0 5c33 937c beb6
00000360: 8b51 e4b4 629d f633 e8d1 3033 a623 c8b8
00000370: 4a24 5233 0b54 b3b4 ae68 5eb3 464f 45b9
00000380: b276 0c36 89fe 2835 d2e1 02b4 795b 30b5
00000390: e3e7 0ab5 7a8c cfb9 a741 1cb4 fe93 a7b3
000003a0: 1969 8f37 3d62 c037 bd92 64b4 105d aa35
000003b0: fb01 b8b4 b51d 1337 f16f bab4 a077 11b4
000003c0: 7fd6 0e36 9ec5 1f35 7092 aa37 55a6 5a35
000003d0: 5ed5 34b8 7784 8533 3d8e 52b1 391a 21b3
000003e0: 0d02 ceb1 ae25 32b4 53a5 c1b3 3eba 79b9
000003f0: 00f9 5fb9 d3c2 9837 46a4 8735 7324 56b4
