results/hideandseek_13/Hide/Hide-499981.onnx (onnx, 162766 bytes, 7 tensors)

network_body._body_endoder.seq_layers.0.weight f4 [128, 177]
000000 59 1d d2 bc 00 25 6b be 4b 00 15 3e 18 24 0d 3c
       -0.02564876 -0.22963333 0.14550893 0.008614562
000010 82 0c 82 3d 43 59 25 3d 37 a7 ae 3d e1 37 38 bd
       0.06350042 0.04036833 0.085279875 -0.044975165
000020 59 19 c1 3d 3e a5 44 bd 0d a4 96 bd d8 5f 8c bd
       0.09428663 -0.04800915 -0.07355509 -0.06854218
000030 14 9f ff 3c 7c 47 a6 bd 29 c5 56 3d 06 44 9a bd
       0.031203784 -0.08119103 0.05243412 -0.07532506
000040 1a b7 47 bd ad b3 f6 bc 11 17 c6 3c 5f e4 5b 3d
       -0.048758604 -0.030114973 0.02418092 0.05368459
000050 bb 80 9c 3d 5a 37 1d 3d 80 8c 57 3d ec d5 4c bd
       0.07641741 0.038382865 0.052624226 -0.0500087
000060 7a 5f d9 bc 11 80 14 be e9 8f 36 bd 82 53 8c be
       -0.026534785 -0.14501978 -0.044570837 -0.2740746
000070 8f b9 3e bd 0b 38 18 be f4 6d e4 bc e0 89 40 be
       -0.04656368 -0.14865129 -0.027884461 -0.18802595
000080 cd 95 40 3b 7f 4f 6a 3d 82 75 9a 3c a2 f8 69 3d
       0.0029386163 0.05720472 0.01885486 0.05712188
000090 d9 70 28 bd 75 88 ec bd db 22 83 bd 1a 79 8f be
       -0.041123245 -0.115494646 -0.064031325 -0.2802208
0000a0 01 91 a1 3d d7 a9 2c be 57 17 0b bd 45 4b 22 bd
       0.078889854 -0.16861664 -0.033957805 -0.039622564
0000b0 b3 dc 2b bd db 69 4a 3e 7c bc a0 bc 9f e6 45 bd
       -0.041958522 0.19766943 -0.019621126 -0.04831564
0000c0 f4 56 f0 3d 4e cd 25 bd de 56 84 3d cd 84 3e be
       0.11735335 -0.040478997 0.06461881 -0.18605347
0000d0 b7 dc 49 3c c2 e3 1f bc 55 0d 9f 3d 8e 56 c1 bb
       0.012320689 -0.009758892 0.07766215 -0.0059002107
0000e0 c6 82 a2 bc 2f 68 a0 3c 85 59 66 bd a7 30 4b bd
       -0.019837748 0.019580929 -0.056237716 -0.049606945
0000f0 98 28 76 bd 01 ff a2 bd a4 86 10 bb 86 9f c8 bd
       -0.060097307 -0.079587944 -0.0022052908 -0.09796052
000100 79 6e ab bd 5b d2 e8 bd 02 a9 5d 3d bd 7a 13 be
       -0.0837068 -0.11368247 0.054116257 -0.1440229
000110 8c 38 b2 bd ab 51 98 3d fe f6 d2 3b b8 f6 ad bd
       -0.08702192 0.07437452 0.006438135 -0.084943235
000120 a3 4c f7 bb 11 93 a1 bd bd 90 0b 3e 94 58 26 be
       -0.0075469776 -0.07889379 0.13629432 -0.16244727
000130 ad 63 8a bc 80 fb 3e be 6e ab cc bd 7c 05 f9 3b
       -0.016893232 -0.18650627 -0.09993635 0.0075995307
000140 25 a4 d5 bc a7 30 00 3e 79 49 85 3d b4 21 98 3d
       -0.026079247 0.1251856 0.065081544 0.07428303
000150 2c 0b 20 3e c3 0d af bd 08 1c 56 3e 59 b4 7f 3d
       0.15629262 -0.08547547 0.2090913 0.062427852
000160 42 3a 0b be 9a 2b ef bd aa d3 d1 3d 35 b7 46 be
       -0.13596442 -0.11678238 0.1024545 -0.19405825
000170 e5 b6 3d bd 56 2d 00 3e 7f 9e b2 bd f2 69 8d bd
       -0.046317 0.12517294 -0.08721637 -0.06904973
000180 bf f6 9e 3c 1e 87 78 bc 47 64 4b 3d b3 08 00 bc
       0.019404767 -0.015168933 0.04965618 -0.007814574
000190 32 4e 8f bd 32 7b 81 3d 38 9f 47 3d c3 47 a2 bc
       -0.069973364 0.06322326 0.048735827 -0.01980961
0001a0 6d f7 8d 3d ef 25 80 bd 03 73 59 3d f1 14 26 3d
       0.06931958 -0.06257235 0.0530882 0.040547315
0001b0 a6 07 01 3e 06 ad 8d bd f4 c4 1c be 8e 3f 82 3d
       0.12600574 -0.06917767 -0.15309507 0.06359778
0001c0 92 74 b6 bd 30 25 d3 bd 76 d8 ac bd f8 ea f0 bd
       -0.08908953 -0.10309827 -0.08439724 -0.11763567
0001d0 06 30 4e 3c d0 00 6b be 32 fa 43 3d 03 ad 18 be
       0.012584692 -0.22949529 0.047846027 -0.14909749
0001e0 2f b1 63 bd f5 02 8e be 17 e9 56 3d 5b 39 00 3e
       -0.055588897 -0.2773663 0.052468386 0.1252188
0001f0 42 47 97 bc 80 b4 b0 bc 4c b2 a6 bb 6d 12 15 bd
       -0.018466596 -0.021570444 -0.0050871726 -0.036394525
000200 11 91 2b bd 40 99 0a 3d ed 20 b2 bd 62 b0 c6 bd
       -0.041886393 0.033837557 -0.08697686 -0.09701611
000210 53 b5 a3 3c 9e 81 3e be 03 29 f2 3d 78 fc 3c 3d
       0.019983923 -0.18604133 0.118242286 0.04613921
000220 5f 18 6c bd e4 f8 a8 bd 5b fa 55 bc 61 40 9d bc
       -0.05764043 -0.08250597 -0.013060178 -0.019195737
000230 08 70 19 3c cd 17 04 be 2a a1 b0 bb 00 ea 7b bd
       0.009365089 -0.12899704 -0.005390306 -0.061502457
000240 9a 0e 7d bc 6e f8 c7 bd 85 f6 8e bc 0c fa 87 3e
       -0.015445376 -0.09764181 -0.017451534 0.26557958
000250 59 3c 26 bd 27 cb f3 bd d4 88 cf ba c7 ee 01 bd
       -0.040584896 -0.119039826 -0.0015833625 -0.031721856
000260 5f 26 18 be b1 87 34 bd 57 66 cc 3d 15 c0 bb bd
       -0.14858387 -0.044074718 0.09980457 -0.09167496
000270 3e 15 91 3c 8c 5d 8d bd 7a bc cc 3c 2a 5c 82 3d
       0.017710324 -0.06902608 0.024992216 0.06365235
000280 40 c5 2c bd 19 c5 31 be aa e5 33 ba e9 04 21 3d
       -0.0421803 -0.17360343 -0.0006862531 0.039311323
000290 60 05 c5 bc 8a 0f 54 be f9 ad 81 3d 22 1d 08 bb
       -0.024050415 -0.20709053 0.06332011 -0.0020769318
0002a0 a4 6a 8e 3d fe 45 bd bd c1 9b 94 bd 50 27 61 3d
       0.06953934 -0.092418656 -0.0725627 0.054969132
0002b0 4b 00 b7 bc 03 dd 06 bb 57 d6 8a bd bf 3c db bd
       -0.022339007 -0.002057851 -0.06779163 -0.10704946
0002c0 f3 df 24 bd ca d0 ce 3d b2 91 47 3e 9c c6 18 3e
       -0.040252637 0.10098417 0.19489172 0.14919513
0002d0 41 bf 2c 3d e5 bc 18 bd c0 3a 97 bc a9 ea 3c bb
       0.04217458 -0.03728952 -0.018460631 -0.0028826392
0002e0 6a c8 5f be 06 51 cc 3d b8 c6 7f be bc 9f 37 3d
       -0.21853796 0.099763915 -0.24978149 0.04483007
0002f0 a9 e3 b5 3a 00 64 1b 3e a4 50 d1 3c f6 78 23 be
       0.0013877052 0.15174866 0.025551148 -0.15964112
000300 7c ce c9 3c 2f ff c6 bc 5d c5 43 bd 34 05 65 bd
       0.024634592 -0.024291603 -0.047795642 -0.055913165
000310 ca e1 8a 3d e5 93 b6 bd fe 92 98 bd 43 98 2c bc
       0.06781347 -0.089149274 -0.074499115 -0.010534349
000320 f9 cc 8a 3b 67 2a c1 3d 35 17 76 bd 65 8b ce bb
       0.0042358604 0.09431916 -0.060080726 -0.006303238
000330 45 5a 74 3b e5 0b 61 bd d8 c5 bb bd 96 b1 b3 3d
       0.003728525 -0.054942984 -0.09168595 0.08774106
000340 ee 30 54 3b 0b 57 cd 3c 59 53 4f be 07 7c 24 3d
       0.0032377797 0.02506592 -0.20246638 0.040157344
000350 10 67 60 bd 3d f1 04 ba b0 07 85 bc a3 ea 94 bd
       -0.054785788 -0.00050713477 -0.016239017 -0.07271316
000360 43 40 ef 3d d2 2b e2 3d 2c 88 04 bd 77 11 9a 3c
       0.11682179 0.11043514 -0.032356426 0.018807156
000370 b5 f9 2a bd 8d 01 bf 3c 38 9e 3f be 20 b6 91 3d
       -0.041742045 0.02331617 -0.187127 0.07114816
000380 04 34 15 be f8 96 33 be ce 42 df bb e1 c0 29 be
       -0.14570624 -0.17538059 -0.0068133837 -0.16577484
000390 3b d4 d9 bd e3 71 4b bd 83 c6 7d be 68 dd ae 3c
       -0.10636183 -0.049669158 -0.24782757 0.02134581
0003a0 5a 94 4d bd 93 db e5 3d 56 c0 8e bd 13 a5 8f bd
       -0.050190307 0.11223521 -0.06970279 -0.07013907
0003b0 6a ae d0 bd 59 51 51 bd d2 51 9e 3c 6b 23 4c 3d
       -0.10189517 -0.05110297 0.019326124 0.049838465
0003c0 0a 80 1b 3e 32 73 c3 bc cb e2 c2 bd d6 b7 59 3c
       0.15185562 -0.02385864 -0.095159136 0.013288459
0003d0 86 8a d1 bb 80 e8 c3 3c 2b 9c ac 3d f6 8b 07 be
       -0.006394687 0.023914576 0.08428224 -0.13236985
0003e0 d5 3b b7 bd f6 08 80 bd 76 d8 4c bd 24 13 2b 3d
       -0.08946959 -0.06251709 -0.05001112 0.0417663
0003f0 49 0b cf bd 2e e9 88 3c 3e 56 6c bb c0 1f 1d be
       -0.10109574 0.016712751 -0.0036062147 -0.15344143

network_body._body_endoder.seq_layers.0.bias f4 [128]
000000 e4 06 a2 bd 4b 9a 27 bd 20 3b 7f bd 26 e1 dc bc
       -0.079114705 -0.04091863 -0.062312245 -0.026962828
000010 9d 67 c5 bc 9d a2 d2 bd cb c8 5b bd 42 b1 8f bc
       -0.024097258 -0.10284922 -0.053658288 -0.017540578
000020 a5 38 25 be 87 22 29 bd 15 87 6e bd ab 41 ba bd
       -0.1613489 -0.041292693 -0.058234293 -0.090945564
000030 03 b5 26 be 1e c1 fa bb f8 cd c3 bd c3 5d b2 bd
       -0.16279988 -0.007652416 -0.0956077 -0.0870929
000040 eb f5 c8 bd 35 39 3f ba 5d 6d 38 bd 8f 79 91 bc
       -0.0981253 -0.0007294596 -0.045026172 -0.017758159
000050 cc de 28 be 27 05 c3 bd c7 73 46 bd e4 c1 8b bd
       -0.1649124 -0.09522467 -0.048450258 -0.06824091
000060 d9 da f9 bd 10 af 05 bd f3 fb 5b bd a0 d2 01 be
       -0.12199945 -0.032637656 -0.053707074 -0.12678003
000070 dc a2 ca bc 04 cc 5c bd a6 19 0c bd a9 da fc bb
       -0.02473586 -0.053905502 -0.034204148 -0.007716496
000080 be f4 99 bd 58 7a 3e 3c 06 27 78 bd 1e 2e ac bd
       -0.07517384 0.011625849 -0.06058409 -0.08407234
000090 01 50 11 be d9 f6 35 bd b9 3e c8 bd ea 0c a4 bd
       -0.14190675 -0.044424865 -0.097775884 -0.08010276
0000a0 76 e9 c4 bd db ce 3d bd 8b 74 9b 3c d7 30 7b bd
       -0.09614842 -0.04633985 0.01897647 -0.061325874
0000b0 64 a0 94 3c 7b ad 92 bd db 9f c9 bc 2d 8b 91 bc
       0.018142886 -0.07161995 -0.024612358 -0.01776656
0000c0 84 8a f3 bd 6e 44 0a be e7 1d 17 bd 8d 9b ce bc
       -0.11891654 -0.13502666 -0.03689375 -0.025220657
0000d0 13 7c 40 3d 9e ef 6e bd 1c f3 58 3d 39 54 a4 bc
       0.046993326 -0.058333986 0.052966222 -0.020059692
0000e0 67 f3 0b be 55 b8 8b bd e9 46 5b bd 84 a6 22 bd
       -0.1366707 -0.06822268 -0.053534422 -0.039709583
0000f0 5a 6a ad 3b ec 78 87 3d 41 45 09 bd 76 14 09 3d
       0.005292219 0.06614861 -0.03351331 0.03346678
000100 e9 0c c4 bc d5 c6 9d bd ae ab bd bd 44 eb 52 bd
       -0.023931937 -0.0770394 -0.09261261 -0.051493898
000110 02 62 b4 bd dd f0 2e be 68 c5 72 bd 2a 19 11 bd
       -0.08807756 -0.1708407 -0.059270293 -0.03542439
000120 39 77 2e bd 55 69 17 3d 98 90 3a 3d c2 e7 97 bd
       -0.04259417 0.036965687 0.04554805 -0.07417251
000130 f6 2c 96 bd 49 41 7f bd e6 d2 8e bd 8c f7 09 3d
       -0.07332794 -0.06231812 -0.069738194 0.033683345
000140 08 48 cc bd f8 a6 23 bd 63 f2 46 bd 02 20 3e 3c
       -0.09974676 -0.039954156 -0.048571 0.011604311
000150 d5 64 37 3d 24 c1 10 bc d3 46 cf bd d0 1f e2 bc
       0.044773895 -0.008835111 -0.101209305 -0.02760306
000160 b9 60 7d bd 9b 12 ca 3b ef 13 1a bd a8 8a 5a bd
       -0.06185982 0.0061667687 -0.037616666 -0.05335489
000170 11 88 83 bd 4e 6d 6a bd 8b f7 d8 bd f9 bc d2 bc
       -0.06422437 -0.057233147 -0.1059409 -0.025724875
000180 59 4c 4f bd 6e 67 4b bd 20 e9 3c bd e5 4b 06 bd
       -0.05060992 -0.049659185 -0.046120763 -0.032787222
000190 5e 7d 98 bd 72 43 7b 3d 05 86 06 be 71 54 53 bd
       -0.07445787 0.061343618 -0.13137062 -0.0515942
0001a0 72 b0 71 3c 73 d3 c4 3b dc eb 8a bd 71 a6 4e bd
       0.0147515405 0.006006652 -0.06783268 -0.0504517
0001b0 60 5c 19 bd 41 f0 47 bd e2 18 83 bd 8e ba 35 bd
       -0.03744161 -0.04881311 -0.064012304 -0.044367366
0001c0 9e 99 d8 3b 61 26 a3 bd 87 36 b6 bc f3 99 9b bd
       0.0066101095 -0.079663046 -0.022242798 -0.07597723
0001d0 e2 36 d9 bc 08 b2 20 bd 64 57 fa bd ec cf 09 be
       -0.026515428 -0.039232284 -0.122237 -0.13458222
0001e0 7c e7 d0 bd b4 9d 0d be 60 bd a4 bd 6d e2 99 3b
       -0.10200402 -0.1382969 -0.08043933 0.0046961815
0001f0 ad f4 ca 3c 15 f1 9f bc 10 9e 13 bd 46 01 23 bd
       0.024774874 -0.019524137 -0.036039412 -0.039796136

network_body._body_endoder.seq_layers.2.weight f4 [128, 128]
000000 83 5b 1f 3d c9 eb a8 bd 7f 06 80 3e 19 14 7a 3d
       0.03890563 -0.082480974 0.25004956 0.061054323
000010 fc 4d af bd 32 fb 16 3e 5e 13 8c 3d 16 44 3d be
       -0.08559796 0.14744261 0.068396315 -0.18483004
000020 a1 66 3e 3e bc 70 7a 3d b7 69 1c 3e 1f fa 8f 3d
       0.18593837 0.061142668 0.15274702 0.07030129
000030 b0 91 c4 bd 72 74 5b 3d 7b 02 75 3c b1 c9 2a 3d
       -0.095981 0.053577848 0.014954205 0.041696254
000040 58 4f 11 be 40 22 a6 3c 62 40 ab bb 02 b8 99 3d
       -0.14190423 0.020280004 -0.005226181 0.075058
000050 b4 e2 76 bd 00 45 5d 3e bb 76 a9 3b f0 c8 13 be
       -0.060274795 0.21608353 0.0051716245 -0.1443212
000060 a7 97 81 bd 1d 86 f1 bc 40 92 24 bc d1 1e a0 3d
       -0.063277535 -0.029482896 -0.010044634 0.07818378
000070 de 2f a7 bd 4f e6 67 3d 93 1c 6f 3d 60 a9 16 bd
       -0.08163427 0.056616124 0.05837686 -0.036782622
000080 72 f1 9d 3d 00 ce 5d bb 96 0e 4c bc 2f e1 7b bd
       0.07712068 -0.003384471 -0.012454649 -0.06149405
000090 2a bb 8f 3d 09 5f 00 bd 2e 61 f4 bd 97 e0 3f 3e
       0.070181206 -0.031340633 -0.11932598 0.18738018
0000a0 52 fc d4 3d e1 67 89 bb 2f 23 de bd 0a b4 36 3d
       0.10399689 -0.0041932915 -0.108465545 0.044605292
0000b0 31 82 9c bd 1c e6 87 bd 26 5f a0 3b 9c 82 a7 3d
       -0.076420195 -0.06635687 0.004894155 0.08179209
0000c0 cd a1 a7 3c eb 63 bc bd fd 0d 3a bd 2c 35 97 3d
       0.020462895 -0.09198745 -0.045423497 0.073831886
0000d0 69 5a 72 be 4d 9b 6f 3d 8c 29 32 be ea 79 9e bc
       -0.23667301 0.058497716 -0.17398661 -0.019345243
0000e0 b9 b7 dc 3d 40 59 5a 3d 3d 49 1b 3d 7f 48 09 be
       0.1077723 0.05330777 0.037911642 -0.13406561
0000f0 72 58 b7 3d ad b8 7b be b4 31 4e 3d 56 f0 d8 bc
       0.089524165 -0.24582167 0.05034037 -0.026481789
000100 99 28 de bd 32 e7 1f bd f5 4a 15 bc 3f 56 a2 3d
       -0.10847587 -0.039038844 -0.009112109 0.079266064
000110 61 27 35 bd 11 c5 44 3d cd df 22 be 4e 35 08 bd
       -0.044227008 0.0480395 -0.15905686 -0.03325396
000120 db d4 f2 bd 66 37 7c 3c 74 1f 22 be f0 a2 be bd
       -0.11857005 0.015394067 -0.15832311 -0.093084216
000130 b8 31 83 3c a5 a7 2b 3d c1 e5 07 3d be b3 9a bc
       0.016014919 0.041907925 0.033178095 -0.018884536
000140 34 9c 56 bc 15 ec 8e 3d a0 e1 ab 3b bb c7 15 3c
       -0.013098765 0.06978623 0.0052454025 0.009141858
000150 ab dc 59 bc 03 50 4b 3d 7c 3a 4f be b2 8e 8d bd
       -0.01329724 0.049636852 -0.20237154 -0.069119826
000160 eb 41 64 be b4 6c 7b bd 0f 30 a0 bd 42 21 94 3d
       -0.2229077 -0.061382964 -0.078216664 0.07232906
000170 f5 8c d2 3c 2f 30 e3 3a 71 4b 22 be 4f 7c bc bd
       0.02570198 0.0017333085 -0.15849091 -0.092033975
000180 af 23 53 3a 1c 79 62 3c d6 8d 20 bd d0 cb 07 3e
       0.00080543285 0.01382282 -0.039197765 0.13261342
000190 8e 74 a2 bd 43 2d 77 be 94 7d ae 3c e8 8e 12 3e
       -0.07932387 -0.2413836 0.021300115 0.14312327
0001a0 2c ab 2d 3c 3b d1 15 bd b8 1b 0e bc c9 97 ca 3a
       0.010599893 -0.03657649 -0.008673601 0.0015456612
0001b0 15 17 0d be 3c ee 90 3b 51 8b a8 3d 72 f0 b5 3c
       -0.13778336 0.004422931 0.082296975 0.02220938
0001c0 3d 59 45 3d 79 f4 c0 bc 34 c1 32 bb 05 cf 17 3e
       0.048180807 -0.023554074 -0.0027275803 0.14825065
0001d0 c1 ca e4 bd 14 53 56 3d 31 5c be 3d a9 cf 72 bd
       -0.11171485 0.052325323 0.09294928 -0.05928007
0001e0 4d e0 c2 3d 1e bc 1b 3d 00 9c 16 3d fb f7 d1 3d
       0.09515438 0.0380212 0.036769867 0.10252377
0001f0 f4 67 be 3c 56 5a 98 3d ab 15 84 3c 05 e6 24 3d
       0.023242928 0.07439105 0.016123613 0.040258426
000200 af e2 e2 3d 41 66 6b bb 99 44 0e 3d 3d 1f 03 3e
       0.11078393 -0.0035919102 0.03473339 0.12804885
000210 89 5d b7 3b 36 b7 d2 3c 43 28 21 3e c0 87 ad 3c
       0.005595867 0.025722127 0.15738015 0.021182895
000220 18 55 ae 3d 9c f4 13 3e 97 4a d7 3d f4 6c 24 3d
       0.08512324 0.1444878 0.10512274 0.04014297
000230 d0 a8 5a bc 70 5e a8 3d 10 11 ca 3c bc e1 a9 bd
       -0.013345912 0.082211375 0.02466634 -0.082950085
000240 55 ea 31 bd 40 f4 09 3e 7f c1 55 3d 70 c3 5e 3d
       -0.043436367 0.1347208 0.052186485 0.054385602
000250 0c 06 f8 3c 46 ec 6d bd 96 e9 2e bd 61 e8 81 3d
       0.03027632 -0.058086656 -0.042703234 0.06343151
000260 8b 74 76 3e 0b 28 ff bc 84 79 fb bc 95 63 cc bd
       0.24067895 -0.031147024 -0.030697592 -0.09979931
000270 8a db 04 3e fd ce 27 3c 96 fe aa 3c eb bd f4 bd
       0.12974373 0.010242221 0.02087335 -0.119502865
000280 e4 15 c4 3d 3d f5 c4 bd 67 17 49 bd 3a b8 27 3e
       0.09574488 -0.09617088 -0.049094584 0.1637887
000290 c6 ac 38 bb e7 b8 8f bb 91 b0 e1 bd c4 eb b0 bc
       -0.0028179153 -0.0043860557 -0.110200055 -0.021596797
0002a0 44 34 cd bc a2 95 f2 bd 52 d0 94 3d 62 91 17 3d
       -0.025049336 -0.118449464 0.072662964 0.037003882
0002b0 06 04 e9 bd 07 3b 16 3d 3f e2 e4 bc 1e 34 21 bd
       -0.113777205 0.036677387 -0.027939914 -0.039356343
0002c0 6e d3 74 bd 59 6a 39 3d 63 82 c8 3c 51 cb c7 3c
       -0.059771948 0.045267437 0.024476236 0.024388941
0002d0 ec 89 33 be e8 d8 55 bc ba 23 49 3c 29 39 91 be
       -0.17533082 -0.013052203 0.012276584 -0.28363922
0002e0 1b 61 9d 3d 6f c8 a2 3c cf 36 f0 3b b8 80 0f 3d
       0.07684537 0.019870965 0.0073307524 0.035034865
0002f0 5c b1 77 3d e3 ff d1 bd ad 7c ae 3d 4f 19 3d be
       0.060471877 -0.10253885 0.08519874 -0.18466686
000300 99 09 26 be 9d 83 4a 3d 7a cd ff 3d 89 1c 34 3e
       -0.16214599 0.049441922 0.124903634 0.1758901
000310 c0 0c 0f be d9 cc 57 3c 12 82 b8 3c 68 b4 1a 3e
       -0.13969707 0.013171398 0.02252296 0.15107882
000320 d2 b0 2e 3d 16 32 19 be 1a c0 2f 3b 99 01 9e bd
       0.042649098 -0.14960513 0.0026817382 -0.077151485
000330 88 3e 15 bc c5 92 20 3e 7d ac a7 3d b8 7a d7 bd
       -0.009109147 0.15680988 0.081871964 -0.105214536
000340 07 a3 c7 3c cf 67 0d be 28 28 82 3e 93 9e a3 bc
       0.02436973 -0.13809131 0.25421262 -0.019973075
000350 e7 3d ef bb 21 56 19 be a4 ef f6 bc d8 f4 41 be
       -0.0073010805 -0.14974262 -0.030143566 -0.18941057
000360 68 d3 fb b9 0b eb 3b 3e 2d 95 99 3d 95 8c 6d bd
       -0.0004803196 0.1835138 0.07499156 -0.057995398
000370 5a 59 65 3d 58 cd 20 bc 6c b7 ea 3d 85 19 b5 3d
       0.055993415 -0.009814583 0.11460766 0.08842758
000380 ec 75 9b bc 89 97 ac 3d 49 02 67 bd 29 02 08 3e
       -0.018977128 0.084273405 -0.056398664 0.13282074
000390 29 4b b2 bc 58 f9 d6 bd 72 38 b1 bd f6 3f 50 3e
       -0.021764355 -0.10496777 -0.08653344 0.20336899
0003a0 72 a8 7a be f5 de 92 3d 5a bb 63 bc cf de ba bd
       -0.2447832 0.07171432 -0.013899649 -0.091245286
0003b0 26 44 37 3e 2f 58 a7 bc 18 57 dd 3d ba ea 02 3e
       0.1789709 -0.020427791 0.108076274 0.12784854
0003c0 08 ec 50 3c 77 43 19 3b b9 fe 8d ba 71 92 0f 3e
       0.012751587 0.002338616 -0.001083336 0.14020707
0003d0 e3 0d 03 3e d3 d1 54 3d 2c ee f3 3d 86 b2 b4 ba
       0.12798266 0.051957916 0.11910662 -0.0013786114
0003e0 35 c6 12 be c1 53 88 3c 31 d6 10 3e d4 98 ae 3b
       -0.14333422 0.0166415 0.14144208 0.005328277
0003f0 e7 e8 91 bd 98 c2 59 3d e3 49 4e bc 17 cb 8d be
       -0.07124501 0.053164095 -0.012590858 -0.27694008

network_body._body_endoder.seq_layers.2.bias f4 [128]
000000 8a 31 96 bd 2f 41 65 bd 53 b4 d6 bd 57 5a cb bd
       -0.073336676 -0.055970367 -0.10483613 -0.0992934
000010 ec 0b f1 bd 47 db fb bd 40 16 e0 bc fd 23 95 bc
       -0.11769852 -0.12297683 -0.02735436 -0.018205637
000020 52 55 5d bd d0 e6 d6 bd 03 1f 89 3c c5 fd 2f 3b
       -0.054036446 -0.10493243 0.01673842 0.002685414
000030 6b 9e 2d bd 55 c9 4e 3d ac 5f 81 3b b4 e7 e2 bc
       -0.042387407 0.050484974 0.0039481726 -0.027698375
000040 ad 84 28 bd 1b 4c a2 bd b2 5f bb bd 42 6e a9 bd
       -0.041142154 -0.07924672 -0.09149112 -0.08272983
000050 28 37 a1 3c 66 16 fc bd e3 ce b9 bd f1 7d 91 bd
       0.01967962 -0.1230896 -0.09072664 -0.071040995
000060 17 17 dc 3c 20 eb 09 be c2 b3 29 bc 7b b4 0a be
       0.026866479 -0.134686 -0.010357799 -0.1354541
000070 bd 6a 6d be e5 72 90 bc 26 f2 6e bd e6 c6 af bd
       -0.23185249 -0.017632911 -0.0583364 -0.08582859
000080 fe f8 7a bd a7 2e d4 3c 88 f9 10 be bf 5c 90 bd
       -0.061272614 0.025901152 -0.14157689 -0.0704894
000090 a0 e0 9a bd 6c eb 5d bd 32 71 c8 bd 3a 09 ac bd
       -0.07562375 -0.054179594 -0.09787215 -0.08400197
0000a0 9c 80 19 bd a5 c2 6f bc e2 2d ba bd 87 0a bf bd
       -0.037476167 -0.014633809 -0.09090783 -0.0932818
0000b0 3f 04 52 bd 5c f2 e5 bc f8 f7 05 3c 70 a3 91 bd
       -0.05127358 -0.028069668 0.008176796 -0.07111251
0000c0 6b 2e 19 bd 83 f8 fd bb 8e 9b ca 3a 61 ef 24 be
       -0.037397783 -0.007750572 0.0015457736 -0.16106941
0000d0 3e 71 01 be 9d c7 be bd 57 bd 77 bd b9 51 aa bd
       -0.12640855 -0.09315417 -0.060483303 -0.083163686
0000e0 e8 e7 a3 bc d4 93 45 bc ac 06 f6 bc 55 40 c6 bd
       -0.020008042 -0.012059171 -0.030032478 -0.09680239
0000f0 a7 1a 22 bd db 5e 2a bd 9f c6 67 3c 6e b7 01 be
       -0.0395762 -0.041594367 0.014146476 -0.12667629
000100 e7 82 9d bd b9 17 16 bd 85 f7 ad bd c2 56 c5 bd
       -0.07690983 -0.036643717 -0.08494476 -0.09635688
000110 dd 0d 33 be 82 c1 98 bd 4a 49 18 3d 7e d6 dd bd
       -0.17485757 -0.07458784 0.03717927 -0.10831927
000120 7c 55 42 bd d8 ed 9b bd c6 88 e6 bd 79 fe 1b be
       -0.047444806 -0.076137245 -0.11256556 -0.15233792
000130 06 3e 73 bd 63 e4 0b bd c1 3d 99 bd d3 e3 e4 bd
       -0.059385322 -0.034153353 -0.07482482 -0.111762665
000140 df 73 0e bc 5d 6b 57 bd 1d 26 54 bd 00 a8 23 bd
       -0.008694618 -0.052592624 -0.05179416 -0.03995514
000150 16 6c 4f bd 60 fb 89 bd 6b 5b 3e bd 63 57 84 bd
       -0.05064019 -0.06737399 -0.0464739 -0.0646198
000160 12 28 a2 3c 07 57 48 3b 36 6b ac bd 94 e4 dd bd
       0.019794498 0.003056945 -0.08418886 -0.108346134
000170 55 56 17 bc c3 53 64 38 79 ad b0 bd 02 3e 8f bd
       -0.009236892 5.4437445e-05 -0.08626837 -0.06994249
000180 fb 73 11 bd 65 73 92 bd e4 43 14 bb 6d cd e9 bd
       -0.035511 -0.07150916 -0.0022623474 -0.11416135
000190 aa f2 35 bc dd 1b e9 3c ee ba 4e bd 30 bc 7f 3c
       -0.011105219 0.028455669 -0.05047124 0.015608832
0001a0 a8 a8 8f bc 25 2a a0 bd 2c e2 b0 bd 09 35 c0 bc
       -0.017536476 -0.078205384 -0.08636889 -0.02346279
0001b0 82 26 76 bc da a8 6b bd 34 c5 e3 bd ca 90 3b bd
       -0.015023829 -0.057534076 -0.11121598 -0.04579238
0001c0 4f 8b 6d 3c 45 f9 00 be a5 14 cd bc c0 e7 d2 bc
       0.014498546 -0.12595089 -0.025034258 -0.025745273
0001d0 71 b6 9e bc ec 04 4c bd 19 42 38 bd 67 e1 a9 bd
       -0.019374104 -0.04980938 -0.04498491 -0.08294945
0001e0 c9 4a fa bd 19 c6 c1 bc f8 f0 be bd e2 45 84 bd
       -0.122212954 -0.02365403 -0.09323305 -0.064586416
0001f0 34 24 20 be 94 fe 64 bd dc ef c0 bd 3e f5 23 bd
       -0.1563881 -0.055906847 -0.094207495 -0.040028803

action_model._continuous_distribution.log_sigma f4 [1, 2]
000000 0b 86 b9 be ab 72 fe be
       -0.3623508 -0.4969686

action_model._continuous_distribution.mu.weight f4 [2, 128]
000000 82 5d 67 3d eb a9 99 3d 85 40 14 3b 43 65 e9 3c
       0.05648566 0.075031124 0.0022621464 0.028490668
000010 16 4a fe 3c ff 85 24 3d bd e9 12 3d ba de 68 bc
       0.031041186 0.04016685 0.03586744 -0.014213258
000020 44 2a aa bc fe c9 03 3d a8 2d 12 bd 9f 3d ea bc
       -0.020772107 0.032175057 -0.035688072 -0.028593836
000030 11 8b 65 3d 80 6d fb bc 75 bc d6 bc b7 77 89 3d
       0.056040827 -0.030691862 -0.02621291 0.06712287
000040 f1 d9 6b 3c 3e 5b 86 3d c8 d9 65 3d 0f c7 ed 3c
       0.014395223 0.06560372 0.056115896 0.029025583
000050 eb 76 60 3c 06 6c 43 bc ed b2 31 3d 4e 43 f3 3c
       0.013700227 -0.01192761 0.043383528 0.02969518
000060 20 9a f9 3b 11 a7 18 3d e6 5d 99 3c af 81 4e 3c
       0.00761725 0.037268702 0.018721532 0.012604161
000070 0c 20 b7 3c 2c b9 8a 3c a5 c5 05 3d c1 d9 5b bd
       0.022354148 0.016934 0.03265919 -0.053674463
000080 e8 5b 44 3d 2f 56 2e 3d 6c b4 ac 3c f9 4f 71 3d
       0.04793921 0.04256266 0.021082126 0.05891416
000090 fe 1e 0d 3d 38 e3 01 3b 7b ed 52 3d f6 85 39 3d
       0.034453385 0.001981927 0.05149601 0.04529377
0000a0 64 7b 65 3d e2 67 5a 3d 35 c4 56 3d 3e 8d 54 3d
       0.056025878 0.053321727 0.05243321 0.05189251
0000b0 3c f5 76 3d 35 30 d5 3d 97 f3 0b bd 20 e3 88 bc
       0.060292467 0.104095854 -0.034167852 -0.016709864
0000c0 60 43 55 bc c5 91 a9 bc 1a d9 d1 3c 23 23 9f 3c
       -0.013016552 -0.020699391 0.025616217 0.019425934
0000d0 27 e5 78 3c 0a 6d 19 3d 6c 76 83 3d 29 f6 25 3d
       0.015191353 0.037457503 0.064190716 0.04051796
0000e0 ca 3f d1 3d 0e f2 8e 3d 79 a2 1c bc 55 0e 40 3c
       0.10217245 0.06979762 -0.009560221 0.011722167
0000f0 14 ea cb 3c 57 3d 52 3c d4 c1 d9 3c 9b 52 10 3d
       0.02489189 0.012832007 0.026581682 0.03523503
000100 2d 10 dd bc 04 0f 01 3d 71 9d 6f 3d fa 99 e9 3c
       -0.026985252 0.03150846 0.058499757 0.028515805
000110 31 32 d1 3c b2 45 8e 3c c0 2b 56 3d 97 8a ba 3c
       0.025536628 0.017367218 0.052287817 0.022771163
000120 08 5c 60 3d 28 c2 4f 3d ca 98 66 3d 2d 83 0d 3d
       0.054775268 0.05072227 0.056298055 0.034548927
000130 50 6c 8e 3d 54 1f d1 3c 7d d3 12 bd e1 28 92 3c
       0.06954253 0.025527634 -0.035846222 0.017841758
000140 ac 05 f8 3c ef 27 58 3d b2 98 c4 3c 4d ec 80 3d
       0.030276142 0.05277246 0.023998592 0.06295071
000150 be 64 6c 3c b8 69 97 3c da f5 42 3d c3 e5 66 3c
       0.014428316 0.018483028 0.047597744 0.014092865
000160 ea 78 a2 3d 65 53 88 3d 04 6b 3f 3d fe 9f 28 bd
       0.07933219 0.06656531 0.046732917 -0.041168205
000170 47 89 29 3d 8f 49 08 3d d7 9f 71 3d c8 0e 26 3d
       0.041390684 0.033273276 0.058990326 0.04054144
000180 47 e5 a9 3d d1 62 6e 3d 94 bd 18 3c bd ed cb bc
       0.08295684 0.058199707 0.009322543 -0.024893636
000190 5a e4 fe 3c db 14 64 3d a6 2e ff 3c 28 a1 44 3d
       0.031114746 0.05568395 0.031150173 0.048005253
0001a0 a7 a6 52 3d 56 91 45 bc d4 a3 40 bc 0e f4 56 3a
       0.051428463 -0.012058577 -0.01175781 0.0008199819
0001b0 4f 6d d3 3c d9 95 27 3c 7a 21 83 3d b3 05 82 3d
       0.025808958 0.010228598 0.064028695 0.06348743
0001c0 68 cd a8 3d 88 26 28 3d f3 e6 88 3d 5b a8 6d 3d
       0.08242303 0.04105237 0.06684675 0.058021884
0001d0 3c 26 3e bc 6e 09 86 3d 46 06 8f 3d f7 ab 3a 3d
       -0.0116057955 0.06544767 0.069836184 0.045574155
0001e0 70 c4 6d 3d 65 9c d3 3c ea ab 3e 3c 6a 46 a4 3d
       0.058048666 0.02583141 0.011637667 0.08021243
0001f0 28 15 00 3d 92 99 2f 3d 11 71 75 3c 1a 0f 0b 3c
       0.031270176 0.042871065 0.01498057 0.008487487
000200 fc 1d e6 3c 24 6c 20 3d 42 ef 08 3c 3c 1a a6 bc
       0.02809047 0.03916563 0.008357825 -0.020276181
000210 d3 3f bd bb c6 8d 40 bd be 33 a1 3d a7 b0 98 bd
       -0.0057754307 -0.047010206 0.07871197 -0.07455569
000220 6b 39 1e bd 9a cf b6 bc d8 7f 19 bd 6c 78 8f 3c
       -0.038628977 -0.022315789 -0.037475437 0.017513476
000230 5c 1d 09 3d 1e 2f 9f bc 3f ac cd bc da 1a 96 3d
       0.033475265 -0.019431647 -0.025106547 0.0732934
000240 3e 46 42 3d 19 03 d2 3b 38 0d ef 3c d9 4b 16 3c
       0.04743027 0.0064090607 0.029181108 0.009173357
000250 1d 3e 81 bd 83 5e be bc ac e9 3e bd e1 69 39 3c
       -0.06310675 -0.023238426 -0.046609566 0.011316747
000260 9b f8 03 3d a3 b2 e6 3c 4c 25 8a 3d 13 54 17 bd
       0.03221951 0.028161353 0.06745395 -0.036945414
000270 4d c6 41 3c 9f e4 7f bd 8c 5f 90 bb 04 03 7d bd
       0.011827064 -0.06247389 -0.0044059213 -0.061770454
000280 d3 cb 7c 3d 53 d7 69 3d 8e 85 7c 3c 78 d2 ce bb
       0.06171782 0.057090115 0.015412701 -0.006311711
000290 38 bf ad 3c 42 cf 6a bd 61 33 c7 3c e6 25 8a 3c
       0.021209344 -0.057326563 0.024316492 0.016863775
0002a0 4b 8d 52 39 c7 72 94 3c 35 88 95 3a ac 6f f1 3c
       0.00020079796 0.018121136 0.0011408391 0.029472195
0002b0 82 c6 79 3d 46 35 d7 bc 23 12 b4 3c a5 a6 be bd
       0.060980327 -0.02627052 0.021981305 -0.09309129
0002c0 94 3a 3e bd ed 21 40 bc d4 af a5 3d 03 1a 80 3c
       -0.046442583 -0.011726839 0.08090177 0.015637403
0002d0 79 bd 4e bd 6c 9e 2b bc eb 57 37 bd e2 5f 75 3c
       -0.050473664 -0.010474782 -0.04476158 0.0149764735
0002e0 5f 12 9d bd 00 71 16 3d f1 70 da 3c e3 3e 51 bc
       -0.0766952 0.03672886 0.026665183 -0.012771341
0002f0 3f 6a 93 3d 2f d7 ed bc 92 31 4a 3d e0 fb 7b 3b
       0.07197999 -0.029033272 0.04936368 0.003844969
000300 e7 72 c4 bc ba e8 ce bc b7 29 d1 3c d9 bc 07 bc
       -0.023980571 -0.025257457 0.025532587 -0.008284771
000310 25 84 21 3b f0 51 b0 3c 97 7d c7 3d 37 d1 0a bc
       0.0024645415 0.021523446 0.09740751 -0.008472732
000320 bd 25 70 3d 20 a7 04 bc 76 54 85 3c 2b d3 96 3c
       0.05862974 -0.008096486 0.016275626 0.01841124
000330 31 2c 09 3d b8 77 3a bd b6 a9 d7 bc 62 8c ab 3c
       0.03348941 -0.04552433 -0.026326042 0.020940963
000340 5c 40 f5 bb df 97 11 3d a9 72 31 3d dd 55 03 bd
       -0.007484479 0.035545226 0.04332224 -0.032064307
000350 28 d1 6d bd e7 9d 49 3b da 22 b2 3c 2a 06 29 3d
       -0.058060795 0.0030764283 0.021745134 0.041265644
000360 7b 63 12 bd ff a4 1e bd de dd 95 3c a9 24 0e 3d
       -0.035739403 -0.03873157 0.018294271 0.03470293
000370 c8 3e 81 bb 7d a4 61 3c d1 f4 f2 3c 41 e5 3c bd
       -0.0039442517 0.013772127 0.029657753 -0.04611707
000380 19 22 3b bc 6b f4 0c 3d cc ca a9 3c 16 be c7 bc
       -0.011421704 0.034412783 0.020726584 -0.024382632
000390 2c e4 b2 3d 90 60 a6 3d cc c6 aa 3c 0c 1c 0c 3d
       0.087349266 0.081238866 0.020846747 0.034206435
0003a0 05 1f 02 3a 9d 9c 00 bc 59 12 4f bc c9 5e 6d 3d
       0.0004963729 -0.0078498395 -0.012638652 0.057951722
0003b0 97 a2 5d 3d 3b 9b 38 3d 18 35 38 3c 48 61 9a bc
       0.054110136 0.045069914 0.011243127 -0.018845215
0003c0 21 ba 03 3d e6 45 90 bc 1e 53 58 b9 c9 96 c9 3c
       0.03215993 -0.017611455 -0.00020630329 0.024608033
0003d0 d4 60 c3 bc b2 83 fa 3b 36 9f e3 3b 21 8a 85 3c
       -0.023849882 0.007645094 0.0069464697 0.016301217
0003e0 38 13 b5 3c 74 74 50 bd 41 a1 4b bd 36 09 d8 3b
       0.02210389 -0.05089231 -0.04971433 0.006592895
0003f0 8c 03 ea 3b 9f 3e de bb f8 f7 e0 bc 95 fe 7b 3d
       0.007141536 -0.0067823674 -0.02746199 0.061522085

action_model._continuous_distribution.mu.bias f4 [2]
000000 c1 ab 1c bd 5e 08 7c bd
       -0.038249735 -0.061531417
