results/hideandseek_18/Seek/Seek-35168.onnx (onnx, 215419 bytes, 9 tensors)

network_body._body_endoder.seq_layers.0.weight f4 [128, 149]
0	0x3d7c6412	0.061618872
1	0x3f6abbb9	0.9169269
2	0xbec7bd7a	-0.39011747
3	0xbd8758fb	-0.066087686
4	0x3f3d405b	0.73926324
5	0x3e24ba75	0.16086753
6	0x3f24ace5	0.64326316
7	0x3e936dc7	0.2879469
8	0xbf033f22	-0.5126821
9	0x3f208106	0.62696874
10	0x3dd56cb7	0.10421126
11	0x3f41b780	0.75670624
12	0xbeb45f10	-0.35228777
13	0xbd7774a5	-0.060413975
14	0x3f077677	0.5291514
15	0xbc2be1f7	-0.010490886
16	0x3dd4a078	0.103821695
17	0x3ef10c51	0.4707971
18	0xbf99e0e3	-1.2021755
19	0x3f3f11c8	0.7463651
20	0x3e181ccf	0.1485474
21	0x3f38e6a5	0.72226936
22	0xbf05ccc2	-0.5226556
23	0xbe14ebdb	-0.14543097
24	0x3e6c03cb	0.23048322
25	0x39d8d703	0.00041358927
26	0x3e01dceb	0.1268193
27	0x3fa35b33	1.2762207
28	0xbd994c1e	-0.07485221
29	0x3f80057c	1.0001674
30	0xbdb2dd94	-0.08733669
31	0x3f13ee32	0.5778533
32	0xbec0f6af	-0.37688205
33	0xbe29af13	-0.16570692
34	0x3e822c25	0.25424305
35	0x3dacccd8	0.08437508
36	0x3eae1a55	0.34004465
37	0x3f1bff7d	0.6093672
38	0xbdb38622	-0.08765818
39	0xbc732b3f	-0.014841854
40	0xbcb6033c	-0.02221834
41	0x3eaa97ea	0.33319026
42	0x3f67a744	0.904896
43	0xbe0b0afe	-0.13578412
44	0xbf10a103	-0.56495684
45	0xbc9fe0cd	-0.019516373
46	0x3ee29678	0.44255424
47	0x3ec676d3	0.3876253
48	0x3da7744c	0.08176479
49	0x3e91f7d7	0.285094
50	0xbcb1e4a3	-0.021715468
51	0x3eab1d29	0.33420685
52	0x3ee9e531	0.45682672
53	0xbb68618f	-0.003545854
54	0xbf01d211	-0.5071116
55	0x3e05b6ab	0.13057964
56	0x3e6ee680	0.23330116
57	0x3be5a84f	0.0070085893
58	0xbda76435	-0.0817341
59	0x3ecea00e	0.40356487
60	0x3c82d453	0.015970385
61	0x3f299881	0.6624833
62	0xbefaad9a	-0.48960572
63	0x3dedbee2	0.11608674
64	0xbe2e9d47	-0.17052184
65	0x3d2e48a7	0.042549755
66	0x3ea79847	0.32733366
67	0x3d917a8d	0.07103453
68	0x3d69bce8	0.05706492
69	0x3f080e63	0.5314695
70	0x3dc08455	0.0940024
71	0xbedcba95	-0.431111
72	0x3e1e90f8	0.15484989
73	0xbd5f1759	-0.054465625
74	0x3e87e286	0.2654001
75	0xbdf93683	-0.121686004
76	0x3e0a73a0	0.1352067
77	0xbd5e1cfa	-0.054226853
78	0xbeacb414	-0.3373114
79	0x3f12b820	0.573122
80	0x3d179c45	0.037014265
81	0x3f6bf814	0.9217541
82	0xbee23693	-0.44182262
83	0xbf26c2eb	-0.6514117
84	0xbe7044e0	-0.23463774
85	0xbd4e069d	-0.050299276
86	0x3d9a85f2	0.07545079
87	0xbed95e42	-0.42454726
88	0x3e2455e8	0.16048396
89	0x3ed00652	0.40629822
90	0xbc4b3379	-0.012402409
91	0x3ed17c95	0.4091536
92	0x3f2285f0	0.6348562
93	0xbf7b091e	-0.98060787
94	0xbeb76d4c	-0.35825574
95	0xbd1752e7	-0.036944296
96	0xbe37832c	-0.17921132
97	0x3eefcfcb	0.4683822
98	0x3f7c5189	0.9856191
99	0x3f5afb0d	0.85539323
100	0xbda5ad2a	-0.08089669
101	0x3e7d70c1	0.24750043
102	0xbe2d157a	-0.16902724
103	0x3d4a3c80	0.049374104
104	0xbe96b002	-0.29431158
105	0x3c74d3c2	0.014943065
106	0x3f158c11	0.5841685
107	0x3f4a7a78	0.7909312
108	0x3be2ac7d	0.006917535
109	0x3d439930	0.047753513
110	0xbc8c3a92	-0.017117772
111	0x3f41d570	0.75716305
112	0x3ede5447	0.43423674
113	0x3db9bdfd	0.090694405
114	0xbe3c2d16	-0.18376574
115	0xbde2b2be	-0.110692486
116	0x3f3c82f9	0.7363735
117	0xbe75b0a4	-0.23993164
118	0xbdce8269	-0.100834675
119	0x3f085ed6	0.5326971
120	0xbdd2204f	-0.102600686
121	0xbcc3cf7e	-0.02390265
122	0x3f78a1cf	0.971219
123	0xbd411d92	-0.04714734
124	0xbdddba00	-0.10826492
125	0x3db829b0	0.08992326
126	0x3eac632b	0.3366941
127	0x3f47cadb	0.7804391
128	0xbdca7cde	-0.09887098
129	0x3f057ae8	0.52140665
130	0xbcb5e892	-0.022205625
131	0x3f66fa2d	0.9022549
132	0x3f00f134	0.50368047
133	0x3d2aa374	0.041659787
134	0xbe8da78d	-0.27666894
135	0x3cd5fddb	0.026122024
136	0xbe0412ba	-0.12897769
137	0x3f86bed8	1.0526991
138	0xbc7ef8e4	-0.01556227
139	0x3f205ab2	0.6263839
140	0x3f8b5a27	1.0886887
141	0x3dc2499f	0.09486698
142	0xbd50eb8c	-0.051005885
143	0x3f877865	1.0583616
144	0x3ebfd849	0.374697
145	0x3d805268	0.06265718
146	0x3f456316	0.7710432
147	0x3db73940	0.089464664
148	0x39e95ecf	0.0004451186
149	0x3d455537	0.04817697
150	0xbd6b9574	-0.057515576
151	0xbee98690	-0.45610476
152	0x3d671325	0.056414742
153	0xbf4c8461	-0.79889494
154	0x3db5ead8	0.088826835
155	0xbed302c7	-0.41213056
156	0xbf4aba8c	-0.791909
157	0x3eb49f4f	0.35277793
158	0xbf14dfba	-0.5815388
159	0x3bd7d87d	0.0065870867
160	0xbe0b7f5d	-0.13622804
161	0xbe80f134	-0.25184023
162	0xbd0a6941	-0.033791784
163	0xbf36f626	-0.7146934
164	0xbc083c9e	-0.0083152335
165	0xbe6fc12b	-0.23413531
166	0xbf02c961	-0.5108853
167	0x3ddc05f0	0.1074332
168	0xbf3898d9	-0.72108227
169	0x3df73f6d	0.120726444
170	0xbe4ab5a7	-0.19795857
171	0x3de4c777	0.111708574
172	0x3e83959a	0.25700074
173	0xbf0a2b4f	-0.53972334
174	0xbd6273d6	-0.05528625
175	0xbe8f6b33	-0.28011474
176	0xbf017c0f	-0.50579923
177	0xbdc86ab3	-0.09785976
178	0xbf311399	-0.6917053
179	0x3d76895e	0.060189597
180	0xbdf11b7b	-0.117728196
181	0x3ef0fc58	0.47067523
182	0xbe251cd9	-0.16124286
183	0xbef26a2f	-0.47346637
184	0xbcf96826	-0.03044517
185	0xbe44dca9	-0.192248
186	0x3e48c0f4	0.19604856
187	0xbdc89f51	-0.09796012
188	0xbf1d926e	-0.6155156
189	0xbe0836fb	-0.13302223
190	0xbeca5afe	-0.39522547
191	0x3f10eabe	0.5660819
192	0x3d6588c1	0.05603862
193	0xbf283b45	-0.6571544
194	0xbd071a17	-0.032983866
195	0xbe9c02c6	-0.30470866
196	0xbcbe57fc	-0.023235314
197	0xbda38928	-0.07985145
198	0xbe81ac04	-0.2532655
199	0xbcd6e754	-0.026233353
200	0xbef866b3	-0.48515853
201	0x3f68a9b8	0.9088397
202	0xbcaa92d9	-0.020821976
203	0xbe9ee505	-0.31034103
204	0x3da5b4f5	0.080911554
205	0xbebb3606	-0.36564654
206	0x3f17920a	0.5920721
207	0xbd020557	-0.031743374
208	0xbf16356c	-0.58675265
209	0x3d162927	0.03666034
210	0xbdd3f695	-0.10349766
211	0x3f3a9463	0.7288267
212	0xbe0f72c1	-0.14008619
213	0xbedff3bf	-0.4374065
214	0x3d7ba7a4	0.06143917
215	0xbecc4f25	-0.39904132
216	0xbee30515	-0.44339815
217	0xbd500ffe	-0.0507965
218	0xbf08d44a	-0.5344893
219	0xbd4e6d64	-0.05039729
220	0xbf51bc3a	-0.81927836
221	0x3e8ad10a	0.2711261
222	0xbe9a4d3a	-0.30137044
223	0xbe9b3d6d	-0.30320302
224	0xbc9d75e9	-0.019221263
225	0xbf5870aa	-0.8454691
226	0xbf15e43b	-0.5855138
227	0xbd8a99e1	-0.06767631
228	0xbedc33ea	-0.43008357
229	0x3decc74e	0.11561452
230	0xbeeddf3c	-0.46459377
231	0x3f31fe9a	0.69529116
232	0xbe899e3a	-0.2687853
233	0xbeb242f2	-0.348167
234	0xbc9a8243	-0.018860942
235	0xbf24d21f	-0.6438312
236	0xbef79ab4	-0.48360217
237	0x3c8563d1	0.016282948
238	0xbedcb973	-0.43110237
239	0x3d3b1ef3	0.045683812
240	0xbf095236	-0.5364107
241	0x3f10e8cd	0.56605226
242	0xbed497b1	-0.4152198
243	0xbe7d5d00	-0.24742508
244	0xba794133	-0.00095083116
245	0xbf3f611f	-0.7475757
246	0xbeaad8a9	-0.33368424
247	0x3e84fcf3	0.25974235
248	0xbf16eb12	-0.5895244
249	0xbdc94ef8	-0.09829515
250	0xbf2aa3b0	-0.6665602
251	0x3eabddf0	0.33567762
252	0xbef88ec9	-0.48546436
253	0xbee7a73a	-0.4524477
254	0xbd5b9493	-0.05360849
255	0xbea9b134	-0.33143008

network_body._body_endoder.seq_layers.0.bias f4 [128]
0	0x3ef99169	0.48743752
1	0xbebbc738	-0.3667543
2	0x3f366ef3	0.71263045
3	0x3e6c194b	0.23056524
4	0xbf0cb540	-0.54964066
5	0xbf006a69	-0.5016237
6	0xbe5172a5	-0.2045389
7	0xbf06e933	-0.52699584
8	0xbe5e9113	-0.21735029
9	0xbeedac8f	-0.46420714
10	0x3f87b937	1.0603398
11	0xbf0e1f32	-0.5551635
12	0xbf0118f9	-0.5042873
13	0xbe0e5125	-0.13898142
14	0x3e9d2b68	0.3069718
15	0xbf0f31a1	-0.559351
16	0xbf16dab9	-0.58927494
17	0xbf2ab7c4	-0.66686654
18	0xbf1ad800	-0.6048584
19	0xbf0c8685	-0.5489276
20	0xbf05cb64	-0.52263474
21	0xbe7e9c40	-0.24864292
22	0xbef0c185	-0.47022644
23	0xbf419b5d	-0.7562769
24	0xbf212f84	-0.6296313
25	0xbee520de	-0.44751638
26	0xbf1b7b8b	-0.60735387
27	0xbf0c354d	-0.5476883
28	0xbf12572e	-0.57164276
29	0xbf040e71	-0.51584536
30	0xbf0f4c32	-0.5597564
31	0x3f47b9ad	0.78017694
32	0xbed69057	-0.41906998
33	0xbf357039	-0.70874363
34	0xbf0ada7d	-0.54239637
35	0xbefb13b0	-0.49038458
36	0xbf1110fc	-0.5666654
37	0xbf2751bd	-0.653591
38	0xbf179ce7	-0.5922379
39	0x3ee7826a	0.45216686
40	0xbeb53fa3	-0.35400113
41	0xbeee3f36	-0.465326
42	0x3f2c0412	0.6719371
43	0xbdcd4453	-0.100227974
44	0xbf81ea02	-1.0149539
45	0xbf2877cb	-0.6580779
46	0xbf244c85	-0.6417926
47	0xbe84e02a	-0.25952274
48	0xbef8bccc	-0.4858154
49	0xbf090d72	-0.5353614
50	0xbf127a0b	-0.5721747
51	0xbf317202	-0.6931459
52	0xbf3b043c	-0.73053336
53	0xbde6b6f9	-0.11265368
54	0xbeea2a6f	-0.457355
55	0xbf2c208e	-0.67237175
56	0x3f783c15	0.9696668
57	0xbed71f15	-0.420159
58	0xbed879b7	-0.4228036
59	0xbf2958dd	-0.6615122
60	0xbf2512a4	-0.6448157
61	0xbf004b53	-0.50114936
62	0xbedf799f	-0.43647477
63	0xbf2ba81f	-0.6705341
64	0xbed9a6f7	-0.42510197
65	0xbf0fd0d8	-0.56178045
66	0xbf375bbf	-0.7162437
67	0xbe8b4afe	-0.27205652
68	0xbf147907	-0.57997173
69	0x3ec380de	0.38184255
70	0xbf297ff6	-0.6621088
71	0xbe9290c4	-0.28626072
72	0xbef2ea94	-0.47444594
73	0xbedd2a0b	-0.4319614
74	0xbef36d0b	-0.4754413
75	0x3f36c5d8	0.71395636
76	0x3fb5a1a5	1.4189955
77	0xbf028bee	-0.50994766
78	0xbf05ffc0	-0.5234337
79	0xbef895c2	-0.48551756
80	0xbdaa222b	-0.08307298
81	0xbee3b9b6	-0.44477624
82	0xbf2e1014	-0.67993283
83	0x3de0cea5	0.10976914
84	0xbedb3d0e	-0.4282002
85	0xbe7811c8	-0.24225533
86	0x3f55a9f6	0.83462465
87	0xbe03a2eb	-0.12855117
88	0x3e5c0ea7	0.21489964
89	0xbf27b1b0	-0.65505505
90	0xbf2a26a1	-0.66465193
91	0x3f829b0a	1.0203564
92	0xbf2ac078	-0.66699934
93	0xbf16070c	-0.586045
94	0xbf132e54	-0.57492566
95	0xbee2f785	-0.44329467
96	0xbf1ba22a	-0.6079432
97	0xbf140e74	-0.57834554
98	0xbe446dd1	-0.19182517
99	0xbf087480	-0.53302765
100	0xbf0072f4	-0.50175405
101	0xbeb776be	-0.3583278
102	0xbe88ee5d	-0.26744357
103	0xbf0fc3a3	-0.5615789
104	0xbf183e18	-0.5946975
105	0xbef303df	-0.4746389
106	0xbf1281e7	-0.57229465
107	0xbf035385	-0.51299316
108	0xbeb2da7f	-0.34932324
109	0xbeac8d36	-0.33701485
110	0xbf1e3ab3	-0.6180832
111	0xbf2c097c	-0.6720197
112	0xbebf2684	-0.37334073
113	0x3f71b90d	0.9442299
114	0xbf0f35f1	-0.55941683
115	0xbdfadcbc	-0.12249133
116	0xbf08668f	-0.5328149
117	0xbea7089a	-0.3262375
118	0xbf006cc6	-0.50165975
119	0xbf2bc8fc	-0.6710355
120	0xbf450c32	-0.76971734
121	0xbedd03a3	-0.43166837
122	0x3ee191e4	0.44056618
123	0xbf283f4d	-0.6572159
124	0xbf09b2b9	-0.53788334
125	0xbf0868c1	-0.5328484
126	0xbec26b5e	-0.3797254
127	0x3f6ec535	0.93269664

network_body._body_endoder.seq_layers.2.weight f4 [128, 128]
0	0xbdf64790	-0.12025368
1	0x3dffe2ab	0.12494405
2	0xbdca5795	-0.09879986
3	0xbe965d5b	-0.293681
4	0x3e8182c4	0.2529508
5	0xbe706ada	-0.2347826
6	0x3ecd32cd	0.4007782
7	0xbd1e06af	-0.038580593
8	0xbe9e0e2c	-0.30870187
9	0xbdcd73af	-0.100318305
10	0xbecbf327	-0.39833948
11	0xbea0ac74	-0.3138157
12	0xbe641b87	-0.22276126
13	0xbf20b58d	-0.62777025
14	0x3e4024c0	0.18764019
15	0x3ebe9d64	0.37229455
16	0xbe15739d	-0.14594884
17	0xbc270dd8	-0.010196172
18	0x3cb99310	0.022653133
19	0xbf05336c	-0.5203159
20	0xbde7eabf	-0.11324071
21	0xbeb7591e	-0.3581018
22	0x3e4a7af4	0.19773465
23	0x3d3ca841	0.046058897
24	0xbe123654	-0.14278537
25	0xbf1772d9	-0.5915962
26	0x3dd9d78f	0.10636818
27	0x3d83447a	0.06409545
28	0x3d8e7a9a	0.06956978
29	0xbedeb906	-0.43500537
30	0xbe86c41c	-0.26321495
31	0x3e8601d1	0.2617326
32	0x3db76c81	0.08956242
33	0x3dfb2b04	0.12264064
34	0xbe69063c	-0.22756284
35	0xbdbc2460	-0.091866255
36	0xbeb3ce04	-0.35118115
37	0xbe420898	-0.18948591
38	0xbe06e26f	-0.13172315
39	0x3e87420a	0.2641757
40	0x3e3fad26	0.18718395
41	0xbe6810bf	-0.22662638
42	0x3d52b8b7	0.05144569
43	0x3e1c2530	0.15248561
44	0xbebfe21c	-0.37477195
45	0xbdc69b52	-0.09697594
46	0x3e5a636a	0.21326986
47	0xbbf665fa	-0.007519481
48	0xbd5ceac8	-0.053934842
49	0xbda447d5	-0.080215134
50	0xbdf581b7	-0.11987632
51	0xbe274f9a	-0.1633896
52	0xbd968102	-0.07348825
53	0x3f06d0cd	0.52662355
54	0xbe01d828	-0.12680113
55	0x3f295961	0.66152006
56	0xbe27f9bf	-0.16403864
57	0x3e947b63	0.29000387
58	0x3e7589b8	0.23978317
59	0x3e174aee	0.14774677
60	0x3da23c9a	0.07921715
61	0x3f6e1667	0.93002933
62	0x3e0a06f1	0.1347921
63	0x3eec0bd3	0.4610277
64	0xbcdfa2ee	-0.02729937
65	0xbd6f1619	-0.058370683
66	0xbdd69aa2	-0.104787126
67	0xbe5346c4	-0.20632464
68	0xbe904f0f	-0.28185317
69	0xbee1109a	-0.43957978
70	0xbf104003	-0.56347674
71	0x3ec8de9d	0.3923234
72	0x3e1f02f8	0.15528476
73	0xbdb1f4e2	-0.08689286
74	0x3ea30b9c	0.31844795
75	0xbe9aaf6d	-0.30211964
76	0xbd8d4249	-0.068974085
77	0x3c93edb1	0.018057676
78	0x3f371836	0.7152132
79	0x3e323410	0.17402673
80	0xbee59bc8	-0.44845414
81	0x3ddc9e5d	0.10772393
82	0xbb27ed36	-0.0025623566
83	0x3f00a060	0.5024471
84	0x3ec56324	0.385522
85	0x3e0e75a4	0.13912064
86	0xbed09a31	-0.4074264
87	0xbd78fc5a	-0.060787536
88	0x3f35d578	0.7102885
89	0xbe9aa286	-0.3020212
90	0xbdb1c3cf	-0.08679926
91	0x3f789dfb	0.9711606
92	0xbdf2ca92	-0.118550435
93	0x3bff184a	0.007784878
94	0xbe86f4d2	-0.26358658
95	0xbe5a2cff	-0.21306227
96	0x3eb441ab	0.3520635
97	0x3ec285ec	0.379928
98	0x3d55caaf	0.052195247
99	0xbd013a81	-0.031549934
100	0x3e8bce92	0.27306038
101	0xbe4d9d2f	-0.20079492
102	0x3c952529	0.018206196
103	0x3da68c49	0.08132226
104	0x3e4a06b0	0.19729114
105	0xbd2f024f	-0.04272681
106	0x3ebfa338	0.37429214
107	0xbdbdf78b	-0.09275731
108	0xbe92361c	-0.28556907
109	0xbe168fee	-0.14703342
110	0xbd686c60	-0.05674398
111	0xbe0d3a6b	-0.13791816
112	0xbed5842e	-0.41702408
113	0xbee7cc08	-0.4527285
114	0xbe89bd1e	-0.26902097
115	0xbd445d81	-0.047940735
116	0x3ee0af32	0.43883663
117	0xbe509eef	-0.20373128
118	0xbec27548	-0.37980103
119	0xbed04fc3	-0.40685853
120	0xbde62488	-0.112374365
121	0x3dcbb451	0.09946502
122	0xbf239d11	-0.6391154
123	0xbf29eba2	-0.6637517
124	0xbe2c2b5a	-0.16813412
125	0x3e4270af	0.18988298
126	0x3e0fc570	0.1404016
127	0x3f50e688	0.8160176
128	0xbed3b308	-0.41347528
129	0xbdd0fb8e	-0.1020423
130	0x3e46262f	0.19350503
131	0x3ea8bb07	0.3295519
132	0x3dbaf01a	0.09127827
133	0xbea33a46	-0.31880397
134	0xbfb560b9	-1.4170142
135	0xbeb5b7eb	-0.3549188
136	0xbf3ceb26	-0.7379631
137	0xbe30a090	-0.1724875
138	0xbf45791d	-0.7713793
139	0xbe6eb16d	-0.2330987
140	0xbed55cb0	-0.41672277
141	0x3e3e0033	0.18554763
142	0xbed1e420	-0.40994358
143	0xbd99b305	-0.075048484
144	0xbb7f953e	-0.0038998867
145	0xbde06a8e	-0.10957824
146	0xbef595a4	-0.4796573
147	0xbebe2e23	-0.37144575
148	0xbec09dd2	-0.37620407
149	0xbee53849	-0.44769505
150	0x3d1438cf	0.03618699
151	0x3dfb38f9	0.12266726
152	0xbee5954a	-0.4484046
153	0xbf6a7add	-0.91593724
154	0x3e0877f3	0.13327007
155	0x3e712265	0.23548277
156	0xbcdde569	-0.02708693
157	0xbfa41431	-1.2818662
158	0x3caf1ce7	0.021376086
159	0xbf278f86	-0.65453374
160	0x3d141f6e	0.036162786
161	0xbd111774	-0.035422757
162	0xbeb3dd0f	-0.35129592
163	0xbe95d33e	-0.29262727
164	0x3c5d92aa	0.013523737
165	0xbdfc98f3	-0.1233386
166	0x39a487a7	0.00031381586
167	0x3e9f0e64	0.31065667
168	0x3e262eb3	0.16228752
169	0xbdf1b6ab	-0.11802419
170	0x3ecdca76	0.40193528
171	0x3d255a09	0.040369067
172	0xbe6cdd64	-0.23131329
173	0x3d7a5aa5	0.0611216
174	0xbe807098	-0.25085902
175	0xbe4f4841	-0.20242406
176	0xbebb591c	-0.36591423
177	0x3ebcd1fb	0.36878952
178	0xbd35e523	-0.044407975
179	0xbd405132	-0.046952434
180	0x3cc63b18	0.0241981
181	0xbd15a5d6	-0.036535107
182	0xbe1dde8f	-0.1541693
183	0x3e9689c1	0.29401973
184	0x3f4a42ec	0.79008365
185	0xbece14e4	-0.40250313
186	0xbf214c84	-0.6300738
187	0x3c800b82	0.015630487
188	0x3b89a473	0.004200512
189	0xbe14ba6f	-0.14524244
190	0xbe8deeb0	-0.27721167
191	0x3c0bb4b0	0.008526966
192	0x3df9dc93	0.12200274
193	0xbea39624	-0.31950486
194	0xbed825df	-0.42216393
195	0x3edcc28c	0.43117177
196	0xbcc4607b	-0.023971787
197	0x3eaf4d13	0.3423849
198	0x3e84be36	0.2592637
199	0xbe5e3ce9	-0.21702923
200	0xbd824a62	-0.06361844
201	0xbe102bf7	-0.14079271
202	0xbe5fa5c7	-0.21840583
203	0xbf8243c5	-1.0176932
204	0x3f3bf49f	0.7342014
205	0xbf7c660d	-0.9859322
206	0xbedcb721	-0.43108466
207	0x3eb5341b	0.35391316
208	0x3dbaa1c5	0.09112886
209	0x3d99d89c	0.07512018
210	0x3e24cab8	0.16092956
211	0xbf8dba05	-1.1072394
212	0x3de62ee1	0.1123941
213	0xbdd96a52	-0.10615982
214	0xbf16f697	-0.58970016
215	0x3ec0987a	0.3761633
216	0xbf9d171b	-1.2272676
217	0x3e3c81dc	0.18408912
218	0x3d93ab1c	0.07210371
219	0x3e3cdee3	0.184444
220	0x3d90500f	0.0704652
221	0xbe2b1d4b	-0.16710393
222	0xbe3fec90	-0.18742585
223	0xbe24a102	-0.16077045
224	0xbee602db	-0.44924054
225	0xbe3c8131	-0.18408658
226	0xbf8bea87	-1.0930947
227	0xbdab2e66	-0.08358459
228	0x3e8e4974	0.27790415
229	0xbf083bb9	-0.5321613
230	0xbf6b48b9	-0.9190784
231	0xbea7d3ee	-0.32778877
232	0x3e22c16b	0.15894096
233	0xbede5659	-0.43425253
234	0xbeccec25	-0.40023914
235	0xbd18dd65	-0.037320513
236	0xbed44c0f	-0.41464278
237	0xbec003b2	-0.3750282
238	0x3dc7c0b1	0.0975355
239	0xbe7acfce	-0.24493334
240	0xbe4a4081	-0.19751169
241	0x3eda9a59	0.42695883
242	0xbddc65a0	-0.10761571
243	0xbf9840e8	-1.1894808
244	0xbf9f21ef	-1.2432231
245	0xbd3c5615	-0.04598053
246	0xbe8e55e1	-0.27799895
247	0xbd15b06e	-0.03654521
248	0xbf58a178	-0.8462138
249	0xbf44024b	-0.76566
250	0xbf95bbd6	-1.1697948
251	0x3e3b60d9	0.18298663
252	0x3e5364cc	0.2064392
253	0xbd80686c	-0.06269917
254	0x3e32a95d	0.1744742
255	0x3e954dad	0.29160824

network_body._body_endoder.seq_layers.2.bias f4 [128]
0	0x3f186e74	0.5954354
1	0x3eca3be4	0.39498818
2	0x3f49641e	0.7866839
3	0x3eac072a	0.33599216
4	0xbed03aea	-0.40669948
5	0x3f93d1a5	1.1548353
6	0xbf1b23ef	-0.60601705
7	0xbeae33dd	-0.34023944
8	0xbdc6d82b	-0.097091995
9	0xbef4514d	-0.47718278
10	0xbf23dc12	-0.64007676
11	0xbebc7c6a	-0.3681367
12	0xbf0a67ec	-0.5406482
13	0xbfb9da5b	-1.4519762
14	0xbef5cbb8	-0.48006988
15	0x3f234b91	0.6378718
16	0xbf3b76c3	-0.7322809
17	0x3edf25cd	0.43583527
18	0xbe66957c	-0.22517961
19	0x3d8bc6e9	0.068250485
20	0xbec17290	-0.37782717
21	0xbf1fa4c9	-0.6236082
22	0xbf5079f6	-0.814361
23	0xbebd2d3f	-0.36948583
24	0xbf04d555	-0.5188802
25	0x3e5048f0	0.20340323
26	0xbef3c5e0	-0.47611904
27	0x3fb85982	1.4402316
28	0xbea26f4a	-0.31725532
29	0xbef11cb9	-0.47092226
30	0xbe6258d9	-0.22104205
31	0xbf0bbc81	-0.5458451
32	0xbdaf647c	-0.08564088
33	0xbe928aa1	-0.2862139
34	0xbf016355	-0.50542194
35	0x3e78df10	0.24303842
36	0xbe81747b	-0.2528418
37	0xbf3d0f43	-0.7385141
38	0xbf1b87ea	-0.60754263
39	0xbcac2219	-0.021012353
40	0x3da8ad56	0.08236186
41	0xbe780a9b	-0.24222796
42	0xbecb7cf8	-0.3974378
43	0xbec278d3	-0.37982807
44	0xbd9d3f60	-0.076781034
45	0x3eb450f2	0.35218006
46	0xbf2cfb6d	-0.67571145
47	0xbf273249	-0.65311104
48	0x3fb51f2a	1.4150136
49	0x3f2635a2	0.6492559
50	0xbf09c6a3	-0.5381872
51	0xbf36226d	-0.7114628
52	0xbf28ca28	-0.65933466
53	0x3e82ef35	0.25573125
54	0xbec9fc68	-0.39450383
55	0xbf379f5a	-0.71727526
56	0xbf681c7c	-0.90668464
57	0xbf0818a7	-0.53162616
58	0xbf520aaa	-0.8204752
59	0x3e475470	0.19465804
60	0xbf257e1d	-0.6464556
61	0xbea8b0f5	-0.32947508
62	0xbf2f64b6	-0.6851305
63	0xbefffa79	-0.49995783
64	0xbe8e7802	-0.27825934
65	0xbeaf2096	-0.3420455
66	0xbeea5e51	-0.45775083
67	0xbe733cc6	-0.23753652
68	0xbf51ad4c	-0.81905055
69	0xbdc00ef3	-0.09377851
70	0x3f3f0c80	0.7462845
71	0xbf47bc77	-0.7802195
72	0xbf1bac88	-0.60810137
73	0xbe947ed9	-0.29003027
74	0xbebab095	-0.36462846
75	0xbe61da16	-0.2205585
76	0x3f5027de	0.8131083
77	0x3f6c4132	0.9228698
78	0xbf245d4f	-0.6420488
79	0xbe2d1b14	-0.1690486
80	0xbeb63a4a	-0.35591346
81	0x3f3a35e3	0.72738475
82	0xbf23f80a	-0.6405035
83	0xbf2186c8	-0.63096285
84	0xbd1833c8	-0.037158757
85	0xbec70fa7	-0.3887913
86	0xbebfeed4	-0.374869
87	0xbd9835d9	-0.074321456
88	0x3f02fbe7	0.5116562
89	0xbd8b132d	-0.06790767
90	0xbea87739	-0.3290346
91	0xbe168ec9	-0.14702906
92	0x3f925962	1.1433527
93	0xbe8e7410	-0.27822924
94	0xbf2d6f93	-0.67748374
95	0xbe551443	-0.2080851
96	0x3ed4e6ba	0.4158228
97	0xbe18fc05	-0.14939888
98	0xbebf7acc	-0.37398374
99	0x3f2616cb	0.6487853
100	0xbdb058f2	-0.08610715
101	0x3c548b7c	0.012972709
102	0xbe7d0b5b	-0.24711363
103	0x3ee826c9	0.4534209
104	0xbf13f85a	-0.5780083
105	0xbea513c4	-0.32241642
106	0xbd6b8ed7	-0.05750927
107	0x3ee26e87	0.4422495
108	0xbed8d22b	-0.42347845
109	0xbf5f1b9a	-0.8715149
110	0xbf6042ce	-0.87601936
111	0x3ee7faec	0.45308626
112	0xbed9b490	-0.4252057
113	0x3d72d258	0.05928263
114	0xbe2fa109	-0.17151274
115	0xbecd61e4	-0.40113747
116	0xbe9b4f0e	-0.3033375
117	0xbebdd968	-0.3707993
118	0x3f4e341a	0.8054825
119	0x3efd257f	0.4944267
120	0xbc8631ee	-0.01638123
121	0xbf2a62b0	-0.66556835
122	0xbf150343	-0.582081
123	0xbe0f511b	-0.13995783
124	0xbea088e2	-0.31354433
125	0xbe682ecd	-0.22674103
126	0x3e11a2d6	0.14222273
127	0x3eb1d54e	0.3473305

network_body._body_endoder.seq_layers.4.weight f4 [128, 128]
0	0xbb890f03	-0.0041826977
1	0xbcf93b3b	-0.030423751
2	0x3e51a99b	0.20474856
3	0x3dbd1af4	0.092336565
4	0x3dff92f2	0.124791995
5	0x3a7c06f0	0.0009614071
6	0x3d720b38	0.05909273
7	0xbe51f657	-0.20504127
8	0xbda99139	-0.08279652
9	0xbd36d7e6	-0.04463949
10	0xbb7f90c5	-0.0038996201
11	0xbd55f1f3	-0.052232694
12	0xbd8bd07f	-0.06826877
13	0x3c9c325a	0.019066978
14	0x3d74137d	0.059588898
15	0xbd3f542a	-0.046711124
16	0x3da76a0b	0.08174523
17	0x3d67b940	0.056573153
18	0xbdae7812	-0.08518995
19	0xbdb7df0e	-0.08978091
20	0x3d19adb1	0.03751916
21	0xbd693bf5	-0.056941945
22	0xbd21f213	-0.0395375
23	0x3dfbe1b4	0.12298909
24	0x3db7b85a	0.08970709
25	0x3c6e2d3c	0.014537152
26	0x3d838c20	0.06423211
27	0x3c98b7e1	0.018642368
28	0xbcd6fb97	-0.026243014
29	0xbe641d9a	-0.22276917
30	0x3de9926a	0.114048794
31	0x3e04233b	0.12904064
32	0xbbc29ecc	-0.00593934
33	0xbe06b417	-0.13154636
34	0xbe42c50a	-0.19020477
35	0xbd239e1c	-0.039945707
36	0xbd997d79	-0.07494635
37	0xbd903415	-0.07041184
38	0xbd45aec3	-0.04826237
39	0x3d7c6410	0.061618865
40	0x3a55354c	0.0008133247
41	0xbdf9930a	-0.121862486
42	0x3cccb960	0.024990737
43	0x3dc97c53	0.09838166
44	0x3d88520b	0.066562735
45	0x3d033862	0.032036193
46	0xbe27f771	-0.16402985
47	0x3da40fe4	0.080108434
48	0x3d0c68b8	0.034279555
49	0x3d6936a8	0.05693689
50	0xbca28547	-0.019838942
51	0x3dc56f4f	0.09640371
52	0xbd5fc0d0	-0.05462724
53	0xbd764f80	-0.06013441
54	0xbdba1b0a	-0.090871885
55	0x3c10d64e	0.008840157
56	0xbdb1f640	-0.086895466
57	0xbcd3ddec	-0.025862657
58	0x3d839871	0.0642556
59	0xbdfb2ef5	-0.12264816
60	0x3cd121b3	0.025528764
61	0xbbc22a4c	-0.0059254523
62	0x3b323149	0.002719002
63	0xbd958dc6	-0.07302432
64	0x3c5d15bd	0.013493952
65	0x3db6cd44	0.0892587
66	0xbdc05e51	-0.093929894
67	0x3e2db991	0.16965319
68	0xbd894e42	-0.067043796
69	0x3bcd8688	0.006272141
70	0xbd101e32	-0.035185046
71	0x3dba00f0	0.0908221
72	0xbc34e33f	-0.011040508
73	0xbdc3e2a6	-0.09564714
74	0x3c57798c	0.013151538
75	0xbe2244b7	-0.15846525
76	0x3d1476ba	0.03624604
77	0x3b41fc82	0.002959997
78	0xbdbcbc21	-0.0921557
79	0x3df9d102	0.12198068
80	0xbd2cdba6	-0.04220166
81	0x3dc0b809	0.09410102
82	0xbd127d83	-0.03576423
83	0xbe24f78a	-0.16110054
84	0x3d762657	0.060095157
85	0x3b903563	0.0044008954
86	0xbd41145f	-0.047138568
87	0xbe04f6ea	-0.12984815
88	0x3d9330ec	0.071870655
89	0x3e22ef5e	0.15911624
90	0x3dbbe889	0.09175212
91	0xbcf2be5c	-0.029631786
92	0xbdbc4322	-0.09192492
93	0x3d6869ea	0.056741633
94	0xbd64cce9	-0.05585948
95	0xbdf146af	-0.1178106
96	0xbc15e62f	-0.009149118
97	0x3d425378	0.047442883
98	0xbdcb61cd	-0.099307634
99	0xbdaeee8a	-0.085415915
100	0x3d7e68ba	0.062111594
101	0x3c7b180b	0.0153255565
102	0x3dee1743	0.116255306
103	0x3e0f86d8	0.14016283
104	0xbe0bdbc4	-0.13658053
105	0x3c9f2bb1	0.019430013
106	0x3def5a90	0.11687195
107	0x3dd2b234	0.10287896
108	0xbdf4758c	-0.11936483
109	0x3d7f51f0	0.062334
110	0x3da81d7f	0.08208751
111	0xbe3b45bd	-0.18288322
112	0xbcc01da7	-0.02345164
113	0xbdc7fd00	-0.09765053
114	0x3cb5fa9c	0.022214226
115	0xbd3fae6e	-0.04679721
116	0xbca174a3	-0.019708937
117	0x3d958afb	0.07301899
118	0xbc1747d3	-0.009233433
119	0xbd868cb5	-0.065698065
120	0x3d178d32	0.03699989
121	0xbce48d3c	-0.027899377
122	0x3d7c38f4	0.061577752
123	0x3d9b7533	0.07590713
124	0x3df0810a	0.11743362
125	0xbe605894	-0.2190879
126	0xbbe82645	-0.00708464
127	0xbd850eeb	-0.06496986
128	0xbd847bf6	-0.06468956
129	0xbd96bb11	-0.07359899
130	0x3e00468b	0.1252691
131	0xbd2bf62b	-0.04198281
132	0x3ccc7a71	0.024960728
133	0xbcbd0ed8	-0.023078367
134	0xbdafc772	-0.08582963
135	0xbe02a88b	-0.12759607
136	0x3e8fc784	0.28081906
137	0xbafcba83	-0.0019281659
138	0xbe46a198	-0.1939758
139	0x3d9cd215	0.076572575
140	0xbd3504a4	-0.04419388
141	0x3dbf7eb2	0.09350337
142	0x3ddf9d93	0.10918727
143	0x3d04ad39	0.03239176
144	0xbd9fa3cf	-0.07794916
145	0xbb8b6cd6	-0.0042549176
146	0x3d536038	0.051605433
147	0x3c54b34e	0.012982203
148	0xbbb0df24	-0.005397694
149	0xbe0903dc	-0.13380378
150	0xbe55b230	-0.20868754
151	0x3d118f0d	0.035536814
152	0x3d86b6bd	0.06577823
153	0x3d1237fe	0.03569793
154	0xbcff22b8	-0.031144485
155	0xbe4f9e69	-0.20275272
156	0x3e613bce	0.2199547
157	0x3c9a8e3d	0.018866653
158	0x3d346f1a	0.044051267
159	0xbdaad8c1	-0.08342124
160	0x3da851b0	0.08218706
161	0xbdce5dae	-0.10076462
162	0xbc784ad9	-0.015154564
163	0xbdbca26e	-0.092106685
164	0x3dffa3b8	0.12482399
165	0xbc7448ed	-0.014909965
166	0x3e11934b	0.14216344
167	0xbdae761a	-0.0851862
168	0x3dffe72b	0.12495264
169	0x3e181b7f	0.14854239
170	0xbb31a977	-0.0027109066
171	0xbd1deb0a	-0.03855423
172	0x3dbdab07	0.092611365
173	0xbe37f195	-0.1796325
174	0x3d195e77	0.037443604
175	0x3e4a10de	0.19732997
176	0xbdaf27a6	-0.08552484
177	0xbce6fb43	-0.028195983
178	0x3dadcbae	0.084861144
179	0x3e54b8ce	0.20773622
180	0xbe1a905d	-0.15094133
181	0xbdc6a1db	-0.0969884
182	0x3e23fe70	0.16015029
183	0x3d4e64f9	0.050389264
184	0xbd0d61e0	-0.03451717
185	0xbe9dc173	-0.30811653
186	0xbdcb6804	-0.09931949
187	0xbd494306	-0.049136184
188	0x3c0aa3d1	0.008461908
189	0x3e004b9f	0.12528847
190	0x3d96bc16	0.07360093
191	0x3e09acc6	0.13444814
192	0x3c0225c6	0.007943576
193	0xbdb685f1	-0.08912266
194	0xbd728e51	-0.059217755
195	0x3e050a6d	0.12992258
196	0x3d95ca25	0.07313947
197	0x3db0fd4f	0.08642065
198	0xbd969989	-0.07353503
199	0xbde47f3f	-0.11157083
200	0x3dd47322	0.10373522
201	0x3df3ee68	0.11910707
202	0x3da0624c	0.07831249
203	0xbe0c15e6	-0.13680229
204	0x3d188141	0.03723264
205	0xbd3e1ff1	-0.04641718
206	0x3c365c41	0.0111303935
207	0x3d8055b0	0.062663436
208	0x3d4ff11e	0.050767057
209	0x3d7f7fd0	0.06237775
210	0x3d289685	0.04115917
211	0x3c04ba4b	0.008101056
212	0x3c9cc827	0.019138409
213	0xbc04da23	-0.0081086485
214	0xbd34bf24	-0.0441276
215	0xbc6ee606	-0.014581209
216	0x3e2c2641	0.16811468
217	0x3e2fd456	0.17170843
218	0xbd1cafd0	-0.038253605
219	0xbdadd416	-0.08487718
220	0x3d382b51	0.044963185
221	0xbd216dba	-0.039411284
222	0x3df4cb92	0.119528905
223	0xbdb2faec	-0.08739266
224	0x3cd5b5fa	0.02608775
225	0xbd9a0c1a	-0.075218394
226	0x3cafcae2	0.021459047
227	0x3e1077e2	0.14108232
228	0x3e3be805	0.18350227
229	0xbd45c256	-0.048281036
230	0x3d9d3707	0.07676511
231	0xbd8c8f10	-0.068632245
232	0xbcabef89	-0.020988243
233	0xbd50e444	-0.05099894
234	0x3e25cd9a	0.16191712
235	0xbdc3c585	-0.09559158
236	0xbe06d4b3	-0.13167076
237	0x3e0ecd7f	0.13945578
238	0x3e36aa45	0.1783839
239	0xbdf5b6c0	-0.119977474
240	0xbe16260c	-0.14662951
241	0xbdf055e1	-0.1173513
242	0xbe10fa19	-0.14157905
243	0x3dcdbb80	0.100455284
244	0xbc0e5830	-0.008688018
245	0x3e0f2be3	0.13981585
246	0x3e09a8df	0.13443325
247	0xbdd18001	-0.10229493
248	0xbd61e453	-0.055149388
249	0x3cea319c	0.028588109
250	0x3cdbe954	0.026844658
251	0x3dbceabc	0.092244595
252	0xbd746a9d	-0.059671987
253	0x3d18b207	0.037279155
254	0xbdb01d07	-0.085992865
255	0x3d5c13d6	0.053729855

network_body._body_endoder.seq_layers.4.bias f4 [128]
0	0xbd81464b	-0.063122354
1	0x9ef5ba64	-2.6017473e-20
2	0xbd3b99d7	-0.04580101
3	0xbb105a46	-0.0022026463
4	0x3d75531f	0.059893724
5	0x9c8c4928	-9.283333e-22
6	0x3d6b52b2	0.05745191
7	0x3d02df06	0.031950973
8	0x9e1834de	-8.057746e-21
9	0xbd0fc926	-0.03510394
10	0xb54a2acc	-7.531314e-07
11	0xb8fd3a39	-0.00012074825
12	0xbbcfa6c7	-0.00633702
13	0xbd72c16d	-0.059266496
14	0xbc124776	-0.00892817
15	0xbbbc2c88	-0.005742613
16	0x3d2dc990	0.042428553
17	0xbc80a28e	-0.015702512
18	0xbc40d8b3	-0.011770415
19	0x2595d57d	2.5992045e-16
20	0xbc454758	-0.012040935
21	0x3da082c2	0.0783744
22	0xbc23f9f9	-0.010008329
23	0xbd3507aa	-0.044196762
24	0x3d9c72d4	0.07639089
25	0x3daa3d1a	0.083124354
26	0xbc8261a8	-0.015915707
27	0x3d91aef1	0.071134456
28	0xbc0b3f2a	-0.008498946
29	0xbc837586	-0.01604725
30	0x9c286ffa	-5.5731263e-22
31	0x0fae0ff5	1.7163871e-29
32	0xbc97fa0a	-0.018551845
33	0x11235bdb	1.2886738e-28
34	0xbce92fec	-0.028465234
35	0x3cade1d6	0.021225851
36	0x3d0475e3	0.032338988
37	0x3daadcbc	0.08342883
38	0x96c9d041	-3.2604728e-25
39	0x3d759595	0.059957106
40	0xbc7bdf8d	-0.015373123
41	0xbc0fe828	-0.008783378
42	0x3ca63f4f	0.02029386
43	0xbc2d8bae	-0.010592384
44	0x3d818345	0.06323866
45	0xbd294d71	-0.04133362
46	0x8b122bd2	-2.8151544e-32
47	0xbaa9c7c4	-0.0012953212
48	0x3dae64cb	0.085153185
49	0x3cf1d52d	0.029520595
50	0x3dade149	0.08490235
51	0x3c1fe451	0.009759025
52	0x3c9adeb1	0.018905016
53	0xbc2d2488	-0.010567792
54	0xb6ff35bc	-7.6058477e-06
55	0x3d85fb7c	0.065421075
56	0xbd8a32e2	-0.067479864
57	0x3d8e7812	0.06956495
58	0x3d23b04d	0.039963055
59	0x31a6659e	4.8427884e-09
60	0x3aa0a292	0.0012255481
61	0xac4613af	-2.814842e-12
62	0x3cb0846a	0.021547515
63	0xbd1a0e08	-0.037611037
64	0x00000000	0.0
65	0x3d18fe54	0.03735192
66	0xbc81d3f5	-0.01584814
67	0x3d6ad2bc	0.05732988
68	0x9d6ed5bc	-3.1609536e-21
69	0x240a32fc	2.9967165e-17
70	0x2799d12a	4.2692807e-15
71	0x96d91d85	-3.507687e-25
72	0xbc335113	-0.010944623
73	0xbc3a0a1c	-0.011354949
74	0x3b84f0ff	0.0040570493
75	0xbba4dbe7	-0.005031097
76	0x3db10b8d	0.08644781
77	0xbb7061da	-0.0036679418
78	0x3d7cac7b	0.061687928
79	0xbd2602fc	-0.04053019
80	0x8a8749a2	-1.3027725e-32
81	0x3c87de2b	0.01658543
82	0x3cec95ec	0.028880082
83	0xbd293164	-0.04130687
84	0x39b6a24c	0.00034834666
85	0x9c635c86	-7.5227583e-22
86	0xb8ce3e6d	-9.834473e-05
87	0xbb56aec9	-0.0032757989
88	0x86f7bb56	-9.318634e-35
89	0xbd17715d	-0.036973346
90	0xbce2cbdd	-0.0276851
91	0x3c8a33b9	0.016870366
92	0xbd04bcde	-0.03240668
93	0xa787c6d4	-3.7685597e-15
94	0x3d82420b	0.06360253
95	0x3c743200	0.014904499
96	0xb666a69d	-3.4369652e-06
97	0xa7da5054	-6.0594247e-15
98	0xbaaa4f61	-0.0012993627
99	0x3d98a815	0.07453934
100	0xbc9b8367	-0.018983556
101	0x1aeef384	9.8827914e-23
102	0xb831422b	-4.2261712e-05
103	0x3d3d4b04	0.04621412
104	0x3da96510	0.08271229
105	0xbca9a19f	-0.02070695
106	0x3d91c7c7	0.07118183
107	0xbc27c008	-0.010238655
108	0xbd292463	-0.041294467
109	0xbd05925a	-0.032610275
110	0x3d9827dd	0.07429478
111	0x3d04abd8	0.032390445
112	0x3c41f757	0.011838756
113	0x3cecac4a	0.028890748
114	0x3d84c071	0.06482018
115	0x3d27f2c9	0.041003022
116	0x158f5f32	5.790743e-26
117	0x3d8d4bfc	0.068992585
118	0x322220e5	9.43712e-09
119	0x2c89aa82	3.9127044e-12
120	0xbc82d0d0	-0.01596871
121	0xbca64456	-0.020296257
122	0xbd21b88a	-0.03948263
123	0x9417dba1	-7.666866e-27
124	0x27210400	2.2345407e-15
125	0x3c7084aa	0.014680067
126	0x24e22fb2	9.8092675e-17
127	0x3b1e7e0f	0.0024184023

action_model._continuous_distribution.log_sigma f4 [1, 2]
0	0x4110460a	9.017099
1	0x40f3a28e	7.613593

action_model._continuous_distribution.mu.weight f4 [2, 128]
0	0xbf5e163f	-0.86752695
1	0x3eace380	0.3376732
2	0xbfa70048	-1.3046961
3	0xbf2b77f5	-0.66979915
4	0x3f026e3c	0.50949454
5	0x40028824	2.0395594
6	0x3e62a474	0.22133046
7	0xbf41c912	-0.75697434
8	0xbef97dd2	-0.48728806
9	0xbf9ba9b9	-1.216117
10	0xbeab13b2	-0.33413464
11	0x3e9bd558	0.30436206
12	0xbe45ffce	-0.19335863
13	0xbea62af9	-0.3245466
14	0x3dcc917b	0.09988686
15	0xbf812b05	-1.0091254
16	0x3ea2dc00	0.31808472
17	0xbf917021	-1.1362344
18	0x3e9dfc6c	0.30856645
19	0x3fef6aa1	1.8704416
20	0xbf04e25d	-0.519079
21	0x3e64a106	0.2232705
22	0xbd27a845	-0.04093196
23	0xbede6b42	-0.43441206
24	0x3e10c225	0.1413656
25	0x3f822554	1.0167642
26	0xbf02dc3f	-0.5111732
27	0x400ae38a	2.170138
28	0xbe94b854	-0.2904688
29	0xbef46f15	-0.47741
30	0x3f4026c2	0.7505914
31	0x3f54987b	0.83045167
32	0xbf65f3fa	-0.89825404
33	0xbf2a15ee	-0.6643971
34	0xbe900435	-0.2812821
35	0x3f1dee33	0.6169159
36	0x3cd7db1a	0.026349593
37	0x3ebb6850	0.36603022
38	0xbf1f8a02	-0.6231996
39	0x3f9c3efd	1.2206722
40	0xbed936db	-0.42424664
41	0xbe2f2c8e	-0.1710684
42	0x3dbe17c2	0.09281875
43	0xbe766913	-0.2406352
44	0x3f854855	1.0412699
45	0xbf2c419c	-0.6728761
46	0x3d4daa63	0.05021132
47	0x3e772ec7	0.24138938
48	0x40004a04	2.0045176
49	0x3f29d4fd	0.6634062
50	0x3f19d8ec	0.6009662
51	0xbd2c467d	-0.04205941
52	0x3d6c6796	0.057715975
53	0xbfb1c4fa	-1.3888237
54	0xbf7e089f	-0.99231905
55	0x3e804703	0.25054178
56	0xbe4a2ddd	-0.19744058
57	0x3efe0fcc	0.49621427
58	0x3f3e980f	0.74450773
59	0x3f9d06da	1.2267716
60	0xbe3ba42c	-0.18324345
61	0xbef32d2b	-0.47495398
62	0x3d8353a5	0.06412438
63	0xbf9fff50	-1.249979
64	0x3f511117	0.816667
65	0x3e956b36	0.29183358
66	0xbe4b1b47	-0.19834624
67	0x3f31eeb3	0.6950485
68	0xbe960c29	-0.29306152
69	0x3e15aa4d	0.14615746
70	0xbf259798	-0.6468444
71	0x3e8e9eea	0.27855617
72	0x3f14fa9e	0.5819491
73	0xbe4bfba3	-0.1992021
74	0xbec71fc5	-0.38891426
75	0x3ede7b91	0.4345365
76	0x3fc61b05	1.5476996
77	0xbf9cbb7f	-1.2244719
78	0x3dbe7acf	0.09300768
79	0xbde8f919	-0.113756366
80	0xbe0c66fd	-0.13711162
81	0x3d3e2e95	0.046431143
82	0xbecf2520	-0.40458012
83	0xbd3c4dee	-0.045972757
84	0x3f5d69a9	0.8648935
85	0xbf376f91	-0.7165461
86	0x3e055af5	0.13022979
87	0xbe47d260	-0.19513845
88	0xbefcf3e4	-0.49404824
89	0xbf26602c	-0.64990497
90	0xbe19f09c	-0.15033191
91	0x3d51833b	0.05115054
92	0xbf94c9a2	-1.1624033
93	0xbdf19eb1	-0.11797846
94	0x3df892c6	0.1213737
95	0x3ef0e6a5	0.47050968
96	0x3f88e0c7	1.0693597
97	0xbf08df94	-0.53466153
98	0x3dafac16	0.08577745
99	0x3fb76171	1.4326612
100	0xbc3d6bb7	-0.011561326
101	0x3df2890e	0.11842547
102	0xbeac2417	-0.33621284
103	0x3f354e6a	0.70822775
104	0x3ef41797	0.47674248
105	0x3d7ad927	0.06124225
106	0x3f141715	0.5784772
107	0xbf5c49e0	-0.86050224
108	0xbec2ea2f	-0.38069293
109	0xbeb45eca	-0.35228568
110	0x3ebd8f38	0.3702333
111	0xbf5e9504	-0.8694613
112	0xbe88d2bb	-0.26723275
113	0x3f08de43	0.53464144
114	0xbedf29f3	-0.43586692
115	0x3f086ea7	0.5329384
116	0x3e96aee6	0.29430312
117	0x3eaeffe6	0.3417961
118	0x3fd26565	1.6437193
119	0xbf3da74f	-0.7408342
120	0xbfa2386a	-1.2673466
121	0x3c55ec08	0.0130567625
122	0xbe0965bb	-0.13417713
123	0x3e44df97	0.19225918
124	0xbed95a1b	-0.42451558
125	0x3de1dfe4	0.11029032
126	0x3fa7e6f0	1.3117352
127	0xbed53d73	-0.41648445
128	0x3e94811a	0.29004747
129	0x3f20b48b	0.62775487
130	0x3e644067	0.22290193
131	0x3f2acbf6	0.6671747
132	0x3e33a7a2	0.17544416
133	0x3e3d7120	0.18500185
134	0x3db20bf3	0.086936854
135	0x3ee32d78	0.44370627
136	0xbdac6d76	-0.084193155
137	0x3ed091b2	0.40736157
138	0xbd152195	-0.03640898
139	0x3e8f96f1	0.28044847
140	0x3eae5421	0.3404856
141	0x3d865d26	0.065607354
142	0xbc4566cf	-0.012048437
143	0x3d873777	0.06602376
144	0x3e858210	0.26075792
145	0x3edad184	0.42737973
146	0x3ebd59ec	0.36982667
147	0x3d8922f6	0.066961214
148	0xbe191f4b	-0.14953344
149	0x3c321ada	0.01087066
150	0xbceff610	-0.029292136
151	0xbe6dc67f	-0.23220252
152	0x3c88760a	0.016657848
153	0x3a269e3c	0.0006355976
154	0x3e7ae9f4	0.24503309
155	0x3f13af9a	0.5768982
156	0x3ea4c17a	0.3217886
157	0xbd26a565	-0.040685076
158	0x3e4452c1	0.19172193
159	0xbe2b3926	-0.16721019
160	0xbeb00bf3	-0.34384117
161	0xbdadf347	-0.08493667
162	0x3cb96738	0.022632226
163	0xbed30a61	-0.41218856
164	0x3d57e6c6	0.052710317
165	0x3d0f882d	0.035041977
166	0xbcc8010a	-0.024414558
167	0x3ef3914f	0.475718
168	0xbdc2dce9	-0.095147915
169	0x3d8a5420	0.06754327
170	0x3ec4f52f	0.3846831
171	0xbc27089e	-0.010194926
172	0xbe0657f6	-0.13119492
173	0xbe22e5a1	-0.15907909
174	0x3ef6d2a6	0.48207587
175	0x3c0699a0	0.008215338
176	0x3ccbe907	0.02489139
177	0x3f80a740	1.0051041
178	0x3cdce355	0.02696387
179	0x3dbb75f4	0.09153357
180	0x3b279649	0.0025571755
181	0x3e859dbb	0.260969
182	0x3e33ebbc	0.17570394
183	0xbc28068e	-0.010255469
184	0xbce587d5	-0.028018871
185	0xbde88004	-0.11352542
186	0x3f1dd324	0.616503
187	0xbd9db8d2	-0.07701267
188	0x3db58ac2	0.088643566
189	0x3e30e389	0.17274298
190	0x3ccb00ec	0.024780713
191	0xbd8402db	-0.06445857
192	0x3ea30ef6	0.31847352
193	0x3e12a29f	0.14319848
194	0xbcef8ea7	-0.029242827
195	0x3eca95f2	0.39567524
196	0x3e165d76	0.1468409
197	0xbdc25477	-0.09488767
198	0xbe913c47	-0.283663
199	0x3ddf4f75	0.10903827
200	0xbe2136bc	-0.15743536
201	0x3b4b93e1	0.0031063484
202	0x3f358419	0.7090469
203	0xbde11c2e	-0.10991703
204	0x3d953985	0.072863616
205	0xbdca4156	-0.09875743
206	0x3bc9b2b0	0.0061553344
207	0x3d22dac2	0.039759405
208	0xbc3bf799	-0.011472606
209	0x3f37c16f	0.7177953
210	0x3ee3c0ff	0.44483182
211	0x3d468f11	0.048476283
212	0xbe1f9ce3	-0.15587191
213	0x3e007091	0.1254294
214	0xbe847665	-0.25871578
215	0x3e82a466	0.2551605
216	0x3f0ad057	0.5422415
217	0xbdadda20	-0.0848887
218	0xbd2005b7	-0.03906795
219	0x3e1fbadb	0.15598623
220	0x3f45b573	0.77229995
221	0x3d0b60c7	0.03402784
222	0x3c044bb7	0.008074692
223	0xbe5154de	-0.2044253
224	0x3e81c3a7	0.25344583
225	0x3ebec6b2	0.37260967
226	0xbe4419ed	-0.19150515
227	0x3e8c8a82	0.27449423
228	0xbe2929b3	-0.16519813
229	0xbea068f4	-0.31330073
230	0xbd5171da	-0.051133968
231	0xbe1c7dea	-0.15282407
232	0x3d57c7ee	0.052680902
233	0xbd1f8ff2	-0.038955636
234	0xbd192084	-0.037384525
235	0x3ce41f70	0.027847022
236	0xbdb05834	-0.086105734
237	0x3e8ee3ea	0.2790826
238	0x3d8c032c	0.068365425
239	0x3d76c5f7	0.060247388
240	0x3e5ead92	0.217459
241	0x3f568b56	0.8380636
242	0x3e2a9d89	0.16661657
243	0x3eccdc21	0.40011695
244	0xbe7af140	-0.24506092
245	0x3e13b19e	0.14423224
246	0x3d915ba5	0.07097558
247	0xbe397565	-0.18111189
248	0x3f183696	0.5945829
249	0xbe8c79a5	-0.27436557
250	0x3d74e546	0.059788965
251	0x3f41a33e	0.7563971
252	0xbe7d18a1	-0.24716426
253	0xbcb2532f	-0.02176818
254	0xbd711ba1	-0.05886424
255	0x3f33767f	0.70102686

action_model._continuous_distribution.mu.bias f4 [2]
0	0x3f1054ec	0.5637958
1	0xbf8649fa	-1.0491326
