results/hideandseek_08/Seek.onnx (onnx, 149966 bytes, 7 tensors)

network_body._body_endoder.seq_layers.0.weight f4 [128, 152]
00000000: 261b 533d 7315 09bd 2803 d33d f852 fdbc
00000010: bd08 12be b452 c53d 7ae9 0e3c 7c38 bbbd
00000020: 5a65 0d3c 348f ed3d c4ab 813d f435 1a3c
00000030: 079e 1cbe bd6b b43c 6dc2 3f3d 4cc8 a0bd
00000040: 03bd d23b 04f7 b83d 4eb6 3c3d c9dc 64bd
00000050: 4c80 c83c dfb5 ba3d fb10 e13b fbe3 8a3c
00000060: b84d d1bc ed9f 89bd 8eae 8d3d 722f 8f3d
00000070: 95a1 ec3d d8d9 1abd 16e5 8fbc 11f7 033c
00000080: 552d f2bc 3d40 2c3d eca9 aebd 4295 f8bd
00000090: 44ca febd 1adf bdbc 8297 15bd 6a75 cc3c
000000a0: 357f 85bd 4612 723d 21cc 85be f61e 5d3d
000000b0: e96f b13d 427b 9e3c 7c54 d33d 7bb8 93bc
000000c0: 1287 343d dc05 84bc b8c0 7c3d 8114 1abe
000000d0: fe8b 1bbc 9d7f 53be ab7a ddbd f2c4 96bc
000000e0: d3fb b13d 488a 81bd 3db3 083d f32a ed3d
000000f0: d02f 11bd e835 fabd 6409 a1bd 044e 0b3d
00000100: 9f8b dabd 8c92 b93d 5e47 e83c e908 dc3d
00000110: 9e13 f83c 3305 4e3d 3d22 a63d 01e6 1d3d
00000120: 786d c93d 7e1a b5bd b53e d53c 9835 1cbe
00000130: 9998 b43d dd06 bebb 6bb5 d03c 8458 2dbe
00000140: 25ea 4cbd 1c63 293d 7985 f23d 0c96 3a3e
00000150: dbf4 d33d 9856 ad3c 7463 d1bd 824c 893d
00000160: e766 263d ca1c 5d3c b055 c03d fe4a ffbd
00000170: cdf6 86bd c9c2 19be af50 eebd 023e 2ebd
00000180: 4e78 883d 8744 633d 7205 833d faa0 c03a
00000190: ec6a 083c ff77 cebb 4ea4 da3d 17e3 ae39
000001a0: 3d33 c1bd 5264 f7bb be41 7ebc d1a0 953c
000001b0: 721a 62bc 024b d0bd d304 adbd 3289 4c3d
000001c0: a3fb 303d 339d dfbc 0363 a83d 2ee0 be3c
000001d0: 058c 96bd 28aa 83bd d420 f03c c2ce e03d
000001e0: 36b0 c5bd dea9 4abd 07f0 99bb 0d07 723d
000001f0: a59c babc f86c 213d c4d2 2bbd afcd 0cbe
00000200: 1d5a 943c e4da 2bbb db38 0ebd 0510 893d
00000210: 15f8 a53d 6104 af3d 586b 0a3d 0001 e2bc
00000220: c75b 3cbd aa17 7fbd e917 aabc a965 c63b
00000230: 49f6 cfb8 f450 353d 864b 38bd f6dc b4bd
00000240: 98e4 403d d57c 7bbd bbd0 c63c 98a9 ef3c
00000250: 4296 e23d 598f b7bc 1912 ddbd 7cb4 813d
00000260: 6d0f 073d afa3 02bd b8b6 4e3d 367f 63bd
00000270: 1df8 863c 99ae cbbd 9602 eebc c6f8 4bbd
00000280: 6867 d33c 276a 7f3d cb0f 79bd 9853 b3bc
00000290: a4f5 bbbd 64c4 bebd ea92 4a3d 7329 25be
000002a0: 6884 d8bd ced7 eb3d f255 d6bc 6446 673d
000002b0: 7c2f 0bbd 4bd0 70bc b702 dfbd 030c 4e3d
000002c0: ed79 08be 5a91 39bd 2369 173c f1dc 45bd
000002d0: 09af 0dbd deb1 a23b dbd6 8d3d ffa4 b0bc
000002e0: 61ba 98bd fdf7 ac3d 3646 243e e11f 3a3d
000002f0: 43b8 8c3d cef3 38be a17f eebc 1fbc c4bd
00000300: 77a9 6bbd cb86 ccbd d99d d2bc 7efa 3e3c
00000310: f7b6 02be 2f38 b73a 4931 32bd 1bc2 2e3e
00000320: cd88 553c 891a 0bbe 532b 783d d2b9 8dbc
00000330: 9d10 e4bc 2d55 153a 5f4c 803d 6206 d93d
00000340: 1374 0fbd 9412 2bbe 5c99 15bd 8a91 4bbc
00000350: b8ce bd3d b84f 0ebe 3c25 93bc 2b0e 933d
00000360: 468d c83c cd1c 0abc a408 5a3c aecb 5dbe
00000370: 6932 f13d 21af 76be 09ad 01bd 6d84 95bd
00000380: 429f 39bb a211 db3c 4fdf 283d 7829 8b3d
00000390: 041e 1a3e a8d1 83bd bf5c 173d de3e b93d
000003a0: 3ff9 bebc 599a d0bd 97ce 693d 77b1 1e3d
000003b0: 0c30 eabd 19c8 9fbc 1c26 8e3c b171 2c3e
000003c0: a78b b03d cb16 5c3d 7709 01bd 939e 313c
000003d0: d0ed 22be a5c6 1cbe 6a60 8e3c c04d b13d
000003e0: 2ff2 90bc 75f8 96bd 24e2 a4bd f94d 513d
000003f0: 3381 0c3d aac6 1bbe 27ba c83d 2f67 2f3d
0.051539563 -0.03346772 0.103033364 -0.030923352 -0.14261146 0.09634915 0.008722657 -0.09141633
0.008630121 0.115995795 0.0633159 0.0094122775 -0.15294658 0.02202403 0.04681628 -0.078507036
0.0064312234 0.090314895 0.046072297 -0.05587462 0.02447524 0.091167204 0.0068684793 0.016954413
-0.025549755 -0.067199565 0.06918059 0.06991471 0.11554257 -0.03780541 -0.017565291 0.008054511
-0.029562632 0.04205345 -0.08528504 -0.12137844 -0.12440923 -0.023177672 -0.036521442 0.024958331
-0.065184034 0.05909946 -0.261323 0.053984605 0.08663923 0.019345883 0.103188485 -0.018032303
0.044074126 -0.016116075 0.06170723 -0.15046884 -0.009493826 -0.2065415 -0.10814413 -0.018404458
0.0869061 -0.06325203 0.03337406 0.115804575 -0.03544599 -0.12217313 -0.07863119 0.03400995
-0.10671162 0.09061155 0.028354343 0.10743887 0.030282792 0.050297927 0.08111999 0.038549427
0.09835333 -0.088429436 0.026030878 -0.1525482 0.08818168 -0.005799158 0.025477132 -0.16928297
-0.050027985 0.041354284 0.11841864 0.18221301 0.10349437 0.021159455 -0.10224047 0.06704046
0.04062548 0.013495633 0.093913436 -0.124654755 -0.06590042 -0.15015711 -0.11636483 -0.042539604
0.06663571 0.055485275 0.06397523 0.0014696412 0.008326273 -0.0063009257 0.1067587 0.0003335706
-0.09433601 -0.007549801 -0.015518604 0.01826516 -0.01380025 -0.101705566 -0.08448186 0.049935527
0.04320873 -0.027296638 0.0822201 0.023300257 -0.07350925 -0.06428939 0.029312529 0.10976936
-0.0965275 -0.049478404 -0.004697803 0.059088755 -0.022779772 0.03941056 -0.04194905 -0.13750337
0.018109376 -0.0026222998 -0.03472219 0.066925086 0.081039585 0.08545757 0.033793777 -0.027588367
-0.045985963 -0.062278427 -0.020763354 0.0060545993 -9.916403e-05 0.044266656 -0.0449939 -0.088312075
0.047093004 -0.061398346 0.024269452 0.029255673 0.11063816 -0.02240722 -0.107944675 0.06333253
0.032973696 -0.031894382 0.050467223 -0.05554124 0.016475732 -0.09945411 -0.029053967 -0.049797796
0.025806144 0.062357094 -0.060806077 -0.021890447 -0.091777116 -0.09314802 0.049456514 -0.16129093
-0.105721295 0.11515771 -0.026164029 0.056463614 -0.03398083 -0.014698098 -0.1088919 0.050304424
-0.13327761 -0.045304634 0.009241375 -0.04830641 -0.034590755 0.004965051 0.06925746 -0.021563051
-0.07457424 0.084457375 0.16042408 0.04544056 0.06871083 -0.18061754 -0.029113593 -0.09606194
-0.05753466 -0.09986647 -0.025710033 0.011656402 -0.12765108 0.0013978536 -0.043504033 0.17066233
0.013033104 -0.13584341 0.060588192 -0.01730052 -0.027839953 0.0005696591 0.06264567 0.105969205
-0.035022806 -0.16706306 -0.036523208 -0.012424836 0.09267944 -0.13897598 -0.01796209 0.07180437
0.024481427 -0.008429718 0.013307724 -0.21659729 0.11777193 -0.24090244 -0.03165916 -0.07300649
-0.0028323685 0.026741806 0.04122859 0.06795019 0.15050513 -0.06436473 0.036953684 0.09045194
-0.02331221 -0.101856895 0.057081785 0.038743462 -0.114349455 -0.019504594 0.017352156 0.16840245
0.086203866 0.053732675 -0.031503167 0.01084103 -0.15911031 -0.15310152 0.017379958 0.08657408
-0.017693607 -0.07371608 -0.080509454 0.05109975 0.0343029 -0.15212503 0.09801131 0.042823013

network_body._body_endoder.seq_layers.0.bias f4 [128]
00000000: f4cf 79bb eaef d7bb f4d0 9539 fe2f f9ba
00000010: dd14 3aba 3f98 12bc dafb 01bc c4f5 0abc
00000020: 433f 51bc e500 d2bb bc0b 09bc 3bb4 99bc
00000030: 0f76 36bc 7405 173b c182 173a 277b 5abb
00000040: ecd2 08bc 39c1 b4bb dc32 c9bb fa6c 3bbc
00000050: 8645 b4bb 352e 24bc 3fb4 19bc ea64 c3bb
00000060: 20fd dcbb 6562 e8bb 8300 863b 0158 96bc
00000070: b8d3 eebb 877c 68bb d130 d2ba bf66 0f3b
00000080: 39fb 91bc 4967 4abb 7f63 29ba 47f5 94bb
00000090: 9490 44bb e8bf 94ba a252 1fbb 0f1e 55bb
000000a0: cf71 bc3a 2762 cabb dfce a1ba b7b9 b2bb
000000b0: 5a9a 52bc d7de 56bc 0aca 8dba 30c7 9abb
000000c0: 795c 57bb 68b1 1d3a f083 21bb 719a cabb
000000d0: fa41 f63a 1366 57bb 4948 0ebc 28f1 903a
000000e0: 7972 25bc 82bb 8c38 cd70 44bb c4e7 0ebc
000000f0: 7b9b c1bb 61cd 11bc 656e 4fbc ae1d d7b9
00000100: 8b9a 9abb 7c36 dfbb b7a8 11bc 41c1 823a
00000110: 0b41 a9bb f1f9 1ebb d246 fbbb fb49 3cbb
00000120: b0ef e1bb 2634 46bb 771c b8bb dbc9 c0bb
00000130: de80 14bb 4375 15bb c362 a93b 921d f739
00000140: 1ad3 fbbb 01d7 1f3a 10f6 afba a030 8fb9
00000150: e38b 74bc 13ff 41bb f553 be3a a5b2 c9ba
00000160: 06d5 773b 31e6 e1bb cae0 b6b9 abd0 c0bb
00000170: 86c6 d4b9 4d49 89ba 0721 b7bb 35c5 f9bb
00000180: b782 59ba ac2a c5bb d0a9 9cbb 440d 2cbb
00000190: 1f5a 67b9 453b a3bb 3363 28bc cf0b 85bb
000001a0: 4bfe 52bc bff0 cc3a c7a7 573a 0e81 2a3c
000001b0: 8a18 a0bb 795f 623b 248f b7ba 5000 c0bb
000001c0: 611e eebb 99e7 75bb e54f 89bb c60d 1abc
000001d0: e2cb 1bbc dc14 0b3b 04e4 c9bb 3709 303b
000001e0: 7532 e3bb 87e2 3c3b 2dc4 1abb 2442 75ba
000001f0: dbbe 19bb 1059 debb 6973 0cbb 5425 adbb
-0.0038118334 -0.0065898793 0.00028575177 -0.0019011495 -0.0007098446 -0.008947431 -0.007933581 -0.008481447
-0.01277143 -0.006408798 -0.008364614 -0.018762698 -0.011136546 0.0023044022 0.0005779677 -0.0033337565
-0.008351069 -0.005516198 -0.006140096 -0.011439556 -0.005501452 -0.010020782 -0.009381353 -0.0059629576
-0.006744042 -0.0070918077 0.0040894165 -0.01835251 -0.0072884224 -0.0035474615 -0.0016036277 0.002188131
-0.017819988 -0.0030884317 -0.00064616645 -0.004545841 -0.0029993402 -0.0011348696 -0.0024310728 -0.0032519137
0.0014377179 -0.0061762515 -0.0012344978 -0.005454268 -0.012854183 -0.013114653 -0.0010817659 -0.004723452
-0.0032861514 0.00060155103 -0.0024645291 -0.0061829616 0.0018787973 -0.0032867237 -0.008684226 0.0011058198
-0.010098093 6.710646e-05 -0.002997446 -0.008722249 -0.0059084273 -0.008899064 -0.012660597 -0.0004103011
-0.00471813 -0.006811915 -0.008890322 0.0009975807 -0.0051652244 -0.0024257863 -0.0076683545 -0.002873062
-0.006895028 -0.0030243485 -0.0056186276 -0.005883438 -0.0022659819 -0.002280549 0.005169244 0.00047133543
-0.0076850774 0.0006097407 -0.0013424773 -0.00027311314 -0.01492593 -0.00296015 0.0014520871 -0.0015388323
0.003781618 -0.006893896 -0.00034881226 -0.00588425 -0.00040583703 -0.0010474116 -0.005588654 -0.007622386
-0.0008297371 -0.00601705 -0.0047809854 -0.0026253024 -0.0002206345 -0.0049814307 -0.010277557 -0.0040602456
-0.012878011 0.0015635713 0.00082266 0.010406746 -0.004885738 0.003454177 -0.0014004451 -0.0058594123
-0.007266805 -0.0037522076 -0.0041904324 -0.009402698 -0.009509059 0.002122215 -0.006161215 0.0026860961
-0.006933505 0.0028821544 -0.0023615465 -0.0009355864 -0.0023459706 -0.0067855194 -0.0021431095 -0.005283991

network_body._body_endoder.seq_layers.2.weight f4 [128, 128]
00000000: 2ca0 e23b f60b 173e 6d9b e7bc 295c 16bd
00000010: 45bf dabc 317f 92bc a49b 7cbd 145d b53d
00000020: bc4a d4bb 1112 813d fe1b dabc 502a 2fbe
00000030: 4cba 28bd d179 a5b9 b587 cc3d ac8d 353e
00000040: 2988 b93c 88e8 09be acd2 bfbd 6c4f 08be
00000050: 913a f63d a7fc d0bd dfde 1cbd 44ac 323e
00000060: 2854 68bd a0dc 1e3e 966c 4bbd e257 153d
00000070: 061b b4bd b5ed 61bd 593b 96bd fd5a eabc
00000080: 9d0d 00be e7f1 06bd 2f61 103d 2514 c3bd
00000090: 766f 003d 0716 843c 2b5c 3bbd 64a1 113e
000000a0: 4d9f bd3c 8f11 623c 6061 023e 6452 9fbc
000000b0: 90d9 593c 513a ecbc d6c8 063d 22c9 91bd
000000c0: 0e3d 86bd 8ee5 24be 9356 cdbd 9018 863d
000000d0: 8582 0239 fb31 19be ec55 053c fe42 31bd
000000e0: 2868 bd3d dd00 0fbc e66a 133c 5010 a0bd
000000f0: 1a4a 7d3c 0d3a 65bd d92f ebbc 0932 fdbd
00000100: 2d18 053e 5147 433d fb03 89bd 7598 bc3d
00000110: 109f 80bd 74e5 c3bb 4765 223c 93db c5bd
00000120: 1db6 15bc eeb8 28be 3fd4 b1ba db0a e6bc
00000130: 6506 97bd 7b6e dfbd d28b 82bd f093 d73d
00000140: 4611 3e3d 66d7 20be be2f 8bbd b2f1 303d
00000150: 7341 0c3e 5d10 26bd 0f20 bfbb 80d3 bc3d
00000160: 627d 93bd c0ee dabd 3b44 e8bd 98c9 bfbd
00000170: 38d7 c83d 3604 bfbb 9c88 f3bd 1e5a 50bd
00000180: c897 c73d 4027 9f3a 4c88 873c c037 febd
00000190: fffc 3cbd 91c7 5cbc 76ed dabd 1422 d33b
000001a0: 46f2 5e3d bfe6 d13b 168b adbd e3c8 bc3d
000001b0: f8ba c5bc 2dc0 433e eff8 95bd 48cb babb
000001c0: f2cf 1a3d ad11 13bd 76e9 42bd af7b ad3d
000001d0: 5d8a 8fbd 7d51 073d 410f 9c3d 88e9 4e3d
000001e0: c9a5 0a3d 381c ac3d c97f 1c3d dd98 2bbd
000001f0: 0de4 e8bc a635 183d 61e9 b2bc 4d71 93bd
00000200: 8807 213e 793a a0bb d008 72be d9ab e83c
00000210: e36b 4abd 664f adbd 771a 963d 5e3d b3bd
00000220: 4f30 97bd f34c d939 7c6c 64bd d9db b53d
00000230: 73d5 73bd e4f7 81bc 5ae6 bd3d 9719 acbc
00000240: 9a68 30bd a890 9ebd 96fc a63b f381 6d3c
00000250: 8a10 eabd c848 233d dc12 81bd 15e1 1dbd
00000260: c872 4dbd 8e6c bb3d 01d4 07be 4368 e7bd
00000270: b7a9 05be 270c fa3d 9a61 3bbc a394 a8bd
00000280: de59 98bb 1cf8 debc 08aa 56bd af6b 323e
00000290: 4ee2 fa3d 703b adbd 1114 30bc 8e48 00bb
000002a0: a2ec eb3d d244 bb3b db75 22be 2ded c03b
000002b0: d435 4c3d 4af2 b23c b00e cdbd fc89 38bd
000002c0: 7bc9 a3bd 0029 853d c163 653d 8fc8 fbbd
000002d0: d325 483d 2ff5 9b3a 4097 ffbc 949f 2c3e
000002e0: c5cf 7fbb 148c eabc b614 c43d 3a1e b03a
000002f0: 2902 303c 8ce5 09bd 6e46 7bbd a0c6 8a3d
00000300: 58ed 833d a3d0 e3bb b101 213d 95ee ed3d
00000310: 8d70 a03d 351c 38bd 7e52 ca3b d47e b33d
00000320: d4ab 013d 5d5f 06bd 21bf 083d aaf7 07bc
00000330: dddc 1bbd 286b 263b b850 84bd c4eb bc3d
00000340: 2448 033e 92f9 05be 8d6e 20be 41a8 053e
00000350: a96f 333e c081 06bd 5478 d13c e89d 183d
00000360: 061d 80bd 7a6f eabc 6bc8 91bd 2d7d c3bd
00000370: b402 1dbd babe c0ba 3dc4 f1bb 4cdf a8bd
00000380: 6e8c b6bd 5fc0 92bd 2013 863d 5caa d63d
00000390: b8fc 59bb 2334 8d3d 5ff8 583d 7f4f d33c
000003a0: a43d 19be 784f 11ba 11e9 47bd 9834 ac3d
000003b0: 7b96 36bd 5fab 1b3d 45f1 a1bc 312b 7abd
000003c0: 9aa0 88bc 22db 863d 2f33 82bd d38e 97bd
000003d0: 0123 0dbd 5cb4 aebd 2325 23be 74db 21be
000003e0: 73d3 143d 6999 7a3c dae7 6ebd c70f 36bd
000003f0: 314a 183d 9a13 0ebd 6cfb e9bd b382 343e
0.0069160666 0.14750656 -0.028272355 -0.036708985 -0.026702533 -0.017882915 -0.061671868 0.08855644
-0.0064786356 0.06302274 -0.026624676 -0.17105985 -0.04119329 -0.00031562013 0.099868216 0.17729825
0.022647934 -0.1346761 -0.09366354 -0.13311547 0.120228894 -0.102044396 -0.038298484 0.17448527
-0.056720883 0.1551385 -0.049664102 0.036460765 -0.08794217 -0.055158336 -0.073355384 -0.02860784
-0.12505193 -0.03294554 0.03524893 -0.09525327 0.031356297 0.016123785 -0.045742195 0.14221722
0.02314725 0.013798132 0.12732458 -0.019448467 0.0132965 -0.028836401 0.032906376 -0.07118441
-0.06554614 -0.16103193 -0.10026278 0.06547654 0.00012446388 -0.14960472 0.008138161 -0.04327678
0.09248382 -0.008728233 0.008997655 -0.07815611 0.015459562 -0.055963565 -0.028709339 -0.12363059
0.12997504 0.047675434 -0.06690212 0.09208766 -0.06280339 -0.0059782807 0.009911842 -0.09661021
-0.0091376575 -0.16476795 -0.0013567283 -0.028081348 -0.073742665 -0.10909744 -0.06374325 0.10526264
0.046403192 -0.15707168 -0.067962155 0.04319925 0.13696842 -0.04054295 -0.005832679 0.09220028
-0.07201649 -0.10690069 -0.11341139 -0.09364623 0.09806675 -0.0058293594 -0.118912905 -0.050867192
0.09745747 0.0012142435 0.016544484 -0.12412977 -0.046139713 -0.013475315 -0.10689823 0.0064432714
0.05443027 0.006405681 -0.08473794 0.092180036 -0.024137005 0.19116278 -0.07322871 -0.0057005025
0.03779597 -0.03590553 -0.047585927 0.084708564 -0.070088126 0.033036698 0.07620097 0.05051568
0.03384951 0.0840382 0.038207803 -0.04189383 -0.028429056 0.037160538 -0.0218398 -0.07199345
0.15725529 -0.004889783 -0.23636174 0.028402256 -0.049419295 -0.0846241 0.073292665 -0.08751939
-0.07382261 0.00041446797 -0.05576752 0.08879823 -0.059529733 -0.015865274 0.09272452 -0.021008296
-0.043068506 -0.07742435 0.0050960286 0.014496314 -0.11428936 0.03986433 -0.06302425 -0.038544733
-0.050158292 0.091515645 -0.13264467 -0.11299183 -0.13053022 0.12209349 -0.011436844 -0.08231475
-0.004649385 -0.027217917 -0.05240825 0.1742389 0.122501954 -0.084586024 -0.010746972 -0.0019574496
0.115197435 0.005714991 -0.15865271 0.0058876486 0.049856022 0.021844048 -0.10012567 -0.045053467
-0.07997414 0.06501961 0.056003336 -0.12294113 0.048864197 0.0011898632 -0.031200051 0.16857749
-0.0039033752 -0.028631248 0.09574263 0.0013436743 0.0107427025 -0.03366618 -0.061346464 0.06776166
0.06441754 -0.0069523617 0.039308254 0.116177715 0.07833967 -0.044948775 0.0061743846 0.08764425
0.03165801 -0.03280579 0.0333854 -0.008298794 -0.03805243 0.002539346 -0.064607084 0.09224656
0.12820488 -0.13083485 -0.15667172 0.13052465 0.17523064 -0.032838583 0.025570072 0.037259966
-0.06255536 -0.02861761 -0.07118305 -0.0954536 -0.038332656 -0.0014705278 -0.0073781298 -0.082457155
-0.089135036 -0.07165598 0.065466166 0.10481712 -0.0033262204 0.0689471 0.05297124 0.025794743
-0.1496492 -0.0005543153 -0.048806254 0.08408469 -0.044577103 0.03800523 -0.019768367 -0.061076347
-0.016678143 0.06584765 -0.06357419 -0.074002884 -0.03445721 -0.085304946 -0.15932135 -0.15806371
0.036334466 0.015295365 -0.05832658 -0.04444864 0.03718013 -0.034686662 -0.11424908 0.17627983

network_body._body_endoder.seq_layers.2.bias f4 [128]
00000000: 2f25 36bb 9fe2 f2bb 1424 90bb b201 14bb
00000010: af83 a9ba 0ee4 e13b 19fb 2dbb a39d ff3a
00000020: 54f1 6abc 924a e7bb 7cd2 26bb 9a59 20ba
00000030: 3876 433b 9bef 533a 63e6 a8bc 9d5d 73bb
00000040: 8782 c5ba bf9a 04bc bd8a c1ba 6502 fbbb
00000050: 1fb3 bcbb 52fc abba 2830 04b9 faf8 2dbb
00000060: 1229 e4bb e5a5 87bb 80f6 3fbb 213d 933b
00000070: 2f78 49bc c134 f0bb f837 0dbc 41bc a9bb
00000080: 5be7 cbbb 6882 a9bb 24b3 dabb a0c8 cfba
00000090: 4593 b8bb 7d52 b439 8213 b9bb ca0a 23bb
000000a0: 7dc4 d0ba 2163 e3bb 1578 07bb 8eb0 0cbc
000000b0: 4c16 03bc d0d9 1a3c cac3 27bc ad42 b6bb
000000c0: 8598 8abc fec4 5e3a e6f9 79ba bd20 9ebb
000000d0: 02f0 6fbb 4e7b 8ebb 8088 9ebb d60d 9bbb
000000e0: 011a 03ba 13eb c3ba b6f8 5dba 81c1 76bb
000000f0: 64f7 193b 2569 18bc 0922 5bbb 1fc4 4cba
00000100: 24e7 20bb a4ef 72bb 5722 acbb 77be 24bc
00000110: bf80 a2bb 1d3c b7bb e222 50bb 2e8f ceba
00000120: 6190 adbb 5911 a1ba f107 bfba b9aa f4bb
00000130: 61bc c3bb 3441 a83b f5a1 18bb e416 ef3a
00000140: a673 63bb 7963 70bb c3ef d1ba 1275 0abc
00000150: 8777 0fbb 8b3d a73a 5879 a0bb c8a1 77bb
00000160: 3751 353a 3186 ed3a 351e 08ba 40d5 1b3b
00000170: f0ec 0037 ad5c 54bb b5f7 6b3a 7736 c1bb
00000180: c2cf b3bb 2f22 98bb 0071 e639 0666 a0bb
00000190: 3059 82bb 80ef 41bc 37e7 92bb 5c17 46b9
000001a0: 1408 13bc 517c b9bb 3c0a ddb9 fdc1 25bb
000001b0: f77d abbb bec4 9abb 0315 d4bb 2cb0 7dbb
000001c0: 71c8 2f3b 8a4b 14bc 7b0d 55bc 6d77 20bb
000001d0: 7177 e5bb d6a0 7fbb c854 86bb 09e9 fe3a
000001e0: c709 09bc 0dd4 29bc f2d5 1abb 24b7 19bb
000001f0: 5ed3 db3b 5b3c f2bb 8704 3dbb ce55 8f3a
-0.002779316 -0.0074122692 -0.004398832 -0.0022584018 -0.0012932922 0.0068936413 -0.002654737 0.0019501935
-0.014339764 -0.00705845 -0.0025455048 -0.00061168673 0.0029825103 0.0008084715 -0.02061767 -0.0037134655
-0.0015068807 -0.008093535 -0.0014766079 -0.0076601976 -0.0057586576 -0.0013121462 -0.0001260644 -0.0026546107
-0.006962904 -0.004139649 -0.0029291213 0.004493371 -0.01229672 -0.0073305075 -0.008619301 -0.0051799123
-0.006222648 -0.0051730163 -0.0066741873 -0.0015852638 -0.0056327903 0.00034393734 -0.0056480775 -0.0024878257
-0.0015927699 -0.0069393073 -0.002067094 -0.008587016 -0.008000921 0.009451345 -0.010239551 -0.0055621476
-0.01691843 0.0008497982 -0.0009535834 -0.00482568 -0.0036611562 -0.004348195 -0.0048380494 -0.004731874
-0.00050011283 -0.0014947377 -0.0008467542 -0.0037651958 0.0023493404 -0.009302412 -0.0033437035 -0.0007811207
-0.0024551833 -0.0037069106 -0.005253117 -0.010055176 -0.0049591954 -0.005591883 -0.0031759073 -0.0015759224
-0.0052967523 -0.0012288495 -0.001457451 -0.007466641 -0.0059733842 0.005134726 -0.0023289893 0.0018241075
-0.0034706383 -0.0036680384 -0.0016016889 -0.008450763 -0.0021891312 0.001275943 -0.004897278 -0.0037785638
0.0006916704 0.0018121657 -0.00051924895 0.002377823 7.684561e-06 -0.0032403872 0.000900145 -0.0058963853
-0.005487413 -0.004642747 0.0004395321 -0.0048949746 -0.003977917 -0.011836886 -0.0044831294 -0.00018891454
-0.008974094 -0.0056605716 -0.0004216003 -0.0025292628 -0.005233522 -0.0047231605 -0.0064722314 -0.0038709743
0.0026822353 -0.009051213 -0.013003702 -0.0024485246 -0.007002764 -0.0039005778 -0.004099462 0.0019448112
-0.0083641475 -0.010365498 -0.0023626056 -0.0023455108 0.0067085465 -0.007392449 -0.002884181 0.0010935606

action_model._continuous_distribution.log_sigma f4 [1, 2]
00000000: ce9e 6d3c 8c27 853c
0.014503194 0.016254209

action_model._continuous_distribution.mu.weight f4 [2, 128]
00000000: d625 a83c 8a78 363c fba4 cb3b 3256 753c
00000010: cb55 28bc 09b8 d63a b3b9 7a3b 4837 873b
00000020: 47c0 b1ba 34fa 86bc b834 f93c 5ed8 03bb
00000030: bfed 01bb a7ef d43b 7f6c f837 ef24 0a3a
00000040: 76dd 363c 3333 053c 9049 51bc 2c0c da3b
00000050: 2622 d43b e85a 673c 69d7 49bc 99c6 e73c
00000060: 9eff 4ebb 95b9 033c 9896 90bc a8dc 8b3b
00000070: 45a8 353a 4ed9 f53b 00bc a73b 4ef2 75bc
00000080: eea8 b2bc 9392 8ebb 4cfe ed3c 42f0 94bc
00000090: ebdf e2b8 2640 643b abdc 8e3c b2bf 0c3d
000000a0: 61da f63c 42fc 1cbc 5bf9 2c3b 075f 1e3c
000000b0: 875e 823b 4c97 cabc dc68 14bb ae52 1abc
000000c0: e89b ad3a e8b5 22bc e6e5 91bc c0e7 f63b
000000d0: 4c92 083c 8ad5 5d3c 6569 75ba 9c31 f33c
000000e0: 910b b53c 5602 16bc 3a2c 733c 0ce0 bd3c
000000f0: e077 63bc ce4e 84bb 2b93 f0bc 3b1e 6c3b
00000100: 9150 e7bb a61c 703c 7ff0 d13c 451a 60ba
00000110: d5a8 f7bb 5dd2 873b 5f41 4a3c 08cb dabc
00000120: 4538 7ebc 671d 973c 300b 8d3c 8e4c 87bb
00000130: a712 813a 4e4b 6e3c 8e6e abbb 2c6c dfbb
00000140: 8fa6 123d 0e4f 503c ece9 53bd 8c29 013c
00000150: f82d c4bb e038 87bc 82d5 9ebc 1f35 35bc
00000160: 2e18 2c3c 3d17 153d e6d9 79bc 8265 91bc
00000170: b3a8 d1bb 199c c2bb 51b6 8fbb 1db9 733a
00000180: 8693 fabb 4fb8 4cbc caa1 8c3c 35c1 933a
00000190: decf 35bc 6141 1f3a 045c 38bc 021b bb3c
000001a0: 96ee 1d3b 9d71 10bc dfc6 4b3c 19ac ff3c
000001b0: 835c 26bd 8bdf bd3a 93cc cd3b f537 f0bb
000001c0: 04c7 b6ba dce8 0bbc f5bb 173b 4b69 193d
000001d0: e15e 903b 60b8 8a3c 4e12 083c 3626 b7bb
000001e0: a738 11b9 0327 a93b e33c 973b 4e72 4fbc
000001f0: 67c8 973b abd8 c23b e29d 2ebb a252 44bb
00000200: cb22 00bc 518e 8d3c c014 883c ae01 15bb
00000210: a58e 39bc 78e6 a8bc 3c84 4dbc f4bb f9bb
00000220: c523 a33a fc9f 883c 13dd 513c 54f6 30bc
00000230: 7fbf babb 0fd2 81bc 20dc 3aba ea8e c13b
00000240: dddf e8bb 06b1 763c b7e4 033c 3c0c 0a3b
00000250: 75fd 09bc f053 cbbc c301 30bc fecc 2f3c
00000260: 955f 863c 5b3f 32bb 3ac4 cb3b 68b7 05bd
00000270: 62ea a1b9 2d01 88bb 6daa 7537 d702 a6ba
00000280: a8e6 ae3b d074 a83b 81ce 803c 8f5f a83c
00000290: 3e4d 473c 678f edbc 45a0 b4bb 6c24 cd3b
000002a0: 561b 3bbb ef1b 84ba 1a6f 65bb 2ebf 9eba
000002b0: f40a 423c a561 b6bb 4e3b f83b 7843 faba
000002c0: b8fb 8bb8 aed6 4ebc c57d a8bc 5731 1eba
000002d0: e928 0f3d b4c1 313d 53e0 77bb 0d5a d33c
000002e0: cc39 8abb cdc5 96bb 84c5 11bc 6b45 05bc
000002f0: 3b93 cfbc 91e0 ef3b 74cf 133c efca 06bc
00000300: 4361 19bc 76ea 23ba 4c4b 33ba 5f9b 6d3a
00000310: ee66 693c 9772 cf3c ef05 913a e6df dfbb
00000320: 392f 45bc e282 84bc 074e b93c d532 41bb
00000330: 594d 363b 21e1 393c 885a 1abc 278b d9bc
00000340: ba47 c13b 79a6 0fbb 479a 89bc 4b74 ab3b
00000350: d5a5 493b 309a 88bc ac8e 613c 830e 8d3c
00000360: ec95 8dbc b0b7 23bd 7517 0abc a15f cbbc
00000370: 6e20 00bd 484e ad3a 7484 98bc 78b6 02bd
00000380: a019 6d3d b99d 95bb a633 3fbc 9a35 45b8
00000390: cd9a 843c 2d86 52b9 8ba2 edb8 6659 7dbc
000003a0: cc29 463b 8fdc 9c3c f87a 83bb fe62 d33b
000003b0: 0033 a23c 9dda 4abb 0607 51bb fc5e 24bc
000003c0: f5a2 bcbc 3208 383c c0ca c93b 88f2 5d3c
000003d0: 3aef 373c 65f1 033c 7e49 e9bb f921 fbbc
000003e0: bfcb adba cfb7 f53a 7627 d8bc 6236 653c
000003f0: 0605 c93c 4a31 a23b d463 45bb a59d f3bc
0.020525854 0.011137137 0.0062147356 0.014974164 -0.010274361 0.0016381751 0.0038257658 0.004126463
-0.0013561331 -0.016476728 0.030420646 -0.0020117979 -0.0019825546 0.0064982953 2.9614426e-05 0.0005269786
0.011161199 0.008129883 -0.012773886 0.006654283 0.0064737974 0.014120795 -0.012319424 0.02829294
-0.0031585465 0.008039852 -0.017649934 0.0042682476 0.0006929676 0.0075027114 0.005118847 -0.015011383
-0.021809068 -0.004350969 0.029051922 -0.01818097 -0.00010818228 0.0034828275 0.017439207 0.034362502
0.030133428 -0.009581627 0.0026393745 0.009666211 0.0039785537 -0.024730347 -0.002264551 -0.009419126
0.0013245316 -0.009931065 -0.01780982 0.007534951 0.008335661 0.013539681 -0.00093617133 0.029686742
0.022100242 -0.00915583 0.014842087 0.023178123 -0.013883561 -0.0040377146 -0.02936705 0.003602876
-0.007059165 0.014655268 0.025627373 -0.00085488363 -0.007557968 0.0041449503 0.012344687 -0.026708141
-0.015516345 0.018446637 0.017217249 -0.004128999 0.0009847478 0.014544321 -0.005231685 -0.006818315
0.035803374 0.012714161 -0.051736757 0.007883441 -0.005986925 -0.016506612 -0.019388918 -0.011060028
0.010503812 0.036399115 -0.015249705 -0.017748598 -0.0063982843 -0.0059390184 -0.0043857475 0.00092972984
-0.0076469807 -0.0124951145 0.01716699 0.001127279 -0.011096923 0.0006075111 -0.011252407 0.022840027
0.0024098507 -0.00881615 0.012437551 0.031209992 -0.04061557 0.0014486177 0.0062804907 -0.0073308893
-0.0013944809 -0.008539405 0.0023152803 0.03745393 0.0044058417 0.01693362 0.008305145 -0.005589272
-0.00013849382 0.0051621213 0.0046154126 -0.01266153 0.004632044 0.005946239 -0.0026644398 -0.002995648
-0.007820795 0.017279776 0.016611457 -0.0022736597 -0.011325513 -0.020617709 -0.012543734 -0.0076212827
0.0012446573 0.016677849 0.012809056 -0.010800917 -0.0056990976 -0.015847234 -0.0007128138 0.0059069293
-0.0071067647 0.015056854 0.008050135 0.002106442 -0.008422245 -0.024820298 -0.0107426075 0.010730026
0.016402999 -0.0027198407 0.0062184604 -0.032645613 -0.00030882942 -0.004150531 1.4642818e-05 -0.0012665641
0.005337555 0.0051408783 0.015723469 0.020553378 0.012164412 -0.028999044 -0.0055122697 0.0062604453
-0.002855023 -0.0010079126 -0.0035008849 -0.0012111419 0.011843432 -0.0055658394 0.007575429 -0.0019093594
-6.674923e-05 -0.012624426 -0.020567784 -0.0006034574 0.034951124 0.04339762 -0.0037822917 0.025799775
-0.0042183157 -0.0046012164 -0.008897189 -0.008134226 -0.02533876 0.0073204716 0.009021629 -0.008227094
-0.009361568 -0.0006252894 -0.0006839528 0.00090639846 0.014245732 0.025323195 0.001106439 -0.0068321107
-0.012035185 -0.016175691 0.022620214 -0.002947976 0.00278171 0.011345179 -0.009420998 -0.02655561
0.005898443 -0.0021919294 -0.016797198 0.005232369 0.003076901 -0.016675085 0.013766926 0.017218834
-0.017283402 -0.0399701 -0.008428444 -0.024825873 -0.031280927 0.0013222182 -0.018617846 -0.031912297
0.057885766 -0.004565921 -0.011670029 -4.701838e-05 0.016187096 -0.00020077145 -0.00011331317 -0.015463209
0.0030237315 0.01914814 -0.0040124618 0.00645101 0.01979971 -0.0030953058 -0.0031895055 -0.010032412
-0.023026923 0.011232423 0.006158203 0.0135465935 0.01122647 0.008053158 -0.0071193567 -0.030655848
-0.0013259574 0.0018746796 -0.026386004 0.013990017 0.024538528 0.0049497234 -0.0030119317 -0.029738257

action_model._continuous_distribution.mu.bias f4 [2]
00000000: 607f 5c37 e30b 73bb
1.3142679e-05 -0.0037085942
