results/hideandseek_15/Hide/Hide-10017.onnx (onnx, 162766 bytes, 7 tensors)

network_body._body_endoder.seq_layers.0.weight f4 [128, 177]
-0.02564876 -0.28958 0.14550893 0.03459096 -0.032891385 0.0032795018 0.085279875 -0.19746014
0.09428663 0.06526158 -0.30595195 -0.10334554 0.031203784 -0.21537623 -0.050786354 -0.017388094
-0.124288395 -0.0481237 0.02418092 -0.09924605 0.07641741 0.021771079 0.027508857 -0.0896843
-0.026534785 -0.2650851 -0.1477914 -0.119351685 -0.06354768 -0.16788445 -0.027884461 -0.3728651
0.0029386163 0.11751585 0.096978 0.018909577 -0.041123245 -0.25001875 -0.1672519 -0.18456686
0.048537787 -0.18105802 -0.033957805 -0.14856686 -0.041959424 0.21605732 -0.019621126 -0.08921802
0.11735335 -0.1966038 0.064617954 -0.17166452 0.012320689 -0.053978797 0.07766215 -0.16426525
-0.019790018 0.096884504 -0.056237716 -0.09504924 -0.060097307 -0.24592805 0.09170442 -0.098053895
-0.0837068 -0.14372724 0.054116257 -0.29685658 -0.08605323 0.14556968 0.006438135 -0.08580448
-0.0075469776 -0.2270952 0.033073835 -0.15289356 -0.04724434 -0.20812367 -0.09993635 -0.1463701
-0.02607955 0.19611701 0.065045 0.10313759 0.15629262 -0.1262533 0.2090913 0.1043936
-0.19618261 -0.18077864 0.1024545 -0.3074852 -0.04075728 0.017949985 0.01754098 -0.10768171
0.019404767 -0.05607067 0.04965618 0.17172578 -0.1870786 0.0033211887 0.048735827 -0.21392673
0.06931958 -0.16441195 0.21616982 0.025759494 0.12600574 -0.16292374 -0.1531097 0.0945683
-0.23378797 -0.19832832 -0.08439724 -0.26724872 0.012584692 -0.25260738 -0.027435796 -0.1899865
-0.055588897 -0.38021597 0.052468386 0.3425604 -0.14368294 -0.15348618 -0.0050871726 -0.15236256
-0.041886393 -0.03538189 -0.08697686 -0.25143147 0.019983923 -0.34172526 0.118242286 -0.08304506
-0.05764043 -0.22944899 -0.013060178 -0.1639585 0.047730785 -0.037500568 -0.005390306 -0.18428859
-0.015445376 -0.25093648 -0.017451534 0.21875472 -0.040584896 -0.2589792 -0.0015833625 -0.19061871
-0.1556043 0.06973336 0.09980457 -0.17502566 0.017710324 -0.20355788 0.007500278 0.046087477
-0.052284326 -0.31341863 -0.0006862531 -0.113313615 -0.024092102 -0.26388255 0.08684733 -0.10414909
0.10451341 -0.048311614 -0.0725627 0.035266474 -0.03373912 -0.002057851 -0.01780964 -0.14027753
-0.040252637 0.10098417 -0.015037873 0.14919513 0.15055509 -0.1362572 -0.10695108 -0.0028826392
-0.389127 0.11387926 -0.09086171 0.13651493 0.057081126 0.15174866 -0.011898156 0.0033789126
0.06327074 -0.29145733 -0.12516995 -0.055913165 -0.12413238 -0.089149274 -0.20156206 0.22162455
0.105013505 0.09431916 -0.123165414 0.15671672 -0.06722507 -0.1460582 -0.23947948 0.08774106
-0.11533594 0.02506592 -0.18893889 0.28884754 0.06086765 -0.00050713477 -0.073258 -0.043698616
-0.10076949 0.15837266 -0.18956763 0.018807156 -0.10019247 0.0014698202 -0.21391316 0.07114816
-0.4717116 -0.17538059 -0.05060285 -0.18762115 -0.09291142 -0.049669158 -0.4811179 0.02134581
-0.09556424 0.11950346 -0.106935814 -0.07013907 -0.47099996 -0.05110297 -0.0129749365 0.117325395
0.075663835 -0.02385864 -0.29578182 0.013288459 -0.051823243 0.0067343195 0.09396002 -0.13236985
-0.50569767 -0.06251709 -0.11044472 0.07078078 -0.015253703 -0.18624818 -0.24108757 -0.15344143
00000000: 591d d2bc d443 94be 4b00 153e 40af 0d3d
00000010: 1eb9 06bd e9ec 563b 37a7 ae3d fe32 4abe
00000020: 5919 c13d dda7 853d bca5 9cbe d4a6 d3bd
00000030: 149f ff3c 968b 5cbe 5a05 50bd 7a71 8ebc
00000040: ea8a febd 5b1d 45bd 1117 c63c 8341 cbbd
00000050: bb80 9c3d 4359 b23c 415a e13c 67ac b7bd
00000060: 7a5f d9bc 3cb9 87be a156 17be a86e f4bd
00000070: 4925 82bd e7e9 2bbe f46d e4bc 2de8 bebe
00000080: cd95 403b 26ac f03d 679c c63d 42e8 9a3c
00000090: d970 28bd 7502 80be 1544 2bbe 18ff 3cbe
000000a0: 8fcf 463d 4667 39be 5717 0bbd e921 18be
000000b0: a5dd 2bbd 213e 5d3e 7cbc a0bc f0b7 b6bd
000000c0: f456 f03d 8252 49be 6b56 843d d3c8 2fbe
000000d0: b7dc 493c df18 5dbd 550d 9f3d 2635 28be
000000e0: ad1e a2bc 626b c63d 8559 66bd 2da9 c2bd
000000f0: 9828 76bd 90d4 7bbe 87cf bb3d 7bd0 c8bd
00000100: 796e abbd 3c2d 13be 02a9 5d3d 96fd 97be
00000110: ad3c b0bd 3810 153e fef6 d23b 42ba afbd
00000120: a34c f7bb a58b 68be 6e78 073d 2190 1cbe
00000130: 4883 41bd 5f1e 55be 6eab ccbd 0be2 15be
00000140: c8a4 d5bc e6d2 483e 5036 853d cd39 d33d
00000150: 2c0b 203e 8c48 01be 081c 563e 50cc d53d
00000160: 18e4 48be 091e 39be aad3 d13d b36e 9dbe
00000170: 1bf1 26bd d90b 933c 1ab2 8f3c 3a88 dcbd
00000180: bff6 9e3c 5caa 65bd 4764 4b3d e2d8 2f3e
00000190: 8891 3fbe 4da8 593b 389f 473d 9c0f 5bbe
000001a0: 6df7 8d3d 9b5b 28be 9f5b 5d3e 9305 d33c
000001b0: a607 013e 7bd5 26be cac8 1cbe 06ad c13d
000001c0: 1d66 6fbe 9416 4bbe 76d8 acbd d3d4 88be
000001d0: 0630 4e3c c155 81be 09c1 e0bc d28b 42be
000001e0: 2fb1 63bd abab c2be 17e9 563d 1464 af3e
000001f0: 9f21 13be 7b2b 1dbe 4cb2 a6bb ee04 1cbe
00000200: 1191 2bbd 9aec 10bd ed20 b2bd a0bb 80be
00000210: 53b5 a33c 9df6 aebe 0329 f23d 8713 aabd
00000220: 5f18 6cbd adf4 6abe 5bfa 55bc bde4 27be
00000230: 5b81 433d 329a 19bd 2aa1 b0bb 26b6 3cbe
00000240: 9a0e 7dbc bf7a 80be 85f6 8ebc 3d01 603e
00000250: 593c 26bd ec98 84be d488 cfba 8d31 43be
00000260: bc56 1fbe 5dd0 8e3d 5766 cc3d ed39 33be
00000270: 3e15 913c 7a71 50be e4c4 f53b 39c6 3c3d
00000280: 1728 56bd 6878 a0be aae5 33ba f810 e8bd
00000290: cd5c c5bc 9d1b 87be 03dd b13d 1e4c d5bd
000002a0: 200b d63d 66e2 45bd c19b 94bd 9473 103d
000002b0: 0832 0abd 03dd 06bb 86e5 91bc eaa4 0fbe
000002c0: f3df 24bd cad0 ce3d 6961 76bc 9cc6 183e
000002d0: 1d2b 1a3e 0287 0bbe 2b09 dbbd a9ea 3cbb
000002e0: a73b c7be 8839 e93d b415 babd 92ca 0b3e
000002f0: e6cd 693d 0064 1b3e 7cf0 42bc bf70 5d3b
00000300: 1794 813d e539 95be 8d2c 00be 3405 65bd
00000310: 1e39 febd e593 b6bd 4966 4ebe 8cf1 623e
00000320: 5211 d73d 672a c13d 263e fcbd 597a 203e
00000330: 4cad 89bd 4890 15be 1c3a 75be 96b1 b33d
00000340: 4035 ecbd 0b57 cd3c 3279 41be d3e3 933e
00000350: 5b50 793d 3df1 04ba 4a08 96bd 52fd 32bd
00000360: 3c60 cebd 712c 223e 041e 42be 7711 9a3c
00000370: b631 cdbd fba6 c03a 0d0c 5bbe 20b6 913d
00000380: 2f84 f1be f896 33be ef44 4fbd c21f 40be
00000390: 5848 bebd e371 4bbd 1655 f6be 68dd ae3c
000003a0: 2fb7 c3bd 3bbe f43d 2a01 dbbd 13a5 8fbd
000003b0: e826 f1be 5951 51bd d494 54bc 4c48 f03d
000003c0: a4f5 9a3d 3273 c3bc b770 97be d6b7 593c
000003d0: 9c44 54bd 91ab dc3b 1c6e c03d f68b 07be
000003e0: 6775 01bf f608 80bd d730 e2bd 83f5 903d
000003f0: abea 79bc d8b7 3ebe a9df 76be c01f 1dbe

network_body._body_endoder.seq_layers.0.bias f4 [128]
-0.23433289 -0.0842343 -0.28067955 -0.11376184 -0.064873286 -0.11384158 -0.14563043 -0.025251873
-0.15959615 -0.2079052 -0.2337614 -0.2525412 -0.30747932 -0.15095393 -0.20171401 -0.120759085
-0.1035009 0.0030875339 0.21640973 0.12972967 -0.36558536 -0.11334897 -0.10086808 -0.090118825
-0.28706276 0.13221599 -0.30526173 -0.11433593 0.088748366 -0.21580581 -0.030321222 -0.09186046
-0.14864747 0.11088374 0.039324824 -0.18136147 -0.26101792 -0.19904715 -0.10510085 -0.1253202
-0.08924136 -0.14312895 0.021180486 -0.15563717 0.171885 -0.17818548 0.12437403 -0.066994935
-0.30997744 -0.2211318 -0.15447174 -0.11218104 0.17409009 0.14014436 0.018720895 -0.11655348
-0.013129596 -0.0995362 -0.10463748 -0.17854443 -0.070176825 0.041190587 -0.19133775 0.027590321
-0.12745687 -0.098044656 -0.14815202 -0.10361879 -0.16237503 -0.39487725 -0.24345145 -0.084208265
-0.15435956 -0.105376154 0.13853624 -0.24560529 -0.11511875 -0.116731964 -0.17729998 -0.009508453
-0.12393476 -0.09885746 -0.16034909 0.18120338 -0.10920286 0.25264153 -0.13777594 -0.27221087
-0.13446581 0.07063636 0.07749641 -0.29193056 -0.28548393 -0.29627255 -0.30796888 -0.039545257
-0.19604 -0.12182878 -0.1296805 -0.11111432 -0.08687998 -0.042300384 -0.20388332 -0.013077601
-0.12457696 -0.053063102 -0.12706502 -0.15742007 -0.0073129996 -0.104471155 -0.19270639 -0.20216468
-0.14460373 -0.28163192 0.11928355 -0.16913266 -0.016035723 -0.20960402 -0.10246427 -0.26144838
-0.25223762 -0.1982306 -0.12620719 -0.008977725 0.2262734 -0.015361892 -0.03341652 -0.18002634
00000000: f6f4 6fbe 0883 acbd 3bb5 8fbe f8fb e8bd
00000010: 49dc 84bd c625 e9bd 2520 15be 04dd cebc
00000020: 2c6d 23be 1ae5 54be 265f 6fbe 154d 81be
00000030: ee6d 9dbe ab93 1abe 1e8e 4ebe 8a50 f7bd
00000040: 48f8 d3bd 3958 4a3b 839a 5d3e dbd7 043e
00000050: 012e bbbe 8123 e8bd ed93 cebd 3890 b8bd
00000060: e4f9 92be a163 073e 444b 9cbe f528 eabd
00000070: b4c1 b53d 33fc 5cbe 3664 f8bc 5621 bcbd
00000080: 0b37 18be 0417 e33d 1113 213d d2b6 39be
00000090: 24a4 85be 04d3 4bbe 1d3f d7bd f053 00be
000000a0: 2dc4 b6bd 6590 12be b382 ad3c 5a5f 1fbe
000000b0: 9f02 303e 4176 36be d0b7 fe3d a434 89bd
000000c0: 5db5 9ebe 6070 62be d72d 1ebe 2cbf e5bd
000000d0: ac44 323e 0182 0f3e 905c 993c 97b3 eebd
000000e0: 841d 57bc a3d9 cbbd 2d4c d6bd 5ad4 36be
000000f0: deb8 8fbd 76b7 283d 0bee 43be 1905 e23c
00000100: 0e84 02be a3cb c8bd 2ab5 17be 1736 d4bd
00000110: a445 26be 5a2d cabe 564b 79be 6275 acbd
00000120: 6f10 1ebe 74cf d7bd 72dc 0d3e f47f 7bbe
00000130: 61c3 ebbd 2b11 efbd 208e 35be 58c9 1bbc
00000140: 82d1 fdbd c875 cabd 8d32 24be 618d 393e
00000150: c0a5 dfbd 3b5a 813e 2315 0dbe 395f 8bbe
00000160: 68b1 09be cca9 903d 70b6 9e3d ec77 95be
00000170: f32a 92be 09b1 97be 19ae 9dbe 35fa 21bd
00000180: b6be 48be 5e81 f9bd f7ca 04be e88f e3bd
00000190: 22ee b1bd 2b43 2dbd cac6 50be 6f43 56bc
000001a0: 3522 ffbd b258 59bd 551d 02be ba32 21be
000001b0: e3a1 efbb f9f4 d5bd d354 45be 4204 4fbe
000001c0: 0013 14be 0f32 90be ef4a f43d 1d31 2dbe
000001d0: 595d 83bc 70a2 56be cad8 d1bd 90dc 85be
000001e0: 4a25 81be f6fc 4abe 753c 01be 4f17 13bc
000001f0: 37b4 673e 72b0 7bbc c3df 08bd d358 38be

network_body._body_endoder.seq_layers.2.weight f4 [128, 128]
0.035634093 -0.026940031 0.27447695 0.103539675 -0.0337964 0.16555972 0.037382334 -0.2513039
0.21147569 0.058106154 0.18403246 0.013721549 -0.057623256 0.045705386 -0.03242193 -0.009506725
-0.059997767 -0.010158688 0.01960215 0.025715815 -0.0452051 0.3681587 0.06250366 -0.061431006
-0.06640005 0.0083910385 0.07051731 0.19108973 -0.20155166 0.084196754 0.100688815 0.094542906
0.2347697 -0.041009318 -0.10085267 -0.0015171063 0.20074043 0.01364388 0.06589548 0.23617667
0.16704784 -0.00335652 -0.1100024 0.04791986 -0.17789072 0.06636978 -0.074042015 -0.010913104
0.03149593 -0.16313669 -0.078280315 0.062442593 -0.3419607 0.009788853 -0.29696828 0.07647678
0.20553887 0.036245663 0.07798434 -0.21489279 0.09254799 -0.34805757 0.15459497 -0.09266244
0.0045552226 0.06391202 -0.08995709 0.010753954 -0.035427526 0.20371775 0.0049052313 0.021362016
-0.15215166 -0.029357705 -0.2426178 -0.069247566 0.10519264 0.07523391 0.008533607 -0.11973041
0.021407194 0.10588122 0.047386743 -0.09724287 -0.08800654 -0.034531135 -0.2258604 -0.06348889
-0.20964351 0.0011119288 -0.10384626 0.10123303 0.1628483 0.13615243 -0.09550851 -0.13261513
0.009105336 0.10879967 -0.10680127 0.08438674 -0.060050573 -0.3286103 0.119942866 0.13388467
0.061468396 -0.10113369 -0.014410675 0.061506625 -0.23631383 0.0262672 0.17127445 0.024322582
0.055474438 -0.038734853 -0.08456502 0.24707414 -0.14011776 0.04865776 0.08470959 -0.16515365
0.08679822 0.034094855 0.07896795 0.01530775 -0.04335971 -0.015190148 0.029390074 0.073068604
0.20085618 -0.020384714 -0.040710397 0.15071656 0.111657724 0.017077075 0.1345789 -0.061449468
0.09943709 0.052492063 0.021777106 0.03823801 -0.04632684 -0.014684512 0.034471255 -0.15396553
-0.030180234 -0.044891566 0.08527822 0.08703131 -0.035615847 -0.043760236 0.06102943 0.15943626
0.16780688 0.034675926 -0.012581222 0.040869106 0.036913615 -0.03357345 -0.061164808 -0.040407136
0.12972845 -0.19913311 -0.14534883 0.3029354 0.09858355 -0.028594954 -0.13838981 0.028875733
-0.17161913 -0.0033295385 0.021911101 0.08273694 -0.11555814 0.0888329 -0.049281836 -0.12671779
-0.13340662 0.08686114 -0.117672555 0.059913494 -0.2658116 -0.16383503 -0.16993812 -0.3235038
-0.0085131535 -0.07008807 0.10537327 0.055536237 -0.004785574 -0.21684831 0.18168037 -0.2993695
-0.017610507 0.13117884 -0.05081778 -0.056619436 -0.22839315 0.085378096 0.12677558 0.2575967
0.10898457 -0.1365326 -0.13497336 -0.12854323 0.05605236 0.2678704 -0.12433502 -0.12964362
-0.1304481 -0.11913987 0.26671436 -0.22431204 -0.03433231 -0.1764554 -0.14790998 -0.2887437
-0.06325294 0.20406598 0.018401137 -0.116787195 0.03570533 -0.08775721 0.22967425 0.027124267
0.1101013 0.22743572 -0.11063396 0.06692655 0.0019246105 -0.16917859 -0.062465616 0.28319168
-0.19009429 0.11504958 0.062106077 -0.10347785 0.029313557 0.08685471 0.10710064 0.0067869513
0.006089676 -0.19686857 0.0137356175 0.16718006 0.11162351 0.0018470531 0.078993864 -0.18770543
-0.19519156 -0.01874775 0.121068336 -0.15847357 -0.14914912 0.02625001 -0.08063698 -0.23481584
00000000: 0ef5 113d 57b1 dcbc 3e88 8c3e 9c0c d43d
00000010: 186e 0abd 7d88 293e 381e 193d e8aa 80be
00000020: 158d 583e b800 6e3d 0173 3c3e 59d0 603c
00000030: 5d06 6cbd 9235 3b3d dccc 04bd 18c2 1bbc
00000040: 38c0 75bd a070 26bc b094 a03c f9a9 d23c
00000050: fc28 39bd 4c7f bc3e eb01 803d 149f 7bbd
00000060: c0fc 87bd 917a 093c 616b 903d 07ad 433e
00000070: 8f63 4ebe 596f ac3d f035 ce3d b69f c13d
00000080: 7867 703e 63f9 27bd d88b cebd a4d9 c6ba
00000090: e68e 4d3e 958a 5f3c 36f4 863d 4cd8 713e
000000a0: 970e 2b3e 10f9 5bbb f048 e1bd 9d47 443d
000000b0: fc28 36be e1ec 873d 57a3 97bd e0cc 32bc
000000c0: e001 013d 4e0d 27be 6e51 a0bd cec3 7f3d
000000d0: 7915 afbe 6d61 203c 3a0c 98be dc9f 9c3d
000000e0: c878 523e 5576 143d 41b6 9f3d db0c 5cbe
000000f0: cd89 bd3d 9a34 b2be 254e 1e3e cec5 bdbd
00000100: fa43 953b 4ee4 823d 6c3b b8bd 5a31 303c
00000110: 741c 11bd 639b 503e 10bc a03b 65ff ae3c
00000120: a5cd 1bbe 927f f0bc cd70 78be abd1 8dbd
00000130: 3d6f d73d 3c14 9a3d 8bd0 0b3c 3835 f5bd
00000140: 245e af3c 41d8 d83d 9a18 423d 4527 c7bd
00000150: c63c b4bd 8570 0dbd f347 67be 7706 82bd
00000160: caac 56be 24be 913a 59ad d4bd 4353 cf3d
00000170: b4c1 263e 8b6b 0b3e f799 c3bd 43cc 07be
00000180: 8c2e 153c 5dd2 de3d a0ba dabd f5d2 ac3d
00000190: 97f7 75bd 9c3f a8be 9ba4 f53d 1019 093e
000001a0: 49c6 7b3d 2e1f cfbd c01a 6cbc 5fee 7b3d
000001b0: 41fc 71be 502e d73c 9262 2f3e 2740 c73c
000001c0: 2a39 633d 70a8 1ebd 6d30 adbd 0101 7d3e
000001d0: 087b 0fbe 5c4d 473d 397c ad3d 0a1e 29be
000001e0: 44c3 b13d 0ca7 0b3d f3b9 a13d 5bcd 7a3c
000001f0: f499 31bd 19e0 78bc 74c3 f03c fea4 953d
00000200: 3ead 4d3e d8fd a6bc f2bf 26bd 7155 1a3e
00000210: ceac e43d 39e5 8b3c 0dcf 093e 70b2 7bbd
00000220: aca5 cb3d eb01 573d e765 b23c 769f 1c3d
00000230: 36c1 3dbd 4f97 70bc bb31 0d3d 24a9 1dbe
00000240: 8a3c f7bc 38e0 37bd 59a6 ae3d 793d b23d
00000250: ece1 11bd ef3d 33bd fff9 793d 4243 233e
00000260: 91d5 2b3e 5808 0e3d 7821 4ebc 5d66 273d
00000270: bb32 173d 5084 09bd f387 7abd f481 25bd
00000280: 89d7 043e 8de9 4bbe 53d6 14be 591a 9b3e
00000290: 2ce6 c93d f73f eabc 0fb6 0dbe cd8c ec3c
000002a0: edbc 2fbe 6334 5abb e97e b33c fc71 a93d
000002b0: bfa9 ecbd 06ee b53d c0db 49bd 4fc2 01be
000002c0: bf9b 08be 41e4 b13d 4ffe f0bd da67 753d
000002d0: 7518 88be 5fc4 27be 4204 2ebe 4aa2 a5be
000002e0: c17a 0bbc 568a 8fbd f1cd d73d f779 633d
000002f0: 4ed0 9cbb 7c0d 5ebe 6b0a 3a3e f646 99be
00000300: e943 90bc bf53 063e 4e26 50bd c8e9 67bd
00000310: e5df 69be b6da ae3d 75d1 013e b7e3 833e
00000320: 4d33 df3d 34cf 0bbe 7536 0abe d6a0 03be
00000330: 2997 653d 4f26 893e 5ca3 febd 4cc1 04be
00000340: 3094 05be 9bff f3bd c98e 883e 0eb2 65be
00000350: 09a0 0cbd b9b0 34be b775 17be 37d6 93be
00000360: c28a 81bd acf6 503e fbbd 963c 202e efbd
00000370: c13f 123d 0dba b3bd ba2f 6b3e b633 de3c
00000380: ca7c e13d e9e4 683e 0f94 e2bd c910 893d
00000390: 3643 fc3a 273d 2dbe f2db 7fbd 80fe 903e
000003a0: 14a8 42be 1d9f eb3d f162 7e3d 32ec d3bd
000003b0: fc22 f03c e2e0 b13d 9557 db3d 1365 de3b
000003c0: e88b c73b ea97 49be 5b0b 613c 4031 2b3e
000003d0: de9a e43d d118 f23a 89c7 a13d da35 40be
000003e0: 4ce0 47be e294 99bc adf2 f73d e546 22be
000003f0: 8cba 18be 430a d73c 0025 a5bd 9073 70be

network_body._body_endoder.seq_layers.2.bias f4 [128]
-0.19332191 -0.09398176 -0.16724911 -0.1478385 -0.436227 -0.37015295 -0.032043334 -0.01012295
-0.06094684 -0.36812901 0.021354502 0.087489784 -0.13208494 -0.1673787 -0.11280365 0.022279276
-0.15029827 -0.31468502 -0.25433066 -0.17986748 -0.027762396 -0.32459396 -0.26451346 -0.2623577
0.033606086 -0.39823306 -0.06541322 -0.28180268 -0.16226465 -0.023706578 -0.19233449 -0.22468059
-0.06603203 0.09261658 -0.11483685 -0.29901868 -0.16412047 -0.30520037 -0.29179215 -0.2562209
-0.23538747 -0.14160608 -0.12511574 -0.18179354 -0.09441901 -0.18957916 -0.1358056 -0.2018441
-0.1910532 -0.21091679 -0.07060898 -0.15349312 -0.28178018 -0.26846823 -0.15290478 -0.26462752
-0.053080928 -0.08137427 0.03671872 -0.29448134 -0.10364114 -0.27676222 -0.027835434 -0.36370367
-0.14644344 -0.056794718 -0.21844329 -0.27912036 -0.36116165 -0.12884776 0.026493512 -0.33035254
-0.16219902 -0.26022482 -0.28224772 -0.28369096 -0.26904154 -0.17019022 -0.1731642 0.13032256
0.06730092 -0.16967165 0.018653512 -0.25442803 -0.24464916 -0.1605461 -0.05148306 -0.27756158
-0.12473173 -0.2135389 -0.25059447 -0.07957306 -0.07017567 -0.10041683 -0.155248 -0.23553811
-0.097863615 -0.025660954 -0.13480937 -0.25637966 -0.098682515 -0.018788494 -0.2661971 -0.10801014
-0.13594337 -0.14488809 -0.2296051 -0.1011737 -0.086855866 -0.115511425 -0.43195894 -0.06407049
0.0053587263 -0.3096782 0.12838672 -0.07890978 -0.12340702 -0.0971233 -0.18058799 -0.42345256
-0.32415405 -0.22388567 -0.3570146 -0.1883048 -0.2803131 -0.3137925 -0.06138453 -0.3774743
00000000: 2ef6 45be 8279 c0bd 5a43 2bbe fa62 17be
00000010: 2559 dfbe b084 bdbe df3f 03bd bbda 25bc
00000020: 65a3 79bd 687b bcbe a3ef ae3c d82d b33d
00000030: 4641 07be 5265 2bbe 9a05 e7bd 0783 b63c
00000040: cae7 19be 651e a1be a137 82be 2e2f 38be
00000050: f76d e3bc 2e31 a6be 4f6e 87be c053 86be
00000060: 89a6 093d 34e5 cbbe 5ef7 85bd 7148 90be
00000070: b428 26be 4c34 c2bc 55f3 44be ab12 66be
00000080: cd3b 87bd c3ad bd3d 952f ebbd fa18 99be
00000090: 320f 28be 3943 9cbe c865 95be 632f 83be
000000a0: 6a09 71be 2f01 11be 571e 00be 1628 3abe
000000b0: c15e c1bd 0a21 42be a010 0bbe 38b0 4ebe
000000c0: 73a3 43be 92fa 57be 719b 90bd 4d2d 1dbe
000000d0: 7e45 90be ab74 89be 1293 1cbe 427d 87be
000000e0: 636b 59bd 8ea7 a6bd 5e66 163d 42c6 96be
000000f0: ce41 d4bd c7b3 8dbe 2307 e4bc 5e37 babe
00000100: 45f5 15be 94a1 68bd 99af 5fbe dde8 8ebe
00000110: 2eea b8be abf0 03be ec08 d93c f823 a9be
00000120: 8017 26be 303c 85be c682 90be f13f 91be
00000130: d0bf 89be 5846 2ebe f551 31be 4773 053e
00000140: 11d5 893d 68be 2dbe 40cf 983c 6444 82be
00000150: 4f85 7abe 3266 24be e7df 52bd 8d1c 8ebe
00000160: 5973 ffbd f1a9 5abe eb4d 80be 33f7 a2bd
00000170: 43b8 8fbd 57a7 cdbd 55f9 1ebe e730 71be
00000180: b86c c8bd ec36 d2bc 780b 0abe 3244 83be
00000190: 0f1a cabd 54ea 99bc fc4a 88be 6c34 ddbd
000001a0: bd34 0bbe 8b5d 14be 991d 6bbe 2834 cfbd
000001b0: 7de1 b1bd 4191 ecbd b929 ddbe 6437 83bd
000001c0: 4198 af3b 248e 9ebe cf77 033e 739b a1bd
000001d0: d2bc fcbd 95e8 c6bd 0fec 38be c6ce d8be
000001e0: 85f7 a5be 4942 65be 9eca b6be f9d2 40be
000001f0: 3385 8fbe 69a9 a0be 586e 7bbd 5044 c1be

action_model._continuous_distribution.log_sigma f4 [1, 2]
-0.34547946 -0.49759912
00000000: afe2 b0be 50c5 febe

action_model._continuous_distribution.mu.weight f4 [2, 128]
-0.031887997 0.030790666 -0.01686678 0.001644882 -0.044408493 -0.110932656 -0.008124185 0.09039205
-0.08411418 0.07662468 -0.085597485 -0.056026988 0.020489428 -0.03598174 0.015587774 0.18324517
-0.0012105104 -0.07814982 0.018482046 -0.057565704 0.080457225 -0.061808243 -0.10565156 -0.02824416
0.25022689 0.032934796 -0.041666985 -0.031706966 -0.1490076 0.092813276 -0.1159397 -0.097650714
0.052125975 -0.1788275 -0.013012039 -0.04905028 0.014709003 0.06468735 -0.040143304 -0.108605646
-0.070343524 -0.1377317 0.12522744 0.025071936 -0.015881116 -0.031321924 -0.028791578 -0.07432214
-0.04333074 -0.023213528 0.037349198 -0.068637915 0.04055293 -0.09756232 -0.0041409093 -0.047213923
0.051227745 0.033007815 -0.015554474 -0.093232915 0.12844549 -0.10590974 -0.008099571 0.04976715
-0.0056878035 0.011347084 0.010459522 -0.043844346 -0.09325132 -0.034914795 0.03200137 -0.08128422
0.08356811 -0.10312058 -0.11473259 -0.07314745 0.073909484 -0.025787026 -0.14123969 0.10049155
-0.15015772 -0.015708208 -0.14579481 -0.101243526 -0.047434915 0.017768156 0.12664323 0.068258695
-0.059486512 -0.059640087 0.00094604644 -0.13438024 0.0860851 0.0015784923 0.07704172 -0.044910897
0.0802151 0.15098149 -0.07211834 -0.08321607 0.020722546 -0.06085527 -0.04674338 -0.041241355
-0.02676001 -0.06919142 -0.12645608 0.04155803 0.048660047 0.054216035 -0.036329564 0.15621503
0.074080616 -0.040379338 0.22848326 0.06016991 0.028744617 0.090538986 -0.034091968 -0.10115264
-0.0671407 -0.08050154 0.05902941 0.014581805 -0.12843661 0.0981601 -0.041887317 -0.03767336
0.04055237 0.13317089 -0.0006959926 -0.21817237 -0.012322224 -0.0054229144 0.0151207065 -0.014773355
-0.014867681 0.06304101 0.0147041185 -0.18673614 -0.026073566 -0.0053419503 -0.074725226 0.09977508
-0.014473111 0.042657547 -0.045759737 -0.043244604 0.044623382 0.067375325 0.13013308 -0.011204138
-0.13720246 0.07871913 0.13420291 -0.051059626 0.03714593 0.005045585 0.04532942 0.03253125
0.18238863 -0.14590673 0.006567552 0.17910881 -0.03604709 0.06651273 0.059000418 0.028241664
0.041594964 0.026308442 0.047064688 -0.05806873 0.028318398 -0.015603511 0.021370642 -0.010378527
0.06408921 0.029178115 -0.04063622 0.07713396 0.040858574 0.048606385 -0.09142774 0.0580705
-0.0076531703 0.022871448 0.1263559 0.116301626 0.0418305 0.024173932 0.08124051 0.051572736
0.023699008 -0.056195866 -0.012876257 0.133496 0.021081632 0.051176105 0.10683384 0.06307955
0.042691436 0.039124902 0.060884777 -0.020323224 0.05335063 0.030036896 0.038932204 -0.22978495
-0.1711041 0.040907346 0.13209803 0.021554168 0.03312197 -0.013162688 -0.1235245 0.036358234
-0.08930265 -0.072789595 0.05466134 0.06379504 0.029109163 -0.0039845672 0.039341077 0.04353043
0.011247516 -0.065176666 -0.01307142 0.040922046 0.008462746 -0.005598344 0.038515914 0.07057989
0.04336789 0.047404237 0.038227107 0.040845912 0.0016466934 -0.043323983 0.046161674 -0.07940045
0.022704085 0.046590563 -0.15573286 0.0059338086 0.003021161 0.031430222 -0.06676939 -0.0050191125
-0.017736256 0.050541725 0.02028085 -0.0585949 0.014880722 0.013739651 -0.008408955 0.08908923
00000000: fd9c 02bd b53c fc3c 342c 8abc 1599 d73a
00000010: aee5 35bd a930 e3bd 4d1b 05bc 781f b93d
00000020: 0e44 acbd 66ed 9c3d bc4d afbd 8e7c 65bd
00000030: 72d9 a73c 9761 13bd dd63 7f3c 9fa4 3b3e
00000040: fda9 9eba 030d a0bd a967 973c 04ca 6bbd
00000050: c2c6 a43d a42a 7dbd d85f d8bd 4c60 e7bc
00000060: bd1d 803e a3e6 063d 00ab 2abd 2adf 01bd
00000070: 7395 18be e314 be3d cb71 edbd 19fd c7bd
00000080: 0c82 553d 8e1e 37be 7230 55bc f2e8 48bd
00000090: 08fe 703c cd7a 843d 4e6d 24bd a36c debd
000000a0: 4410 90bd 8a09 0dbe 9f3b 003e a963 cd3c
000000b0: 1d19 82bc 6b4b 00bd 51dc ebbc 3536 98bd
000000c0: 937b 31bd 4c2a bebc 79fb 183d 0992 8cbd
000000d0: d41a 263d c1ce c7bd 77b0 87bb 6363 41bd
000000e0: 2fd4 513d 3433 073d 31d8 7ebc e6f0 bebd
000000f0: 3787 033e 35e7 d8bd 10b4 04bc a4d8 4b3d
00000100: c160 babb 1fe9 393c 6a5e 2b3c 2196 33bd
00000110: 8cfa bebd d102 0fbd de13 033d 5778 a6bd
00000120: c225 ab3d e230 d3bd ecf8 eabd 55ce 95bd
00000130: db5d 973d 503f d3bc 23a1 10be 84ce cd3d
00000140: f2c2 19be 80ae 80bc 3c4b 15be c458 cfbd
00000150: 1d4b 42bd 868e 913c c3ae 013e 37cb 8b3d
00000160: 21a8 73bd 2a49 74bd 1a00 783a f99a 09be
00000170: 634d b03d 6ae5 ce3a 0dc8 9d3d 7df4 37bd
00000180: d047 a43d e49a 1a3e c8b2 93bd 306d aabd
00000190: 54c2 a93c 6043 79bd fd75 3fbd b2ec 28bd
000001a0: cf37 dbbc 3bb4 8dbd b47d 01be c138 2a3d
000001b0: c24f 473d a211 5e3d 4fce 14bd d5f6 1f3e
000001c0: 94b7 973d ce64 25bd 84f7 693e b974 763d
000001d0: d579 eb3c 816c b93d 05a4 0bbd 1e29 cfbd
000001e0: 1081 89bd fedd a4bd d3c8 713d 86e8 6e3c
000001f0: e384 03be 2a08 c93d 0992 2bbd 624f 1abd
00000200: 3e1a 263d f35d 083e 4673 36ba 9468 5fbe
00000210: 27e3 49bc b4b2 b1bb d7bc 773c f10b 72bc
00000220: 9397 73bc a51b 813d 8be9 703c c237 3fbe
00000230: 3b98 d5bc 870b afbb 8a09 99bd e156 cc3d
00000240: a120 6dbc aeb9 2e3d 906e 3bbd 4121 31bd
00000250: 02c7 363d 13fc 893d 9b41 053e 9091 37bc
00000260: cd7e 0cbe 7f37 a13d 7d6c 093e e623 51bd
00000270: 5526 183d 6f55 a53b 58ab 393d 7d3f 053d
00000280: 16c4 3a3e 9368 15be 9f34 d73b 4d68 373e
00000290: 1da6 13bd d437 883d 6caa 713d 105b e73c
000002a0: 7b5f 2a3d cd84 d73c e7c6 403d 7ad9 6dbd
000002b0: fcfb e73c dea5 7fbc 7c11 af3c b30a 2abc
000002c0: 3441 833d f106 ef3c 2a72 26bd 69f8 9d3d
000002d0: 525b 273d 7d17 473d 783e bbbd 55db 6d3d
000002e0: 72c7 fabb e75c bb3c 7163 013e 8c2f ee3d
000002f0: 7556 2b3d 6908 c63c 6d61 a63d ef3d 533d
00000300: 6c24 c23c a32d 66bd f0f6 52bc 2db3 083e
00000310: 63b3 ac3c 099e 513d b3cb da3d da2f 813d
00000320: 37dd 2e3d 6f41 203d 5162 793d e47c a6bc
00000330: 3186 5a3d f00f f63c 6077 1f3d bf4c 6bbe
00000340: ea35 2fbe 768e 273d b544 073e 5e92 b03c
00000350: e7aa 073d 51a8 57bc 6afa fcbd 5fec 143d
00000360: 4fe4 b6bd b612 95bd 92e4 5f3d f9a6 823d
00000370: 5776 ee3c f990 82bb 1c24 213d f74c 323d
00000380: 8047 383c 587b 85bd 8229 56bc e09d 273d
00000390: 54a7 0a3c 5072 b7bb ddc2 1d3d 308c 903d
000003a0: 87a2 313d f22a 423d 0794 1c3d 0b4e 273d
000003b0: ddd5 d73a 7d74 31bd 0614 3d3d b49c a2bd
000003c0: ebfd b93c bfd5 3e3d 6f78 1fbe 6570 c23b
000003d0: acfe 453b fabc 003d 64be 88bd 5e77 a4bb
000003e0: a04b 91bc d704 4f3d 0624 a63c 3501 70bd
000003f0: 46ce 733c 461c 613c b7c5 09bc 6a74 b63d

action_model._continuous_distribution.mu.bias f4 [2]
-0.15868743 0.046752427
00000000: f57e 22be 797f 3f3d
