results/hideandseek_15/Hide/Hide-10042.onnx (onnx, 162766 bytes, 7 tensors)

network_body._body_endoder.seq_layers.0.weight f4 [128, 177]
0	0xbcd21d59	-0.02564876
1	0xbe84d2a8	-0.25941968
2	0x3e15004b	0.14550893
3	0x3d38093a	0.044930674
4	0x3babc952	0.005242505
5	0x399620d9	0.00028634703
6	0x3daea737	0.085279875
7	0xbdda9ba9	-0.10674221
8	0x3dc11959	0.09428663
9	0xbdf65243	-0.12027409
10	0xbe0d71b9	-0.13812913
11	0xbdc48c80	-0.09597111
12	0x3cff9f14	0.031203784
13	0xbe3108bf	-0.17288493
14	0x3d56c529	0.05243412
15	0xbd8b282d	-0.06794772
16	0xbd93f7d9	-0.072250076
17	0xbd5b34a0	-0.053516984
18	0x3cc61711	0.02418092
19	0xbb68122d	-0.0035411224
20	0x3d9c80bb	0.07641741
21	0x3e846fb5	0.25866476
22	0xbda990d8	-0.0827958
23	0xbdeb4e36	-0.11489527
24	0xbcd95f7a	-0.026534785
25	0xbe70d354	-0.23518115
26	0xbd368fe9	-0.044570837
27	0xbe931f5a	-0.28734857
28	0xbcbe6f87	-0.02324654
29	0xbe19cbd7	-0.15019165
30	0xbce46df4	-0.027884461
31	0xbe97ccaf	-0.2964835
32	0x3b4095cd	0.0029386163
33	0xbca45a01	-0.020062448
34	0x3d8a6cbf	0.06759023
35	0x3ccb20b7	0.024795873
36	0xbd2870d9	-0.041123245
37	0xbe72a76e	-0.23696682
38	0xbd8322db	-0.064031325
39	0xbead1a10	-0.33808947
40	0x3db77eb5	0.08959714
41	0xbe2c5b60	-0.16831732
42	0xbd0b1757	-0.033957805
43	0xbdd80d7f	-0.10549449
44	0xbd2bdda5	-0.041959424
45	0x3e39ccdb	0.18144552
46	0xbca0bc7c	-0.019621126
47	0xbd4355a6	-0.047689103
48	0x3df056f4	0.11735335
49	0xbdf3f85b	-0.119126044
50	0x3d84566b	0.064617954
51	0xbe2f4871	-0.17117478
52	0x3c49dcb7	0.012320689
53	0xbc551d13	-0.01300742
54	0x3d9f0d55	0.07766215
55	0xbd9be2f0	-0.07611644
56	0xbca21ead	-0.019790018
57	0xbc7cd886	-0.015432483
58	0xbd665985	-0.056237716
59	0xbd8a7efa	-0.067625
60	0xbd762898	-0.060097307
61	0xbe1b5f2e	-0.15173027
62	0x3b01ed84	0.0019825408
63	0xbe0ecd6a	-0.13945547
64	0xbdab6e79	-0.0837068
65	0xbdcf1185	-0.101107635
66	0x3d5da902	0.054116257
67	0xbe598e2f	-0.21245645
68	0xbdb03cad	-0.08605323
69	0x3d8b5acd	0.06804428
70	0x3bd2f6fe	0.006438135
71	0xbd921265	-0.07132415
72	0xbbf74ca3	-0.0075469776
73	0xbdc352d7	-0.09537285
74	0x3e0fda8e	0.14048216
75	0xbd9f1376	-0.07767384
76	0x3bbc7cf8	0.005752202
77	0xbe2c9804	-0.16854864
78	0xbdccab6e	-0.09993635
79	0xbd73b55e	-0.059499137
80	0x3cc1d35d	0.023660356
81	0x3d86d423	0.065834306
82	0x3d963201	0.07333756
83	0x3dde99f5	0.10869209
84	0x3e200b2c	0.15629262
85	0xbda366c7	-0.079785876
86	0x3e52561b	0.20540659
87	0x3e611986	0.21982393
88	0xbe7f1e85	-0.24913986
89	0xbe1f3ef9	-0.15551366
90	0x3dd1d3aa	0.1024545
91	0xbe0eaf6f	-0.1393411
92	0xbd26f11b	-0.04075728
93	0xbd2e2e0f	-0.042524394
94	0xbda6721e	-0.08127235
95	0xbdc5fee7	-0.096677594
96	0x3c9ef6bf	0.019404767
97	0xbab05301	-0.0013452471
98	0x3d4b6447	0.04965618
99	0xbd36aacf	-0.04459649
100	0xbe34aeee	-0.17644855
101	0x3d092564	0.033482924
102	0x3d479f38	0.048735827
103	0xbddd26da	-0.10798426
104	0x3e426cb1	0.18986775
105	0xbe23d328	-0.15998518
106	0x3dc194b0	0.09452188
107	0x3c2d36fa	0.010572189
108	0x3e0107a6	0.12600574
109	0xbe07bb8f	-0.13255142
110	0xbe1cc4f4	-0.15309507
111	0x3e13d275	0.14435752
112	0xbe3af75b	-0.18258421
113	0xbe310f16	-0.17290911
114	0xbdacd876	-0.08439724
115	0xbe4e37c3	-0.20138459
116	0xba44fa0e	-0.00075140677
117	0xbe63b925	-0.22238596
118	0x3ccccc91	0.024999889
119	0xbe3f9d36	-0.18712315
120	0xbd63b12f	-0.055588897
121	0xbead765f	-0.33879372
122	0x3d56e917	0.052468386
123	0x3e0caa25	0.1373678
124	0xbcbac0c2	-0.022796992
125	0xbdbaa59d	-0.091136195
126	0xbba6b24c	-0.0050871726
127	0xbdb5b303	-0.088720344
128	0xbd2b9111	-0.041886393
129	0x3bfb26e4	0.0076645482
130	0xbdb220ed	-0.08697686
131	0xbe568a72	-0.2095125
132	0x3ca3b553	0.019983923
133	0xbe8745a3	-0.26420316
134	0x3df22903	0.118242286
135	0x3d157a5d	0.036493648
136	0xbd6c185f	-0.05764043
137	0xbe3d57ec	-0.18490571
138	0xbc55fa5b	-0.013060178
139	0xbddcd9f2	-0.10783757
140	0x3e086f13	0.13323621
141	0xbd98785e	-0.07444833
142	0xbbb0a12a	-0.005390306
143	0xbe0c77a2	-0.13717511
144	0xbc7d0e9a	-0.015445376
145	0xbe321b30	-0.17393184
146	0xbc8ef685	-0.017451534
147	0x3e9b4e24	0.30333054
148	0xbd263c59	-0.040584896
149	0xbe68c088	-0.22729695
150	0xbacf88d4	-0.0015833625
151	0xbde7e705	-0.1132336
152	0xbe1f4bd6	-0.15556273
153	0xbd06a2a9	-0.03286997
154	0x3dcc6657	0.09980457
155	0xbe14caec	-0.14530534
156	0x3c91153e	0.017710324
157	0xbe1a66f1	-0.15078332
158	0x3bf5c4e4	0.007500278
159	0xbe510549	-0.20412172
160	0xbd0c118e	-0.03419643
161	0xbe88b5e3	-0.2670127
162	0xba33e5aa	-0.0006862531
163	0xbcd89cb9	-0.026441919
164	0xbcc50560	-0.024050415
165	0xbd7e1def	-0.062040266
166	0xbc7420ce	-0.014900399
167	0xbd647073	-0.055771302
168	0x3d61bfe0	0.055114627
169	0xbd9c5dbc	-0.07635066
170	0xbd949bc1	-0.0725627
171	0x3da7bc74	0.081902415
172	0xbd550cbc	-0.052014098
173	0xbb06dd03	-0.002057851
174	0xbde25498	-0.11051291
175	0xbe15079a	-0.14553681
176	0xbd24dff3	-0.040252637
177	0x3dced0ca	0.10098417
178	0x3dfd0d68	0.12356073
179	0x3e18c69c	0.14919513
180	0x3d67bad2	0.05657465
181	0xbddd958e	-0.10819541
182	0xbde8367f	-0.11338519
183	0xbb3ceaa9	-0.0028826392
184	0xbe7ec6a9	-0.2488047
185	0x3de93988	0.11387926
186	0x3da107fc	0.07862851
187	0xbd295b6c	-0.041346952
188	0xbdcb72a5	-0.09933976
189	0x3e1b6400	0.15174866
190	0xbd04833d	-0.03235172
191	0xbe2378f6	-0.15964112
192	0xbd24bfde	-0.04022204
193	0xbde4c6a7	-0.111707024
194	0xbe2a4446	-0.16627607
195	0xbd650534	-0.055913165
196	0xbc2aeabb	-0.010431941
197	0xbdb693e5	-0.089149274
198	0xbc830002	-0.015991215
199	0xbb4c8bac	-0.003121118
200	0xbd9d56f2	-0.07682599
201	0x3dc12a67	0.09431916
202	0xbddea66b	-0.108715855
203	0xbbce8b65	-0.006303238
204	0xbe1a3022	-0.15057424
205	0xbe812670	-0.25224638
206	0xbe8641d9	-0.26222113
207	0x3db3b196	0.08774106
208	0xbd31efc9	-0.043441568
209	0x3ccd570b	0.02506592
210	0xbdb24f7b	-0.08706566
211	0x3c125373	0.008931029
212	0xbdf522b5	-0.119695105
213	0xba04f13d	-0.00050713477
214	0xbd8b638d	-0.06806097
215	0xbd94eaa3	-0.07271316
216	0xbe282c6b	-0.16423194
217	0x3ddbfbcc	0.10741386
218	0xbe203a98	-0.15647352
219	0x3c9a1177	0.018807156
220	0xbdd8c159	-0.10583753
221	0x3ac0a6fb	0.0014698202
222	0xbe8f2fcf	-0.27966163
223	0x3d91b620	0.07114816
224	0xbe76789c	-0.24069446
225	0xbe3396f8	-0.17538059
226	0xbda11f98	-0.07867354
227	0xbe401fc2	-0.18762115
228	0xbc99795a	-0.018734623
229	0xbd4b71e3	-0.049669158
230	0xbed2b83a	-0.4115618
231	0x3caedd68	0.02134581
232	0xbe03e4ed	-0.12880297
233	0x3df4be3b	0.11950346
234	0xbdd4f1fd	-0.10397718
235	0xbd8fa513	-0.07013907
236	0xbe69ee8f	-0.22844909
237	0xbd515159	-0.05110297
238	0xbd2afaea	-0.041743197
239	0x3e78c682	0.24294475
240	0x3e46e6cb	0.19423978
241	0xbcc37332	-0.02385864
242	0xbe86c547	-0.26322386
243	0x3c59b7d6	0.013288459
244	0xbda5a48a	-0.08088024
245	0x3bdcab91	0.0067343195
246	0x3dc44011	0.09582532
247	0xbe078bf6	-0.13236985
248	0xbe4b4eb5	-0.19854243
249	0xbd8008f6	-0.06251709
250	0xbdd7ee02	-0.10543443
251	0x3e708270	0.23487258
252	0x3c3026a5	0.010751401
253	0xbe04e5cc	-0.12978286
254	0xbe2ff1a2	-0.1718202
255	0xbe1d1fc0	-0.15344143

network_body._body_endoder.seq_layers.0.bias f4 [128]
0	0xbe1da539	-0.15395059
1	0xbddd6e4f	-0.10812055
2	0xbe6774cf	-0.22603153
3	0xbe08133d	-0.13288589
4	0xbd024eb2	-0.03181333
5	0xbe0354b5	-0.12825282
6	0xbd86692f	-0.06563031
7	0xbcb63060	-0.022239864
8	0xbe0b8a84	-0.13627058
9	0xbd8a4670	-0.06751716
10	0xbe556e0b	-0.2084276
11	0xbe1d8e65	-0.1538635
12	0xbe7f1a82	-0.24912456
13	0xbda7071b	-0.08155652
14	0xbdd0c290	-0.1019336
15	0xbe00fd59	-0.12596644
16	0xbe8341cc	-0.25636137
17	0x3d990305	0.07471279
18	0xbd858d6f	-0.06521117
19	0xbcadbad7	-0.021207256
20	0xbe8122f6	-0.25221986
21	0xbe196a37	-0.14981924
22	0xbe46eece	-0.19427034
23	0xbe0847bd	-0.13308616
24	0xbe650cb5	-0.22368129
25	0xbd957511	-0.07297719
26	0xbe4ccf25	-0.20000894
27	0xbe5c890f	-0.21536659
28	0xbdd5aad6	-0.10432975
29	0xbe1b1ddb	-0.15148108
30	0xbdb6951e	-0.089151606
31	0xbdf1aafa	-0.11800189
32	0xbe24415a	-0.16040555
33	0x3c771107	0.015079743
34	0xbe01309b	-0.12616198
35	0xbe148548	-0.14503968
36	0xbe80a827	-0.2512829
37	0xbda8c9c3	-0.08241608
38	0xbe1c3b4f	-0.15257
39	0xbdec025c	-0.115238875
40	0xbe25a880	-0.16177559
41	0x3d700d24	0.058606282
42	0x3cc33041	0.02382672
43	0xbdc515ec	-0.09623322
44	0xbb95e7f2	-0.004574769
45	0xbe38592a	-0.18002763
46	0xbd1fa2a1	-0.038973454
47	0x3d49f1d3	0.049302887
48	0xbe35ae60	-0.177423
49	0xbe43f28f	-0.19135498
50	0x3d828b9f	0.06374287
51	0xbd8adaa3	-0.06779983
52	0x3de565c9	0.112010546
53	0xbde7da21	-0.11320902
54	0xbbbdc1c6	-0.005790922
55	0xbdbd9f1c	-0.09258863
56	0xbe7153b8	-0.23567092
57	0xbe245fe6	-0.16052207
58	0xbde5163b	-0.11185881
59	0xbd0fe810	-0.03513342
60	0xbc028c27	-0.007967985
61	0x3d8d8678	0.069104135
62	0xbe3a3e7e	-0.18187901
63	0x3d6ffc90	0.05859047
64	0xbe46119f	-0.1934266
65	0xbdda0491	-0.10645402
66	0xbe00aa4e	-0.12564966
67	0xbd9aaa50	-0.07552016
68	0xbda1a32e	-0.07892452
69	0xbea982ef	-0.33107707
70	0xbe340ba0	-0.1758256
71	0xbd0e7b2d	-0.03478544
72	0xbd9cd46d	-0.076577045
73	0xbb3763e1	-0.0027983116
74	0x3d1c4c69	0.038158808
75	0xbe248ae0	-0.16068602
76	0xbdd8cad0	-0.105855584
77	0xbd4d1e5a	-0.050077774
78	0xbdfc11c6	-0.123080775
79	0x3bca267d	0.006169139
80	0xbe46cb35	-0.19413455
81	0xbdc05ffb	-0.09393307
82	0xbe068d90	-0.1313994
83	0xbd5703fe	-0.05249404
84	0x3d583b0f	0.052790698
85	0xbb5f996f	-0.0034118553
86	0x3d39d24a	0.045366563
87	0xbe06d755	-0.1316808
88	0xbdd2e61a	-0.10297795
89	0xbda74103	-0.08166697
90	0xbd603ea0	-0.054747224
91	0xbe1a0263	-0.15039973
92	0xbe62b161	-0.22137977
93	0xbe8fd4a6	-0.28091925
94	0xbe3cc6aa	-0.1843516
95	0x3cecc49e	0.028902348
96	0xbe1d5cb8	-0.153674
97	0xbda92897	-0.08259695
98	0xbd8519f9	-0.064990945
99	0xbd86d352	-0.06583275
100	0xbd8d901b	-0.069122516
101	0xbd1ccf5d	-0.038283695
102	0xbe35e577	-0.17763315
103	0xbda500d1	-0.08056796
104	0xbda2e4d6	-0.07953803
105	0xbc9368be	-0.01799428
106	0xbdfefe8d	-0.124508955
107	0xbd98b65e	-0.07456659
108	0xbdc3900e	-0.095489606
109	0xbd070aa4	-0.032969132
110	0xbd9cbfc3	-0.07653763
111	0xbd95617b	-0.072939835
112	0xbd2f0499	-0.042728994
113	0xbe34a845	-0.17642315
114	0xbd0b1e4a	-0.033964433
115	0xbe185a97	-0.14878307
116	0xbc97cd33	-0.018530464
117	0xbdab215e	-0.08355974
118	0xbdba9eb0	-0.091122985
119	0xbe6e6917	-0.23282276
120	0xbe399e12	-0.18126705
121	0xbe123379	-0.14277448
122	0xbdd2263b	-0.10261198
123	0xbcd1246a	-0.025530059
124	0x3d8ea717	0.069654636
125	0xbd291cd6	-0.041287266
126	0x3dd77282	0.105198875
127	0xbdf93579	-0.12168402

network_body._body_endoder.seq_layers.2.weight f4 [128, 128]
0	0x3ccdef9d	0.02513867
1	0xbd60ad93	-0.054853033
2	0x3e7707e8	0.2412411
3	0x3dc24578	0.09485906
4	0xbd6f9ce7	-0.058499243
5	0x3e07634d	0.13221474
6	0x3cf4ee4a	0.029898781
7	0xbeb447ad	-0.35210934
8	0x3e2a9988	0.1666013
9	0x3d6d2309	0.05789474
10	0x3e322f4e	0.17400858
11	0x3d89e4b2	0.06733073
12	0xbd876e4d	-0.06612835
13	0x3dc562e9	0.09638006
14	0xbca35820	-0.019939482
15	0xbac2e1c3	-0.0014868308
16	0xbe100ce1	-0.14067413
17	0xbbd4319b	-0.00647564
18	0x3d92f7a0	0.07176137
19	0x3d600814	0.054695204
20	0xbd68e4d8	-0.056858867
21	0x3e806cc4	0.25082982
22	0x3c9571e0	0.018242776
23	0xbe45b6f9	-0.1930808
24	0xbd2f5296	-0.04280337
25	0x3c61620b	0.013756285
26	0x3d311a5f	0.04323804
27	0x3e18aefb	0.149105
28	0xbdc63d1c	-0.096796244
29	0x3d9800b1	0.07422007
30	0x3d709b64	0.058741942
31	0x3d50703e	0.050888292
32	0x3db1ad8f	0.08675682
33	0xbb8f0370	-0.0043644235
34	0xbcc980b5	-0.024597505
35	0xbd5fb153	-0.05461247
36	0x3db98c90	0.09060013
37	0x399c3796	0.00029796053
38	0x3d006477	0.03134581
39	0x3e492824	0.19644219
40	0x3e08f511	0.13374735
41	0xbd385a7c	-0.045008168
42	0xbde1d7b4	-0.1102747
43	0x3d7aa10c	0.061188743
44	0xbe0abab2	-0.13547781
45	0xbd360611	-0.04443938
46	0xbd6afb05	-0.057368297
47	0x3d373ef0	0.044737756
48	0x3d433372	0.047656484
49	0xbe0ca774	-0.13735753
50	0xbe215d00	-0.15758133
51	0xb8ca9394	-9.659599e-05
52	0xbeb3fe28	-0.35154843
53	0x3d6a9657	0.05727228
54	0xbea06406	-0.31326312
55	0x3cfabd7f	0.030607937
56	0x3dd770ab	0.105195366
57	0x3c600021	0.013671906
58	0x3d21b62a	0.039480366
59	0xbe3e947d	-0.18611331
60	0x3d5b4c55	0.053539593
61	0xbec77503	-0.3895646
62	0x3dd0285e	0.101639494
63	0xbd9b4b14	-0.075826794
64	0xbd845a46	-0.06462531
65	0xbd8d93f8	-0.069129884
66	0xbce94e8b	-0.028479835
67	0x3dc953e0	0.09830451
68	0x3caacebb	0.02085053
69	0x3dd53504	0.104105026
70	0xbdbf0d64	-0.09328726
71	0xbb3fcde5	-0.002926701
72	0xbe133f85	-0.143797
73	0xbd556143	-0.05209471
74	0xbe4be41d	-0.19911237
75	0xbd46ee73	-0.048567247
76	0x3cd3a216	0.025834125
77	0x3d295ca9	0.041348133
78	0x3d968954	0.07350412
79	0xbd57e451	-0.052707974
80	0x3d703c50	0.05865127
81	0x3dc125bd	0.09431026
82	0x3b33158b	0.0027326073
83	0xbd3ce3c3	-0.046115648
84	0xbcf43092	-0.029808316
85	0xbc23a77c	-0.009988662
86	0xbe894f21	-0.26818183
87	0xbce5d033	-0.028053379
88	0xbe7561f4	-0.23963147
89	0xbd4a4253	-0.049379658
90	0xbdc11a04	-0.0942879
91	0x3d702e4d	0.058637906
92	0x3d8e9602	0.069622055
93	0x3daba6e1	0.08381439
94	0xbdcd0eb9	-0.10012574
95	0xbdd0991d	-0.10185454
96	0x3c836acd	0.016042138
97	0x3bc3fa7e	0.0059807887
98	0xbdbc56ea	-0.09196265
99	0x3d9eb97c	0.07750222
100	0xbda378fa	-0.07982059
101	0xbe97a2a9	-0.29616287
102	0x3b83e32e	0.0040248847
103	0x3dcd6641	0.10029269
104	0xbc917868	-0.01775761
105	0xbdaeb5bc	-0.08530757
106	0xbd1f4f3a	-0.038893916
107	0x3cb69692	0.022288594
108	0xbe1c9008	-0.15289319
109	0x393eabfc	0.00018183881
110	0x3decc126	0.11560278
111	0x3d471c92	0.04861123
112	0x3d633ade	0.055476062
113	0xbc5f31f9	-0.013622754
114	0xbd6cc810	-0.057807982
115	0x3e2346bb	0.1594495
116	0xbde9fa8f	-0.114247434
117	0x3da0162c	0.07816729
118	0x3d8d9ac3	0.06914284
119	0xbd24d657	-0.040243473
120	0x3d43ef07	0.047835376
121	0x3ce14aef	0.027501551
122	0x3d428a9d	0.047495473
123	0x3d90cf0b	0.0707074
124	0xbd653855	-0.055961926
125	0x3c78981e	0.015172986
126	0xbd323311	-0.043505732
127	0x3d5bd27f	0.05366754
128	0xbd3bc2fb	-0.045840245
129	0x3b744d22	0.003727742
130	0x3d131006	0.035903953
131	0x3e517870	0.204561
132	0x3d67027f	0.056398865
133	0x3cba30dc	0.022728376
134	0x3e312e34	0.17302781
135	0x3a5aed21	0.0008351375
136	0x3dc4f989	0.096179076
137	0x3e22320c	0.15839404
138	0x3dd0c212	0.10193266
139	0x3d7c73cb	0.061633866
140	0xbc3b2f20	-0.01142481
141	0x3d69729d	0.05699407
142	0x3db1682d	0.08662448
143	0xbd90b227	-0.0706523
144	0xbd350518	-0.04419431
145	0x3e101a4d	0.14072533
146	0x3c21e6e3	0.009881708
147	0x3d6f11ef	0.058366712
148	0x3d19f359	0.03758559
149	0xbd627570	-0.05528778
150	0xbc801b29	-0.015637951
151	0x3db33074	0.08749476
152	0x3e85b3ae	0.26113647
153	0xbc81ff08	-0.015868679
154	0x3c840678	0.016116366
155	0xbd988d63	-0.074488424
156	0x3e1328e4	0.14371067
157	0x3cc84752	0.02444807
158	0x3d467ee5	0.04846086
159	0xbd285b8b	-0.041102927
160	0x3e0655fc	0.13118738
161	0xbe338fc9	-0.17535318
162	0xbdb81e0b	-0.08990105
163	0x3e8047f5	0.250549
164	0xbbf0a955	-0.0073444047
165	0x3d1072f3	0.035265874
166	0xbddf636a	-0.109076336
167	0x3ca03561	0.019556703
168	0xbcdea3af	-0.02717766
169	0xbda4fcfb	-0.08056065
170	0xbccce9fe	-0.02501392
171	0x3db2fea6	0.087399766
172	0xbe156e14	-0.14592773
173	0x3d9567db	0.072951995
174	0xbd60be96	-0.054869257
175	0xbdc85d89	-0.097834654
176	0xbd6faab7	-0.058512416
177	0x3dd2ff4c	0.103026
178	0xbd938ea6	-0.072049424
179	0xb883795d	-6.2691724e-05
180	0xbe6e9095	-0.23297341
181	0x3d9e2931	0.077227004
182	0xbd219245	-0.039446134
183	0xbe861153	-0.26185092
184	0x3da86ea5	0.08224229
185	0xbcbc2849	-0.022968428
186	0x3d119af9	0.035548184
187	0x3cd021cd	0.025406742
188	0xbd41a7bd	-0.04727911
189	0xbe0c7fe4	-0.13720661
190	0x3dae1379	0.08499808
191	0xbeaaa7c7	-0.3333113
192	0xbe01e737	-0.12685858
193	0x3d1a73eb	0.037708204
194	0x3de88d2b	0.11355051
195	0x3e2045c0	0.15651608
196	0xbd9bc8d6	-0.07606666
197	0x3cd4c775	0.025974015
198	0x3dbb7c38	0.09154552
199	0x3e2cf271	0.16889359
200	0x3d569929	0.05239216
201	0xbe2e0789	-0.16995062
202	0xbdbf5639	-0.093426175
203	0xbc3ed3b6	-0.0116471555
204	0x3d3202c3	0.043459665
205	0x3e28215b	0.16418974
206	0x3dc25e54	0.09490648
207	0xbe0f86c7	-0.14016257
208	0x3db321fc	0.087467164
209	0xbdd053ea	-0.10172255
210	0x3e5b3e28	0.2141043
211	0xbd7a87f5	-0.061164815
212	0xbc33924b	-0.010960172
213	0xbe351962	-0.17685464
214	0xbd23b723	-0.039969575
215	0xbe606b79	-0.21915998
216	0x3d7d7c08	0.061885864
217	0x3e78dc78	0.24302852
218	0xbc5d18c2	-0.013494672
219	0xbdb3eb9b	-0.087851726
220	0x3d69c2f1	0.057070676
221	0x3ca5a289	0.020219104
222	0x3e4f7de5	0.20262869
223	0xbc097dd3	-0.008391815
224	0x3d621a50	0.055200875
225	0x3e0a400a	0.13500991
226	0xbd5d4202	-0.054018028
227	0x3de6c433	0.11267891
228	0xba711568	-0.000919661
229	0xbe3c5d1f	-0.18394898
230	0xbd84473c	-0.064588994
231	0x3e39e506	0.18153772
232	0xbe434063	-0.1906753
233	0x3d62d17a	0.055375554
234	0x3d09b2c4	0.03361775
235	0xbd38d9d1	-0.0451296
236	0x3e537bba	0.20652667
237	0xbbb6f86d	-0.005583814
238	0x3e2be865	0.1678787
239	0x3dd267ae	0.102736816
240	0xbd1a4020	-0.03765881
241	0xbdaf7b8c	-0.085684866
242	0xbc412009	-0.011787423
243	0x3e211220	0.1572957
244	0x3da93e14	0.082637936
245	0x3ddcfae3	0.1079004
246	0x3dfbcfa8	0.12295467
247	0xbbf303ab	-0.0074162087
248	0xbe0f09fd	-0.13968654
249	0x3cdabf14	0.026702441
250	0x3e2e41d8	0.17017305
251	0xbd346af2	-0.044047303
252	0xbd88ebe3	-0.06685617
253	0x3d252a1f	0.040323373
254	0xbd99a667	-0.07502442
255	0xbe7d68c9	-0.24747004

network_body._body_endoder.seq_layers.2.bias f4 [128]
0	0xbe423ba8	-0.1896807
1	0xbdf51373	-0.119666
2	0x3c77627e	0.015099166
3	0xbe5b0c53	-0.2139142
4	0xbec8adaa	-0.39194995
5	0xbeacd189	-0.33753613
6	0xbac67e47	-0.0015143835
7	0x3d118ff2	0.035537668
8	0xbd320fae	-0.043471985
9	0xbea42194	-0.32056868
10	0xbcc13283	-0.023583656
11	0xbd3544cf	-0.044255074
12	0xbe0c6077	-0.13708673
13	0xbe832702	-0.25615698
14	0xbd8ba58c	-0.06818685
15	0xbde0e949	-0.109819956
16	0xbe0a6410	-0.13514733
17	0xbece0b2a	-0.40242893
18	0xbe424b92	-0.1897414
19	0xbe19e4b8	-0.15028656
20	0xbc2c2050	-0.010505751
21	0xbe8d6e96	-0.27623433
22	0xbee39df3	-0.44456443
23	0xbd239bf3	-0.039943647
24	0xbcf723b7	-0.030168397
25	0xbeaec42a	-0.34134036
26	0xbd97f0b6	-0.07418959
27	0xbe8d412e	-0.2758879
28	0xbe993dcc	-0.2992996
29	0x3ccf8e58	0.02533643
30	0xbe48a962	-0.19595864
31	0xbe2c3007	-0.16815196
32	0xbe63545a	-0.22200146
33	0xbddaed07	-0.10689741
34	0xbe1a5358	-0.15070856
35	0xbdb7c2bf	-0.08972692
36	0xbe5db815	-0.21652253
37	0xbeaef8f1	-0.34174302
38	0xbe629d0b	-0.2213022
39	0xbe5d3582	-0.21602443
40	0xbe1eff59	-0.15527095
41	0xbe7923b4	-0.24330026
42	0xbe390a3a	-0.18070307
43	0xbe5ba098	-0.2144798
44	0xbd86c00d	-0.065795995
45	0xbe50509a	-0.20343247
46	0xbd871a7e	-0.0659685
47	0xbdef1725	-0.11674336
48	0x3da57efc	0.08080861
49	0xbe020788	-0.12698185
50	0xbc829b2a	-0.015943129
51	0xbe491682	-0.19637492
52	0xbe8aa3f8	-0.27078223
53	0xbe687d67	-0.22704087
54	0xbe496c61	-0.1967025
55	0xbc006d9b	-0.007838632
56	0xbc024c88	-0.007952817
57	0x3d8c6bdb	0.06856509
58	0xbd9ab910	-0.07554829
59	0xbec32c6d	-0.38119832
60	0xbd97e22a	-0.07416184
61	0xbe9e351a	-0.30899888
62	0x3d474a01	0.04865456
63	0xbebf1e4c	-0.37327802
64	0xbe0de7d4	-0.13857967
65	0xbd7925b9	-0.06082699
66	0xbe5c16dc	-0.21493095
67	0xbeb5776d	-0.35442677
68	0xbeda4cf7	-0.42636845
69	0xbe2974dc	-0.16548485
70	0x3d1dafa5	0.038497586
71	0xbeadfe2a	-0.33982974
72	0xbe2af7ed	-0.16696139
73	0xbe9a2734	-0.30108035
74	0xbe75c34c	-0.24000281
75	0xbe8a4bd9	-0.27010992
76	0xbdff4582	-0.124644294
77	0xbe82d492	-0.25552803
78	0xbd93d08f	-0.07217514
79	0xbeb82b0b	-0.3597034
80	0xbde132d7	-0.10996025
81	0xbdba0b58	-0.09084195
82	0xbe030de4	-0.12798268
83	0xbeaac0e4	-0.3335029
84	0xbe8da57b	-0.27665314
85	0xbe00a0ae	-0.12561294
86	0xbe394538	-0.18092811
87	0xbe16ea65	-0.14737852
88	0xbd3862f5	-0.045016248
89	0xbe3498ec	-0.1763646
90	0xbe69f582	-0.2284756
91	0xbc997848	-0.018734112
92	0xbcb6d742	-0.02231944
93	0xbdf6eaeb	-0.12056526
94	0xbe280284	-0.1640721
95	0xbe3916a7	-0.18075047
96	0xbe068c93	-0.13139562
97	0xbe1ed841	-0.15512182
98	0xbde10724	-0.1098769
99	0xbe52d6b8	-0.20589721
100	0xbd7ed5ab	-0.06221549
101	0xbc66e8b2	-0.014093565
102	0x3cc350b9	0.023842202
103	0xbd6adf84	-0.057342067
104	0xbda58755	-0.08082453
105	0xbe195c78	-0.1497668
106	0xbe534bb2	-0.20634344
107	0xbd95c536	-0.073130056
108	0xbdd03249	-0.10165841
109	0xbdff61fc	-0.12469861
110	0xbe5af860	-0.2138381
111	0xbe8546cf	-0.26030585
112	0xbca7a98c	-0.020466588
113	0xbebd97a4	-0.37029755
114	0xbe04a159	-0.12952174
115	0xbe1cbbf9	-0.15306081
116	0xbdf700a6	-0.120606706
117	0xbe6288f8	-0.22122562
118	0xbe436a41	-0.19083501
119	0xbed4a96d	-0.41535512
120	0xbea60cac	-0.32431543
121	0xbc92df56	-0.01792876
122	0xbec77c53	-0.3896204
123	0xbe39c477	-0.18141352
124	0xbecfbd38	-0.4057405
125	0xbe9e1429	-0.30874756
126	0xbd8451f8	-0.06460947
127	0xbec1eec6	-0.37877482

action_model._continuous_distribution.log_sigma f4 [1, 2]
0	0xbeba2670	-0.3635745
1	0xbf1de951	-0.6168414

action_model._continuous_distribution.mu.weight f4 [2, 128]
0	0x3db18af4	0.08669081
1	0x3d8b2afb	0.06795307
2	0xbe2e94e5	-0.17048986
3	0xbbeeba6d	-0.0072854073
4	0x3cbf068f	0.023318557
5	0xbcec9d34	-0.028883554
6	0x3d0d7ad4	0.034540966
7	0xbd880e2a	-0.066433266
8	0xbd9b9e10	-0.075985074
9	0xbc0057f3	-0.007833469
10	0xbd657827	-0.05602279
11	0xbb9b88d3	-0.0047465353
12	0x3cda3a74	0.0266392
13	0xbd03f971	-0.032220308
14	0x3c86dde4	0.016463228
15	0xbd146c77	-0.036236253
16	0xbba01bde	-0.0048861345
17	0x3ce06dad	0.027396047
18	0x3be25a0d	0.0069077075
19	0x3c8bef42	0.01708186
20	0x3c5cd260	0.013477892
21	0xbb9c6140	-0.0047723353
22	0xbcd22d35	-0.025656322
23	0xbdae258d	-0.08503256
24	0xbd7e4c48	-0.062084466
25	0xbcf2f3a1	-0.029657187
26	0x3b3c8dec	0.0028771115
27	0xbcbf806b	-0.023376664
28	0xbcba9512	-0.02277616
29	0x3d057177	0.03257891
30	0xbc56f056	-0.013118824
31	0xbd94a7eb	-0.0725859
32	0x3c169f1d	0.009193209
33	0xbb8230ae	-0.003973088
34	0xbd36d887	-0.04464009
35	0xbdef75b4	-0.11692372
36	0xbbe2ae57	-0.0069177556
37	0x3cd92d66	0.026510905
38	0x3c4659cc	0.01210637
39	0xbb8c9483	-0.004290165
40	0xbb9b0576	-0.0047308756
41	0xbc8622db	-0.016374042
42	0x3baf2aec	0.005345693
43	0x3a902e17	0.0011000064
44	0xbd0db909	-0.03460029
45	0xba4455ed	-0.00074896106
46	0xbd8f180f	-0.06987011
47	0xbd855888	-0.065110266
48	0xbe6a9dd3	-0.22911768
49	0xbd844c54	-0.06459871
50	0x3d7c22a5	0.061556477
51	0xbc7a723d	-0.015286026
52	0xbc222fbb	-0.009899075
53	0xbc8330d8	-0.016014501
54	0xbbad0ae0	-0.0052808374
55	0xbe89ca73	-0.2691227
56	0x3ce0580f	0.02738574
57	0x3dc43622	0.095806375
58	0xbc4660e9	-0.012108066
59	0xbc219f8e	-0.009864701
60	0xbd956ca9	-0.07296116
61	0x3c741a13	0.014898795
62	0xbe14ced5	-0.14532025
63	0x3bf6516d	0.007517031
64	0xbbf50150	-0.007476963
65	0xbd879771	-0.06620682
66	0xbbe1f31f	-0.0068954374
67	0xbc5b6c5a	-0.013392532
68	0x3c81db5c	0.015851669
69	0x3d7498c8	0.059716016
70	0x3cfea36a	0.031083781
71	0xb9d964d5	-0.0004146459
72	0x3c7f8415	0.015595456
73	0xba9c61da	-0.0011931018
74	0x3a37e05b	0.00070143276
75	0x3c8fac8d	0.017538333
76	0xbdda8e9f	-0.10671734
77	0xbc78cfc9	-0.015186259
78	0xbd914a5b	-0.0709426
79	0xbd4b43a5	-0.049625058
80	0xbcab00fd	-0.020874495
81	0x3d2b0fbd	0.041763056
82	0xbb11ba0d	-0.002223614
83	0x3b408367	0.0029375197
84	0xbba38f70	-0.0049914643
85	0xbce3e2cb	-0.027818104
86	0x3d98fb64	0.07469824
87	0xbcddc3cb	-0.0270709
88	0x3cc4eb24	0.024037905
89	0xbc81f6b1	-0.015864702
90	0xbb788a92	-0.0037924391
91	0xbdb3423d	-0.08752868
92	0x3b462055	0.0030231674
93	0xbc18f090	-0.009334698
94	0x3d1c087e	0.038094036
95	0xbcf7ec94	-0.030264176
96	0x3be52e5d	0.0069940523
97	0xbb87221b	-0.0041239387
98	0xbcc441a0	-0.023957074
99	0xbd8a8040	-0.06762743
100	0x3cc9d405	0.024637232
101	0xbca18688	-0.01971747
102	0xbe46f3a4	-0.19428879
103	0xbc965e5a	-0.018355537
104	0x3a76dad4	0.0009416763
105	0xbd846a42	-0.064655796
106	0xbc8be246	-0.017075669
107	0xbd1f71ea	-0.038926996
108	0xbbd83693	-0.0065983026
109	0x3c24a0c6	0.010048097
110	0xbd5f5654	-0.05452569
111	0xbb9ccef1	-0.0047854115
112	0x3d08f94b	0.03344087
113	0xb8d0412d	-9.930353e-05
114	0x3cfa378a	0.030544061
115	0x3c153965	0.009107922
116	0xbb597e05	-0.0033186686
117	0x3d3c6466	0.045994185
118	0xbacf6753	-0.001582364
119	0x3cb9dcb9	0.022688257
120	0x3befd9fb	0.0073196865
121	0xbe3812dc	-0.17975944
122	0xbb73d783	-0.0037207312
123	0xbb8a847f	-0.0042272205
124	0xbbf43288	-0.007452313
125	0x3ca24137	0.019806487
126	0xbd413416	-0.047168814
127	0x3bd97be3	0.006637083
128	0x3d452c01	0.04813767
129	0x3b5bb558	0.0033524837
130	0x3cecec51	0.028921278
131	0xbbbb13d6	-0.0057091517
132	0x3c19199a	0.009344483
133	0x3cf5e019	0.030014085
134	0x3e122180	0.14270592
135	0xbd9c12d4	-0.07620779
136	0xbc95ccc0	-0.018286109
137	0x3d17cbef	0.03705972
138	0x3bc3a813	0.0059709637
139	0xbbebd9fb	-0.007197616
140	0x3d227be4	0.039668933
141	0x3a5a6ae6	0.0008331969
142	0xbc5cfe5c	-0.013488378
143	0x3d2b321b	0.04179583
144	0x3d16398d	0.03667598
145	0x3c940289	0.018067615
146	0x3cb164b2	0.02165446
147	0xbc205575	-0.009786
148	0xbc5e5527	-0.013570107
149	0x3bf177fc	0.0073690396
150	0x3d398e83	0.045301925
151	0x3d6d9f41	0.058013204
152	0x3d0fb418	0.03508386
153	0x3d407834	0.046989635
154	0x3d7df06c	0.061996862
155	0x3c778d88	0.015109427
156	0x3c250ab9	0.010073357
157	0xbd01347a	-0.031544186
158	0x3adfb687	0.0017067947
159	0x3c59b178	0.013286941
160	0x3ca5cf17	0.02024035
161	0x3cba1250	0.02271381
162	0x3c49ae74	0.012309659
163	0x3d90cd9d	0.070704676
164	0x3cef0050	0.029174954
165	0xbce36c6f	-0.027761666
166	0x3c88dbe6	0.016706418
167	0x3ba8d3e0	0.0051522106
168	0x3c9fa331	0.019486995
169	0x3cd43692	0.025904927
170	0x3b6102f6	0.003433404
171	0x3c6499d6	0.013952693
172	0xbdc4d840	-0.09611559
173	0x3c9ada04	0.018902786
174	0x3c9b45ef	0.018954245
175	0xbd896351	-0.06708396
176	0x3d0f888f	0.03504234
177	0xbbaebb7c	-0.0053324085
178	0x3d86ac73	0.06575861
179	0x3d197aaf	0.037470516
180	0x3b9860cd	0.0046502114
181	0x3bdab40d	0.0066742958
182	0x3c641f0a	0.013923416
183	0xbe2faaf6	-0.1715506
184	0x3abe3ada	0.0014513389
185	0xbbe21239	-0.006899145
186	0x3c96e798	0.01842098
187	0x3d07d6fe	0.033164017
188	0x3d969034	0.07351723
189	0x3bf3a480	0.0074353814
190	0x3c2d24f5	0.010567893
191	0x3c850a0a	0.016240139
192	0x3cf816d4	0.030284323
193	0xbd2b83f3	-0.041873883
194	0x3c1333e6	0.0089845415
195	0x3cdaa4e3	0.026689952
196	0x3c23988b	0.0099851
197	0xbd1566ba	-0.03647492
198	0x3da7285c	0.08161995
199	0x3bce1b54	0.006289879
200	0x3d64b12b	0.055833023
201	0x3c30ebed	0.010798437
202	0x3c165779	0.009176129
203	0xbd3bec9f	-0.045879956
204	0x3dcf1993	0.101123
205	0x3cbc428d	0.022980953
206	0x3c5eccf8	0.013598673
207	0x3c909198	0.01764755
208	0xbc4c2594	-0.012460131
209	0x3d23f96b	0.040032785
210	0x3ceeebc6	0.02916516
211	0x3cfc44fd	0.030794615
212	0x3c96a098	0.018387124
213	0x3cc03217	0.023461385
214	0xbd2d4610	-0.042303145
215	0x3c7f8199	0.015594863
216	0xbe1b779e	-0.15182349
217	0x3c5c49f5	0.013445367
218	0xbcd1a977	-0.025593502
219	0x3dca2c4e	0.09871732
220	0x3b661a0f	0.0035110747
221	0x3c2c93e2	0.010533305
222	0x3d889114	0.066682965
223	0x3cc40395	0.02392749
224	0x3c62502d	0.013813061
225	0x3d564f62	0.0523218
226	0x3d2db42d	0.042408157
227	0x3b39686d	0.0028291002
228	0x3d6223fa	0.05521009
229	0x3d74837e	0.059695713
230	0xbdf92703	-0.12165644
231	0x3d82f033	0.063934706
232	0x3c56a17a	0.013100022
233	0xbbcb1228	-0.0061972328
234	0x3cb0ffb3	0.021606302
235	0x3d86b021	0.06576563
236	0x3d3116d9	0.04323468
237	0x3c1d8880	0.009615064
238	0x3d0d331e	0.034472577
239	0x3cf06764	0.029346175
240	0xbc9fef1a	-0.019523192
241	0xbcb60a41	-0.022221686
242	0xbc628771	-0.013826237
243	0x3c9c356a	0.019068439
244	0x3c0e5eb9	0.008689576
245	0xbcdade33	-0.026717281
246	0x3ce47681	0.027888538
247	0x3c4edb94	0.012625594
248	0x3c4df4e7	0.012570596
249	0x3cd76f61	0.026298227
250	0x3cd3c304	0.025849827
251	0x3cc27e01	0.023741724
252	0x3d07e556	0.033177696
253	0x3cdc7693	0.02691201
254	0x3c8cc6f4	0.017184712
255	0x3c2427e6	0.010019278

action_model._continuous_distribution.mu.bias f4 [2]
0	0xbe70bc79	-0.23509397
1	0xbd8f3925	-0.06993321
