results/hideandseek_25/Seek/Seek-139059.onnx (onnx, 215419 bytes, 9 tensors)

network_body._body_endoder.seq_layers.0.weight f4 [128, 149]
0.13614772 0.043239903 -0.06923774 -0.06227519 -0.028120311 -0.010984309 0.123637564 0.020987201
0.007089844 -0.07534829 -0.10286413 -0.067732155 0.05689784 0.05139511 -0.0001928546 0.01556019
0.0058666375 0.13573505 -0.08503308 0.08199563 0.016190303 0.0976915 0.11463854 0.08934061
-0.26340383 -0.077551186 -0.05612782 -0.15279065 -0.09862955 -0.07925545 -0.06957244 -0.04201971
-0.010652227 0.14786041 -0.006477652 -0.080109164 -0.03841943 0.193153 0.0666875 -0.07279487
-0.009744642 0.23722632 -0.20675586 -0.0057479455 -0.050329596 -0.12061381 -0.15190656 0.0066823345
-0.08375534 0.029928656 0.07488082 -0.0756839 0.15080772 -0.022339301 0.019580705 0.032779485
-0.120149985 0.122357965 0.027461689 0.018987795 0.08737063 0.0793929 -0.067644924 0.07740087
0.055657968 -0.0721894 0.0653965 -0.06341929 0.11204281 0.00987507 0.06771322 -0.08118249
0.04806308 -0.044381324 -0.10744769 0.01173694 0.18862003 0.04687265 -0.17549399 0.022929953
-0.013847668 -0.060079098 -0.10696115 -0.15059784 -0.10719061 -0.0116992155 0.07073662 0.07184447
0.0007130799 -0.09845014 -0.009192617 -0.060517002 0.10634773 0.04051582 -0.049859263 -0.133442
-0.16036002 0.1861982 0.09866476 -0.025753113 0.039223377 -0.0317092 -0.036895413 -0.10563946
0.043764144 0.015084613 0.06635122 -0.0007995844 -0.029010434 0.02455145 -0.04494171 -0.10281671
-0.043856762 -0.040377848 -0.06982487 -0.11687417 0.11079439 0.016503494 -0.04429428 0.07494586
0.07407237 0.014514271 -0.11852858 -0.036314726 -0.10250051 -0.009200911 0.036122598 -0.14249542
-0.12926324 -0.032858357 -0.091570534 -0.060072895 0.060451582 -0.13397825 0.0032391143 -0.007199428
-0.051094685 0.05796817 0.15332416 -0.065997116 0.051366393 0.04440925 -0.09808058 -0.026788779
-0.00721279 -0.023957565 0.14946294 -0.03444952 -0.057347957 -0.06879434 -0.0010297137 -0.22002079
-0.13122268 -0.096504994 -0.003934257 -0.09445099 0.12347137 -0.12669237 -0.029783 0.114280805
-0.06366867 -0.05801732 0.053041697 -0.11442113 -0.13253832 0.09642115 0.056965575 0.1771624
-0.21151555 0.089526094 -0.16684559 0.0656324 -0.05552562 0.011005166 0.12558872 0.0051747505
0.014101327 -0.039036945 -0.09496285 0.011815384 -0.09461004 -0.054141596 -0.06547395 0.09630725
-0.053113677 0.0745194 0.055753242 0.082047254 -0.019675635 -0.13818891 -0.17027174 0.032226752
-0.0083648795 -0.005242712 -0.12148037 -0.16672336 -0.0023075526 -0.00037403085 0.034644455 0.030511195
0.028021803 -0.19147485 -0.12930468 0.17658788 -0.09592895 0.11575332 -0.09110592 0.09698848
-0.07997029 -0.10345547 0.055193987 0.05727671 -0.005719618 0.023382535 -0.00030086123 -0.0022256693
0.045899995 -0.0007913914 -0.018487677 0.016418627 -0.10165248 -0.12350123 -0.012356484 0.07046277
-0.04242071 -0.25076762 0.166461 -0.030003216 -0.075910375 0.0016469208 -0.029453699 0.13938905
-0.06587178 0.013110653 -0.16707973 -0.01590456 0.08608535 -0.014211113 0.07412473 0.017359104
-0.10845286 0.058299184 0.105484 -0.15343544 -0.058253087 -0.09862231 0.04133413 0.016885586
0.041718613 0.045243725 -0.029159062 0.049317557 0.021506928 0.016526878 0.056885123 0.011090431
00000000: 4f6a 0b3e 531c 313d 84cc 8dbd 4514 7fbd
00000010: 915c e6bc 88f7 33bc b135 fd3d 5aed ab3c
00000020: ec51 e83b 3450 9abd 6eaa d2bd 28b7 8abd
00000030: b60d 693d ae83 523d 0339 4ab9 2bf0 7e3c
00000040: ec3c c03b 21fe 0a3e d325 aebd 53ed a73d
00000050: 87a1 843c 7b12 c83d 9cc7 ea3d 36f8 b63d
00000060: dedc 86be 28d3 9ebd 49e6 65bd 2775 1cbe
00000070: 4afe c9bd ae50 a2bd ff7b 8ebd dc1c 2cbd
00000080: ae86 2ebc b868 173e 7c42 d4bb 4610 a4bd
00000090: b15d 1dbd e6c9 453e 7593 883d 7a15 95bd
000000a0: fea7 1fbc 75eb 723e cfb7 53be 4359 bcbb
000000b0: 6826 4ebd 6004 f7bd 658d 1bbe 7cf7 da3b
000000c0: eb87 abbd f12c f53c 1e5b 993d 2900 9bbd
000000d0: 576d 1a3e e900 b7bc b767 a03c c843 063d
000000e0: 3211 f6bd d096 fa3d 56f7 e03c 4b8c 9b3c
000000f0: 5fef b23d bf98 a23d 6c89 8abd 5984 9e3d
00000100: 9cf9 633d 09d8 93bd 9aee 853d f9e1 81bd
00000110: b376 e53d 0ccb 213c 3bad 8a3d 0143 a6bd
00000120: cbdd 443d 31c9 35bd 890d dcbd 4b4c 403c
00000130: 9c25 413e 89fd 3f3d b2b4 33be 99d7 bb3c
00000140: 54e1 62bc 8015 76bd 730e dbbd 5236 1abe
00000150: c086 dbbd 11ae 3fbc 5cde 903d 3223 933d
00000160: fbed 3a3a 3aa0 c9bd a19c 16bc ade0 77bd
00000170: d7cc d93d ebf3 253d 3a39 4cbd 05a5 08be
00000180: 6b35 24be beaa 3e3e c010 ca3d 31f8 d2bc
00000190: b1a8 203d 82e1 01bd a51f 17bd 8059 d8bd
000001a0: 0842 333d 7425 773c 26e3 873d 339b 51ba
000001b0: 4aa7 edbc 1f20 c93c cc14 38bd 9191 d2bd
000001c0: 26a3 33bd 3e63 25bd 5700 8fbd ba5b efbd
000001d0: 2be8 e23d 5632 873c eb6d 35bd 377d 993d
000001e0: 41b3 973d 44cd 6d3c 1dbf f2bd c0be 14bd
000001f0: caeb d1bd 6bbf 16bc 4af5 133d 52ea 11be
00000200: 955d 04be 7c96 06bd 5589 bbbd ff0e 76bd
00000210: 149c 773d 9831 09be 5247 543b 2ee9 ebbb
00000220: a948 51bd 0870 6d3d 0201 1d3e 7f29 87bd
00000230: 9165 523d 79e6 353d 79de c8bd 2474 dbbc
00000240: 4559 ecbb a842 c4bc d00c 193e f11a 0dbd
00000250: b1e5 6abd 0ce4 8cbd 75f7 86ba 214d 61be
00000260: 3d5f 06be 69a4 c5bd f1ea 80bb 856f c1bd
00000270: 8fde fc3d a5bb 01be 7afb f3bc 0e0c ea3d
00000280: b864 82bd 92a3 6dbd 4042 593d a055 eabd
00000290: 20b8 07be 7478 c53d bc54 693d 0f6a 353e
000002a0: 8897 58be 7559 b73d 92d9 2abe 486a 863d
000002b0: d56e 63bd 034f 343c 549a 003e f490 a93b
000002c0: 4109 673c 34e5 1fbd e27b c2bd 5095 413c
000002d0: e9c2 c1bd 94c3 5dbd 3517 86bd bc3c c53d
000002e0: ba8d 59bd a19d 983d 835d 643d 6408 a83d
000002f0: cc2e a1bc 6581 0dbe b75b 2ebe 3300 043d
00000300: d90c 09bc 0ecb abbb b3ca f8bd 87b9 2abe
00000310: 4f3a 17bb 9219 c4b9 58e7 0d3d 9df2 f93c
00000320: fb8d e53c fc11 44be 7268 04be 74d3 343e
00000330: 6676 c4bd 1410 ed3d be95 babd e5a1 c63d
00000340: 77c7 a3bd 76e0 d3bd 1713 623d fc9a 6a3d
00000350: a26b bbbb bb8c bf3c e9bc 9db9 89dc 11bb
00000360: a201 3c3d 6175 4fba 7873 97bc 5b80 863c
00000370: 2d2f d0bd 36ee fcbd da72 4abc c94e 903d
00000380: 57c1 2dbd 9d64 80be c174 2a3e 4ec9 f5bc
00000390: e676 9bbd 7edd d73a e248 f1bc 01bc 0e3e
000003a0: c9e7 86bd 10ce 563c f316 2bbe 484a 82bc
000003b0: 844d b03d bad5 68bc b5ce 973d ae34 8e3c
000003c0: 881c debd 20cb 6e3d ff07 d83d 2e1e 1dbe
000003d0: ca9a 6ebd 7efa c9bd fa4d 293d a453 8a3c
000003e0: 23e1 2a3d 7c51 393d fcde eebc 3501 4a3d
000003f0: 4c2f b03c 6063 873c 6000 693d a4b4 353c

network_body._body_endoder.seq_layers.0.bias f4 [128]
-0.019354153 -0.028028518 -0.016170945 -0.02267257 0.031067299 -0.024324538 -0.080584235 -0.032065663
-0.037898637 -0.03520982 -0.023482129 -0.039974354 0.018612519 -0.021703798 -0.03273607 -0.041105043
-0.07271806 -0.034367926 0.009018934 -0.05779565 -0.0063835587 -0.06910398 -0.064638466 0.013218543
-0.024374722 -0.0035425832 -0.021615835 -0.019188844 -0.07784493 -0.018766185 -0.062033452 -0.039850302
-0.01811027 -0.12920457 -0.03237578 0.030692184 -0.104262464 -0.036740966 -0.06166046 0.0018209057
-0.051158555 -0.0117665185 -0.058802873 0.04839128 -0.058879904 -0.055121467 -0.014671171 -0.0184021
-0.09418198 -0.013128292 -0.030051319 -0.055926267 -0.017070558 -0.09870874 -0.063206434 -0.012988646
0.006877911 -0.08239256 0.012046565 -0.024850322 0.0024414922 0.019581309 -0.0529569 -0.04133674
-0.040280856 -0.14743528 -0.021355368 0.019314615 -0.06761861 0.018912103 -0.097386345 -0.025309714
-0.015824229 -0.06306029 -0.079976305 -0.025563832 -0.0005599219 0.008906174 0.013207033 -0.0054128715
-0.067891665 -0.06082832 -0.026789898 -0.027946036 -0.02827979 -0.073287256 -0.015469466 0.012312267
-0.054737505 0.022055157 -0.06892355 0.00074817485 -0.042874902 -0.012550813 -0.073036 -0.06310834
0.022260426 -0.08350177 -0.0651426 -0.06222531 -0.060616694 -0.011020801 0.007985883 -0.043266274
0.029030958 -0.08056391 0.020098314 -0.008012773 -0.05013178 -0.07485592 -0.042025078 -0.077032045
-0.0050489255 -0.029928524 -0.08520054 -0.051852994 -0.00055790454 -0.050459508 -0.02705631 -0.011457753
-0.040252984 -0.085716315 0.014113063 -0.027261084 -0.02102047 -0.08147719 -0.067847446 -0.09131402
00000000: 9a8c 9ebc 109c e5bc ee78 84bc d3bb b9bc
00000010: d980 fe3c 4144 c7bc 5909 a5bd 4957 03bd
00000020: 9a3b 1bbd 2c38 10bd 985d c0bc 26bc 23bd
00000030: 4879 983c 2acc b1bc 4216 06bd c35d 28bd
00000040: 35ed 94bd 62c5 0cbd 27c4 133c 22bb 6cbd
00000050: 2c2d d1bb 6386 8dbd 2c61 84bd 9692 583c
00000060: 7fad c7bc af2a 68bb b113 b1bc ec31 9dbc
00000070: 2a6d 9fbd 8bbb 99bc ca16 7ebd 123a 23bd
00000080: fd5b 94bc 344e 04be 779c 04bd 2d6e fb3c
00000090: 8f87 d5bd b27d 16bd ae8f 7cbd 75ab ee3a
000000a0: a28b 51bd 5bc8 40bc 48db 70bd ef35 463d
000000b0: 0e2c 71bd 0cc7 61bd 5a5f 70bc 00c0 96bc
000000c0: 7be2 c0bd 0c18 57bc 2f2e f6bc f112 65bd
000000d0: 8ed7 8bbc cf27 cabd 6072 81bd 54ce 54bc
000000e0: 1960 e13b 6ebd a8bd f55e 453c e792 cbbc
000000f0: 7101 203b fb68 a03c 56e9 58bd b750 29bd
00000100: 8afd 24bd 46f9 16be 74f1 aebc af39 9e3c
00000110: a07b 8abd 8eed 9a3c 7e72 c7bd 5156 cfbc
00000120: d0a1 81bc c125 81bd 9eca a3bd 3e6b d1bc
00000130: b9c7 12ba 34eb 113c 5062 583c 755e b1bb
00000140: c90a 8bbd 1e27 79bd 7d76 dbbc 16ef e4bc
00000150: 05ab e7bc a117 96bd a573 7dbc 64b9 493c
00000160: 6f34 60bd 04ad b43c ca27 8dbd 2a21 443a
00000170: 989d 2fbd eda1 4dbc e693 95bd f23e 81bd
00000180: 7f5b b63c fa02 abbd 7c69 85bd f7df 7ebd
00000190: 3649 78bd 9790 34bc 39d7 023c fa37 31bd
000001a0: 55d2 ed3c b1fe a4bd 38a5 a43c 0148 03bc
000001b0: fb56 4dbd 104e 99bd 7d22 2cbd fac2 9dbd
000001c0: 7571 a5bb aa2c f5bc 9f7d aebd ce63 54bd
000001d0: 5740 12ba a1ae 4ebd 32a5 ddbc 4db9 3bbc
000001e0: 50e0 24bd 098c afbd 7a3a 673c a352 dfbc
000001f0: 1f33 acbc 83dd a6bd 9af3 8abd d802 bbbd

network_body._body_endoder.seq_layers.2.weight f4 [128, 128]
0.056868173 -0.033796713 -0.09014098 -0.07503963 -0.09000299 -0.19268613 -0.05954764 0.009751527
-0.22543105 0.04498864 -0.056203075 0.071782894 -0.101924285 -0.045440506 0.14862452 -0.016158894
-0.1188496 -0.13502212 -0.14678888 0.09900767 -0.09234216 -0.18704727 -0.15468946 -0.039307676
-0.05745675 -0.057703454 -0.17488731 0.047657415 0.05469208 -0.08452725 -0.14214884 -0.102875814
-0.10494945 0.06058856 0.014765543 -0.12667738 -0.054031566 -0.09645116 0.22191815 -0.048386533
-0.1825423 -0.080164164 -0.08518906 -0.124805 0.03498345 -0.11043278 -0.1627306 -0.14376663
0.1686446 0.09520243 0.008864507 0.033444084 -0.05077113 -0.11107998 -0.07268659 0.0074991146
-0.14062105 -0.041305855 0.06240447 -0.075199895 -0.033784855 -0.0521562 0.014675311 0.036533672
-0.058352355 -0.060754497 -0.024860552 0.17221971 -0.21594267 0.090670414 0.0060642073 -0.067530066
-0.18029782 -0.09784819 -0.056891344 0.0144575825 -0.09829971 0.075826086 -0.05211765 0.00024684373
0.021129427 -0.075085066 -0.11110674 -0.17929408 -0.075113356 -0.16664419 0.022518203 -0.058343485
-0.045837883 0.029155541 -0.17835577 -0.018731557 -0.007060574 -0.17446315 0.025807956 -0.07215197
-0.07040181 0.15626386 -0.079853304 0.005842936 -0.08293399 -0.12048 -0.09167916 -0.007179299
-0.027047513 -0.12450236 -0.113843694 0.01164073 -0.031558417 0.0074363365 -0.100516744 -0.10771003
-0.009985136 -0.20347965 -0.005748544 0.15191773 -0.1117753 0.030682363 0.050994452 0.01580326
-0.00025059533 0.11061567 0.05660887 -0.017014498 0.1255164 0.120974004 -0.08508706 -0.22951823
0.072430275 -0.22933052 0.11215251 -0.054245 0.06532949 0.07763445 0.052504145 0.0512902
-0.029423624 -0.13011609 -0.13696563 0.029185213 0.051901925 -0.068427384 -0.005296787 -0.09055293
-0.07334885 -0.07008919 0.023925075 -0.020725532 -0.10339387 -0.06008059 -0.0031071978 0.0043722326
-0.044577084 -0.1230101 0.20512198 0.07040852 -0.029458912 -0.012634863 -0.018222068 -0.082879916
-0.10958752 0.0776431 -0.089196585 0.058049846 -0.029927662 -0.118877344 -0.075486675 -0.065592535
-0.19525234 0.13679321 -0.10643263 -0.05456641 0.15154712 -0.0042815404 -0.046955947 -0.06402966
-0.0656192 -0.018962704 0.060674246 0.018747576 0.07580487 -0.11321478 0.14509112 -0.094402984
-0.05951465 -0.035544384 -0.031427816 -0.2905407 -0.16581714 -0.20971696 0.0681152 -0.088526346
-0.06606594 -0.05887228 -0.13198622 0.08680358 0.08979226 0.07956888 0.050278608 -0.044386834
0.05902915 0.08516226 -0.003397213 0.054131266 0.024757545 0.05782791 -0.0865972 -0.034172595
-0.01084047 -0.05237707 0.092120245 -0.00036378152 0.10509338 0.036070667 -0.027054088 0.12563346
-0.22107312 0.0044011283 0.251539 -0.020976791 0.017872782 -0.15736091 -0.049109515 0.064817116
0.078545064 0.08453687 0.02598247 -0.112808146 0.117816225 -0.12824662 -0.038913153 -0.26143238
-0.012707042 0.059921715 -0.043311324 -0.10323342 -0.003466276 0.17181459 -0.06122042 0.027559087
0.026113601 -0.16273983 -0.016003828 0.11503397 0.2154507 0.011631898 -0.049831882 -0.026355222
-0.051790945 -0.0090727415 -0.09132807 -0.12263836 -0.0072303116 -0.124720484 -0.08999686 -0.20385571
00000000: 9aee 683d 6c6e 0abd d69b b8bd 61ae 99bd
00000010: 7d53 b8bd 834f 45be 3ae8 73bd dec4 1f3c
00000020: 66d7 66be 0246 383d 3235 66bd e902 933d
00000030: aebd d0bd d31f 3abd 0731 183e a85f 84bc
00000040: 6b67 f3bd 3d43 0abe d34f 16be 89c4 ca3d
00000050: e31d bdbd 5289 3fbe ea66 1ebe 1601 21bd
00000060: c557 6bbd 755a 6cbd a915 33be 6c34 433d
00000070: cd04 603d 9f1c adbd 778f 11be 8eb0 d2bd
00000080: bdef d6bd b62b 783d 2deb 713c b7b7 01be
00000090: 3450 5dbd 3088 c5bd 833e 633e f530 46bd
000000a0: 5eec 3abe 1c2d a4bd 9a77 aebd c499 ffbd
000000b0: ce4a 0f3d 952a e2bd daa2 26be 8f37 13be
000000c0: 2cb1 2c3e 7ef9 c23d 703c 113c aafc 083d
000000d0: 63f5 4fbd e77d e3bd b5dc 94bd 22bb f53b
000000e0: f7fe 0fbe 5430 29bd d49b 7f3d 6702 9abd
000000f0: fd61 0abd bda1 55bd b770 703c 55a4 153d
00000100: e102 6fbd b5d9 78bd 5ba8 cbbc 5d5a 303e
00000110: 1320 5dbe 69b1 b93d 42b6 c63b 344d 8abd
00000120: fe9f 38be a264 c8bd e606 69bd 7fdf 6c3c
00000130: 5c51 c9bd b54a 9b3d 5179 55bd ce6a 8139
00000140: 9f17 ad3c 33c6 99bd ee8b e3bd de98 37be
00000150: 08d5 99bd c6a4 2abe 1878 b83c 94f9 6ebd
00000160: 81c0 3bbd 9ad7 ee3c e5a2 36be ec72 99bc
00000170: 635c e7bb 78a6 32be 356b d33c 69c4 93bd
00000180: d32e 90bd a203 203e 218a a3bd 1a76 bf3b
00000190: 4cd9 a9bd 38be f6bd 49c2 bbbd 5340 ebbb
000001a0: bf92 ddbc 18fb febd e226 e9bd c3b8 3e3c
000001b0: 6643 01bd 83ac f33b b9db cdbd 1497 dcbd
000001c0: b298 23bc f85c 50be 485e bcbb 5290 1b3e
000001d0: 73ea e4bd 9459 fb3c 8fdf 503d d775 813c
000001e0: 5662 83b9 788a e23d b4de 673d fd61 8bbc
000001f0: 5f87 003e 38c1 f73d 2042 aebd d406 6bbe
00000200: 5356 943d 9fd5 6abe 37b0 e53d 0130 5ebd
00000210: 78cb 853d cffe 9e3d 960e 573d ac15 523d
00000220: d009 f1bc 273d 05be b840 0cbe d415 ef3c
00000230: 1d97 543d a823 8cbd ab90 adbb d173 b9bd
00000240: ec37 96bd ec8a 8fbd 85fe c33c 97c8 a9bc
00000250: 2ac0 d3bd 1117 76bd 21a2 4bbb f244 8f3b
00000260: 7696 36bd b8ec fbbd 7f0b 523e 5832 903d
00000270: d153 f1bc 7502 4fbc 7246 95bc f2bc a9bd
00000280: 6c6f e0bd 5803 9f3d b3ac b6bd adc5 6d3d
00000290: db2a f5bc f775 f3bd c298 9abd 6155 86bd
000002a0: 3bf0 47be 8513 0c3e 5af9 d9bd 0781 5fbd
000002b0: 2b2f 1b3e 2a4c 8cbb e154 40bd fb21 83bd
000002c0: 5c63 86bd ac57 9bbc 8f85 783d 8494 993c
000002d0: 953f 9b3d 27dd e7bd c492 143e 5a56 c1bd
000002e0: a2c5 73bd fd96 11bd 74ba 00bd c0c1 94be
000002f0: f8cb 29be 0bc0 56be fb7f 8b3d 4d4d b5bd
00000300: 944d 87bd 0f24 71bd 6527 07be 13c6 b13d
00000310: 01e5 b73d 02f5 a23d f1f0 4d3d f8ce 35bd
00000320: 8dc8 713d 8d69 ae3d c7a3 5ebb bfb8 5d3d
00000330: 56d0 ca3c f5dc 6c3d df59 b1bd 90f8 0bbd
00000340: 3a9c 31bc 5789 56bd 8aa9 bc3d eeb9 beb9
00000350: 333b d73d d6be 133d 89a0 ddbc 0fa6 003e
00000360: fe60 62be 5737 903b b8c9 803e 85d7 abbc
00000370: f169 923c 3823 21be 0f27 49bd d6be 843d
00000380: 3cdc a03d ab21 ad3d 30d9 d43c f507 e7bd
00000390: a249 f13d 1553 03be 6663 1fbd 77da 85be
000003a0: 3231 50bc 7970 753d 3767 31bd 0b6c d3bd
000003b0: 762a 63bb 2af0 2f3e 43c2 7abd 98c3 e13c
000003c0: 31ec d53c 45a5 26be 761a 83bc ee96 eb3d
000003d0: 1c9f 5c3e b793 3e3c 841c 4cbd e8e6 d7bc
000003e0: be22 54bd d6a5 14bc 360a bbbd d229 fbbd
000003f0: 40ec ecbb 746d ffbd 4650 b8bd 8dbf 50be

network_body._body_endoder.seq_layers.2.bias f4 [128]
0.025830826 -0.03975998 -0.043625455 -0.0041958746 -0.06508722 -0.03413824 0.006071821 -0.010431366
-0.0056637875 -0.0078746285 -0.0078685 -0.022542136 -0.01777802 -0.002201837 -0.020001005 -0.054508105
-0.009348538 -0.057076946 -0.055885218 -0.0061539486 -0.019966722 -0.0053976364 -0.066209726 -0.011607225
-0.011454545 -0.0034046713 -0.0012964654 -0.07675508 -0.03406834 -0.07413008 0.03254867 -0.014460904
-0.066025935 0.012246986 -0.024933632 -0.046461284 -0.018458825 -0.038602665 -0.0647567 -0.08224601
-0.015296315 -0.041383967 -0.0028873505 -0.0075596743 -0.003363978 0.020080661 -0.009941131 -0.008858346
-0.073109716 -0.0030098779 0.009037968 0.0038579206 -0.06428507 -0.026807 -0.042614736 0.028775167
0.023286393 0.028365685 -0.020645399 -0.044662066 -0.046059374 -0.011349597 0.011291606 -0.087204434
-0.030649677 -0.01680261 0.071424715 0.007518185 -0.018953439 0.00071382005 -0.060902193 -0.05191275
-0.008610711 0.038833722 -0.10456099 -0.050143827 -0.03194176 -0.03685555 -0.061455727 0.008934428
-0.01720952 -0.06259924 -0.015567032 -0.019728051 0.0024199155 -0.018749842 0.0196382 -0.06530618
0.03469179 -0.07314908 -0.0118212495 0.00973419 -0.07463013 -0.0429141 0.016529588 -0.0024770496
-0.055728815 -0.014963305 -0.02014879 -0.09963045 -0.05880146 -0.08617918 -0.023354148 -0.09374707
0.013689391 -0.023949843 -0.06408439 -0.038100116 -0.08374284 -0.02027478 -0.051740363 -0.04792335
-0.042173788 0.0061862627 -0.03768093 0.005479985 -0.06942445 -0.005390459 -0.090842426 -0.052319862
-0.062438495 -0.031483583 -0.032820474 -0.029982584 -0.0014734826 -0.065638155 -0.10617822 -0.10257996
00000000: 2b9b d33c 5cdb 22bd 9bb0 32bd 8c7d 89bb
00000010: 734c 85bd 8ad4 0bbd 20f6 c63b 52e8 2abc
00000020: 4b97 b9bb 9604 01bc e2ea 00bc 49aa b8bc
00000030: 36a3 91bc b24c 10bb 26d9 a3bc e443 5fbd
00000040: 9c2a 19bc 84c9 69bd e6e7 64bd 10a7 c9bb
00000050: 4091 a3bc a8de b0bb f798 87bd 3b2c 3ebc
00000060: d8ab 3bbc e820 5fbb 29ee a9ba c431 9dbd
00000070: 3e8b 0bbd 83d1 97bd c151 053d 6ded 6cbc
00000080: 9b38 87bd 95a7 483c 9e41 ccbc 304e 3ebd
00000090: f636 97bc d41d 1ebd 299f 84bd 9970 a8bd
000000a0: 659d 7abc 3c82 29bd b439 3dbb 25b7 f7bb
000000b0: 2f76 5cbb 3380 a43c 20e0 22bc 9922 11bc
000000c0: 8cba 95bd 5f41 45bb fc13 143c 2bd5 7c3b
000000d0: e4a7 83bd 5b9a dbbc ca8c 2ebd e6b9 eb3c
000000e0: 1bc3 be3c 275f e83c 8a20 a9bc 92ef 36bd
000000f0: c1a8 3cbd a9f3 39bc 6e00 393c 3d98 b2bd
00000100: 0815 fbbc a1a5 89bc 1f47 923d 1b5b f63b
00000110: 3e44 9bbc a71f 3b3a 9474 79bd 77a2 54bd
00000120: f113 0dbc 1c10 1f3d 1324 d6bd 9d63 4dbd
00000130: 5dd5 02bd d8f5 16bd 00b9 7bbd b561 123c
00000140: fbfa 8cbc 0834 80bd dd0c 7fbc b99c a1bc
00000150: 7297 1e3b 4599 99bc 4ae0 a03c 3fbf 85bd
00000160: fa18 0e3d 2fcf 95bd eaad 41bc 277c 1f3c
00000170: aed7 98bd b2c6 2fbd 0f69 873c ff55 22bb
00000180: e643 64bd a628 75bc 130f a5bc 0d0b ccbd
00000190: cdd9 70bd b67e b0bd 3351 bfbc 77fe bfbd
000001a0: 7849 603c 7632 c4bc ad3e 83bd de0e 1cbd
000001b0: 5e81 abbd 4c17 a6bc b4ed 53bd 464b 44bd
000001c0: 6cbe 2cbd 22b6 ca3b 5257 1abd 7291 b33b
000001d0: 682e 8ebd 73a2 b0bb 980b babd 5a4d 56bd
000001e0: 82bf 7fbd eef4 00bd c36e 06bd 099e f5bc
000001f0: df21 c1ba 4c6d 86bd f773 d9bd 7115 d2bd

network_body._body_endoder.seq_layers.4.weight f4 [128, 128]
-0.27154115 -0.1782866 -0.045500588 -0.05643611 0.0054232962 -0.14724185 -0.2728286 -0.06734869
0.041093133 -0.0736443 -0.01842457 -0.06794378 -0.119031884 -0.03820357 -0.046542197 -0.09137144
-0.00156118 -0.0019167864 0.053072557 -0.20290962 -0.05419528 0.022700187 0.0015411131 -0.11396985
0.13287798 -0.0410769 0.095238924 -0.0051269527 -0.121027835 0.086383924 0.0957405 0.2756293
-0.08658044 -0.06994509 -0.14692144 -0.1955247 -0.08006252 0.074957594 0.04223995 -0.019775063
0.0249805 -0.13495223 -0.10087222 -0.2865303 -0.09203311 0.09629453 -0.03674056 0.04810665
-0.051209915 -0.07624925 0.121615626 -0.13437776 0.13649276 0.028585576 0.09998631 0.055667568
0.0017376391 -0.025196286 0.15913862 0.05411286 -0.09695636 0.10193924 -0.035038162 -0.09679283
-0.05216219 -0.077057585 -0.0684939 -0.019892694 0.0870178 0.025619851 -0.01699858 -0.041520126
-0.016932797 0.039708376 -0.07428898 0.08969259 0.19542414 -0.120391555 -0.21987732 -0.05652723
0.05985837 0.032268155 -0.024340516 -0.09545556 -0.2555963 0.19548672 -0.15671854 0.12410767
0.009069095 0.026709888 0.027847635 0.06836529 0.0255414 0.036945473 0.023928063 0.1136839
0.18038104 0.008265445 -0.09629683 -0.17834963 -0.10524698 -0.09741513 -0.06951446 -0.14030384
0.11260291 0.07015295 0.25600564 -0.10162738 -0.05226844 0.17456737 -0.060992513 -0.106537834
-0.2720648 0.025703145 -0.08185903 0.063759066 -0.114362426 0.058447786 -0.09163198 0.095368974
-0.23619847 0.106923394 0.045423426 0.10955745 -0.06664985 -0.07228398 -0.025517479 -0.23251978
-0.08861976 -0.025881467 -0.11865674 0.061942134 0.09244084 -0.026246093 -0.14672486 -0.02109887
-0.07089117 -0.0143496655 0.121911906 0.012184745 0.036087174 0.011781974 -0.006383622 0.04997855
0.117908 -0.0036411192 0.13032465 0.09912507 0.094229594 0.3034113 0.18789455 0.023203319
0.058988344 -0.14233838 0.09044129 0.123601876 0.14431654 0.0586577 0.19807172 0.16111855
0.08275569 0.04652943 -0.018039573 0.09447184 -0.041114345 -0.058897536 0.24362287 -0.09975336
-0.021934668 0.04677543 0.043081425 -0.10532436 0.022364244 0.04959162 0.01079261 0.1375807
0.057982095 0.1427508 0.07975976 -0.09583493 0.09772678 -0.051908556 0.06516289 -0.014711608
0.019235006 -0.11621688 0.049142297 0.101918556 0.13699804 -0.09175845 -0.16075164 0.20773514
0.074182995 0.025364855 0.014590098 0.038049344 0.13449217 0.03676857 -0.03096333 0.078573845
-0.027042827 0.0042422162 0.114175834 0.053685978 -0.12949125 0.10278102 0.02312472 -0.13422385
0.047552835 -0.15495738 -0.106583595 0.08297971 -0.115509026 0.23830637 -0.09703499 -0.018133407
-0.17189541 -0.139506 -0.11999876 -0.012386636 0.13443504 0.030118342 -0.11646828 0.09617566
0.032592367 -0.1740969 0.061729908 0.118316144 0.21619266 0.06936924 0.08998085 0.12276164
0.021760501 0.014909194 0.04531845 0.008900165 0.024463387 0.11276342 0.007983857 0.14944713
0.14973302 -0.18055843 -0.1189726 0.16166337 -0.031085745 0.061658718 0.03161531 0.06474142
0.07441365 -0.091840066 0.07304084 0.024092412 0.095810875 -0.10990198 -0.029921344 0.078536294
00000000: 7107 8bbe c390 36be d35e 3abd 8d29 67bd
00000010: e8b5 b13b 91c6 16be 31b0 8bbe 1cee 89bd
00000020: 4651 283d d3d2 96bd 20ef 96bc 1c26 8bbd
00000030: fdc6 f3bd 597b 1cbd 08a3 3ebd f320 bbbd
00000040: 82a0 ccba ae3c fbba 9c62 593d 8ac7 4fbe
00000050: dffb 5dbd bef5 b93c 2dff c93a 0669 e9bd
00000060: 2a11 083e 4040 28bd a00c c33d ffff a7bb
00000070: 71dd f7bd 0eea b03d 9813 c43d 491f 8d3e
00000080: 1651 b1bd 5f3f 8fbd 9372 16be a137 48be
00000090: d2f7 a3bd 5e83 993d cc03 2d3d 50ff a1bc
000000a0: e8a3 cc3c eb30 0abe 1896 cebd 19b4 92be
000000b0: db7b bcbd 1136 c53d 457d 16bd 7b0b 453d
000000c0: 7dc1 51bd 9128 9cbd 9d11 f93d 539a 09be
000000d0: c2c4 0b3e 4c2c ea3c 9fc5 cc3d ad03 643d
000000e0: 7ec1 e33a 7168 cebc 3cf5 223e 72a5 5d3d
000000f0: 0e91 c6bd 85c5 d03d 2d84 0fbd 523b c6bd
00000100: 05a8 55bd 5ed0 9dbd 8846 8cbd 01f6 a2bc
00000110: 6336 b23d b9e0 d13c 9b40 8bbc 0211 2abd
00000120: a6b6 8abc 40a5 223d d224 98bd c0b0 b73d
00000130: 441d 483e d98f f6bd 8527 61be 1989 67bd
00000140: 0d2e 753d 9d2b 043d c365 c7bc 347e c3bd
00000150: 85dd 82be ac2d 483e d37a 20be 292c fe3d
00000160: 8b96 143c b2ce da3c b920 e43c 1a03 8c3d
00000170: 333c d13c 2354 173d c904 c43c 1bd3 e83d
00000180: cfb5 383e ca6b 073c 4637 c5bd 49a1 36be
00000190: bb8b d7bd 9581 c7bd 995d 8ebd cfab 0fbe
000001a0: 5b9c e63d 5aac 8f3d 2c13 833e 0422 d0bd
000001b0: 6f17 56bd cac1 323e 49d3 79bd 8230 dabd
000001c0: 144c 8bbe 678f d23c b5a5 a7bd 1d94 823d
000001d0: d936 eabd f266 6f3d 8ca9 bbbd cf50 c33d
000001e0: 03de 71be a7fa da3d ea0d 3a3d a85f e03d
000001f0: b77f 88bd a009 94bd 080a d1bc aa19 6ebe
00000200: 477e b5bd 5f05 d4bc 4e02 f3bd 09b7 7d3d
00000210: a051 bd3d 0c02 d7bc 0b3f 16be 8ad7 acbc
00000220: 642f 91bd dc1a 6bbc f3ac f93d 86a2 473c
00000230: 25d0 133d 2e09 413c b42d d1bb 4fb6 4c3d
00000240: c079 f13d d89f 6ebb d373 053e 1602 cb3d
00000250: 72fb c03d ba58 9b3e 6e67 403e e314 be3c
00000260: c39d 713d 27c1 11be 4839 b93d fb22 fd3d
00000270: b7c7 133e 0e43 703d 50d3 4a3e 43fc 243e
00000280: d17b a93d a595 3e3d bac7 93bc 747a c13d
00000290: 8467 28bd 8b3e 71bd 4678 793e 7d4b ccbd
000002a0: 55b0 b3bc 9897 3f3d 2676 303d 4cb4 d7bd
000002b0: 3835 b73c 9520 4b3d 7dd3 303c f4e1 0c3e
000002c0: a27e 6d3d 442d 123e 1659 a33d 1b45 c4bd
000002d0: fa24 c83d 119e 54bd 1f74 853d f508 71bc
000002e0: bb92 9d3c 1e03 eebd 6f49 493d adba d03d
000002f0: 3749 0c3e dbeb bbbd 149c 24be 85b8 543e
00000300: 41ed 973d f5c9 cf3c 4e0b 6f3c a1d9 1b3d
00000310: 51b8 093e a49a 163d cfa6 fdbc 53eb a03d
00000320: eb88 ddbc 4a02 8b3b 05d5 e93d d4e5 5b3d
00000330: 5b99 04be db7e d23d 0e70 bd3c fa71 09be
00000340: c3c6 423d 26ad 1ebe 8048 dabd 44f1 a93d
00000350: ff8f ecbd 9606 743e 48ba c6bd 838c 94bc
00000360: 5a05 30be a9da 0ebe e9c1 f5bd 51f1 4abc
00000370: 57a9 093e beba f63c ec86 eebd bff7 c43d
00000380: 937f 053d 7546 32be 80d8 7c3d bc4f f23d
00000390: 9c61 5d3e 7611 8e3d e147 b83d 746a fb3d
000003a0: 1443 b23c b145 743c d79f 393d ffd1 113c
000003b0: 7167 c83c 82f0 e63d b9ce 023c ab08 193e
000003c0: 9d53 193e 4fe4 38be e8a7 f3bd 158b 253e
000003d0: 88a7 febc da8d 7c3d 0e7f 013d 2697 843d
000003e0: 2f66 983d a516 bcbd 7096 953d 735d c53c
000003f0: 7e38 c43d 4a14 e1bd 9b1d f5bc a3d7 a03d

network_body._body_endoder.seq_layers.4.bias f4 [128]
-0.015986588 -0.08983845 0.009534383 -0.05963058 -0.11897737 0.0049227085 -0.014663247 -0.021160597
-0.08589944 -0.03895771 -0.13516803 -0.03146367 0.020184206 -0.024111815 -0.02275621 -0.028168425
0.016842317 0.036144946 -0.041251488 -0.060181856 -0.12477204 0.017668875 -0.010909344 -0.01202668
0.025963577 0.01878927 -0.06639981 -0.03400261 -0.070052214 -0.050676767 -0.0791463 0.0064000324
-0.08844406 -0.05220547 0.031594146 -0.08064352 -0.029989427 -0.055136427 -0.04845899 -0.019376187
-0.08663539 -0.07528264 -0.13092214 -0.044027496 -0.05930391 -0.078424275 -0.12177758 -0.017490458
0.036831483 0.030512165 -0.056581296 -0.08020802 0.03397844 -0.0984655 -0.039943382 0.0028064582
-0.02511381 -0.0832207 -0.026383117 -0.016087424 0.0045517716 -0.1516176 0.033423267 -0.091915675
-0.052995935 -0.063813575 0.019472754 -0.039769556 0.033366445 -0.08239111 -0.05694672 -0.08708637
-0.011078779 -0.012142839 -0.09480925 -0.028791027 -0.01687963 -0.015598629 -0.0928322 -0.044852756
0.04536986 -0.052974362 0.020594308 0.04362749 -0.0722462 -0.04348685 -0.013389984 0.005120203
-0.076276414 -0.07284236 -0.06681493 0.025281338 -0.046628505 0.0008904843 -0.052151244 -0.01801351
-0.057556834 -0.1027847 -0.08030187 -0.023810612 -0.014707827 -0.03110313 -0.0403462 -0.020032758
-0.0770257 -0.06377274 0.0098014055 -0.09924593 -0.06064302 -0.013851109 0.013399162 -0.13392483
0.088122666 -0.018842082 -0.0039640185 -0.039426968 -0.08133377 0.07657732 -0.028881218 0.051879514
-0.03422199 -0.035655916 -0.048538696 -0.10455003 -0.05206626 -0.07221177 -0.007423719 0.027754454
00000000: 4ef6 82bc 39fd b7bd 1a36 1c3c 323f 74bd
00000010: 68aa f3bd ac4e a13b 1e3e 70bc fd58 adbc
00000020: 0cec afbd 1f92 1fbd 7d69 0abe 0de0 00bd
00000030: 5959 a53c 2486 c5bc 3b6b babc 78c1 e6bc
00000040: e6f8 893c b90c 143d 52f7 28bd 4081 76bd
00000050: 7c88 ffbd 51be 903c 1bbd 32bc 8d0b 45bc
00000060: 91b1 d43c f5eb 993c a0fc 87bd 5246 0bbd
00000070: 8977 8fbd 7192 4fbd 7517 a2bd 5db7 d13b
00000080: 2922 b5bd 67d5 55bd dd68 013d 6e28 a5bd
00000090: 63ac f5bc bcd6 61bd ef7c 46bd cfba 9ebc
000000a0: e56d b1bd c92d 9abd 7410 06be 2d56 34bd
000000b0: a8e8 72bd e89c a0bd 8666 f9bd 2648 8fbc
000000c0: 9cdc 163d a6f4 f93c cac1 67bd 1a44 a4bd
000000d0: fa2c 0b3d 48a8 c9bd ac9b 23bd 8eec 373b
000000e0: 7abb cdbc 9d6f aabd 6821 d8bc c6c9 83bc
000000f0: 0727 953b a541 1bbe d6e6 083d 493e bcbd
00000100: 4412 59bd b1b0 82bd 5385 9f3c 67e5 22bd
00000110: 41ab 083d acbc a8bd f740 69bd 575a b2bd
00000120: c483 35bc c2f2 46bc 5a2b c2bd 29db ebbc
00000130: 2647 8abc 6491 7fbc cf1e bebd 86b7 37bd
00000140: bfd5 393d a5fb 58bd 65b5 a83c bdb2 323d
00000150: d1f5 93bd 441f 32bd aa61 5bbc 60c7 a73b
00000160: cf36 9cbd 602e 95bd 44d6 88bd cf1a cf3c
00000170: 88fd 3ebd 646f 693a 8b9c 55bd 1291 93bc
00000180: b7c0 6bbd c980 d2bd 4f75 a4bd 790e c3bc
00000190: 19f9 70bc fecb febc 0f42 25bd bd1b a4bc
000001a0: a6bf 9dbd 489b 82bd 1396 203c 7341 cbbd
000001b0: d164 78bd c3ef 62bc 2988 5b3c 9723 09be
000001c0: a879 b43d b65a 9abc 99e4 81bb 2c7e 21bd
000001d0: 5292 a6bd 92d4 9c3d 4e98 ecbc 9d7f 543d
000001e0: 5b2c 0cbd f00b 12bd 83d0 46bd 531e d6bd
000001f0: 6e43 55bd c4e3 93bd ab42 f3bb 4f5d e33c

action_model._continuous_distribution.log_sigma f4 [1, 2]
1.0056796 1.0745944
00000000: 1cba 803f 4f8c 893f

action_model._continuous_distribution.mu.weight f4 [2, 128]
-0.031787083 0.01530492 -0.019137679 0.045869946 0.025453437 0.00516801 -0.0033426667 0.020883476
0.057041425 0.020070571 0.04734561 0.046770565 0.0453665 -0.015026114 0.04662851 0.045110796
0.039351486 0.077071 0.0024429031 0.03218191 0.03490625 -0.0026050038 -0.021334967 -0.029932708
0.022813426 0.007261982 0.03970291 0.027994407 0.031991594 0.029544666 0.051139213 0.056851376
0.08155649 0.024635386 -0.015866881 0.015827447 -0.008983653 0.00454932 -0.017891392 0.025840458
0.051793635 0.032825284 0.041504998 0.075616725 0.06851103 0.027053734 0.044405278 -0.0008952881
-0.057487927 0.06472665 0.017626226 0.030160218 0.045887843 0.037357796 0.020331103 0.012252475
0.041493643 0.034483876 0.05948856 0.041528516 0.013204554 0.01716283 -0.035701238 0.0056083146
-0.015288932 0.018680533 0.043993097 0.025838697 -0.04203789 -0.0024423774 0.05678053 0.00793667
-0.041046225 0.008147676 0.055239573 0.04874228 0.0075190957 0.012041827 0.032447804 0.051079415
0.011705787 0.026646264 0.0140930675 -0.020494467 0.055953186 -0.029344907 0.06225128 -0.026386539
0.025207628 -0.005925458 0.022543898 0.014781583 0.051630963 0.0387521 0.038832363 0.031006258
0.048388954 0.019942546 0.021626627 0.056581594 -0.013995455 0.027023556 -0.0061446256 -0.037245076
0.03802991 0.029348351 0.041580305 0.035902336 0.013076545 0.06801438 -0.03642296 0.03931968
0.06457503 0.006857789 0.06951788 0.029326178 0.03526274 0.09041921 0.008939042 -0.037472237
0.06365032 0.05886794 0.058516257 -0.008970753 0.029488951 0.011737785 0.027622819 0.046828795
-0.044334747 -0.013006826 -0.0061258096 0.010629667 -0.012955893 0.06921764 0.05409069 0.04139214
0.0109346425 -0.005018443 -0.014236802 0.0024208156 -0.031359557 -0.00863205 0.014741699 -0.03494975
-0.01993358 -0.061269168 -0.0097396495 -0.009526814 0.00646991 -0.08061104 -0.011481891 -0.009712077
-0.060755372 -0.05919197 0.011558794 0.023057094 0.02554054 -0.037333272 -0.029320152 -0.019540653
-0.0038258783 0.045365226 0.054015003 -0.008907377 -0.046185516 0.036662117 -0.01321974 -0.027278537
-0.028716205 0.014157479 0.0061450745 0.010810754 -0.020868262 -0.042565364 -0.026665991 -0.019231427
0.022069981 -0.014259942 -0.023703089 -0.0021463183 -0.0209373 0.027747622 0.00365891 -0.02769757
0.010051247 -0.026889661 -0.03762342 -0.012495108 -0.007699244 0.008337252 0.038871717 -0.018611714
0.03332017 0.029290223 -0.01980532 0.020105649 0.078374624 -0.029893063 0.019956402 -0.028065411
0.014990214 -0.02681573 -0.029228695 0.03337688 0.043173682 0.0344263 0.019765448 0.0019848398
0.070223376 -0.019541198 -0.074344866 0.101245746 0.013014062 0.02038352 -0.047496546 0.05789929
0.023614315 0.023259427 -0.0009925945 -0.037623942 0.040126603 -0.035766907 0.0018540388 -0.008496996
0.011437217 0.0017534595 -0.0037134164 -0.0019662436 0.061247062 0.056621738 -0.019880516 -0.048425816
0.008311346 0.020492075 0.004733034 -0.017549548 -0.019074086 0.00585788 0.0036710303 0.022044497
-0.016702503 -0.03859047 0.035097767 0.04255912 0.041765653 0.033389118 -0.0017390939 0.016045433
0.008581111 0.041143954 0.013159935 -0.031805314 0.015600889 0.012764297 0.00503771 -0.033322237
00000000: 2c33 02bd 7dc1 7a3c 9fc6 9cbc 20e2 3b3d
00000010: ba83 d03c 6958 a93b a410 5bbb d313 ab3c
00000020: 45a4 693d 0a6b a43c 78ed 413d 7e92 3f3d
00000030: 39d2 393d 1730 76bc 89fd 3e3d 19c6 383d
00000040: 062f 213d 67d7 9d3d 1d19 203b 2ed1 033d
00000050: dbf9 0e3d b6b8 2abb abc6 aebc 7035 f5bc
00000060: 39e3 ba3c ecf5 ed3b 859f 223d 8754 e53c
00000070: 9e09 033d a807 f23c 5a77 513d fddc 683d
00000080: 1707 a73d 26d0 c93c 43fb 81bc 90a8 813c
00000090: 2c30 13bc 7612 953b f890 92bc 5eaf d33c
000000a0: 9025 543d ce73 063d 2501 2a3d f1dc 9a3d
000000b0: 834f 8c3d cb9f dd3c 4fe2 353d c4b1 6aba
000000c0: 7678 6bbd 688f 843d e064 903c 9012 f73c
000000d0: e4f4 3b3d 7d04 193d 6a8d a63c 9bbe 483c
000000e0: 3df5 293d f73e 0d3d 47aa 733d ce19 2a3d
000000f0: ea57 583c 1099 8c3c 763b 12bd f4c5 b73b
00000100: 6e7e 7abc eb07 993c 1b32 343d adab d33c
00000110: ec2f 2cbd 4b10 20bb b392 683d cf08 023c
00000120: 1620 28bd d47d 053c e442 623d fca5 473d
00000130: bf62 f63b 154b 453c fde7 043d a638 513d
00000140: a1c9 3f3c 4449 da3c 9ce6 663c 03e4 a7bc
00000150: 2b2f 653d bb64 f0bc 33fb 7e3d 9528 d8bc
00000160: 3a80 ce3c 582a c2bb fbad b83c 742e 723c
00000170: fd7a 533d 86ba 1e3d af0e 1f3d d600 fe3c
00000180: 7f33 463d 8d5e a33c 532a b13c 1ac2 673d
00000190: 314d 65bc 8160 dd3c db58 c9bb 4b8e 18bd
000001a0: 40c5 1b3d f46b f03c 1c50 2a3d 540e 133d
000001b0: 013f 563c 204b 8b3d 3e30 15bd ac0d 213d
000001c0: ea3f 843d 4eb7 e03b 645f 8e3d 743d f03c
000001d0: aa6f 103d b52d b93d 0f75 123c 7d7c 19bd
000001e0: 195b 823d 821f 713d beae 6f3d 11fa 12bc
000001f0: d092 f13c d74f 403c 4049 e23c 8dcf 3f3d
00000200: 5a98 35bd 951a 55bc 04bb c8bb 0e28 2e3c
00000210: f444 54bc fac1 8d3d 338e 5d3d ce8a 293d
00000220: 3727 333c c071 a4bb 7a41 69bc 8ca6 1e3b
00000230: e172 00bd 716d 0dbc 2b87 713c 7827 0fbd
00000240: bf4b a3bc 61f5 7abd 0d93 1fbc 5b16 1cbc
00000250: 8a01 d43b 6717 a5bd 8b1e 3cbc 671f 1fbc
00000260: a0da 78bd 4773 72bd 1961 3d3c 3be2 bc3c
00000270: 653a d13c c6ea 18bd d130 f0bc b813 a0bc
00000280: 96bb 7abb e3d0 393d d63e 5d3d 3ff0 11bc
00000290: 062d 3dbd 042b 163d 9c97 58bc 3d77 dfbc
000002a0: 3f3e ebbc c5f4 673c 9f5c c93b 971f 313c
000002b0: ebf3 aabc 0559 2ebd a372 dabc 3a8b 9dbc
000002c0: 1bcc b43c 88a2 69bc fb2c c2bc 3fa9 0cbb
000002d0: b384 abbc fb4e e33c 53ca 6f3b 04e6 e2bc
000002e0: fcad 243c b547 dcbc 041b 1abd 48b8 4cbc
000002f0: f149 fcbb f898 083c f337 1f3d 9877 98bc
00000300: bb7a 083d 0df2 ef3c c43e a2bc 9ab4 a43c
00000310: e082 a03d 4ce2 f4bc 9c7b a33c 6fe9 e5bc
00000320: 8499 753c a9ac dbbc 0471 efbc 32b6 083d
00000330: e3d6 303d 9802 0d3d 26eb a13c 1614 023b
00000340: 46d1 8f3d dd14 a0bc 1f42 98bd ee59 cf3d
00000350: ef38 553c 57fb a63c bd8b 42bd ce27 6d3d
00000360: cf72 c13c 8e8a be3c f219 82ba 901b 1abd
00000370: cb5b 243d 5280 12bd 3803 f33a fc36 0bbc
00000380: 2a63 3b3c 56d4 e53a ca5c 73bb 18dc 00bb
00000390: 33de 7a3d 32ec 673d 77dc a2bc 265a 46bd
000003a0: 502c 083c ffde a73c 9117 9b3b 12c4 8fbc
000003b0: 4241 9cbc 76f3 bf3b ab95 703b a996 b43c
000003c0: b0d3 88bc 0a11 1ebd adc2 0f3d 7952 2e3d
000003d0: 7612 2b3d 07c3 083d 4ff2 e3ba b671 833c
000003e0: ca97 0c3c 9086 283d c59c 573c 4a46 02bd
000003f0: df9a 7f3c 5821 513c 6013 a53b e67c 08bd

action_model._continuous_distribution.mu.bias f4 [2]
-0.030836713 -0.058956314
00000000: 469d fcbc 2d7c 71bd
