Assets/Neural Networks/hideandseek_05/Seek_05.onnx (onnx, 149966 bytes, 7 tensors)

network_body._body_endoder.seq_layers.0.weight f4 [128, 152]
0	0xbdc6cb0e	-0.09706698
1	0xbe6c9f15	-0.2310756
2	0x3bc90aae	0.0061353063
3	0xbd54953b	-0.05190013
4	0x3b8946f8	0.0041893683
5	0x3e34bd70	0.1765039
6	0xbeb53ba7	-0.35397074
7	0xbd2bccda	-0.04194341
8	0xbe563d7e	-0.20921895
9	0xbe7dabcf	-0.24772571
10	0x3d5a9359	0.053363178
11	0xbe2c9def	-0.16857122
12	0xbe158372	-0.14600924
13	0xbdf2af63	-0.118498586
14	0xbe842ea1	-0.25816825
15	0xbe8147b4	-0.25250018
16	0xbe567bc1	-0.20945646
17	0x3da7404d	0.08166561
18	0x3ca55d02	0.020185951
19	0xbdafe502	-0.08588602
20	0xbdf0452a	-0.11731942
21	0xbe303dbf	-0.17211054
22	0xbdaf77c3	-0.085677646
23	0xbb9815c0	-0.0046412647
24	0xbe80278b	-0.2503017
25	0x3e4c545c	0.19954056
26	0xbe206142	-0.15662101
27	0x3d35cdde	0.044385783
28	0xbcf9f0ec	-0.030510388
29	0xbdc90957	-0.098162346
30	0xbe54debc	-0.20788091
31	0xbde7ef62	-0.113249555
32	0xbe138056	-0.14404425
33	0x3c9a2f14	0.018821277
34	0xbea11f4e	-0.31469196
35	0x3e42ac3e	0.19011018
36	0xbe2c178d	-0.16805859
37	0xbc5997a2	-0.013280781
38	0xbc820127	-0.01586969
39	0xbd5fc92e	-0.05463522
40	0xbd5c1545	-0.05373122
41	0xbe218c4b	-0.15776174
42	0x3db32774	0.087477595
43	0xbe2b322a	-0.16718355
44	0xbdcb091d	-0.099138476
45	0x3daf891b	0.08571073
46	0xbde04234	-0.10950127
47	0x3dab541a	0.083656505
48	0xbd5dfc03	-0.054195415
49	0xbe12b62f	-0.1432731
50	0x3d51691d	0.051125634
51	0xbdc7cd67	-0.09755974
52	0xbdab0458	-0.08350438
53	0x3e3083a4	0.17237717
54	0xbeb48cd0	-0.3526368
55	0x3d9c9977	0.076464586
56	0xbe565dbb	-0.20934193
57	0x3da7d145	0.08194212
58	0x3c3125f8	0.010812275
59	0xbe480d03	-0.19536214
60	0xbe04ee0b	-0.12981431
61	0xbe2ece67	-0.17070924
62	0x3e0c2a04	0.13687903
63	0x3d94910d	0.07254229
64	0xbe9b1688	-0.30290627
65	0xbd8bb570	-0.06821716
66	0xbe1fcdb7	-0.15605818
67	0xbe180db0	-0.14848971
68	0xbcc55f31	-0.024093242
69	0xbe01cb57	-0.12675224
70	0xbc04d3f4	-0.008107174
71	0xbe7522ea	-0.239391
72	0x3e4e666f	0.20156263
73	0xbe8d5c09	-0.2760928
74	0xbe71834d	-0.23585244
75	0xbe23fccb	-0.16014402
76	0xbe5d849d	-0.21632619
77	0x3d1643a5	0.036685605
78	0x3d94fb8c	0.07274541
79	0xbe78d6c5	-0.24300678
80	0xbddc702a	-0.10763581
81	0xbe56d1f6	-0.20978531
82	0x3ccd1ac4	0.025037177
83	0x3d75cfbf	0.060012575
84	0xbe31874b	-0.17336766
85	0xbdf5aa19	-0.11995334
86	0x3c9028d1	0.017597588
87	0x3e280f0a	0.16411987
88	0x3db4f0d5	0.088349976
89	0xbe4950d1	-0.19659735
90	0x3d8c3fc8	0.06848103
91	0x3cdb88b6	0.026798587
92	0xbd36c819	-0.04462442
93	0xbe29bba1	-0.16575481
94	0xbe1ca448	-0.15297043
95	0xbdd55073	-0.10415735
96	0xbe3741a7	-0.17896138
97	0x3df0de99	0.11761207
98	0x3c9723a2	0.018449608
99	0xbe8dc62f	-0.27690265
100	0xbe417b78	-0.18894756
101	0xbe22aab5	-0.15885432
102	0x3db8e568	0.09028131
103	0x3ca8c00e	0.020599391
104	0xbdc35f27	-0.09539633
105	0xbc1cce6f	-0.009570702
106	0xbe4694e3	-0.19392733
107	0xbd002c63	-0.03129233
108	0x3d598627	0.053106453
109	0xbe1f7402	-0.15571597
110	0x3d590bba	0.0529897
111	0xbdf160e2	-0.11786057
112	0xbe1b82a5	-0.15186556
113	0x3d070f35	0.032973487
114	0xbd8568e5	-0.06514148
115	0xbd6854b7	-0.056721415
116	0xbe876252	-0.264422
117	0xbe40fdb0	-0.18846774
118	0xbdb2959d	-0.08719943
119	0xbd5fe168	-0.054658324
120	0x3e0f5835	0.13998492
121	0xbe2257ef	-0.15853857
122	0xbe04603c	-0.12927336
123	0xbc51c954	-0.012804348
124	0xbe61611b	-0.22009699
125	0x3b2cc9d7	0.0026365423
126	0xbe001d3d	-0.12511154
127	0xbd2dc0e2	-0.042420276
128	0xbbd69fc1	-0.006549806
129	0xbdc64d18	-0.09682673
130	0x3d33d21e	0.043901555
131	0xbe1bee26	-0.15227565
132	0x3d7565cc	0.059911534
133	0x3bc3fec8	0.0059813
134	0x3dfc7b51	0.12328208
135	0x3d253d50	0.040341675
136	0xbe391304	-0.1807366
137	0x3e4a9970	0.19785094
138	0xbd8d24f3	-0.06891813
139	0x3d2f78d6	0.042839848
140	0x3b24266d	0.0025047318
141	0xbd8afa74	-0.067860514
142	0x3df8c11f	0.1214621
143	0x3aef46c5	0.0018255344
144	0xbdd459b7	-0.10368674
145	0xbc3b619c	-0.011436846
146	0x3cba10fa	0.022713173
147	0xbdc15504	-0.094400436
148	0x3e45e4d3	0.19325571
149	0x3d105f64	0.03524722
150	0xbe3938a0	-0.18088007
151	0xbc5dfabb	-0.013548548
152	0x3dafc41f	0.08582329
153	0x3e65807b	0.22412293
154	0xbe5bd62f	-0.21468423
155	0x3ced3f18	0.02896075
156	0xbcf627cc	-0.030048274
157	0x3e4e5a24	0.20151573
158	0x3d619abf	0.055079218
159	0xbdab081c	-0.08351156
160	0x3c2ab968	0.010420181
161	0x3ccbb4d1	0.024866493
162	0x3d673831	0.056450073
163	0x3d69848a	0.057011165
164	0x3cb9ddfe	0.022688862
165	0x3df9f095	0.122040905
166	0x3cb98b77	0.02264951
167	0x3e109b69	0.14121784
168	0xbc3f7200	-0.011684895
169	0x3e1c1d1c	0.1524548
170	0xbc9fe2fc	-0.019517414
171	0x3d309a61	0.043115977
172	0xbc3870d3	-0.011257368
173	0x3dcccc13	0.099998616
174	0xbd73b2c5	-0.05949666
175	0xbd5a492b	-0.053292435
176	0x3e00bea8	0.1257273
177	0xbd79e833	-0.061012458
178	0x3d320ec6	0.04347112
179	0x3e418965	0.18900068
180	0xbd21847c	-0.039432988
181	0x3d52b41f	0.051441308
182	0x3d752ad1	0.059855286
183	0xbe0d9a13	-0.13828306
184	0xbdfc8bf6	-0.12331383
185	0x3e114594	0.14186698
186	0x3d1f0bb9	0.03882954
187	0xbd0190a0	-0.031632066
188	0x3bb2a7d2	0.0054521346
189	0xbcc7cc7d	-0.0243895
190	0x3ca0ccf8	0.019628987
191	0x3a9d9189	0.0012021522
192	0xbc3fb0e4	-0.011699889
193	0xbc8f9c40	-0.01753056
194	0xbe623961	-0.22092201
195	0x3d7f2d05	0.062298793
196	0xbd05ee30	-0.032697856
197	0x3dc688cc	0.09694061
198	0x3e2d7262	0.16938165
199	0x3dcbb7b1	0.09947146
200	0x3cafc79d	0.021457488
201	0xbcd96f89	-0.026542442
202	0xbe647b1c	-0.22312587
203	0x3adcb805	0.001683951
204	0x3d83145c	0.064003676
205	0xbdd74d67	-0.1051281
206	0xbd17016c	-0.03686659
207	0xbc88b806	-0.016689312
208	0x3b9066e8	0.0044067986
209	0xbd00f09e	-0.03147947
210	0xbd7d3085	-0.06181385
211	0xbdc2f1f1	-0.09518803
212	0x3dd968af	0.1061567
213	0xbdee5ca7	-0.11638766
214	0x3d0c330a	0.034228362
215	0x3c98713c	0.018608682
216	0xbe125417	-0.1428989
217	0x3d8db11e	0.06918548
218	0x3d364478	0.04449889
219	0x3dfdf2c0	0.123998165
220	0xbd3aff2f	-0.04565352
221	0xbd46b826	-0.04851546
222	0xbe215222	-0.15753987
223	0xbd13d648	-0.036093026
224	0x3d9678c2	0.073472515
225	0x3d3ff9a9	0.046868954
226	0xbcc0d3a9	-0.023538427
227	0x3e3f2f6e	0.18670437
228	0xbd917c4f	-0.07103788
229	0xbe07c716	-0.13259539
230	0x3b9303c1	0.0044865315
231	0x3db28d59	0.08718366
232	0xbdf05ed9	-0.11736841
233	0x3e702ae0	0.23453856
234	0x3d713468	0.05888787
235	0xbe68f153	-0.22748308
236	0x3dd347c5	0.10316423
237	0xbe3809ca	-0.17972484
238	0xbc1a99ac	-0.009436052
239	0x3e01c605	0.12673195
240	0x3e0aaaba	0.1354169
241	0x3d213ff6	0.03936764
242	0x3daf49b5	0.085589804
243	0x3e019a20	0.1265645
244	0xbe08195c	-0.13290924
245	0x3c4d0226	0.012512719
246	0x3d85dfd8	0.065368354
247	0xbdb1e56c	-0.08686337
248	0xbd9bb0c7	-0.07602077
249	0x3d21edbb	0.039533358
250	0xbda44b85	-0.08022217
251	0x3bb89181	0.00563258
252	0xbe0c3e4f	-0.13695644
253	0x3cb5795e	0.022152599
254	0x3da5f680	0.08103657
255	0x3aab3ec2	0.0013064968

network_body._body_endoder.seq_layers.0.bias f4 [128]
0	0xbe2617df	-0.16220044
1	0x3c1ba2f4	0.0094993
2	0xbdf70aaa	-0.12062581
3	0xbe7dd5b6	-0.24788556
4	0xbe1f6f83	-0.15569882
5	0xbe896fba	-0.26843053
6	0xbcb79060	-0.02240771
7	0xbd8950de	-0.06704877
8	0xbe0238a0	-0.12716913
9	0xbce879ab	-0.028378328
10	0xbd8947bd	-0.06703136
11	0x3c93f69b	0.018061927
12	0xbd55ea8e	-0.052225642
13	0xbdc9ca2e	-0.09853016
14	0xbe8dfbdf	-0.27731225
15	0xbcf72382	-0.030168299
16	0xbe3cd5b2	-0.18440893
17	0x3dad6671	0.08466805
18	0xbb0d5984	-0.0021568248
19	0xbd02944e	-0.031879716
20	0x3d6e3e52	0.058164902
21	0xbdebc9f1	-0.11513127
22	0xbe297620	-0.16548967
23	0xbe025129	-0.12726273
24	0xb9f7f3e3	-0.0004729322
25	0xbdffa6b0	-0.12482965
26	0xbd450f02	-0.048110016
27	0x3c1b39a5	0.009474193
28	0x3d46c339	0.048526023
29	0xbe903e5c	-0.28172576
30	0xbca49fcb	-0.020095726
31	0xbc91e096	-0.017807286
32	0xbe4f6fe6	-0.2025753
33	0xbcf33ab7	-0.029691083
34	0x3b00140a	0.0019543194
35	0xbe1f6ef0	-0.15569663
36	0xbb85e5a2	-0.0040862123
37	0xbd8cf4d1	-0.068826325
38	0xbe44c073	-0.19214039
39	0x3d3c9249	0.046037946
40	0xbd251f6c	-0.04031317
41	0xbd6809c1	-0.056649927
42	0xbd8436ea	-0.064557865
43	0xbd67ab60	-0.05655992
44	0xbb10239f	-0.0021993888
45	0xbdacc511	-0.08436025
46	0x3c932b65	0.017965028
47	0xbd6657eb	-0.05623619
48	0x3d73e2f2	0.059542604
49	0xbd925f12	-0.071470395
50	0xbde253c5	-0.11051134
51	0xbd542d78	-0.051801175
52	0xbdcef1d7	-0.10104721
53	0xbdd94cec	-0.10610375
54	0xbd8d731b	-0.0690672
55	0xbd903fc2	-0.07043411
56	0x3d9f3a5e	0.077748045
57	0xbba764db	-0.0051084585
58	0xbbef73bf	-0.007307499
59	0x3c4a01b9	0.012329512
60	0xbe01ee58	-0.12688577
61	0xbddc5cd7	-0.10759895
62	0xbd5fbb9d	-0.05462228
63	0xbd8a5bc0	-0.06755781
64	0xbd9cd906	-0.076585814
65	0xbd4455be	-0.047933333
66	0xbd6e9113	-0.058243822
67	0xbe67ba48	-0.22629654
68	0xbd26183b	-0.04055045
69	0xbc92b123	-0.017906731
70	0xbe112c86	-0.1417714
71	0xbe0c6e06	-0.13713846
72	0xbe56a41c	-0.2096104
73	0xbc13553e	-0.008992491
74	0xbd0e0601	-0.034673695
75	0xbd6efe01	-0.058347706
76	0x3cad343c	0.021143071
77	0xbe0ceefd	-0.13763042
78	0xbe038d44	-0.12846857
79	0xbd4b4bdb	-0.04963289
80	0x3c17fdf6	0.009276858
81	0x3caf2d47	0.021383895
82	0xbd44908d	-0.047989417
83	0xbd7c0026	-0.06152358
84	0x3d9fa77c	0.07795617
85	0xbd890d8d	-0.06692038
86	0x3ca74e88	0.020423189
87	0xbd2fadb1	-0.042890254
88	0xbbf1aaf4	-0.0073751155
89	0x3ca0e4a2	0.01964027
90	0x3c095d6f	0.008384093
91	0xbe290ce1	-0.16508819
92	0xbd840520	-0.0644629
93	0xbce95fa9	-0.028487997
94	0xbe89ba49	-0.26899937
95	0x3cfc6f6a	0.030814845
96	0xbe3e36c2	-0.18575576
97	0x3c474e9c	0.012164738
98	0xbc8920e5	-0.016739318
99	0xbe497a60	-0.19675589
100	0xbd7d59c3	-0.06185318
101	0x3d8155ac	0.06315169
102	0x3d1aa6fb	0.0377569
103	0xbe11b493	-0.1422904
104	0xbe8a3e01	-0.2700043
105	0xbd1a4004	-0.037658706
106	0xbd24ac15	-0.040203173
107	0xbca832cf	-0.02053204
108	0xbd5f78ad	-0.054558445
109	0x3d011d3d	0.031522024
110	0xbe0268b1	-0.12735249
111	0xbd8d59d9	-0.06901903
112	0xbe981ada	-0.29707986
113	0x3d860038	0.065430105
114	0xbe1b7fd4	-0.15185481
115	0xbdffd9a7	-0.12492686
116	0xbe8a249e	-0.26981062
117	0xbde67002	-0.112518325
118	0xbe89b153	-0.268931
119	0xbe04d436	-0.12971577
120	0xbc99f660	-0.018794239
121	0xbe078f55	-0.1323827
122	0xbe2162d7	-0.1576036
123	0xbd101a7d	-0.03518151
124	0xbd9cac6e	-0.07650076
125	0xbdea6c64	-0.11446455
126	0xbd5eec81	-0.054424766
127	0x3d73f3cf	0.059558686

network_body._body_endoder.seq_layers.2.weight f4 [128, 128]
0	0xbe25113b	-0.16119854
1	0x3e0b4bd9	0.13603152
2	0xbb56eb91	-0.0032794217
3	0x3e08dab2	0.13364676
4	0x3e0ff2e5	0.140575
5	0x3e8684e7	0.2627327
6	0xbc9a24a6	-0.018816303
7	0xbd595382	-0.053058155
8	0x3d096bec	0.033550188
9	0xbe9448a7	-0.2896168
10	0x3e1ed787	0.15511905
11	0xbde83506	-0.113382384
12	0xbeaff527	-0.34366724
13	0xbcf2fb85	-0.02966095
14	0x3cbbaf0e	0.022910621
15	0x3b4e6928	0.0031495783
16	0x3e4ef50c	0.20210665
17	0x3cdecca5	0.027197191
18	0xbdd9814c	-0.106203645
19	0x3d1efa23	0.038812768
20	0xbe9a5db0	-0.30149603
21	0x3ba6f4e6	0.005095112
22	0x3d3f442d	0.046695877
23	0xbd0796b0	-0.03310269
24	0x3ce8bb77	0.028409703
25	0x3e128c2a	0.14311281
26	0xbdebaaec	-0.1150721
27	0xbe94ed12	-0.2908712
28	0xbd75421e	-0.059877507
29	0x3d6db3aa	0.05803267
30	0xbd864b6d	-0.06557355
31	0x3e52f0ac	0.20599622
32	0xbe628668	-0.22121584
33	0xbe9b2926	-0.3030483
34	0xbe936288	-0.2878611
35	0xbe2e183d	-0.17001434
36	0xbd2fdf54	-0.04293759
37	0xbdf3c4cb	-0.1190277
38	0x3d20cef0	0.03925985
39	0xbe36e115	-0.178593
40	0x3c2b39f8	0.010450833
41	0xbd98f44b	-0.0746847
42	0x3df0eaae	0.117635116
43	0x3d8795ec	0.06620392
44	0xbe3cf25c	-0.18451828
45	0x3ca0f94b	0.019650122
46	0xbdc82aef	-0.09773814
47	0xbe060e45	-0.13091381
48	0xbe5dc7cd	-0.21658249
49	0xbd413ec1	-0.047178987
50	0x3de267d7	0.11054962
51	0xbdb0c6cb	-0.08631667
52	0xbe1c28b2	-0.15249899
53	0x3dd5a206	0.10431294
54	0x3e17ee42	0.14836982
55	0x3cc8e775	0.02452443
56	0xbe3f011c	-0.18652767
57	0xbd02f37a	-0.03197048
58	0xbdeaf1f7	-0.114719324
59	0xbe0f0f53	-0.1397069
60	0x3c458f78	0.012058131
61	0x3c9d1bf2	0.019178364
62	0xbdd63a58	-0.10460347
63	0x3e16cbb3	0.14726143
64	0xbd563909	-0.052300487
65	0x3cc7c53c	0.02438604
66	0xbcb8b9de	-0.022549566
67	0x3e2d2cd8	0.16911638
68	0x3db0f390	0.08640206
69	0xbe28c857	-0.16482674
70	0x3b8e0b4a	0.004334842
71	0x3e5008b8	0.20315826
72	0x3d8d4b44	0.068991214
73	0xbe4b1c95	-0.19835122
74	0x3d87c0bc	0.06628558
75	0xbd15114f	-0.03639346
76	0x3d2315cc	0.03981571
77	0x3b379e21	0.0028017836
78	0x3b570705	0.003281058
79	0xbdd4c1e9	-0.10388548
80	0xbe158c10	-0.14604211
81	0xbe0f1857	-0.13974129
82	0x3c9eff0d	0.019408727
83	0xbdb73672	-0.089459315
84	0xbc21900b	-0.009861003
85	0xbd420487	-0.0473676
86	0xbd9e8d75	-0.077418245
87	0xbec90b21	-0.39266303
88	0xbe6a016f	-0.2285211
89	0x3dabe0ea	0.08392508
90	0xbd714193	-0.058900427
91	0xbe43b1c7	-0.19110785
92	0x3d17c228	0.037050396
93	0xbe2571ab	-0.16156642
94	0x3d961f58	0.07330197
95	0xbda198c3	-0.07890465
96	0x3df8d31c	0.12149641
97	0xbd34ea9e	-0.04416906
98	0xbe08a703	-0.1334496
99	0xbd3ad30e	-0.045611434
100	0xbdaede92	-0.08538546
101	0xbd8b46a9	-0.06800587
102	0xbdd40cb5	-0.10353986
103	0x3b8da950	0.004323162
104	0xbcafb8f6	-0.021450501
105	0xbd42f855	-0.04760011
106	0x3e36d415	0.1785434
107	0xbda21e71	-0.079159625
108	0x3e0c4eb7	0.13701902
109	0xbdbf8e96	-0.09353368
110	0x3de1829a	0.110112384
111	0xbc46b10f	-0.012127175
112	0x3dbfd231	0.09366263
113	0xbe1cacec	-0.1530034
114	0x3dec39e6	0.11534481
115	0xbc40107a	-0.011722678
116	0x3e510e2e	0.20415565
117	0x3cf5a0ec	0.02998396
118	0x3d11cbe0	0.03559482
119	0x3bd5fec3	0.006530614
120	0x3e015bab	0.12632625
121	0x3e145f1b	0.14489405
122	0x3cddd7eb	0.027080497
123	0xbe0bf739	-0.13668527
124	0xbd57d712	-0.05269534
125	0xbe8bc654	-0.2729975
126	0x3df974ac	0.121804565
127	0xbd06943c	-0.03285621
128	0xbcc53e12	-0.024077449
129	0xbd356e40	-0.044294596
130	0x3de12721	0.10993791
131	0x3dbddfdf	0.09271216
132	0x3e610673	0.21975116
133	0x3df568d2	0.119828835
134	0xbc2a07ab	-0.010377805
135	0x3db5b991	0.088732846
136	0x3bc7a74a	0.0060929405
137	0xbd83c6be	-0.064343914
138	0x3d1a78c2	0.03771282
139	0xbcedb2a1	-0.029015841
140	0x3e0be4f3	0.13661556
141	0x3d90b901	0.07066537
142	0xbc29057a	-0.010316247
143	0xbd618b09	-0.055064235
144	0x3d2e1daf	0.042508777
145	0xbddf7399	-0.109107204
146	0xbcabcbfc	-0.02097129
147	0x3d7cf996	0.06176146
148	0xbd92366e	-0.07139288
149	0x3e266675	0.16250022
150	0xbbdc6631	-0.0067260494
151	0x3c88e174	0.016709067
152	0xbcdd637c	-0.027024977
153	0xbe11a8d0	-0.14224553
154	0x3bd5a646	0.0065200655
155	0xbe26b753	-0.1628087
156	0xbde35552	-0.11100258
157	0x3ced74ac	0.028986298
158	0x3c216694	0.009851117
159	0xbe44b055	-0.1920789
160	0xbe1c465f	-0.1526122
161	0xbdcd0d36	-0.100122854
162	0xbd4c0a1e	-0.049814336
163	0xbd79d192	-0.060990877
164	0xbdccba0a	-0.09996422
165	0x3af4e28c	0.0018683239
166	0x3e285fa3	0.16442733
167	0xbdd56d93	-0.1042129
168	0x3e488ff4	0.19586164
169	0x3d15b6d1	0.0365513
170	0x3d756ac0	0.059916258
171	0xbd6997b0	-0.057029426
172	0x3c794cc9	0.015216061
173	0xbc1da8f7	-0.009622804
174	0xbe0ac096	-0.13550028
175	0xbb10f7f8	-0.0022120457
176	0x3bc79a68	0.0060914047
177	0xbcc43dd2	-0.02395526
178	0x3c8f62bd	0.017503137
179	0x3d8dfb6f	0.06932723
180	0xbe32c42c	-0.17457646
181	0xbdbfebff	-0.093711846
182	0x3bbf4616	0.0058372123
183	0x3c3c2e55	0.011485656
184	0xbcae0d63	-0.021246618
185	0x3dfb995c	0.1228511
186	0xbdf925ae	-0.1216539
187	0x3dccf853	0.100083016
188	0xbe25c9d3	-0.16190271
189	0x3d33bcda	0.043881275
190	0xbe94e97d	-0.29084387
191	0xbe4f5dfe	-0.20250699
192	0x3c4eb92a	0.012617389
193	0xbd8662cf	-0.06561815
194	0x3d62ac0b	0.055339854
195	0xbe386f1e	-0.18011138
196	0x3e2d5881	0.16928293
197	0xbd61ca8c	-0.055124804
198	0xbdf7a8ab	-0.12092718
199	0x3da6313a	0.08114858
200	0x3c6dbeff	0.014510869
201	0x3d5438f0	0.051812112
202	0xbe2a7a61	-0.16648246
203	0xbbd496d3	-0.006487706
204	0xbdb52e43	-0.08846714
205	0x3e1a2964	0.15054852
206	0xbda93bd4	-0.082633644
207	0x3ccfe1c2	0.025376204
208	0xbd86070e	-0.06544314
209	0xbdfddde5	-0.12395839
210	0x3ce78672	0.02826235
211	0xbb583711	-0.0032991807
212	0xbd10975b	-0.035300594
213	0x3c859e53	0.016310846
214	0xbe26d547	-0.16292296
215	0x3d8c2f6d	0.06844983
216	0xbe9c59d7	-0.30537292
217	0xbdaa7da3	-0.083247446
218	0xbcc07963	-0.023495382
219	0x3bca7e47	0.006179604
220	0xbc86a75f	-0.01643723
221	0xbd232d63	-0.039838206
222	0x3c167dab	0.009185235
223	0xbcfb5078	-0.030678019
224	0x3dace7e7	0.08442669
225	0x3e9341cf	0.28761145
226	0xbd585da0	-0.052823663
227	0x3d685c3c	0.056728587
228	0xbe5f21d3	-0.21790247
229	0xbda7113e	-0.081575856
230	0xbd283088	-0.041061908
231	0x3c8421ad	0.01612934
232	0x3dbf7d96	0.093501255
233	0x3ce7b17e	0.028282877
234	0x3e41972f	0.18905328
235	0xbe68591b	-0.22690241
236	0x3d9adf93	0.07562175
237	0xbe249111	-0.16070963
238	0x3e007c7d	0.12547489
239	0xbd933326	-0.0718749
240	0x3e466466	0.19374236
241	0xbe0d8cf9	-0.13823308
242	0x3e1c2cde	0.1525149
243	0xbdea0710	-0.11427128
244	0xbdcffeb5	-0.101560034
245	0xbdae1d15	-0.08501641
246	0xbdd9cf5c	-0.10635254
247	0x3e4ce59c	0.20009464
248	0x3dff0de9	0.12453825
249	0x3e013b91	0.12620379
250	0xbe4bf6e3	-0.19918399
251	0xbde5015b	-0.11181899
252	0xbd1723b3	-0.03689928
253	0xbd39cf04	-0.04536344
254	0xbe0e8f09	-0.13921751
255	0x3ae4a4c9	0.0017444129

network_body._body_endoder.seq_layers.2.bias f4 [128]
0	0xbe513c89	-0.20433249
1	0xbdd39fa5	-0.10333184
2	0xbb08f553	-0.0020898178
3	0xbd46815c	-0.04846321
4	0xbd3d0bcc	-0.04615383
5	0x3bb22e8d	0.005437678
6	0xbe143b71	-0.144758
7	0xbdf4188f	-0.11918747
8	0x3c189e4e	0.0093150865
9	0xbde2e2d4	-0.1107842
10	0xbe373cea	-0.1789433
11	0xbe2f6121	-0.17126895
12	0xbd53c35c	-0.05169998
13	0xbcb2a1e9	-0.02180572
14	0xbb077429	-0.0020668602
15	0xbe4e7713	-0.2016261
16	0xbc838462	-0.016054336
17	0x3a9d9a9c	0.0012024227
18	0xbd67a700	-0.056555748
19	0xbda035c5	-0.07822756
20	0xbe05b187	-0.13056003
21	0xbdfede5e	-0.12444757
22	0xbdee4040	-0.116333485
23	0xbdce3aea	-0.10069831
24	0xbe218ed6	-0.15777144
25	0xbde61444	-0.11234334
26	0xbd79fa69	-0.061029825
27	0xbc22027d	-0.009888289
28	0xbdb8320a	-0.08993919
29	0xbcc6b8be	-0.024258014
30	0x3c36931a	0.01114347
31	0xbde8f4cf	-0.113748185
32	0xbd3059fa	-0.04305456
33	0x3c5c8ee7	0.013461805
34	0xbd5b0cc8	-0.053478986
35	0xbd723d28	-0.059140354
36	0xbd997080	-0.07492161
37	0xbd7860ca	-0.06063918
38	0xbd9ac74a	-0.075575426
39	0xbd3edb8f	-0.046596106
40	0xbdf247c3	-0.11830094
41	0xbd4015d1	-0.046895806
42	0xbe2417c6	-0.16024694
43	0xbd150b2d	-0.03638761
44	0xbd1d59e6	-0.038415812
45	0xbe02c226	-0.12769374
46	0xbd580a35	-0.05274411
47	0x3db011cf	0.08597147
48	0x3cce50ec	0.025185071
49	0xbddb96fe	-0.10722159
50	0xbd9618fe	-0.07328986
51	0x3c6a8f91	0.014316455
52	0xbd24b20e	-0.04020887
53	0xbcb64aa3	-0.022252386
54	0xbdbf3540	-0.093363285
55	0xbe2fbb68	-0.17161334
56	0xbdfc12e7	-0.12308293
57	0xbe18b342	-0.14912131
58	0xbe088883	-0.13333325
59	0x3d9fdc5e	0.078057036
60	0xbd6efcb5	-0.05834647
61	0xbe139f3d	-0.14416213
62	0xbdbffab9	-0.093739934
63	0xbdb0b3d6	-0.08628051
64	0xbd8883ef	-0.06665789
65	0xbbc7b4d7	-0.006094556
66	0xbda63d64	-0.08117178
67	0x3b3f4897	0.0029187554
68	0xbdf452d8	-0.11929864
69	0xbdac5503	-0.08414652
70	0xbde2446f	-0.11048209
71	0xbe044b01	-0.12919237
72	0xbd5665f7	-0.052343335
73	0xbd8983d5	-0.06714598
74	0xbceb599d	-0.028729254
75	0xbd49107d	-0.04908799
76	0x3d88a0c5	0.06671289
77	0x3af6a8ef	0.0018818657
78	0xbe2e1905	-0.17001732
79	0xbdcfa196	-0.10138242
80	0xbe3a779d	-0.18209691
81	0xbd05020e	-0.032472663
82	0xbe385c3c	-0.18003935
83	0x3c199678	0.009374253
84	0xbd9e2e5f	-0.07723688
85	0xbd6e17b0	-0.05812806
86	0xbda0fce5	-0.07860736
87	0x3d623f47	0.055236127
88	0xbd822884	-0.06355384
89	0xbce0bd04	-0.02743388
90	0x3b07e991	0.0020738582
91	0xbd8f4260	-0.06995082
92	0xbd096c41	-0.033550505
93	0xbd0dc4a5	-0.034611363
94	0xbd1a6bba	-0.037700392
95	0xbdc26320	-0.09491563
96	0xbd0fbe75	-0.035093743
97	0x3c172058	0.00922402
98	0x3c0568dd	0.008142677
99	0x3bc8069f	0.006104305
100	0xbae29298	-0.001728612
101	0xbe12511a	-0.1428875
102	0xbe3c28a8	-0.18374884
103	0xbdb745bf	-0.0894885
104	0xbdf3104d	-0.118683435
105	0x3d39da52	0.045374222
106	0xbd8e4b73	-0.069479845
107	0xbe0da8b7	-0.13833891
108	0xbe0dcd37	-0.13847815
109	0xbcd84dbc	-0.026404254
110	0xbddc6507	-0.10761457
111	0xbd4709d4	-0.048593357
112	0xbdc636b3	-0.09678402
113	0xbd3e6960	-0.046487212
114	0xbe1299da	-0.14316502
115	0xbd7d605d	-0.061859477
116	0xbd6d37a9	-0.05791441
117	0xbd2d2cfb	-0.042279225
118	0xbdc28095	-0.09497181
119	0x3cf86628	0.03032215
120	0xbd5d0f54	-0.053969696
121	0xbe06fd9c	-0.13182682
122	0xbdb8b8d5	-0.09019629
123	0xbd9c6ee3	-0.076383375
124	0xbdd212bd	-0.1025748
125	0xbbf37ecb	-0.0074308864
126	0xbe24764d	-0.16060753
127	0xbdd4e063	-0.10394361

action_model._continuous_distribution.log_sigma f4 [1, 2]
0	0xbe86cb63	-0.26327047
1	0xbe830bb4	-0.25594866

action_model._continuous_distribution.mu.weight f4 [2, 128]
0	0xbd3d6ee3	-0.046248328
1	0x3da4669a	0.08027382
2	0xbdc5e263	-0.096623205
3	0xbd8baac4	-0.0681968
4	0xbcc9330b	-0.024560472
5	0x3dc9c8ed	0.09852777
6	0xbdd797a6	-0.105269715
7	0x3d4924dd	0.04910742
8	0x3d9255d7	0.07145279
9	0xbd8436b2	-0.06455745
10	0xbbe6a10c	-0.0070382413
11	0x3d34861d	0.044073213
12	0x3cfa90fd	0.030586714
13	0x3e2cfd4d	0.16893502
14	0x3e2ee5ed	0.17079897
15	0xbda1aae0	-0.0789392
16	0x3d66b834	0.056328014
17	0x3d124cb1	0.03571767
18	0xbe0fc637	-0.14040457
19	0xbc82035f	-0.015870748
20	0xbd9971bd	-0.07492397
21	0xbc4a10e4	-0.012333129
22	0xbd0975c6	-0.033559583
23	0xbd06faa2	-0.032953866
24	0xbce23340	-0.027612329
25	0xbd63f13f	-0.055649992
26	0x3d4fb699	0.050711248
27	0x3db65082	0.089020744
28	0xbccbf7b2	-0.024898384
29	0xbdc58709	-0.096448965
30	0xbe38d118	-0.18048513
31	0x3d66583c	0.05623649
32	0xbdcf03ab	-0.101081215
33	0xbe0e5e45	-0.13903148
34	0xbe01f988	-0.12692845
35	0x3c8ad421	0.016946854
36	0x3d80ddbe	0.06292294
37	0x3d1521ae	0.036409073
38	0xbd986eab	-0.07442983
39	0x3d75bbec	0.05999367
40	0xbe03642c	-0.12831181
41	0xbdd98f28	-0.10623008
42	0xbda7eade	-0.08199094
43	0xbd97160a	-0.073772505
44	0xbe20b1b0	-0.15692782
45	0xbcaf1011	-0.021369966
46	0x3d9b0c69	0.075707264
47	0x3cc30fe0	0.02381128
48	0xbd20faf5	-0.03930183
49	0x3d8f6c0f	0.070030324
50	0xbd486625	-0.048925538
51	0xbe2a29bf	-0.16617487
52	0xbe2340e7	-0.15942727
53	0x3c614fe1	0.013751955
54	0xbd959bb1	-0.073050864
55	0x3c35fe77	0.011108032
56	0x3ce00213	0.027344739
57	0xbd171de3	-0.036893737
58	0x3d21e515	0.03952511
59	0x3d5520b4	0.05203314
60	0xbda80734	-0.08204499
61	0xbd28b2d0	-0.041186154
62	0xbe032453	-0.12806825
63	0xb9980dd8	-0.00029002014
64	0x3d922b4e	0.07137166
65	0xb8d4daf6	-0.000101497324
66	0x3d021601	0.031759266
67	0x3d06d2b5	0.03291579
68	0xbd055e2c	-0.032560512
69	0x3df3761c	0.11887762
70	0x3ceb8bfd	0.028753275
71	0x3d4920d9	0.04910359
72	0xbc20d6a5	-0.0098168
73	0xbda996fa	-0.082807496
74	0xbe2967fc	-0.16543573
75	0x3d92b4f6	0.07163422
76	0xbdd6dcda	-0.10491343
77	0xbdce2bca	-0.10066946
78	0x3b6b09d5	0.0035864015
79	0x3dab307f	0.08358859
80	0x3cabcf2a	0.020972807
81	0x3d006951	0.031350438
82	0x3d2887b1	0.04114503
83	0xbe39cb97	-0.1814407
84	0xbe04e229	-0.12976898
85	0xbe16b1ff	-0.14716338
86	0x3ca174cc	0.019709013
87	0xbe751d87	-0.23937045
88	0xbd2ae3d6	-0.041721188
89	0x393089c0	0.00016835984
90	0xbdffbc21	-0.124870546
91	0xbca8441b	-0.020540288
92	0xbd9c2e94	-0.076260716
93	0xbde54c51	-0.11196197
94	0x3d90baa8	0.07066852
95	0xbdf7c9a2	-0.12099005
96	0x3c91a500	0.017778873
97	0xbe0751b5	-0.13214763
98	0xbdbaff27	-0.09130698
99	0x3d574bef	0.05256265
100	0xbe4bae0b	-0.19890611
101	0xbd9f0bc5	-0.07765917
102	0xbccd6cab	-0.025076231
103	0x3d16bcfb	0.03680132
104	0x3d8cd0c5	0.06875757
105	0xbe5da10d	-0.21643467
106	0xbcf80dd9	-0.03028004
107	0x3c9ecce3	0.019384807
108	0x3d056890	0.03257042
109	0xbd0e5d14	-0.034756735
110	0x3d14f697	0.03636798
111	0xbdcda341	-0.10040904
112	0xbdb7bfbb	-0.089721166
113	0x3d1321f4	0.035921052
114	0x3d86914e	0.065706834
115	0x3d84c3e7	0.06482678
116	0xbc561cdd	-0.013068405
117	0x3da77737	0.08177035
118	0x3d632028	0.05545059
119	0xbc66291f	-0.01404789
120	0xbcd16545	-0.025560984
121	0xbd3a2776	-0.04544779
122	0xbdb10925	-0.08644322
123	0x3d622bea	0.05521766
124	0xbd8e2e47	-0.069424205
125	0xbe1b700c	-0.15179461
126	0xbbe97d4b	-0.007125532
127	0xbd98d9a2	-0.07463385
128	0x3d84633b	0.06464239
129	0xbb0d869d	-0.0021595128
130	0x3d383e61	0.044981364
131	0xbc10a44a	-0.008828232
132	0x3c235133	0.00996809
133	0x3b476bc5	0.0030429226
134	0x3d6a3489	0.057179008
135	0x3d1d1d9a	0.03835831
136	0x3de24a78	0.1104936
137	0x3ce2f591	0.027704986
138	0x3c19f102	0.00939584
139	0x3c006051	0.007835464
140	0x3c152944	0.009104077
141	0x3ce4173c	0.02784311
142	0xbc85e6ed	-0.016345466
143	0x3d5d66c6	0.05405309
144	0x3d079d5c	0.033109054
145	0x3d2f02a6	0.042727135
146	0x3d800a2b	0.062519394
147	0x3d8ec3bc	0.06970927
148	0x3d50a341	0.05093694
149	0x3d702020	0.058624387
150	0x3d1378a3	0.03600372
151	0xb9bb9b18	-0.00035782973
152	0xbaff78d7	-0.0019490969
153	0x3d42f5dc	0.04759775
154	0xbd05be5e	-0.03265225
155	0x3d27e945	0.040993948
156	0x3d2f61c6	0.042817853
157	0xbc77b137	-0.015117935
158	0x3d797266	0.060900114
159	0xbd6274df	-0.05528724
160	0x3cf3afd2	0.029746924
161	0x3c64cdeb	0.01396511
162	0x3c0cef4b	0.008601974
163	0x3d3d2be7	0.046184447
164	0xbcc10e4e	-0.023566391
165	0x3ca4041a	0.020021487
166	0x3c0bfccd	0.008544159
167	0x3c68de76	0.014213195
168	0x3d59d37f	0.053180214
169	0x3cf8ce42	0.030371789
170	0x3da056f0	0.07829082
171	0xbcce1e98	-0.025161073
172	0x3d25def5	0.04049583
173	0x3d0552e3	0.03254975
174	0x3d9e8d90	0.07741845
175	0xbd7b4091	-0.061340872
176	0x3d4eb6e6	0.050467394
177	0xbd0641da	-0.032777645
178	0x3d98bb2a	0.07457574
179	0x3ce3ad18	0.027792498
180	0x3c1666e4	0.0091798045
181	0x3ccf0058	0.025268719
182	0x3cabff13	0.020995652
183	0x3c71876d	0.014741761
184	0xbcd239bd	-0.025662297
185	0x3d336deb	0.043805998
186	0xbae546f2	-0.0017492457
187	0xbd4b6ad8	-0.04966244
188	0x3ce0ac4b	0.027425906
189	0x3d9dee31	0.07711447
190	0x3d493842	0.049125917
191	0x3d0fb8c2	0.03508831
192	0x3c8fa49d	0.017534548
193	0xbd82f495	-0.063943066
194	0xbb22f437	-0.0024864802
195	0x3c27776e	0.010221345
196	0x3d6f46b0	0.058417022
197	0x3d020440	0.031742334
198	0xbb24553b	-0.0025075215
199	0x3d65448c	0.055973575
200	0x3d24702c	0.040146038
201	0x3d3d0601	0.046148304
202	0x3d90fe27	0.07079726
203	0x3ce38fbc	0.027778499
204	0x3b49e800	0.0030808449
205	0x3d87568c	0.066083044
206	0x3c5d3fde	0.013503997
207	0xba3c2824	-0.0007177612
208	0xbc10c4cf	-0.008835985
209	0xbc3e7590	-0.011624709
210	0x3d6858b0	0.056725204
211	0x3c7700af	0.015075847
212	0x3d36a5f0	0.044591844
213	0x3d1bca4c	0.038034722
214	0x3ca65230	0.020302862
215	0x3cb9d70f	0.022685556
216	0xbb8ed7fb	-0.004359243
217	0xbd848cde	-0.06472181
218	0xbb92bedd	-0.004478319
219	0x3d11178e	0.035422854
220	0x3c9841ee	0.018586125
221	0x3b31df2b	0.0027141075
222	0xbc5d15fb	-0.01349401
223	0x3c8edd72	0.017439578
224	0x3c6e17a9	0.014532008
225	0x3dac9c76	0.0842828
226	0x3c2ada9c	0.010428097
227	0x3db571f0	0.088596225
228	0x3daef5fe	0.08543013
229	0x3d27e751	0.040992085
230	0x3d8639b8	0.06553978
231	0xbd5e230d	-0.054232646
232	0x3d5ada99	0.053431127
233	0x3da74fef	0.08169543
234	0x3d886e0b	0.06661614
235	0x3d224883	0.039619934
236	0x3d243af7	0.040095296
237	0x3dbd9949	0.092577524
238	0x3cfe4dd1	0.031042965
239	0x3d853cc0	0.06505728
240	0x3d3f4df2	0.046705194
241	0xbbac31aa	-0.005254944
242	0xbaea989b	-0.0017898263
243	0xbc65be4a	-0.014022419
244	0x3d495bb0	0.049159706
245	0x3d0a8293	0.03381593
246	0xbc341f4f	-0.010993793
247	0xbd95035e	-0.07276033
248	0x3d65d01d	0.056106675
249	0x3d9197ed	0.07109056
250	0x3d347b88	0.04406312
251	0x3d8c7da9	0.06859905
252	0x3d788aa7	0.060679104
253	0x3c175072	0.009235488
254	0x3d4187e4	0.047248736
255	0x3d79148d	0.060810614

action_model._continuous_distribution.mu.bias f4 [2]
0	0x3bc93292	0.0061400617
1	0xbd805902	-0.06266977
