results/hideandseek_16/Hide/checkpoint.pt (torch, 967147 bytes, 36 tensors)

network_body._body_endoder.seq_layers.0.weight f4 [128, 177]
0	0xbcd21d59	-0.02564876
1	0xbe731a84	-0.23740584
2	0x3e370e30	0.17876506
3	0xbedc3a76	-0.43013352
4	0xbdc05c30	-0.09392583
5	0x3d2d9c15	0.04238518
6	0x3daea737	0.085279875
7	0xbf29b393	-0.66289634
8	0x3dc11959	0.09428663
9	0x3e872cfa	0.26401502
10	0x3f284ef6	0.65745485
11	0xbf022875	-0.5084298
12	0x3cff9f14	0.031203784
13	0xbdcbf498	-0.09958762
14	0x3d5deb68	0.05417958
15	0xbea85c7e	-0.32883066
16	0x3d363d4c	0.04449205
17	0xbddaef2e	-0.10690151
18	0x3cc61711	0.02418092
19	0xbe9e1757	-0.30877182
20	0x3d9c80bb	0.07641741
21	0x3e9710af	0.29504916
22	0xbe510145	-0.2041064
23	0xbf169748	-0.58824587
24	0xbcd95f7a	-0.026534785
25	0x3e127753	0.14303331
26	0xbd0f3bc4	-0.034969106
27	0x3e755103	0.23956685
28	0xbef79bb5	-0.48360983
29	0xbed3e363	-0.4138442
30	0xbce46df4	-0.027884461
31	0xbf0f7706	-0.5604099
32	0xbb0fd55f	-0.0021947247
33	0x3dcbff9f	0.09960865
34	0x3ea3c71c	0.31987846
35	0xbebc507e	-0.3678016
36	0xbd2870d9	-0.041123245
37	0x3e659425	0.22419794
38	0xbd5ef191	-0.054429594
39	0xbf8e8f05	-1.1137396
40	0x3e9e89e2	0.3096457
41	0xbe78413e	-0.24243638
42	0xbd0b1757	-0.033957805
43	0xbe639e93	-0.2222846
44	0xbd2bdda5	-0.041959424
45	0xbda05512	-0.07828726
46	0xbca0bc7c	-0.019621126
47	0xbd99ba7c	-0.07506272
48	0x3df056f4	0.11735335
49	0xbea70364	-0.32619774
50	0x3d84566b	0.064617954
51	0xbe8f66e5	-0.2800819
52	0x3c49dcb7	0.012320689
53	0xbe26e940	-0.16299915
54	0x3d9f0d55	0.07766215
55	0xbe9e3d10	-0.30905962
56	0xbca21ead	-0.019790018
57	0xbf062653	-0.5240223
58	0xbd665985	-0.056237716
59	0x3e83afc1	0.25720027
60	0xbd762898	-0.060097307
61	0xbec7e2e5	-0.39040294
62	0x3b01ed84	0.0019825408
63	0x3e5a622a	0.21326509
64	0xbdab6e79	-0.0837068
65	0xbe94e579	-0.29081324
66	0x3d5da902	0.054116257
67	0xbee4d0c7	-0.44690534
68	0xbdb03cad	-0.08605323
69	0x3ee5f7a9	0.44915512
70	0x3bd2f6fe	0.006438135
71	0x3eafbef0	0.3432536
72	0xbbf74ca3	-0.0075469776
73	0xbf11bc60	-0.5692806
74	0x3e0fda8e	0.14048216
75	0x3dc37df4	0.09545508
76	0x3e7841f9	0.24243917
77	0xbea24999	-0.31696776
78	0xbdccab6e	-0.09993635
79	0xbe8f890b	-0.28034243
80	0x3cc1d35d	0.023660356
81	0x3ed3c2b3	0.4135948
82	0xbdd7de66	-0.10540466
83	0x3f2cce5d	0.67502385
84	0x3e200b2c	0.15629262
85	0xbe8b6dfb	-0.27232346
86	0x3e525605	0.20540626
87	0x3f63c825	0.8897727
88	0xbe77aacb	-0.24186246
89	0xbdb60e9d	-0.08889506
90	0x3dd1d3aa	0.1024545
91	0xbf0a27c6	-0.5396694
92	0xbd270c84	-0.04078342
93	0xbec7ac65	-0.38998714
94	0x3f22506a	0.6340395
95	0x3e292a25	0.16519983
96	0x3c9ef6bf	0.019404767
97	0xbe5eed57	-0.21770225
98	0xbd8cbf0d	-0.068723775
99	0xbea32b7d	-0.31869116
100	0x3e91a185	0.28443542
101	0x3e437149	0.19086184
102	0x3d479f38	0.048735827
103	0xbea4fcb1	-0.32224038
104	0x3e426cb1	0.18986775
105	0x3c173357	0.009228549
106	0xbc37d9d5	-0.011221369
107	0x3e9d54fe	0.30728906
108	0x3e0107a6	0.12600574
109	0xbe97608c	-0.29565847
110	0xbe1cc4f4	-0.15309507
111	0xbef26fe2	-0.47350985
112	0x3e3903bd	0.18067832
113	0xbd99a461	-0.07502056
114	0xbdacd876	-0.08439724
115	0xbeee77f6	-0.46575898
116	0xba44fa0e	-0.00075140677
117	0xbeef81ed	-0.46778813
118	0xbe456766	-0.19277725
119	0x3e0ee2bc	0.1395368
120	0xbd63b12f	-0.055588897
121	0xbec03fa0	-0.37548542
122	0x3d56e917	0.052468386
123	0xbf29bd27	-0.6630425
124	0x3de791e7	0.113071255
125	0xbe6cd753	-0.23129015
126	0xbba6b24c	-0.0050871726
127	0xbedd65d8	-0.43241763
128	0xbd2b9111	-0.041886393
129	0xbc4c0bb9	-0.012453967
130	0xbdb220ed	-0.08697686
131	0xbe467687	-0.19381152
132	0x3ca3b553	0.019983923
133	0xbef3aa50	-0.47590876
134	0x3dbddb95	0.092703976
135	0xbd82302e	-0.06356846
136	0xbd6c185f	-0.05764043
137	0xbf0863e6	-0.5327743
138	0xbc55fa5b	-0.013060178
139	0xbece8b06	-0.4034044
140	0x3e086f13	0.13323621
141	0xbf051a59	-0.5199333
142	0xbbb0a12a	-0.005390306
143	0xbd191aa6	-0.03737893
144	0xbc7d0e9a	-0.015445376
145	0xbed06616	-0.40702885
146	0xbc8ef685	-0.017451534
147	0x3ec05b98	0.3756988
148	0xbd263c59	-0.040584896
149	0xbf2642af	-0.649455
150	0xbacf88d4	-0.0015833625
151	0xbeb11129	-0.34583405
152	0xbe1f4bd6	-0.15556273
153	0x3d68fc1c	0.056881055
154	0x3dcc6657	0.09980457
155	0xbe4cf6db	-0.20016043
156	0x3c91153e	0.017710324
157	0xbdebaf02	-0.115079895
158	0x3bf5c4e4	0.007500278
159	0xbec9e70e	-0.39434093
160	0x3db9b1e0	0.0906713
161	0xbf243f48	-0.6415906
162	0xba33e5aa	-0.0006862531
163	0xbe477ceb	-0.19481246
164	0xbe70e79e	-0.23525855
165	0x3d350e0b	0.044202846
166	0x3e47acdc	0.19499534
167	0xbe46a821	-0.19400074
168	0xbd283aa4	-0.04107155
169	0xbf21bf99	-0.6318298
170	0xbd949bc1	-0.0725627
171	0xbc965206	-0.018349659
172	0xbda17117	-0.07882898
173	0xbb06dd03	-0.002057851
174	0xbda27a35	-0.079334654
175	0xbed71d69	-0.42014626
176	0xbd24dff3	-0.040252637
177	0x3dced0ca	0.10098417
178	0x3d95c403	0.07312777
179	0x3e18c69c	0.14919513
180	0x3bf4ca35	0.007470394
181	0xbef0c957	-0.4702861
182	0xbef14e8f	-0.47130248
183	0xbb3ceaa9	-0.0028826392
184	0xbee40cca	-0.44541007
185	0x3de93988	0.11387926
186	0x3ea15757	0.31511948
187	0xbe74bfcc	-0.2390129
188	0xbeee53aa	-0.46548206
189	0x3e1b6400	0.15174866
190	0xbecc17bc	-0.39861858
191	0xbe2378f1	-0.15964104
192	0x3eb2bd5d	0.34910098
193	0xbf0a9195	-0.5412839
194	0xbf19edde	-0.6012858
195	0xbd650534	-0.055913165
196	0xbe84e17e	-0.25953287
197	0xbdb693e5	-0.089149274
198	0xbf008331	-0.5020018
199	0xbe49b017	-0.19696079
200	0xbead2a80	-0.33821487
201	0x3dc12a67	0.09431916
202	0xbeae748f	-0.34073302
203	0xbd4dbccf	-0.05022889
204	0xbdc298a9	-0.09501774
205	0xbee4919a	-0.44642335
206	0xbf28c465	-0.65924674
207	0x3db3b196	0.08774106
208	0xbe8941c3	-0.26807985
209	0x3ccd5719	0.025065945
210	0xbe57ccc5	-0.21074207
211	0xbe317733	-0.17330627
212	0xbed2898c	-0.41120565
213	0xba04f13d	-0.00050713477
214	0xbea65d3c	-0.32493007
215	0xbdeee057	-0.11663883
216	0xbe406727	-0.1878935
217	0xbdfa7049	-0.12228448
218	0xbf081240	-0.5315285
219	0x3c9a1177	0.018807156
220	0xbee7928d	-0.45228997
221	0x3ac0a6fb	0.0014698202
222	0xbf094cd3	-0.5363285
223	0x3d91b620	0.07114816
224	0xbf07bb95	-0.530206
225	0xbe3396f8	-0.17538059
226	0xbee98f1e	-0.45617002
227	0xbe401fc2	-0.18762115
228	0xbe94e18e	-0.29078335
229	0xbd4b71e3	-0.049669158
230	0xbf301356	-0.68779504
231	0x3caedd68	0.02134581
232	0xbf03f8b8	-0.5155139
233	0x3df4be3b	0.11950346
234	0xbeb981c6	-0.36231822
235	0xbd8fa513	-0.07013907
236	0xbed2bd18	-0.41159892
237	0xbd515159	-0.05110297
238	0xbec35104	-0.38147748
239	0x3e78c682	0.24294475
240	0x3e3aedf6	0.18254837
241	0xbcc37332	-0.02385864
242	0xbf0dfa02	-0.55459607
243	0x3c59b7d6	0.013288459
244	0xbeeab8f4	-0.45844233
245	0x3bdcab91	0.0067343195
246	0xbd8b4931	-0.068010695
247	0xbe078bf6	-0.13236985
248	0xbeaa2c60	-0.3323698
249	0xbd8008f6	-0.06251709
250	0xbeea15e6	-0.45719832
251	0x3e708270	0.23487258
252	0xbe373b29	-0.17893662
253	0xbea02bb0	-0.3128333
254	0xbed4280a	-0.41436797
255	0xbe1d1fc0	-0.15344143

network_body._body_endoder.seq_layers.0.bias f4 [128]
0	0xbec09534	-0.37613833
1	0xbf11f541	-0.5701485
2	0xbf0770ed	-0.52906686
3	0xbea54077	-0.32275745
4	0x3ecc14d1	0.39859632
5	0xbe880f51	-0.26574185
6	0xbf13d5e6	-0.5774826
7	0xbed78564	-0.42093956
8	0x3e8a0ef6	0.2696454
9	0xbf182e8e	-0.59446037
10	0xbf09bed5	-0.5380681
11	0xbed85664	-0.4225341
12	0xbf1a41ce	-0.6025666
13	0xbef8492f	-0.48493335
14	0xbf13c9fb	-0.5773007
15	0xbed65afb	-0.41866288
16	0xbf28692b	-0.65785474
17	0xbf12a37a	-0.57280695
18	0xbeb4e44d	-0.3533043
19	0xbef84d56	-0.48496503
20	0xbeaadc8b	-0.33371386
21	0xbed6aba0	-0.41927814
22	0xbf2c745e	-0.6736506
23	0xbeebf15d	-0.46082583
24	0xbf14a70e	-0.58067405
25	0xbf01bcac	-0.50678515
26	0xbed16f86	-0.40905398
27	0xbee91565	-0.45524135
28	0xbf1385e3	-0.5762617
29	0xbe84e709	-0.25957516
30	0xbf092de5	-0.53585654
31	0xbf39c29c	-0.72562575
32	0xbdc3a510	-0.095529675
33	0xbf166bd0	-0.5875826
34	0x3ee2f4b6	0.44327325
35	0xbe2cd452	-0.16877869
36	0xbf18b1c7	-0.59646267
37	0xbf0d1219	-0.5510574
38	0xbf0ea3c1	-0.5571862
39	0xbe843e67	-0.2582886
40	0xbeaacdc1	-0.33360103
41	0x3efd92b9	0.49526003
42	0xbec31e7e	-0.381092
43	0xbf184fd3	-0.594968
44	0xbf285fbe	-0.6577109
45	0xbf229f20	-0.63524055
46	0xbf069bf1	-0.525817
47	0x3e163a66	0.14670715
48	0xbf1b70dc	-0.60719085
49	0xbf10bb95	-0.5653623
50	0x3ea95d3a	0.3307894
51	0xbf1bd888	-0.60877275
52	0xbe9ba1c4	-0.30396855
53	0xbefe5bd2	-0.49679428
54	0xbf255632	-0.6458465
55	0x3e838d41	0.25693706
56	0xbf166350	-0.5874529
57	0xbe83b1af	-0.257215
58	0xbec1eae3	-0.37874517
59	0xbc91fb24	-0.017819948
60	0xbe3cd2f1	-0.18439843
61	0xbe921142	-0.28528792
62	0x3dcc31d5	0.09970442
63	0xbf1d2c23	-0.6139547
64	0xbebeadf2	-0.37242085
65	0xbeb8ded2	-0.36107498
66	0xbf1e869f	-0.61924165
67	0xbf0d0d6f	-0.55098623
68	0xbeea28d4	-0.45734274
69	0xbf246650	-0.64218616
70	0xbece4ae9	-0.40291527
71	0xbef482ce	-0.47756046
72	0xbf10e4aa	-0.56598914
73	0xbf0117fa	-0.5042721
74	0x3eb55ce2	0.35422426
75	0xbf176e28	-0.5915246
76	0xbee4cc43	-0.4468709
77	0x3ec166a6	0.37773627
78	0xbebccc8a	-0.368748
79	0xbed87b56	-0.42281598
80	0xbef0b0e2	-0.4700995
81	0x3e1d2a28	0.15348113
82	0xbf0321ea	-0.51223624
83	0xbea155fb	-0.3151091
84	0x3e1bb4c6	0.15205678
85	0xbea1a7cd	-0.31573334
86	0xbef6c968	-0.48200536
87	0xbf0ca77e	-0.5494307
88	0xbf0d501f	-0.5520038
89	0xbef94561	-0.48685744
90	0xbeb6d255	-0.35707346
91	0x3e2c6306	0.1683465
92	0xbf3bdfaf	-0.7338819
93	0xbf171685	-0.5901874
94	0xbec72eec	-0.38902986
95	0x3f3c5ce5	0.73579246
96	0xbf14cc99	-0.5812469
97	0x3e261410	0.1621859
98	0xbed5767c	-0.4169196
99	0xbf2223c0	-0.633358
100	0xbeb38e73	-0.35069618
101	0xbee69ea7	-0.45042917
102	0xbf058661	-0.5215817
103	0xbeb2d488	-0.34927773
104	0xbeee9b0f	-0.46602675
105	0xbf0effc9	-0.5585905
106	0xbf085824	-0.5325949
107	0xbf28474b	-0.65733784
108	0xbf0ab75d	-0.5418604
109	0xbe532711	-0.20620371
110	0xbf08c100	-0.53419495
111	0xbee5a24f	-0.44850394
112	0xbf059188	-0.5217519
113	0xbf08e11f	-0.5346851
114	0x3eea32a5	0.45741764
115	0xbf1f701e	-0.6228045
116	0xbe4977ac	-0.19674557
117	0xbf0fa174	-0.5610573
118	0xbea7ba3d	-0.32759276
119	0xbf16d1dc	-0.5891397
120	0xbee49cd4	-0.446509
121	0xbeb796f4	-0.35857356
122	0xbf30d6fa	-0.6907803
123	0xbecef6eb	-0.40422758
124	0xbf047fb3	-0.51757354
125	0xbf01df8b	-0.50731725
126	0xbe80db85	-0.2516748
127	0xbe8454ea	-0.25846034

network_body._body_endoder.seq_layers.2.weight f4 [128, 128]
0	0x3dd118c3	0.10209801
1	0x3d73affb	0.059494
2	0x3f2343d4	0.6377537
3	0xbdcd4c2d	-0.10024295
4	0x3f43de7e	0.7651137
5	0x3d7964bd	0.060887087
6	0x3dc84f7b	0.09780785
7	0xbeb2bd9a	-0.3491028
8	0xbe445348	-0.19172394
9	0x3c83d022	0.016090456
10	0x3eb1271f	0.3460016
11	0xbd4617cd	-0.048362542
12	0x3e202fff	0.15643309
13	0x3d7fdc73	0.062466096
14	0x3e275f8f	0.16345046
15	0x3da14692	0.07874788
16	0xbe227254	-0.15863925
17	0x3e474666	0.19460449
18	0x3e1fb1be	0.15595147
19	0x3b92ebfc	0.004483698
20	0xbaa2853c	-0.0012399326
21	0x3e0540cb	0.13012998
22	0x3e3f3546	0.18672666
23	0xbc40dd65	-0.011771535
24	0x3ebefb7e	0.37301248
25	0xbc3f948c	-0.011693131
26	0x3eca8a41	0.39558604
27	0x3da59439	0.08084912
28	0x3b02ca17	0.001995688
29	0xbc7cd136	-0.015430739
30	0x3eaa4069	0.33252266
31	0x3df492ab	0.11942037
32	0x3e05496e	0.13016292
33	0x3e42f505	0.1903878
34	0x3ebabfdb	0.364745
35	0xbf5b6c9f	-0.8571262
36	0xbc82aed5	-0.015952507
37	0xbddded75	-0.10836307
38	0x3e003842	0.1252146
39	0x3dbcfe49	0.092281885
40	0x3e6a8160	0.22900915
41	0xbd8a8df0	-0.06765354
42	0xbe83e73d	-0.25762358
43	0x3ebe808f	0.37207457
44	0xbc9fa347	-0.019487036
45	0x3e49bdae	0.19701263
46	0xbc276376	-0.010216584
47	0xbce1c66b	-0.027560433
48	0x3e269080	0.1626606
49	0x3da9de40	0.08294344
50	0xbc71404d	-0.014724803
51	0x3df08585	0.11744217
52	0xbd8cbdf8	-0.06872171
53	0x3ea29fb8	0.3176248
54	0xbf51778d	-0.81823045
55	0x3e8f851e	0.28031248
56	0x3e8dcd65	0.27695766
57	0x3e9c22ed	0.30495396
58	0x3eb0b8ac	0.34515893
59	0xbe7b8c74	-0.24565297
60	0xbe195b37	-0.14976202
61	0xbec3edc0	-0.38267326
62	0x3e96cd0c	0.29453313
63	0xbdd0b137	-0.10190051
64	0x3da6c133	0.081423186
65	0xbd3a9b6f	-0.04555839
66	0x3e3a796c	0.18210381
67	0x3e2ff970	0.17184997
68	0x3e9ce38c	0.30642354
69	0x3eb7fe32	0.35936123
70	0xbe517445	-0.2045451
71	0x3e3b9678	0.18319118
72	0xbe0e13fd	-0.13874812
73	0x3db57219	0.08859653
74	0x3ed8c3d4	0.42336905
75	0xbc4c0e74	-0.012454618
76	0x3d208ba7	0.039195683
77	0x3cfafe3b	0.030638805
78	0xbdb750d6	-0.08950965
79	0xbe0c3e9a	-0.13695756
80	0xbda3fda0	-0.080073595
81	0x3f0de4bf	0.55427164
82	0xbc06b176	-0.008221021
83	0x3e20a1a7	0.15686665
84	0xbee7e356	-0.4529063
85	0xbd08eb1e	-0.03342735
86	0xbee8d6e7	-0.45476457
87	0x3e8f052c	0.27933633
88	0x3d08ddc4	0.033414617
89	0x3d7e5ddd	0.062101234
90	0x3e3e0cfb	0.18559639
91	0xbe8c932f	-0.27456042
92	0x3dd0126c	0.10159764
93	0xbd620cc5	-0.05518796
94	0xbe4df70e	-0.20113775
95	0xbd9f1dac	-0.07769331
96	0x3dae9e6d	0.08526311
97	0x3e5d23df	0.21595715
98	0x3deaa596	0.11457364
99	0xbda36769	-0.07978708
100	0xbdbff4e4	-0.09372881
101	0xbe0a2fa2	-0.13494733
102	0x3d9c5ff6	0.076354906
103	0x3f07886a	0.52942526
104	0x3c81af7b	0.015830746
105	0x3d919f3a	0.07110448
106	0x3dc36e78	0.095425546
107	0xbbf1266b	-0.007359316
108	0xbd73145c	-0.059345588
109	0x3dc48ff8	0.09597772
110	0x3ec22996	0.37922353
111	0x3bc9bd31	0.0061565866
112	0x3e805380	0.25063705
113	0x3d752396	0.05984839
114	0xbe27b53a	-0.16377726
115	0x3ed8c76b	0.42339644
116	0xbe3a5050	-0.181947
117	0x3eaaf992	0.33393532
118	0xbe883368	-0.2660172
119	0x3e8b521c	0.27211082
120	0x3eb5f944	0.35541737
121	0x3dc006c4	0.093762904
122	0x3dd0bc34	0.10192147
123	0x3c07c915	0.008287688
124	0x3d4d43d1	0.050113503
125	0x3e03bdd9	0.1286539
126	0xbde89f32	-0.11358489
127	0x3c8eb52f	0.01742038
128	0xbea7eb84	-0.32796872
129	0x3d81deab	0.06341299
130	0x3ce79ddb	0.028273514
131	0x3e95143a	0.29116994
132	0x3c76f030	0.015071914
133	0xbdbc766c	-0.09202275
134	0x3e67c6a7	0.22634374
135	0xbd6ff9c8	-0.05858782
136	0xbeb5ef10	-0.35533953
137	0x3e23a9c4	0.15982729
138	0x3dd37014	0.103241116
139	0xbce19703	-0.027537828
140	0xbe1c4596	-0.1526092
141	0x3dde13b6	0.10843603
142	0x3e030e40	0.12798405
143	0x3d88c3b5	0.06677953
144	0xbe0f4082	-0.13989452
145	0xbd0a6e8a	-0.033796825
146	0xbdff5732	-0.12467803
147	0xbcbbfc36	-0.022947412
148	0x3c9467bd	0.018115873
149	0x3cb31f8e	0.021865632
150	0x3c3358ea	0.010946492
151	0x3ebbbd66	0.36667937
152	0x3ef4e920	0.4783411
153	0xbdd9a515	-0.1062719
154	0x3eaa6b2e	0.33284897
155	0x3dfdb1cd	0.123874284
156	0x3e100417	0.1406406
157	0xbde84788	-0.113417685
158	0x3d4e8861	0.05042303
159	0xbd2411aa	-0.04005591
160	0xbe18caa9	-0.14921059
161	0xbe1fc4d2	-0.15602425
162	0xbec08679	-0.37602594
163	0x3e15c60e	0.14626333
164	0x3b8de392	0.004330107
165	0x3e36d1f4	0.17853528
166	0xbde0ceae	-0.10976921
167	0xbe095562	-0.13411477
168	0xbe8d8adf	-0.27645013
169	0xbf43c715	-0.7647565
170	0xbe42708e	-0.18988249
171	0xbd58ad12	-0.052899428
172	0xbe1354cd	-0.14387818
173	0x3d310efe	0.04322719
174	0xbd3ba9fa	-0.0458164
175	0xbe2add36	-0.16685948
176	0xbe2bd9c6	-0.16782293
177	0x3da1bc34	0.07897225
178	0xbef06de9	-0.46958855
179	0xbe701748	-0.23446381
180	0xbf15779b	-0.5838563
181	0x3d7c10be	0.061539404
182	0xbe588284	-0.21143538
183	0x3bb8bb20	0.0056375414
184	0x3dc68fca	0.09695394
185	0x3e05911b	0.13043635
186	0x3e077f67	0.13232194
187	0x3e25cd21	0.16191532
188	0x3f04860a	0.5176703
189	0xbd8610dd	-0.06546185
190	0xbe112522	-0.14174321
191	0xbeb673f5	-0.35635343
192	0xbe5df1b8	-0.2167424
193	0x3e995517	0.2994773
194	0x3e9efe75	0.3105351
195	0x3e413e56	0.18871436
196	0xbd9e3717	-0.07725351
197	0xbe2dd861	-0.16977073
198	0x3db6dd07	0.08928876
199	0xbcde6ae5	-0.02715058
200	0x3ded3573	0.1158246
201	0xbdea9c13	-0.1145555
202	0xbca098b0	-0.019604057
203	0x3b6229a6	0.0034509688
204	0xbc20b321	-0.009808333
205	0x3eaf4131	0.34229425
206	0x3d0e7274	0.03477712
207	0xbde2f370	-0.11081588
208	0x3d377b55	0.044795353
209	0xbe957a57	-0.291949
210	0x3e6696bd	0.2251844
211	0x3e3cce95	0.1843818
212	0xbdb9f9ed	-0.09080873
213	0xbd45f2dd	-0.048327316
214	0xbcda3f1d	-0.026641423
215	0xbeb1620d	-0.3464512
216	0x3e26109e	0.16217276
217	0x3e95dfe4	0.29272377
218	0x3e5557c6	0.20834264
219	0xbf0c0f1b	-0.5471055
220	0x3d794bd5	0.060863335
221	0x3ddb2297	0.10699957
222	0xbda0204a	-0.07818659
223	0xbe52a29c	-0.20569843
224	0x3b1ddea3	0.0024089
225	0xbf10f403	-0.5662233
226	0x3eab167c	0.33415592
227	0x3e04f390	0.12983537
228	0xbddc9871	-0.107712634
229	0xbe5759b7	-0.21030317
230	0x3e8e9dba	0.2785471
231	0xbe509bf2	-0.20371988
232	0xbed6a7e2	-0.4192496
233	0x3d94ca37	0.07265132
234	0x3d94183b	0.07231184
235	0xbd6968fb	-0.056984883
236	0xbeb6c100	-0.35694122
237	0x3e861037	0.26184246
238	0x3e197042	0.14984229
239	0xbdfc755c	-0.12327072
240	0xbeb9d194	-0.36292708
241	0xbde4c39f	-0.11170124
242	0xbed268cc	-0.4109558
243	0x3d9f9eeb	0.07793983
244	0xbd19b508	-0.03752616
245	0x3df84cba	0.121240094
246	0x3e22230a	0.15833679
247	0xbd59328f	-0.053026732
248	0xbf0e427e	-0.5557021
249	0x3e9bc537	0.304239
250	0x3e2cc73d	0.16872878
251	0x3e404298	0.18775403
252	0xbe8a5bcb	-0.27023157
253	0x3d55b09b	0.052170377
254	0xbef78b34	-0.4834839
255	0xbeb2d755	-0.3492991

network_body._body_endoder.seq_layers.2.bias f4 [128]
0	0x3e01d81c	0.12680095
1	0xbf11ac7d	-0.5690382
2	0xbe688e89	-0.22710623
3	0xbe94aaa5	-0.2903644
4	0xbf5b05d6	-0.8555578
5	0xbf01c8dc	-0.5069711
6	0xbb896cbf	-0.0041938717
7	0xbe878b5b	-0.26473507
8	0xbe549b9b	-0.20762484
9	0xbf00d361	-0.5032254
10	0xbef20850	-0.47271967
11	0xbd95e1a7	-0.073184304
12	0xbdfc0836	-0.123062536
13	0xbd361272	-0.044451185
14	0xbe14331d	-0.14472623
15	0xbf191796	-0.59801614
16	0xbf16594e	-0.5873002
17	0xbc8722b2	-0.016496036
18	0xbeb61dbe	-0.35569566
19	0xbf0c049f	-0.5469455
20	0xbe92eab4	-0.2869469
21	0xbdfd4a16	-0.123676464
22	0xbead9e93	-0.33910045
23	0xbdad45c7	-0.084605746
24	0xbf344b82	-0.70427716
25	0xbf711407	-0.94171184
26	0xbeb93db4	-0.36179888
27	0xbf5126dc	-0.8169992
28	0x3e3eda43	0.18637948
29	0xbedbeb1e	-0.42952818
30	0xbec9329c	-0.39296424
31	0xbc8185ea	-0.015810926
32	0xbf2bd97c	-0.6712873
33	0x3d619e7f	0.055082794
34	0xbed14c23	-0.408784
35	0xbdb64a31	-0.0890087
36	0xbf0f5678	-0.55991316
37	0x3d8be3c4	0.06830552
38	0xbf5db8c5	-0.8661006
39	0xbedf07df	-0.43560693
40	0x3db55c6b	0.08855518
41	0x3f11b788	0.5692067
42	0xbeed164b	-0.4630607
43	0xbf047445	-0.51739913
44	0xbec961c5	-0.39332405
45	0xbf59c5b5	-0.850673
46	0xbc16e073	-0.009208786
47	0xbecbd48c	-0.39810598
48	0x3e792a0b	0.24332444
49	0xbf06585f	-0.52478594
50	0x3c74afdc	0.014934506
51	0xbedec217	-0.43507454
52	0xbf33a8fe	-0.70179737
53	0xbf1df915	-0.61708194
54	0xbf58b20b	-0.8464667
55	0xbe402678	-0.18764675
56	0x3d696052	0.056976624
57	0xbeb850cf	-0.35999152
58	0x3e9133b8	0.2835977
59	0xbf065ed1	-0.5248843
60	0xbee46554	-0.44608557
61	0xbf1c885b	-0.6114556
62	0xbed8097b	-0.42194733
63	0xbc298530	-0.010346696
64	0xbf20314a	-0.6257521
65	0x3ed1b4be	0.40958208
66	0xbe1c0a06	-0.15238199
67	0xbea60fb2	-0.3243385
68	0xbf1990c8	-0.59986544
69	0xbd47f768	-0.04881993
70	0xbf0870aa	-0.5329691
71	0xbf3b7aef	-0.73234457
72	0xbeaa7e4a	-0.33299476
73	0xbe80f864	-0.25189507
74	0xbf810729	-1.008031
75	0xbdc3015a	-0.09521742
76	0xbef3388c	-0.4750408
77	0xbf7aabfc	-0.9791868
78	0xbecfce16	-0.4058692
79	0x3d7815e2	0.060567744
80	0xbf1e84b6	-0.6192125
81	0xbea03b26	-0.31295127
82	0xbf44c707	-0.7686619
83	0xbf27cb78	-0.65544844
84	0xbf6bb9fc	-0.92080665
85	0x3e053138	0.13007057
86	0xbe850723	-0.25982007
87	0xbe7d5d85	-0.24742706
88	0x3df20198	0.1181671
89	0xbe058c50	-0.13041806
90	0xbef4137b	-0.47671112
91	0xbe58fd16	-0.21190295
92	0x3e7b84a4	0.24562317
93	0xbd1dab9c	-0.038493738
94	0xbe4afa46	-0.19822034
95	0xbeea8ace	-0.45809025
96	0xbf24cf8d	-0.643792
97	0xbde76a78	-0.11299604
98	0x3d5474b7	0.05186912
99	0xbee2bd82	-0.44285208
100	0xbdf6bed5	-0.12048117
101	0xbeeb53d1	-0.45962384
102	0xbeb8e172	-0.361095
103	0xbe959e5a	-0.29222375
104	0x3edb7fbb	0.42870888
105	0xbe4227fe	-0.18960568
106	0xbf537c46	-0.826115
107	0x3e08ad49	0.13347353
108	0xbf076e97	-0.5290312
109	0xbf03181c	-0.51208663
110	0x3eb5b208	0.3548739
111	0xbe86d2f9	-0.26332834
112	0xbc38f4ee	-0.011288865
113	0xbe845131	-0.25843194
114	0xbf25956a	-0.6468111
115	0x3e2ea8e1	0.1705661
116	0xbe6ea6a2	-0.23305753
117	0xbdb39d47	-0.08770233
118	0xbdf3b699	-0.11900062
119	0xbf24d82e	-0.64392364
120	0xbead5fe5	-0.33862224
121	0xbde16918	-0.11006373
122	0xbe31e234	-0.17371446
123	0xbef1c982	-0.4722405
124	0x3e25f7e5	0.16207846
125	0xbf1644bc	-0.5869863
126	0xbeac4043	-0.33642778
127	0xbedd7b68	-0.43258214

action_model._continuous_distribution.log_sigma f4 [1, 2]
0	0x40a6947f	5.205627
1	0x40a4e264	5.1526356

action_model._continuous_distribution.mu.weight f4 [2, 128]
0	0x3f38e5c3	0.7222559
1	0xbb307812	-0.0026927036
2	0xbee975a0	-0.45597553
3	0xbe9355e4	-0.28776467
4	0x3e415561	0.18880226
5	0xbf4d5a79	-0.80216175
6	0x3db57c8d	0.08861647
7	0xbe6d0f1b	-0.23150294
8	0xbdaf62f0	-0.08563793
9	0x3e5da763	0.21645884
10	0x3decb1bc	0.11557338
11	0x3e89549f	0.26822373
12	0x3f4884cd	0.7832764
13	0x3ecb9c32	0.39767605
14	0xbf5842d7	-0.8447699
15	0xbf010e71	-0.5041266
16	0xbddf6241	-0.10907412
17	0x3ef7378c	0.48284566
18	0xbebc933c	-0.3683108
19	0xbe04f0cb	-0.1298248
20	0x3da1b6b8	0.07896179
21	0x3cd22dcd	0.025656605
22	0xbe72b9cf	-0.23703693
23	0x3cd6e8de	0.026234087
24	0x3eccd707	0.40007803
25	0x3dacab1d	0.08431075
26	0x3e179620	0.14803362
27	0xbd14ad80	-0.036298275
28	0xbf220b6c	-0.6329868
29	0x3ef03bd6	0.4692065
30	0xbe3da2b5	-0.18519099
31	0xbec641a3	-0.38721952
32	0xbc683da0	-0.014174849
33	0x3eb51312	0.35366112
34	0x3f3daa50	0.74088
35	0xbf0063b8	-0.5015216
36	0x3db04195	0.08606259
37	0xbe2fc23d	-0.1716394
38	0x3e867fdd	0.26269427
39	0xbdf7e811	-0.1210481
40	0x3da3415e	0.07971452
41	0xbeac1eeb	-0.3361734
42	0x3ed8c8c8	0.42340684
43	0x3d9398f9	0.072069116
44	0x3c938f04	0.018012531
45	0x3c5b0f64	0.013370369
46	0x3e396996	0.18106684
47	0xbf199dfc	-0.6000669
48	0x3da4ac2d	0.080406524
49	0x3ee89298	0.45424342
50	0x3edcae68	0.4310181
51	0xbe7c0c8d	-0.24614163
52	0x3e5cb7c9	0.21554483
53	0xbe4f818a	-0.20264259
54	0xbf115bd4	-0.56780744
55	0xbe7c716b	-0.2465264
56	0x3e399021	0.18121387
57	0x3e93f6a1	0.288991
58	0x3ed50465	0.41604915
59	0x3c4eb38b	0.012616049
60	0x3f0c6331	0.54838854
61	0x3e845c8e	0.25851864
62	0xbea5a259	-0.32350424
63	0x3dd9f2b8	0.10641998
64	0x3d535b92	0.051601
65	0xbe636f35	-0.22210391
66	0xbd5d7235	-0.054063994
67	0x3e7eb685	0.24874313
68	0x3c86b155	0.01644198
69	0x3df3b6f5	0.11900131
70	0x3eecf6d6	0.4628207
71	0xbeed5cbf	-0.46359822
72	0x3e9475df	0.28996179
73	0xbe3953c7	-0.18098365
74	0x3e83c77a	0.25738126
75	0xbf44e2b4	-0.7690842
76	0x3d313c80	0.043270588
77	0x3dfa712c	0.12228617
78	0x3f6de904	0.9293368
79	0xbf313df7	-0.69235176
80	0x3ed9063f	0.42387578
81	0x3ee0f36c	0.43935716
82	0x3dc25e3c	0.0949063
83	0xbd26638a	-0.04062227
84	0xbe2d2f2a	-0.16912523
85	0xbf238ce2	-0.63886845
86	0x3e7e4e28	0.24834502
87	0x3f52c01d	0.8232439
88	0x3e4748b2	0.19461325
89	0xbe9a781c	-0.3016976
90	0xbe089544	-0.1333819
91	0x3e933428	0.2875073
92	0xbcb20782	-0.021732096
93	0xbf13f6fe	-0.57798755
94	0xbebc6033	-0.36792144
95	0x3e45e8b5	0.19327052
96	0x3e103d90	0.14085984
97	0x3e516db9	0.20452012
98	0x3f175d95	0.5912717
99	0x3db6d686	0.08927636
100	0x3f4daed6	0.80344903
101	0x3d996a10	0.07490933
102	0x3d9b4eda	0.07583399
103	0x3dba9fc5	0.09112505
104	0x3ed5e422	0.41775614
105	0xbed00987	-0.4063227
106	0x3e934af4	0.28768122
107	0x3f09cbc2	0.53826535
108	0x3e8ec381	0.27883533
109	0x3e66cfa7	0.2254015
110	0xbf19faea	-0.6014849
111	0xbf0cc47a	-0.549873
112	0x3ee35aee	0.4440531
113	0xbe19017f	-0.14941977
114	0x3df11337	0.11771243
115	0x3f81478f	1.0099963
116	0x3eebd19c	0.46058357
117	0x3ea0f7fd	0.314392
118	0xbd1a0d50	-0.037610352
119	0x3e3150cb	0.17315976
120	0x3ed5d4da	0.41763955
121	0xbe716107	-0.23572169
122	0x3baa5da7	0.0051991525
123	0x3e04fcb0	0.12987018
124	0xbed32a16	-0.41243047
125	0x3ed94f96	0.42443532
126	0x3f225446	0.6340984
127	0xbe66f51f	-0.22554444
128	0xbf1f3bdf	-0.6220073
129	0x3db4e389	0.088324614
130	0xbe8a9584	-0.27067196
131	0xbebcf0b2	-0.36902386
132	0x3e1c73aa	0.15278497
133	0x3e67d543	0.22639947
134	0x3e909f6f	0.28246638
135	0xbef2e1b9	-0.47437838
136	0x3f18fb3b	0.5975835
137	0x3eaf12ce	0.34194034
138	0x3e0d7cb9	0.13817109
139	0x3e358ed1	0.17730261
140	0xbf4e37ec	-0.8055408
141	0xbef8dc18	-0.48605418
142	0xbf8b6535	-1.0890261
143	0x3e39aaa7	0.18131505
144	0xbc802603	-0.015643125
145	0x3f4418b6	0.76600206
146	0xbe15973d	-0.14608474
147	0xbeb47d48	-0.35251832
148	0xbe57dc62	-0.21080163
149	0x3e516d4c	0.2045185
150	0xbe9668c1	-0.29376796
151	0x3e8c6654	0.2742182
152	0x3e16e0bc	0.14734167
153	0x3bf799ce	0.0075561767
154	0x3ed7305a	0.42029077
155	0xbd45140f	-0.048114832
156	0x3ee3f0c8	0.4451964
157	0xbe0f8f2b	-0.14019458
158	0x3eecc84f	0.46246573
159	0xbe0ddc60	-0.13853598
160	0x3ebcef8d	0.36901513
161	0xbcc19475	-0.02363036
162	0xbfa88b14	-1.3167443
163	0xbadea5bd	-0.001698665
164	0x3e20258a	0.1563932
165	0xbf526134	-0.8217957
166	0x3d5dba05	0.05413248
167	0xbe29ff9e	-0.16601416
168	0x3e270ce1	0.16313507
169	0x3f2d1407	0.67608684
170	0xbf65c68d	-0.8975609
171	0xbf0090ce	-0.50220954
172	0x3e25883d	0.16165252
173	0x3e1f5756	0.1556066
174	0x3f17434d	0.5908707
175	0xbcb2c180	-0.021820784
176	0x3f2b2abb	0.66862077
177	0xbe633db1	-0.22191502
178	0xbf13ea08	-0.5777898
179	0x3e4e83dc	0.20167488
180	0xbecf36dc	-0.40471542
181	0xbf32f05c	-0.6989801
182	0xbe801fcd	-0.25024262
183	0xbea29b84	-0.31759274
184	0x3eb892bb	0.36049446
185	0x3e59f1a3	0.21283583
186	0xbf1c6b95	-0.6110166
187	0x3c3c2371	0.011483059
188	0x3e32f21d	0.17475171
189	0x3ee3f2b7	0.44521114
190	0x3e654b37	0.22391973
191	0x3ea81a8d	0.32832757
192	0xbe4ce467	-0.20009004
193	0xbf683198	-0.90700674
194	0x3ec58fc4	0.38586247
195	0x3d326d3b	0.0435612
196	0x3e1c22ad	0.15247603
197	0x3edb515e	0.42835516
198	0x3e26c7fc	0.16287225
199	0xbe8bc531	-0.27298883
200	0xbf6b65d2	-0.9195224
201	0x3ef03369	0.46914223
202	0x3e20b54a	0.15694156
203	0x3ecf29b3	0.404615
204	0x3e26891a	0.16263238
205	0xbf1e2b85	-0.61785156
206	0xbeb53ef6	-0.35399598
207	0xbdd5bb21	-0.10436083
208	0x3e3a604d	0.18200798
209	0xbe8a2923	-0.2698451
210	0x3e083880	0.13302803
211	0xbe8bf546	-0.27335566
212	0xbf0240f5	-0.50880367
213	0xbf1d9a24	-0.61563325
214	0xbeecde81	-0.46263507
215	0x3f062142	0.523945
216	0x3e2b180b	0.1670839
217	0x3e59ea2c	0.21280736
218	0xbe1206f2	-0.14260462
219	0x3e061936	0.13095555
220	0x3e63ce0c	0.2224657
221	0xbf1d3beb	-0.6141955
222	0x3f2bfbae	0.6718091
223	0xbe0c273c	-0.13686842
224	0x3d94cd97	0.07265776
225	0xbefe623c	-0.49684322
226	0x3e381b52	0.17979172
227	0x3edc354d	0.43009415
228	0x3e6b0417	0.22950779
229	0x3e37cf2e	0.17950127
230	0xbe7b5dcf	-0.24547504
231	0x3ca0bf91	0.019622596
232	0x3e8363e2	0.25662142
233	0x3ea50477	0.3222997
234	0x3ca463b5	0.020067075
235	0x3e829f16	0.25511998
236	0x3e044bd3	0.1291955
237	0x3e0cb116	0.13739428
238	0x3d8aeb90	0.06783211
239	0x3e5ab237	0.21357046
240	0xbdef06ea	-0.11671241
241	0xbf0305d5	-0.51180774
242	0xbe77a94a	-0.24185672
243	0x3e8900c4	0.26758397
244	0x3e47997c	0.19492143
245	0x3f0f8fb2	0.56078637
246	0x3e8913df	0.26772973
247	0x3e052988	0.13004124
248	0xbdece3d6	-0.11566894
249	0xbd8115eb	-0.06303009
250	0x3f2242d9	0.6338325
251	0x3e8d6e38	0.27623153
252	0x3eb1b7f1	0.3471065
253	0x3d46405b	0.048401218
254	0xbea6b66a	-0.32561046
255	0x3eba3d8e	0.36375087

action_model._continuous_distribution.mu.bias f4 [2]
0	0x3e9dc08c	0.30810964
1	0x3d9e1bb9	0.077201314

exp_avg f4 [128, 177]
0	0x00000000	0.0
1	0x250b582a	1.2086199e-16
2	0x80000004	-6e-45
3	0x0e2c6f52	2.1254236e-30
4	0x2fb7adf1	3.34111e-10
5	0x2fb77bea	3.3375552e-10
6	0x00000000	0.0
7	0x24fb598f	1.09005616e-16
8	0x00000004	6e-45
9	0x00000004	6e-45
10	0x2fb728ec	3.3316583e-10
11	0x2fb72aa3	3.33178e-10
12	0x00000000	0.0
13	0xae087dc6	-3.103453e-11
14	0x80000004	-6e-45
15	0x9de55e6b	-6.071342e-21
16	0x2fb8df46	3.362805e-10
17	0x2ff7be93	4.506445e-10
18	0x00000000	0.0
19	0x2d8f8643	1.6316842e-11
20	0x80000004	-6e-45
21	0x00000004	6e-45
22	0x2ebaffd3	8.503744e-11
23	0x2f85a0d2	2.430683e-10
24	0x00000000	0.0
25	0x2fb72cb1	3.331926e-10
26	0x80000004	-6e-45
27	0x9f88a8d3	-5.7877537e-20
28	0xa3598e0b	-1.1793672e-17
29	0x2f91aacf	2.6496713e-10
30	0x00000000	0.0
31	0x30437022	7.1099937e-10
32	0x80000004	-6e-45
33	0x80000004	-6e-45
34	0x254003a4	1.6654579e-16
35	0x2fa299b2	2.9576835e-10
36	0x00000000	0.0
37	0x2fb72cb1	3.331926e-10
38	0x80000004	-6e-45
39	0x959ee0c1	-6.417029e-26
40	0xa35b4bd2	-1.1888069e-17
41	0x2f4cec36	1.8637611e-10
42	0x00000000	0.0
43	0x2fb72cb1	3.331926e-10
44	0x00000004	6e-45
45	0x94ebff55	-2.3829647e-26
46	0x00000000	0.0
47	0x2f026a4b	1.1861194e-10
48	0x00000000	0.0
49	0x2fb72cb1	3.331926e-10
50	0x00000004	6e-45
51	0x9404e410	-6.709274e-27
52	0x00000000	0.0
53	0x2f069aec	1.2242268e-10
54	0x00000000	0.0
55	0x2fb72cb1	3.331926e-10
56	0x80000004	-6e-45
57	0x0db1b4c8	1.0951989e-30
58	0x00000000	0.0
59	0x2e9fe50b	7.271169e-11
60	0x00000000	0.0
61	0x2fb72cb1	3.331926e-10
62	0x00000004	6e-45
63	0x93916d0a	-3.6710667e-27
64	0x00000000	0.0
65	0x2f14a245	1.3518171e-10
66	0x00000000	0.0
67	0x2fb72cb1	3.331926e-10
68	0x80000004	-6e-45
69	0x24ace9ab	7.498896e-17
70	0x00000000	0.0
71	0x2ed47702	9.661784e-11
72	0x00000000	0.0
73	0x2fb72cb1	3.331926e-10
74	0x00000004	6e-45
75	0x156a6a0b	4.7339577e-26
76	0xa284324e	-3.5831934e-18
77	0x2f3251f8	1.6218127e-10
78	0x00000000	0.0
79	0x2fb72cb1	3.331926e-10
80	0x80000004	-6e-45
81	0x25060bfa	1.1626705e-16
82	0x22a985d5	4.594924e-18
83	0x2eb1684b	8.067554e-11
84	0x00000000	0.0
85	0x2fb72cb1	3.331926e-10
86	0x00000004	6e-45
87	0x80000004	-6e-45
88	0x250b582a	1.2086199e-16
89	0x2e5be7db	5.0000764e-11
90	0x00000000	0.0
91	0x2fb72cb1	3.331926e-10
92	0x00000004	6e-45
93	0x80000004	-6e-45
94	0x250b582a	1.2086199e-16
95	0x2e62f88c	5.1607205e-11
96	0x00000000	0.0
97	0x2fb72cb1	3.331926e-10
98	0x00000004	6e-45
99	0x80000004	-6e-45
100	0x80000004	-6e-45
101	0x2e62f86e	5.16071e-11
102	0x00000000	0.0
103	0x2fb72cb1	3.331926e-10
104	0x00000004	6e-45
105	0x80000004	-6e-45
106	0x250b582a	1.2086199e-16
107	0x2e7aa049	5.698578e-11
108	0x00000000	0.0
109	0x2fb72cb1	3.331926e-10
110	0x00000004	6e-45
111	0x80000004	-6e-45
112	0x80000004	-6e-45
113	0x2e7aa023	5.698565e-11
114	0x00000000	0.0
115	0x2fb72cb1	3.331926e-10
116	0x00000004	6e-45
117	0xa40cdbdf	-3.05439e-17
118	0x252e8f22	1.514059e-16
119	0x2e9736ac	6.876397e-11
120	0x00000000	0.0
121	0x2fb72cb1	3.331926e-10
122	0x00000000	0.0
123	0x80000004	-6e-45
124	0x80000004	-6e-45
125	0x2e96575a	6.836727e-11
126	0x00000000	0.0
127	0x2fb72cb1	3.331926e-10
128	0x00000000	0.0
129	0x80000004	-6e-45
130	0x00000000	0.0
131	0x2f0ffaaf	1.3094835e-10
132	0x00000000	0.0
133	0x2fb72cb1	3.331926e-10
134	0x00000004	6e-45
135	0x80000004	-6e-45
136	0x00000000	0.0
137	0x2f6c5620	2.1494673e-10
138	0x00000000	0.0
139	0x2fb72cb1	3.331926e-10
140	0x00000004	6e-45
141	0x00000004	6e-45
142	0x00000000	0.0
143	0x2f149ae9	1.3515557e-10
144	0x00000000	0.0
145	0x2fb72cb1	3.331926e-10
146	0x00000000	0.0
147	0x80000004	-6e-45
148	0x00000000	0.0
149	0x2ee183b0	1.0255208e-10
150	0x00000000	0.0
151	0x2fb72cb1	3.331926e-10
152	0x00000004	6e-45
153	0x00000004	6e-45
154	0x00000000	0.0
155	0x2f2417d0	1.4924173e-10
156	0x00000000	0.0
157	0x2fb72cb1	3.331926e-10
158	0x00000004	6e-45
159	0x80000004	-6e-45
160	0x80000004	-6e-45
161	0x2e9ea016	7.213445e-11
162	0x00000000	0.0
163	0xafb7b6c4	-3.341737e-10
164	0x00000004	6e-45
165	0x00000004	6e-45
166	0x0ca39744	2.5205166e-31
167	0x2ec9154d	9.1442055e-11
168	0x317cf117	3.680787e-09
169	0x30a63853	1.2094098e-09
170	0x00000000	0.0
171	0x30947386	1.0801251e-09
172	0x313b385a	2.7244114e-09
173	0x00000000	0.0
174	0xb18d7681	-4.1171124e-09
175	0x303f6801	6.9633194e-10
176	0x00000000	0.0
177	0x00000000	0.0
178	0x286f6d92	1.3290924e-14
179	0x80000004	-6e-45
180	0x958b60b5	-5.629423e-26
181	0x2a3ccca5	1.6768755e-13
182	0x2a4076e9	1.7094281e-13
183	0x00000000	0.0
184	0x286f6f3b	1.3291284e-14
185	0x80000004	-6e-45
186	0x00000004	6e-45
187	0x2a42f1a6	1.73145e-13
188	0x2a444c45	1.7434758e-13
189	0x00000000	0.0
190	0xa9e80648	-1.0303959e-13
191	0x80000004	-6e-45
192	0x17b06a73	1.1400605e-24
193	0x29c7763c	8.857886e-14
194	0x29bcfd22	8.392789e-14
195	0x00000000	0.0
196	0x2a880672	2.4162925e-13
197	0x80000004	-6e-45
198	0x80000004	-6e-45
199	0xa9e9c52b	-1.0381482e-13
200	0x29f212d8	1.0750228e-13
201	0x00000000	0.0
202	0x2a51f0f0	1.8646521e-13
203	0x00000004	6e-45
204	0x1597d99b	6.1331735e-26
205	0x2244bc8c	2.666277e-18
206	0x2a551a2f	1.8927285e-13
207	0x00000000	0.0
208	0x2a80d180	2.2882737e-13
209	0x80000004	-6e-45
210	0x00000004	6e-45
211	0x231d2b70	8.520185e-18
212	0x29b88ee3	8.1960284e-14
213	0x00000000	0.0
214	0x2a51f52a	1.8647987e-13
215	0x00000004	6e-45
216	0x9f771b70	-5.232698e-20
217	0xa35cc93a	-1.1968835e-17
218	0x2a169d77	1.3377308e-13
219	0x00000000	0.0
220	0x2a63fba2	2.0248953e-13
221	0x00000004	6e-45
222	0x122e58c8	5.501415e-28
223	0x00000000	0.0
224	0x29dbe0d6	9.7645565e-14
225	0x00000000	0.0
226	0x2a51f1b5	1.8646788e-13
227	0x00000004	6e-45
228	0x0fcc0c01	2.0120577e-29
229	0x00000000	0.0
230	0x29d4b18f	9.445493e-14
231	0x00000000	0.0
232	0x2a51f1c6	1.8646811e-13
233	0x00000004	6e-45
234	0x13693298	2.943368e-27
235	0x00000000	0.0
236	0x28b1e931	1.9752078e-14
237	0x00000000	0.0
238	0x2a51f1b5	1.8646788e-13
239	0x80000004	-6e-45
240	0x107ecc7c	5.0250197e-29
241	0x00000000	0.0
242	0x29e2ff80	1.0080738e-13
243	0x00000000	0.0
244	0x2a51dc8a	1.8639444e-13
245	0x00000004	6e-45
246	0x24a936ab	7.338468e-17
247	0x00000000	0.0
248	0x280863a1	7.57112e-15
249	0x00000000	0.0
250	0x2a51ed76	1.8645315e-13
251	0x80000004	-6e-45
252	0xa1c6d001	-1.347206e-18
253	0x2393ca1c	1.6023369e-17
254	0x2a0674b1	1.1942076e-13
255	0x00000000	0.0

exp_avg_sq f4 [128, 177]
0	0x00000000	0.0
1	0x269e35e2	1.0978057e-15
2	0x000001f4	7e-43
3	0x1d1d20a7	2.0795658e-21
4	0x259a94d6	2.6815597e-16
5	0x25ababfc	2.9780313e-16
6	0x00000000	0.0
7	0x269e6c42	1.0992796e-15
8	0x000001f4	7e-43
9	0x1f464418	4.1984457e-20
10	0x2599e857	2.669871e-16
11	0x25ac142a	2.9850907e-16
12	0x00000000	0.0
13	0x26be4b09	1.3204237e-15
14	0x000001f4	7e-43
15	0x1d3371ba	2.3749248e-21
16	0x24e17c7c	9.778908e-17
17	0x2594262a	2.5699768e-16
18	0x00000000	0.0
19	0x269f1f46	1.1041318e-15
20	0x000001f4	7e-43
21	0x1f24fa20	3.493525e-20
22	0x2571f7e8	2.0987412e-16
23	0x259e9fae	2.7516834e-16
24	0x00000000	0.0
25	0x26c49c64	1.3642622e-15
26	0x000001f4	7e-43
27	0x1d90c6f4	3.8322195e-21
28	0x220829a6	1.8453485e-18
29	0x24f45d01	1.0597569e-16
30	0x00000000	0.0
31	0x26c75d60	1.3833708e-15
32	0x000001f4	7e-43
33	0x1ea99ee6	1.795929e-20
34	0x0ba1fb68	6.239322e-32
35	0x2584b72b	2.302247e-16
36	0x00000000	0.0
37	0x26c4b072	1.3648058e-15
38	0x000001f4	7e-43
39	0x1c2eb72b	5.780851e-22
40	0x21c0fd5d	1.3077491e-18
41	0x24ce3eba	8.944452e-17
42	0x00000000	0.0
43	0x26c4e61d	1.3662604e-15
44	0x000001f4	7e-43
45	0x18fac0df	6.4818235e-24
46	0x00000000	0.0
47	0x24afec72	7.6294706e-17
48	0x00000000	0.0
49	0x26c4e603	1.3662577e-15
50	0x000001f4	7e-43
51	0x181b0b54	2.0039e-24
52	0x00000000	0.0
53	0x24bb68ec	8.127607e-17
54	0x00000000	0.0
55	0x26c4e624	1.3662612e-15
56	0x000001f4	7e-43
57	0x17612bb8	7.27566e-25
58	0x00000000	0.0
59	0x24b0174f	7.636732e-17
60	0x00000000	0.0
61	0x26c4e1e1	1.3661457e-15
62	0x000001f4	7e-43
63	0x200363f2	1.1129201e-19
64	0x00000000	0.0
65	0x24e5d70b	9.9677216e-17
66	0x00000000	0.0
67	0x26c4e602	1.3662576e-15
68	0x000001f4	7e-43
69	0x1a80714b	5.3122594e-23
70	0x00000000	0.0
71	0x24d1ba5f	9.0955027e-17
72	0x00000000	0.0
73	0x26c4b269	1.364859e-15
74	0x000001f4	7e-43
75	0x1d81d0e3	3.4362e-21
76	0x21bbeb40	1.2733883e-18
77	0x24fa3b44	1.0852062e-16
78	0x00000000	0.0
79	0x26c4e5ef	1.3662556e-15
80	0x000001f4	7e-43
81	0x1bad110d	2.8631468e-22
82	0x1da129c8	4.2659546e-21
83	0x25102f1e	1.2505973e-16
84	0x00000000	0.0
85	0x259ab1ba	2.6835174e-16
86	0x000001f4	7e-43
87	0x17ac38d1	1.1129582e-24
88	0x269e33a0	1.0977445e-15
89	0x269e8a4e	1.100094e-15
90	0x00000000	0.0
91	0x259ab3e6	2.6836645e-16
92	0x000001f4	7e-43
93	0x1a283461	3.4783897e-23
94	0x269e3397	1.0977436e-15
95	0x269e8fa8	1.100239e-15
96	0x00000000	0.0
97	0x259ab40b	2.6836743e-16
98	0x000001f4	7e-43
99	0x18c9effa	5.2199597e-24
100	0x269e338c	1.0977424e-15
101	0x269e9016	1.1002507e-15
102	0x00000000	0.0
103	0x26c4e561	1.3662405e-15
104	0x000001f4	7e-43
105	0x1b3809ec	1.5223329e-22
106	0x1d90d7c2	3.833957e-21
107	0x25c3a52c	3.3939033e-16
108	0x00000000	0.0
109	0x259ab0ac	2.683446e-16
110	0x00000000	0.0
111	0x1ed49a39	2.2510158e-20
112	0x25e7fafa	4.024218e-16
113	0x25ed596d	4.1173544e-16
114	0x00000000	0.0
115	0x26c4e5f0	1.3662557e-15
116	0x000001f4	7e-43
117	0x1a98b9d4	6.316595e-23
118	0x1d9f464e	4.2159643e-21
119	0x2544e046	1.7076277e-16
120	0x00000000	0.0
121	0x25b16bc8	3.077764e-16
122	0x00000000	0.0
123	0x0ff76f86	2.4399038e-29
124	0x114aee3e	1.6008404e-28
125	0x2484fe2b	5.767645e-17
126	0x00000000	0.0
127	0x26c4e622	1.366261e-15
128	0x00000000	0.0
129	0x1dab4b18	4.534097e-21
130	0x00000000	0.0
131	0x25d194f1	3.6356647e-16
132	0x00000000	0.0
133	0x26c4e61d	1.3662604e-15
134	0x000001f4	7e-43
135	0x1d5efbe6	2.9511684e-21
136	0x00000000	0.0
137	0x25c94350	3.4913555e-16
138	0x00000000	0.0
139	0x2664c33a	7.936797e-16
140	0x000001f4	7e-43
141	0x268dd202	9.840763e-16
142	0x00000000	0.0
143	0x2589d7df	2.3911992e-16
144	0x00000000	0.0
145	0x26c4e519	1.3662329e-15
146	0x00000000	0.0
147	0x1e8abf91	1.4690548e-20
148	0x00000000	0.0
149	0x25dde6b2	3.8493714e-16
150	0x00000000	0.0
151	0x26b4835c	1.2525614e-15
152	0x000001f4	7e-43
153	0x26176a79	5.2532946e-16
154	0x00000000	0.0
155	0x257f4ada	2.2143085e-16
156	0x00000000	0.0
157	0x26999f32	1.0659658e-15
158	0x000001f4	7e-43
159	0x10676b38	4.5639316e-29
160	0x0000cb81	7.3003e-41
161	0x25e81ba1	4.0264307e-16
162	0x00000000	0.0
163	0x26b51305	1.2564553e-15
164	0x000001f4	7e-43
165	0x1ebaefb2	1.9792652e-20
166	0x066dd688	4.4732358e-35
167	0x256c68f9	2.0505303e-16
168	0x2c21b1b3	2.297812e-12
169	0x27344cec	2.5021717e-15
170	0x00000000	0.0
171	0x2c0c38ca	1.992672e-12
172	0x29114344	3.225481e-14
173	0x00000000	0.0
174	0x2c32309c	2.5322305e-12
175	0x29745a33	5.425712e-14
176	0x00000000	0.0
177	0x00000000	0.0
178	0x1ef16659	2.5559198e-20
179	0x000001f4	7e-43
180	0x15560742	4.322268e-26
181	0x19ca1486	2.08946e-23
182	0x1a8602d0	5.5425645e-23
183	0x00000000	0.0
184	0x1ef1664f	2.5559181e-20
185	0x000001f4	7e-43
186	0x157a74ff	5.0579392e-26
187	0x19c66717	2.0514358e-23
188	0x1a589563	4.4788427e-23
189	0x00000000	0.0
190	0x1ef170a3	2.5563453e-20
191	0x000001f4	7e-43
192	0x1709eeba	4.4568403e-25
193	0x1911528d	7.512995e-24
194	0x1a65bc45	4.7508173e-23
195	0x00000000	0.0
196	0x1ef18fc1	2.5576323e-20
197	0x000001f4	7e-43
198	0x14e3d8b9	2.3006624e-26
199	0x1894906f	3.8402944e-24
200	0x19f1ae2a	2.498916e-23
201	0x00000000	0.0
202	0x1ef19c18	2.5581426e-20
203	0x000001f4	7e-43
204	0x176ff3c9	7.7532765e-25
205	0x14103a8e	7.28169e-27
206	0x1a906010	5.97122e-23
207	0x00000000	0.0
208	0x1ef19c15	2.5581422e-20
209	0x000001f4	7e-43
210	0x12171a22	4.767941e-28
211	0x09db87be	5.2849984e-33
212	0x19adee93	1.798414e-23
213	0x00000000	0.0
214	0x1ef19742	2.5579426e-20
215	0x000001f4	7e-43
216	0x167508aa	1.9793676e-25
217	0x140ec039	7.207077e-27
218	0x1aae2368	7.2021915e-23
219	0x00000000	0.0
220	0x1db0797f	4.6712436e-21
221	0x000001f4	7e-43
222	0x19267361	8.6052994e-24
223	0x00000000	0.0
224	0x1e66bee2	1.2215572e-20
225	0x00000000	0.0
226	0x1eeeace0	2.527073e-20
227	0x000001f4	7e-43
228	0x161a16fa	1.2447271e-25
229	0x00000000	0.0
230	0x1ca40fa6	1.0856655e-21
231	0x00000000	0.0
232	0x1eeed308	2.528651e-20
233	0x000001f4	7e-43
234	0x1c44afe1	6.507828e-22
235	0x00000000	0.0
236	0x1e8d94df	1.4990527e-20
237	0x00000000	0.0
238	0x1ef18f0b	2.5576029e-20
239	0x000001f4	7e-43
240	0x18069a4a	1.739699e-24
241	0x00000000	0.0
242	0x1bbcde9a	3.1245844e-22
243	0x00000000	0.0
244	0x1ed890c1	2.2929758e-20
245	0x000001f4	7e-43
246	0x1d215322	2.1351151e-21
247	0x00000000	0.0
248	0x1ea0e900	1.7037025e-20
249	0x00000000	0.0
250	0x1ef18bdd	2.5574714e-20
251	0x000001f4	7e-43
252	0x18095c53	1.7753447e-24
253	0x13d51c8f	5.379692e-27
254	0x1b3f4dab	1.5824246e-22
255	0x00000000	0.0

exp_avg f4 [128]
0	0x2fb72cb1	3.331926e-10
1	0x2a51f1b5	1.8646788e-13
2	0x27b39447	4.9843243e-15
3	0xaa569746	-1.9059502e-13
4	0x39d1bebe	0.000400057
5	0x2e04f04a	3.0226745e-11
6	0xa997df3e	-6.7444734e-14
7	0x273256aa	2.4749443e-15
8	0x3a040aa0	0.00050369836
9	0x298d2962	6.2688366e-14
10	0x2965555e	5.092226e-14
11	0x2b7c5e85	8.9659557e-13
12	0x2a3631a3	1.6182068e-13
13	0xa88ad989	-1.5415419e-14
14	0xa8f1f952	-2.68645e-14
15	0xa8d9a0fd	-2.4161657e-14
16	0xa889e083	-1.5307422e-14
17	0x2a9e09c5	2.8073217e-13
18	0xafd25ca6	-3.8264608e-10
19	0xaa168216	-1.3367809e-13
20	0x2ce251c0	6.4323824e-12
21	0xaab4de0d	-3.2128502e-13
22	0xa890268d	-1.600393e-14
23	0xaa04c6b9	-1.1792901e-13
24	0xa98fcbba	-6.3858166e-14
25	0xaa32d6e6	-1.5884134e-13
26	0xaa3da7a8	-1.684474e-13
27	0xb02e1004	-6.332359e-10
28	0x2a4c16e5	1.8126783e-13
29	0xabfb2ad3	-1.7846509e-12
30	0xab70f8ce	-8.5610414e-13
31	0x2a12b9fa	1.3031929e-13
32	0x3888ed0d	6.5291395e-05
33	0x27a37046	4.5363315e-15
34	0x3881b06c	6.1840605e-05
35	0x38313652	4.225068e-05
36	0xa86d98ef	-1.3189305e-14
37	0x289c410a	1.7347685e-14
38	0xab07b282	-4.8209364e-13
39	0x34013640	1.2033797e-07
40	0xabdd1ff7	-1.5711866e-12
41	0xb99b48dd	-0.0002961819
42	0x2a0a28df	1.2271042e-13
43	0x2b897585	9.767054e-13
44	0x27497e06	2.796267e-15
45	0x298922b3	6.0900415e-14
46	0x2b35ada8	6.4545114e-13
47	0xb5aa2532	-1.2676812e-06
48	0x28d75a95	2.3909079e-14
49	0xa5fe9523	-4.4163035e-16
50	0xb7902d9c	-1.7187376e-05
51	0xaa9b8d26	-2.7631472e-13
52	0x2b2fdafb	6.2476386e-13
53	0x2c16a867	2.1409764e-12
54	0x2b4695d1	7.0551643e-13
55	0x35687761	8.6600454e-07
56	0xa8976ff3	-1.6812918e-14
57	0xb21ca851	-9.118666e-09
58	0xac55d7a5	-3.0388827e-12
59	0x33cd0ec2	9.548741e-08
60	0xb0955a0b	-1.0866769e-09
61	0xb60789d9	-2.0196806e-06
62	0xb0b83a9f	-1.3404423e-09
63	0x2a5a38ed	1.938204e-13
64	0xaca6d479	-4.741593e-12
65	0x2b8f4dd6	1.0182365e-12
66	0x2b888ae9	9.701937e-13
67	0x2813a0de	8.195022e-15
68	0xb07ae660	-9.127685e-10
69	0xaa14b08a	-1.320629e-13
70	0xa904cf85	-2.9489882e-14
71	0xac08d143	-1.9442926e-12
72	0x2b414061	6.865672e-13
73	0xa7b5e2c5	-5.0483456e-15
74	0x36719d0f	3.6003219e-06
75	0x29abd16c	7.6302544e-14
76	0xae39c148	-4.2235798e-11
77	0xb6af1ebf	-5.2189857e-06
78	0xad847583	-1.5058848e-11
79	0x335697bb	4.9963756e-08
80	0x2a9a82d1	2.7446667e-13
81	0xb3879b15	-6.3146366e-08
82	0x2df6dd97	2.8065368e-11
83	0xb2bac886	-2.1744437e-08
84	0x39133c30	0.00014041434
85	0x346456a3	2.1265673e-07
86	0x2da1740f	1.8355121e-11
87	0x2cfbba26	7.1545157e-12
88	0x2d60b69f	1.2773476e-11
89	0x28dc77e4	2.44769e-14
90	0x2d1921c7	8.704543e-12
91	0x398cb244	0.000268357
92	0x27eb6f88	6.5346525e-15
93	0xa7771bfd	-3.4293308e-15
94	0x306b9098	8.569798e-10
95	0x36703ad1	3.5797023e-06
96	0xacd823f3	-6.1430804e-12
97	0x388b80e0	6.652041e-05
98	0xa7417278	-2.6846184e-15
99	0x27a1f273	4.494934e-15
100	0xb753307b	-1.2587868e-05
101	0x2b8c88b0	9.985537e-13
102	0xa6cc7419	-1.4186812e-15
103	0xaae1793a	-4.0052147e-13
104	0xadd4aac4	-2.4177445e-11
105	0xac3883e8	-2.6221195e-12
106	0x2a2f424d	1.5566125e-13
107	0x283369b7	9.959419e-15
108	0xacb8a89d	-5.2483144e-12
109	0xa75d7363	-3.0732462e-15
110	0x2c851114	3.7819834e-12
111	0x34366b58	1.6989122e-07
112	0x2a05cdd1	1.188418e-13
113	0x3447efec	1.8620602e-07
114	0xb8478450	-4.7568523e-05
115	0x26ed1040	1.6449583e-15
116	0xb766922b	-1.3743101e-05
117	0xaa8f605b	-2.5468763e-13
118	0x2e2a32ff	3.869882e-11
119	0x338907d5	6.380984e-08
120	0xa9444dd5	-4.358825e-14
121	0xb16dca48	-3.4603023e-09
122	0x2aeea525	4.2391885e-13
123	0xb908de57	-0.00013052799
124	0x2bb7caeb	1.3059253e-12
125	0xab8bb0f0	-9.925654e-13
126	0x352caf00	6.432965e-07
127	0xae8967e9	-6.248497e-11

exp_avg_sq f4 [128]
0	0x26c4e622	1.366261e-15
1	0x1ef1977c	2.557952e-20
2	0x1e05a3ba	7.074819e-21
3	0x197ee5b7	1.3177883e-23
4	0x36da606c	6.5081313e-06
5	0x2fda96d4	3.976114e-10
6	0x1b9e4693	2.6184515e-22
7	0x1a9540e8	6.172982e-23
8	0x35a7cd51	1.2502225e-06
9	0x1d818673	3.4285033e-21
10	0x2a599c1c	1.9327633e-13
11	0x1c80ced0	8.523789e-22
12	0x1b563311	1.7718166e-22
13	0x1df04415	6.3597866e-21
14	0x1b186719	1.2606458e-22
15	0x2398c2d5	1.6562388e-17
16	0x1feebd87	1.0111047e-19
17	0x1d41a7fa	2.563018e-21
18	0x2ce73c05	6.5720784e-12
19	0x1e564f36	1.1345446e-20
20	0x1eca767c	2.1436586e-20
21	0x1d9e79f0	4.1948332e-21
22	0x1c482b60	6.623051e-22
23	0x1b268e09	1.3777092e-22
24	0x222a24ab	2.3058708e-18
25	0x1a104d5e	2.9841e-23
26	0x1e80d08c	1.363878e-20
27	0x2d578d7b	1.225275e-11
28	0x1b6c15da	1.9528523e-22
29	0x1eda4d9c	2.3113746e-20
30	0x1d0c5840	1.857447e-21
31	0x1a0636e0	2.7754878e-23
32	0x34070b9b	1.2577077e-07
33	0x1cfc81a7	1.6709475e-21
34	0x34dacb3a	4.075353e-07
35	0x334b39a4	4.7317045e-08
36	0x1f6bd510	4.9939427e-20
37	0x1f68018b	4.9129187e-20
38	0x1b63c098	1.883923e-22
39	0x34250e5e	1.5372049e-07
40	0x1d6996f6	3.0915338e-21
41	0x3599626e	1.1428035e-06
42	0x1b677f8d	1.9149086e-22
43	0x2487122e	5.8577715e-17
44	0x1955ce08	1.10534496e-23
45	0x1fe02569	9.492958e-20
46	0x1cfe8015	1.6841418e-21
47	0x34da16a1	4.062213e-07
48	0x1ca18c2a	1.0690318e-21
49	0x162b57e1	1.3841e-25
50	0x352c8d4a	6.4280596e-07
51	0x1bb31074	2.9623699e-22
52	0x1dd28b4c	5.5730567e-21
53	0x1d8e46d6	3.766033e-21
54	0x22a67fdd	4.512977e-18
55	0x3357b74d	5.02253e-08
56	0x1724dd08	5.327024e-25
57	0x30a340d5	1.1878237e-09
58	0x2a9dd8ff	2.8039374e-13
59	0x32cc6e69	2.3798934e-08
60	0x26928362	1.0166396e-15
61	0x3459435d	2.0234206e-07
62	0x33c97c06	9.3823516e-08
63	0x1da741c4	4.427253e-21
64	0x2a475957	1.7705747e-13
65	0x26c66c27	1.3768325e-15
66	0x1d8ee173	3.7820196e-21
67	0x168bfa07	2.261445e-25
68	0x2e971728	6.8707984e-11
69	0x1ab1403e	7.330927e-23
70	0x2ba1f119	1.1506656e-12
71	0x29c40c31	8.7062634e-14
72	0x249cff62	6.808685e-17
73	0x1cc9b688	1.3348247e-21
74	0x334fb3c5	4.8359443e-08
75	0x1a26febb	3.4533765e-23
76	0x21a4d35b	1.1169018e-18
77	0x3597bb78	1.1304937e-06
78	0x2a282f00	1.4937704e-13
79	0x32d5ead6	2.4903255e-08
80	0x1b9d4e3e	2.6024034e-22
81	0x33f6f728	1.1500225e-07
82	0x2ad7a65f	3.8307115e-13
83	0x33ab59af	7.9791214e-08
84	0x34d5e7b7	3.9842936e-07
85	0x337de3d1	5.911335e-08
86	0x25362704	1.5799203e-16
87	0x2a8a55de	2.4573307e-13
88	0x209f888e	2.7026012e-19
89	0x1fd4ef49	9.0181356e-20
90	0x213028f3	5.9685315e-19
91	0x3506d465	5.0227965e-07
92	0x1bd111b9	3.4587603e-22
93	0x2cbbfae0	5.3427124e-12
94	0x2e1f54f5	3.622787e-11
95	0x34f25e4a	4.5144617e-07
96	0x2d8e1ab7	1.6155395e-11
97	0x348a3faf	2.575084e-07
98	0x1e8b36e3	1.4739898e-20
99	0x205ca516	1.8689347e-19
100	0x3346d13d	4.629077e-08
101	0x1bf8f39a	4.1185582e-22
102	0x1bb4d051	2.9913123e-22
103	0x24cac343	8.793432e-17
104	0x212fc603	5.9554373e-19
105	0x1eaabe75	1.8078221e-20
106	0x1d04b56a	1.7563843e-21
107	0x1c69b537	7.732745e-22
108	0x218f9cc9	9.731558e-19
109	0x2eb770e6	8.341931e-11
110	0x2667e869	8.04592e-16
111	0x338dcd6f	6.603192e-08
112	0x1a56f6b4	4.4453448e-23
113	0x33a15527	7.512636e-08
114	0x3531e304	6.626799e-07
115	0x18c33ddb	5.0468777e-24
116	0x338e5430	6.627704e-08
117	0x2a83b546	2.3396058e-13
118	0x2771e2b9	3.3568375e-15
119	0x33a47e28	7.659793e-08
120	0x189b0815	4.007472e-24
121	0x2f219817	1.4696898e-10
122	0x1d703aaf	3.1794074e-21
123	0x34e598d5	4.2765774e-07
124	0x1cc7fb14	1.3233618e-21
125	0x1dd6d848	5.6868958e-21
126	0x33d3e7be	9.867607e-08
127	0x2f35f890	1.6550161e-10
