results/hideandseek_11/Hide/Hide-7144.onnx (onnx, 167374 bytes, 7 tensors)

network_body._body_endoder.seq_layers.0.weight f4 [128, 186]
00000000: 9503 28bb a628 34bd 6ffd 88be 465d c93d
00000010: bb90 c83d 4ccd b1bc 4fbd e83c 39a7 efbd
00000020: d7c7 82bd 92f0 81bd 6179 ea3c 2163 dcbc
00000030: 4812 443c 651c 0bbc 0514 303d 70a2 8ebd
00000040: 4e54 0cbd d767 c3bd 435b a93d f6b7 013d
00000050: 36ba 913d 64c7 66bd e700 5a3d 984c 64bd
00000060: 53e1 3c3d 1f0f 8dbd cf11 9a3c cbf3 09bd
00000070: b234 d83d faaf d93c 5e23 3bbd 8ad1 7fbd
00000080: 1c9e 2b3d b501 853d 263e ea3d 0416 1e3d
00000090: 1328 aa3c 8a4a b0bd e093 bebc ac82 df3d
000000a0: cd40 3bbd 9e4f 9b3d dc7d 1abe da83 923d
000000b0: 5cbe 3cbd f344 54bc 3fdc 1ebd 5757 423c
000000c0: d38a 1cbc ec5d 19bd c59e 81bc 3c2e 883d
000000d0: 677b 9f3d efba 0c3e a25b b7bd f590 223d
000000e0: b192 a8bb 9d72 9cbd c841 eabb 1b45 963d
000000f0: 2740 2fbd 6ea6 4bbd 9aa1 e03d 0387 683c
00000100: 1227 23be cc12 41be a6f4 95bc 2cff 8abd
00000110: 9b7a c83d 2a00 1fbd 2679 a83c b22f a83d
00000120: dd7f e83d b4b1 8fbd 55cd 96bd da4f 903d
00000130: 7958 103d cf26 fd3b 2e4a 3cbd 62e9 54bd
00000140: 3f70 cd3d e15d 67bc 0cf9 2f3d 21bf eb3b
00000150: cfe0 67bd 27aa 25bc 319c 04bd 35f6 b4bd
00000160: 6f83 f43d 85f5 e43d 76f6 8fbc 1efe 163d
00000170: b7d4 abbd 140f 7d3d de28 bd3d 3289 3fbd
00000180: af6f 4d3c c8e1 9fbd 1e96 943c d504 ef3c
00000190: dd01 99bc de13 64bd da36 5039 7c97 9f3c
000001a0: b5a8 2a3d d4bd d53d a0d3 fa3c f889 e2bb
000001b0: e24a da3c e429 e13d 4844 773d 433e b53d
000001c0: 0b01 153e c3ca 523e 42a0 813d 4068 803c
000001d0: a276 9cbd e4b7 3f3e 2b09 093d 836a 7dbd
000001e0: 0e59 873d d173 013e 0a85 513c 1010 d1bc
000001f0: b68c 1c3d 5acf f0bc 59ce 3a3d a00c 0a3e
00000200: cfed 69bd 307e 33bd ded2 c23d d0ea b6bd
00000210: 416d 113d 0ff5 703e 5211 69bd c2bc 15bc
00000220: e097 90bd b0d2 933d 71d7 d5bb 9dc3 07be
00000230: c795 293d fae6 e9bd 90a7 163d 7a19 6b3c
00000240: 0d1e 843d 7518 00be ae2a 32bc b1d2 f93a
00000250: ff73 5c3c ca78 a33d cc66 863b d42e 6c3d
00000260: 3316 af3c 23f8 66be 7eae 253d bc63 42bd
00000270: 5eaf 483d 7897 d1bb ed20 e13c fcfc a2bc
00000280: fbea 2a3c 14ff 2b3d 63d3 ff3c 4956 eb3c
00000290: e2c4 9f3d c4db 643d 8bc5 c1bc f020 603d
000002a0: 8fd8 e8bd b981 e4ba 02ad 07bd e563 143d
000002b0: 3259 813c eb4b f0bd 76fc 0e3d 9527 43bd
000002c0: e416 133e c4e2 833d e6b1 c1bb 5f42 d43d
000002d0: 11f6 513d 90ad 923d cec6 66bd 7190 50bd
000002e0: e320 a63d e1ac f2ba ef6f d43d 68fb c53c
000002f0: 70bc 3f3d b6ba 803d bd7f d23d 525c c3bd
00000300: e261 2ebe 2f67 bf3d 40dd 873d a01d 51bd
00000310: e747 f43c 8103 80bc 0885 523d 2b34 93bd
00000320: fca8 e0bc 298f 45be efbb e83a 797a 9c3c
00000330: a1f9 9bbd 55bb 943d 6048 be3c dc96 013d
00000340: 7de7 48bd 37b3 acbd 9856 873d f2cd 603d
00000350: 0bba 79bd 0397 37bc 7e19 4ebc f8fa 233d
00000360: 96e1 0e3e 6442 4a3a 74b4 163d 887e 4f3d
00000370: d0b4 34bd 63d5 64be 7139 563d 1df2 f93d
00000380: bc1a e0bb 9025 d8bd 89e0 c4b9 e95a 873d
00000390: c7ae 313d 2176 293d 2ba2 493c 1604 b0bd
000003a0: 758b 14bd 99a9 86bc a2e7 1f3d b0df 76bd
000003b0: 3f38 d83c b5b8 81bd 8442 e93d 2e41 f03c
000003c0: 5402 87ba e841 90bd dcb7 333d 825f 1b3e
000003d0: 5a81 18bc 0adf 45bd 1c37 083c d358 833d
000003e0: 8f2f 093d 545d cf3b 25c3 aebb 3a2d c1bd
000003f0: bb07 b2bd 49ae debd 7457 85bd 2728 bd3d
-0.00256369 -0.043984078 -0.26755854 0.098322436 0.0979323 -0.021704338 0.028410582 -0.11701817
-0.06385773 -0.06344713 0.028622331 -0.026902737 0.011967249 -0.0084906565 0.042987842 -0.06964576
-0.034260087 -0.0954129 0.0826936 0.03166958 0.07115595 -0.056342497 0.053223517 -0.055737108
0.046113323 -0.0688765 0.01880732 -0.033679765 0.10556926 0.02657317 -0.045688026 -0.06245569
0.04189883 0.06494466 0.11437635 0.038595214 0.020771062 -0.08607967 -0.023263872 0.109135956
-0.045716096 0.07583545 -0.15087074 0.07154055 -0.04607998 -0.012955892 -0.03878426 0.011861644
-0.009554583 -0.037443087 -0.015822778 0.066494435 0.07787209 0.13743185 -0.089530244 0.039689023
-0.00514444 -0.07639048 -0.007148955 0.073373996 -0.04278579 -0.049719267 0.10968323 0.014192346
-0.15932873 -0.18854827 -0.018305134 -0.067869514 0.0978901 -0.038818516 0.02056558 0.08212222
0.11352513 -0.07016316 -0.07363383 0.070464805 0.035240624 0.0077255736 -0.04596918 -0.051980384
0.10031175 -0.014121504 0.04296212 0.007194415 -0.05661088 -0.010111368 -0.03237552 -0.08836023
0.119391315 0.11179642 -0.017573576 0.03686344 -0.083901815 0.061781958 0.092363104 -0.0467617
0.0125388345 -0.07806736 0.018137988 0.029177109 -0.018677646 -0.05568301 0.0001985686 0.019481413
0.041664798 0.104365975 0.030618489 -0.00691342 0.026647035 0.10994318 0.060367852 0.08849766
0.14551179 0.2058516 0.06329395 0.01567471 -0.07639815 0.18722492 0.03345601 -0.061869156
0.06608783 0.12641837 0.012788067 -0.025520355 0.03822013 -0.029395748 0.045606945 0.13481379
-0.057111558 -0.043821514 0.09512876 -0.08931506 0.035504583 0.23530982 -0.056901284 -0.009139242
-0.07060218 0.0721792 -0.0065259268 -0.13258214 0.041402604 -0.114210084 0.036780894 0.014349336
0.06451044 -0.1250933 -0.010874433 0.0019059983 0.01345539 0.07982023 0.00410161 0.057661846
0.02137289 -0.22555594 0.04044961 -0.047458395 0.04899537 -0.0063962303 0.02748152 -0.019896023
0.010432 0.04199131 0.031228727 0.028727667 0.07801224 0.055873647 -0.023653766 0.05471891
-0.1136943 -0.001743368 -0.033123977 0.03622808 0.015789602 -0.1173323 0.034908734 -0.04764517
0.14364201 0.064397365 -0.0059110997 0.10364222 0.051260058 0.07162011 -0.05634194 -0.050919
0.081117414 -0.0018514657 0.10372912 0.024167731 0.046810567 0.06285612 0.102782704 -0.09539093
-0.17029527 0.093458526 0.06633997 -0.051053643 0.029819442 -0.01562667 0.0513964 -0.071876846
-0.027424328 -0.19292893 0.0017756204 0.019101368 -0.07615972 0.07262293 0.02322787 0.03163801
-0.04904889 -0.0843262 0.06608313 0.054883905 -0.06096844 -0.011205438 -0.01257932 0.040034264
0.13953242 0.00077155815 0.036793187 0.05065778 -0.04411775 -0.22347026 0.052300874 0.122043826
-0.0068391245 -0.105540395 -0.00037551325 0.066091366 0.04337957 0.041372422 0.01230673 -0.08594529
-0.03626581 -0.016438292 0.03903926 -0.06027192 0.026394008 -0.06334058 0.1138964 0.029327955
-0.0010300376 -0.070438206 0.043876514 0.15173152 -0.009308184 -0.04830841 0.00831392 0.06413426
0.03349262 0.0063282643 -0.0053333216 -0.094324544 -0.08692881 -0.10873086 -0.06510821 0.09236174

network_body._body_endoder.seq_layers.0.bias f4 [128]
00000000: a7ec 57bc cc9a bbbb 3384 15bc eab8 2dbc
00000010: f185 293c 4019 83bc 4942 91bb 86de 3039
00000020: 6164 b2bb 4845 9cbc 686b 84bc d720 cabb
00000030: d7fe 5dbc 1078 45bc 99f6 1fbc 465f d8ba
00000040: 3b6d 18bc c379 04bc 17e1 eebb 44d3 7ebb
00000050: dd7d 40bc d604 d1bb fec1 89bb a7a1 a9bc
00000060: 9408 0bbc 70e5 06bc 81ae 05bc 5343 79bb
00000070: 3cde adbb 816a 8dbb 5def 813b 1869 18bb
00000080: 1d10 36bc 9bc4 05bb 8ffe 54bc 04dd 9c3b
00000090: 52ec 21bc aa5b 6aba e3de 2abc 9e79 48ba
000000a0: 2a68 92bb 931c 16bc 4b55 a6bc 4d20 f43b
000000b0: 1b2c 4339 76cf f63b ee6a f7bb f258 8dbb
000000c0: 7c11 80bc 861f 89bb adfb 76bb 2974 d3ba
000000d0: f74a debb 931b 53bb 70a0 ccbb 846b b4ba
000000e0: 7434 2dbc 9505 45bc 9e27 16bc 436c 60bb
000000f0: cb18 b2bb 69e1 ddbb 186a 0ebb 314c 823a
00000100: 787b 23bb e6be f83b 2436 42bc d80a c1ba
00000110: 9465 2cbc 33c3 91ba 6504 d0bc 9a2f 83bb
00000120: a79e 32ba c756 003b b4b7 05bb 0d30 d9bb
00000130: e786 e3bb b0d1 2ebb f629 b8bb a2da 3cbc
00000140: 2371 6bbc 4183 9cbb 75c8 52ba 7bba 8cbc
00000150: f408 1ebb fb81 6538 4a9a 05bc 63e6 53bb
00000160: af37 a8bb 429e 41bc cc1b 883a 5010 68bc
00000170: 7fad 8cba d5bf b1bb be53 9aba a844 77bc
00000180: 0f63 86bb e115 96bb 764d f4bb b7de d9ba
00000190: 9f78 a3bc 3d17 3abc b4bc 91bb 3815 1cbc
000001a0: 9dac c2bb 2665 41bc 2d14 27ba 6715 9dbb
000001b0: fd9b 1dba ee31 39bc 8056 bebb a05a 883a
000001c0: 5576 98bb cb87 51bc 7e64 eeba eb53 2abc
000001d0: 4a41 b83b 2648 4abc 3688 19bb 24f4 94bb
000001e0: c214 b8ba e51b 83bc 7056 2f3b 1992 3dbc
000001f0: 1eaa 66bb 08e6 25bc a556 91bc f33f 9dbc
-0.013178981 -0.0057252403 -0.009125757 -0.010603169 0.0103468755 -0.016003251 -0.0044329506 0.00016867564
-0.005444095 -0.019076005 -0.016164497 -0.0061684656 -0.013549528 -0.012052551 -0.009763383 -0.0016507886
-0.009303386 -0.008085671 -0.0072900164 -0.0038883248 -0.011748758 -0.0063787503 -0.004204034 -0.020706965
-0.008485932 -0.008233413 -0.008159281 -0.0038034513 -0.0053060334 -0.004315675 0.003965302 -0.0023256
-0.01111224 -0.0020411375 -0.013000145 0.0047870893 -0.009883003 -0.00089400506 -0.010429117 -0.0007647517
-0.0044679837 -0.009162086 -0.020304343 0.0074501396 0.0001861308 0.0075320555 -0.007550589 -0.0043135816
-0.015633337 -0.004184666 -0.0037686632 -0.0016132641 -0.006783839 -0.003221248 -0.0062447116 -0.0013764952
-0.010571588 -0.012025257 -0.009164719 -0.0034244217 -0.0054350845 -0.0067712558 -0.0021730717 0.000994092
-0.002494542 0.0075911162 -0.011853728 -0.0014727963 -0.010522265 -0.0011120796 -0.02539272 -0.0040034773
-0.0006813802 0.0019582973 -0.0020403685 -0.0066280426 -0.006943572 -0.0026675276 -0.0056202365 -0.0115267355
-0.014370236 -0.004776389 -0.00080407347 -0.017178765 -0.0024114223 5.471891e-05 -0.008154461 -0.0032333366
-0.005133591 -0.011817517 0.0010384261 -0.014164045 -0.0010732858 -0.0054244795 -0.0011774225 -0.0150920525
-0.004101164 -0.004580245 -0.007455523 -0.001662216 -0.019954978 -0.0113580795 -0.004447544 -0.009526543
-0.0059409873 -0.011803901 -0.0006373551 -0.004793811 -0.0006012319 -0.011303408 -0.0058086514 0.0010402985
-0.004652778 -0.012788723 -0.0018187908 -0.010395984 0.0056230174 -0.012346303 -0.0023427135 -0.0045457054
-0.0014044272 -0.016004512 0.0026754402 -0.011570477 -0.0035196613 -0.0101256445 -0.01774151 -0.019195532

network_body._body_endoder.seq_layers.2.weight f4 [128, 128]
00000000: becb 07be 5488 313d a680 60bd 2925 05bb
00000010: 9a56 943d df30 24be 9f94 efbd 24e8 3fbd
00000020: e0eb aa3c 1c79 26be b6ee 64be 5948 0dbd
00000030: 765d 3cbe acc4 e9ba 356f 433d 535e 3b3d
00000040: e369 99bd 627f 99bd cd34 1c3e 7600 283d
00000050: 104e 15bb 6b84 8d3d 6f46 b73d 776f 153e
00000060: 0beb e4bd fa46 64ba 0dca 063c fc66 a4bd
00000070: 8a2e 303e 5e7f 86bd a4bf b93d 2045 3f3d
00000080: f59d 313e cdd9 1d3b 9178 263d 87ce 57bd
00000090: ca17 963d d056 a4bd ceef bcbc 84f4 c1bc
000000a0: bdfe ba3d af18 1a3e ba77 4cbd 2ec8 243d
000000b0: e476 753b ce29 d3bd d8e5 2b3d ff85 f6bd
000000c0: 16fa dd3c de33 8ebd ccde 0ebd b56c 2cbd
000000d0: 9aef 20bd 8cd5 f3bd 8913 bbbd a925 5dbe
000000e0: 9f0a 47bd 87c5 85bd 057e 3fbe 2ef3 bcbd
000000f0: d00b 923d 6a1c 0b3c a73e 5c3d a385 c2bc
00000100: a2ca 60bd 8afb 563c d60a a73d e1b5 603d
00000110: f392 b1bc 8d22 903d b25d c5bc 30a1 b13c
00000120: 1232 0b3e 172c 33bd 84f4 013c ba05 05be
00000130: 8a9f 89bd 0bd6 a33d bd37 fabd 27e6 e2bd
00000140: e1e8 483b 1d08 c9bd d4f6 913c bf6a 443c
00000150: e168 ba3c 137d f3bd a81f 05be 4d5c d2bd
00000160: 55d6 8dbd 5491 503d 3464 6e3c b865 c7bd
00000170: cc3c b83d 53c9 44ba 0af5 87bd 27e3 97bd
00000180: 7095 06bd 50b9 3c3c 5cfc fd3c bb6e fa3d
00000190: 3d7f 883c 2e29 21bc faa7 9b3d c2b4 3abd
000001a0: 4cec c83c 3e21 f13a cc13 943c cb11 fe3d
000001b0: 3ef7 99ba 84b9 f0bd a4c5 c8bd ada3 a5bd
000001c0: 59f1 db3d 5c37 733e 39a9 56ba 9e94 0e3e
000001d0: 324e 993d 9e93 873d dcbd 443e 8c15 813c
000001e0: 0d76 ef3d e546 f1bd a2ed 013e c366 17bc
000001f0: 620c 4a3d fb4b aebd c42c ef3d 86f9 36bd
00000200: a72d d3bc 4712 3cbe bdfe 9c3d 7ed2 debd
00000210: dd55 56bd 5a59 023e e3f9 a73c aea4 3fbc
00000220: a0ab 093e 215f 8fbd caf3 18bd 0da0 53bc
00000230: 9255 efbd 577b f13c f490 9dbe db88 2fbe
00000240: 9c40 0d3d 384f 2cbd e466 363c a8af 9cbd
00000250: 21fd 3dbe fcdd a9bd e65f cb3d 4dd5 94bd
00000260: 384f 00be 5924 513d 1909 733d 6062 c4bc
00000270: 6768 9cbd c2de d13d d4ae 83bd 0755 c9bd
00000280: a649 503d 7704 763c cf8f 783d c90b cc3c
00000290: 72f2 d1bc 904d 213d 6428 c3bb 45ac e8bc
000002a0: 0026 953d 05b4 8cbd ad82 78bc 29c3 38bd
000002b0: 5643 ddbd a943 65bd 9d6e a63c 9e3f 85bc
000002c0: ce64 7d3b 9eb3 2cbd feea f53d 0156 90bd
000002d0: 68db 35bc aa75 98bd 844a 7abd 1153 2d3c
000002e0: e07d bfbc 296f b2bd b3db 58bc ac2e 4d3d
000002f0: a7a8 1abd 556e cf3c fdbd 92bd 72d7 90bd
00000300: 7e45 7cbd 599e c83d 688e 0d3e 54de 84bc
00000310: 6bed 353d de3c 56bd fd60 63be 434d 01be
00000320: 6f71 a63c 97c7 61bd 3682 a1bd 88c8 b33c
00000330: ed4c 3b3d 9710 863d 972b edbd a257 4b3e
00000340: a95c c9bb e142 31be ef19 b7bd 0c54 293e
00000350: 863a 64be bd23 20bc 45c3 893d e8fc a53c
00000360: 34a7 1bbe 4c3c 8f3d 0471 d43d 6eee 8dbd
00000370: 054f 393d b492 9a3c c37f c6bd 9b1f 0a3d
00000380: ff0c fb3b 965d f3bd a304 48be 9c2b 923c
00000390: 62ab 09be 6d87 20bd 23a9 733e d24b cc3c
000003a0: b8aa cbbd 3c00 883d f130 303b 5104 eabd
000003b0: bb21 8d3d d5b5 3abe f74d df3a ec3d 8d3a
000003c0: 323e 0b3e 80df d1bb 3c03 043e 75e0 153d
000003d0: ede7 843d fb4a 203d b375 c4bd 1412 32be
000003e0: 9a30 f9bd df77 ca3d a5ed 24be 58a3 d9bc
000003f0: c1c2 ecbb a2da 043b f451 9ebd c7da 53be
-0.13261315 0.043342903 -0.05481019 -0.0020316339 0.072430804 -0.16034268 -0.11698269 -0.046852246
0.020864427 -0.16257137 -0.22356686 -0.034492824 -0.18395028 -0.0017835102 0.047713477 0.04574425
-0.074908994 -0.074949995 0.15254517 0.041016065 -0.0022782125 0.06910022 0.08948981 0.14593302
-0.111776434 -0.0008708086 0.008226884 -0.08027455 0.17205253 -0.06567262 0.09069756 0.046696782
0.17345412 0.0024086118 0.040642325 -0.052687194 0.07328756 -0.08024371 -0.023063567 -0.023676164
0.09130619 0.15048479 -0.049918868 0.04022997 0.0037454898 -0.10310708 0.041967243 -0.120372765
0.02709679 -0.06943487 -0.034880444 -0.04209586 -0.039291 -0.11905965 -0.091345854 -0.21596397
-0.048594113 -0.06531816 -0.18700416 -0.0922607 0.07131159 0.008490661 0.053770687 -0.023745364
-0.054880746 0.013121495 0.08156364 0.054860953 -0.021676516 0.0703784 -0.024092529 0.021683306
0.13593319 -0.04374322 0.007931832 -0.12990466 -0.06719883 0.0799981 -0.122176625 -0.11079054
0.0030656385 -0.098160006 0.017817892 0.011988341 0.022755088 -0.118890904 -0.13000357 -0.10271511
-0.06925646 0.050919846 0.0145502575 -0.09736198 0.08995971 -0.0007506806 -0.06638534 -0.07416373
-0.03285736 0.011518791 0.031004123 0.122281514 0.016662234 -0.009836478 0.07600398 -0.04558254
0.024526738 0.0018396748 0.018075846 0.124057375 -0.0011746658 -0.11754134 -0.09803322 -0.08087859
0.10739393 0.23751587 -0.0008188668 0.1392388 0.07485618 0.066199526 0.1921305 0.015757345
0.11692438 -0.117811 0.12688306 -0.009240809 0.049328215 -0.08510586 0.1167846 -0.044671558
-0.025778605 -0.18366347 0.07665775 -0.10879992 -0.05232798 0.12729397 0.020504897 -0.011696978
0.13444376 -0.07000566 -0.03734187 -0.012916577 -0.11686243 0.029477758 -0.30774653 -0.1714205
0.034485444 -0.042067736 0.0111329295 -0.07650691 -0.18553592 -0.08294293 0.099304006 -0.072672464
-0.1253022 0.051060054 0.059334848 -0.02397269 -0.07637101 0.10247566 -0.0642983 -0.09830671
0.050851487 0.015015713 0.06068402 0.024907963 -0.025628302 0.03938061 -0.0059557427 -0.028402457
0.072826385 -0.068702735 -0.015167874 -0.045107994 -0.10803859 -0.05597273 0.020316416 -0.016265687
0.003866482 -0.042163484 0.12007712 -0.07047654 -0.011099674 -0.07444318 -0.06110622 0.010578887
-0.023375452 -0.08712608 -0.013235974 0.050093338 -0.037758496 0.025321165 -0.07165144 -0.07072343
-0.06158971 0.097958274 0.13823855 -0.016219296 0.044415873 -0.05230414 -0.22204967 -0.1262713
0.020317761 -0.055121984 -0.07886164 0.021946207 0.04572766 0.06546133 -0.1158058 0.19857648
-0.006145079 -0.17310669 -0.08940493 0.16535968 -0.2228795 -0.009774146 0.06726698 0.020262197
-0.15200502 0.069939226 0.103731185 -0.069302425 0.045241375 0.018868782 -0.09692337 0.033721548
0.0076614614 -0.118830845 -0.19533019 0.01784306 -0.13444284 -0.039191652 0.2379499 0.024938498
-0.099446714 0.0664067 0.002688464 -0.114266045 0.06891199 -0.18233426 0.0017036785 0.00107759
0.13597944 -0.006404817 0.12891859 0.036591012 0.06489549 0.039134007 -0.09592762 -0.17389709
-0.12167473 0.09886145 -0.16106279 -0.026567146 -0.007225365 0.0020271917 -0.07730475 -0.20688926

network_body._body_endoder.seq_layers.2.bias f4 [128]
00000000: c6d0 49bc 45de 30bc 2b73 263b 51c6 f6bb
00000010: a486 f5ba 5dec 8abb 7352 c0bb 1295 e7bb
00000020: d704 91bb ecce babb 0b1a 92bb 3ec0 15bc
00000030: 7dd3 67ba 852e 9bbb 3fb3 cabb d7f5 5abc
00000040: c20d 7cbb 780b b7bb 5f69 4cba 258f 55bc
00000050: 2a70 51bb 4ca1 7dbc a13b 87bb 2ecb 8eba
00000060: ac98 9a3a 046a 79bb bef5 61bb cc32 86bc
00000070: 03b8 8abc 4f26 35bc 094b 97bc 3932 75bb
00000080: e281 d5bb 278a 74bb 4c8c 53bb c3a2 c1bb
00000090: 94d8 9ebc 4c94 ebbb f71c 73bc c6da 3fbc
000000a0: c412 debb 4bc4 efbb f888 6dbc e2b1 19bc
000000b0: 396a 3cbc c457 cfba e2a1 93bb d47f 19bc
000000c0: 4258 f1ba a8c9 dcbb dd7a 4cbb 3b83 88bb
000000d0: 3287 5dbb f6f2 93bc 2084 0cbb ba52 a5bb
000000e0: d81b 2dbc 1d6f 08bc 2a1b 3dbc 90a1 9d3a
000000f0: b1a2 93bb c947 b2bb cfc2 b73b 8845 41ba
00000100: 1c08 2c38 33fd 8cbb fdc4 8dbb 3829 dcbb
00000110: 7310 95bb aecb 25bc d07f 03bc e61b 24bc
00000120: 920f c6bb b445 bbbc 9089 9ebb 0d3e 3dbc
00000130: 8455 c4bc 0cd8 61bb 8610 61bc f1f2 adbb
00000140: 6671 e4bc ea72 61bc 63db 08bc 982d 9abc
00000150: 3045 99bb 328d d6bb 3893 8abb 37af d6bb
00000160: 603b b7bb eeae 1bbc f1b6 80bb 193e c6bb
00000170: 78ba 71bb edf3 56bc 0fae f2bb b36b 1fbc
00000180: 4948 dfbb c636 9cbb 3ed2 61bb 7715 a6bb
00000190: 9e4b 08bc 918f 55bc 388b 183c 1e92 67bc
000001a0: 3989 f6bb 7317 38bc c76b f2bb 9310 30bb
000001b0: de7c 3fbc ea7e 0ebc cd76 95bc d6b6 54bb
000001c0: 3b8a fabb b543 10bc bc4d 2ebb ad84 97bb
000001d0: 9f62 30bb 6412 30bc f6a8 29bb 65fe 6fbc
000001e0: 93f0 2ebc 7c4f fdbb 584c 3cbc 4ed5 96bb
000001f0: 70db 17bc a44d a3bb 2beb d6b9 d2f7 86bc
-0.012317842 -0.010795181 0.0025398235 -0.0075309654 -0.0018732143 -0.0042396025 -0.0058692037 -0.007067331
-0.004425626 -0.0057009365 -0.004458671 -0.009140072 -0.0008843465 -0.00473577 -0.0061859186 -0.013364277
-0.0038460349 -0.005586084 -0.0007797684 -0.013034617 -0.0031957724 -0.015480351 -0.0041269814 -0.0010894292
0.0011794767 -0.0038057575 -0.003447875 -0.016381644 -0.016933447 -0.011056497 -0.018468397 -0.0037413968
-0.0065157274 -0.003731379 -0.0032279668 -0.0059092953 -0.019390382 -0.007189309 -0.014838449 -0.0117098745
-0.0067771394 -0.007317101 -0.014497988 -0.0093807895 -0.011499935 -0.0015819003 -0.004505382 -0.0093688555
-0.0018413144 -0.0067379065 -0.0031201162 -0.0041660345 -0.0033802507 -0.018060189 -0.0021441057 -0.005045262
-0.0105657205 -0.008327273 -0.011542121 0.0012026299 -0.0045054783 -0.0054406864 0.00560794 -0.00073727267
4.1015548e-05 -0.0043026446 -0.0043264613 -0.006718781 -0.00454908 -0.010119362 -0.008026078 -0.010016417
-0.0060443366 -0.022860385 -0.004838176 -0.011550439 -0.023966558 -0.003446105 -0.01373685 -0.005308502
-0.027886104 -0.013760308 -0.008353087 -0.018820569 -0.0046774372 -0.0065475935 -0.0042289756 -0.006551649
-0.005591795 -0.009502156 -0.0039280583 -0.006049883 -0.0036884826 -0.01311968 -0.0074060033 -0.009730267
-0.006814037 -0.0047672717 -0.003445759 -0.005068477 -0.00831881 -0.013034717 0.009310536 -0.014133958
-0.0075236824 -0.0112360595 -0.007398102 -0.0026865348 -0.0116874855 -0.008697251 -0.018245125 -0.0032457612
-0.007645873 -0.008805205 -0.0026596626 -0.0046239705 -0.0026914252 -0.010746572 -0.0025888062 -0.014648055
-0.010677475 -0.0077304225 -0.011492811 -0.0046030646 -0.009268627 -0.0049836207 -0.00040992475 -0.016475592

action_model._continuous_distribution.log_sigma f4 [1, 2]
00000000: 3cd6 c23b 2a94 5abd
0.005945949 -0.053363957

action_model._continuous_distribution.mu.weight f4 [2, 128]
00000000: 6492 053d d36b 433c 4be3 05ba 76fc a93a
00000010: 7bf6 6fbc 560c 23bd 6fe2 8e3c 2c2f a2bb
00000020: 0aba 973c b7ae d83c c9e3 1bbc 8cc2 e23a
00000030: dd71 b3ba c515 8d3b 8d59 093a 7e2e 0f3b
00000040: 50dd 153c 5803 06ba 8068 0c3d e0dd 88bc
00000050: f202 d8bc 463e 57bc b97e aabb 9400 a43c
00000060: 0039 113d 115e 26bc 8aad 76bc 6585 34bc
00000070: 1ff9 643a 9271 ff3a 4313 3aba c9b7 0cbc
00000080: c204 51bc 5ec7 77bb 2e96 d8bc b73c 873c
00000090: aa86 28bb d255 1dbc 4ea9 b13b 094a e63a
000000a0: 875d bcbb 320e 88bb bd8c 84bc d656 0a3c
000000b0: 03de fe3b 7260 a6bc bea4 35ba 6f30 1a3c
000000c0: a521 7cbc 14b9 8dbb 51e5 703b e28c 7bbc
000000d0: 30cd f3bc a318 a7bb 4273 193c 0804 ac3c
000000e0: d980 21bc 5ac9 c03c 97ad e636 21c3 6abd
000000f0: 813e aabc bc6a 0e3d f60d 91bc 89b5 fb3c
00000100: 1c92 c2bc 4ce1 52bc a11e 74bc 0bd2 bc3b
00000110: 46d2 17bc f522 56bb db42 0abb dfc0 6a3b
00000120: f8fd 253c 4cae 363b 0334 04bd 6b92 753c
00000130: c198 b43b 5bb7 363c 664e aabb 9127 2bbb
00000140: ee5f 9fb9 b273 c7bb b768 9dbc 198c ceb9
00000150: cc09 323d c57f 27bb 395f ae3a bd50 593a
00000160: de0d c0bc 2eab 88bc 4e3f d7bb 616d afbc
00000170: 5199 e33c eae5 9bbb a224 4ebc 9b7b 19bd
00000180: ac18 643c 9cb4 7e3c c692 4b3b d00c 4ebb
00000190: e5ab 17bb e646 51b9 02e4 07bd a48b 2dbb
000001a0: 039c 313c bbef a83b 5c93 34bc 564f efbc
000001b0: 6057 0f3c e99a 9bbc b114 debb d6fa bfbc
000001c0: ac93 423c b239 28bd 5b02 7abc a0ed 89bb
000001d0: bb3a 21bd 53d9 8bbc f8bf e23b c7d9 933b
000001e0: bceb 0d3c f65c e1bb f447 71bb 5394 19bc
000001f0: d9ff aaba 878c 333c 121e aabc 1132 6c3c
00000200: 9704 6a3a bc51 b2bc 3230 e83c 0a31 31bb
00000210: e9b4 2dbc cf8a d7bc 951b 10bc 60a1 b93b
00000220: 00b7 343a 7098 8cbc 99f5 30bc b429 9f3b
00000230: 651b d1bc 8ca6 a03b 391d 093c 1eef e3ba
00000240: 6f67 033d a1b3 1cb9 5345 2fbb 4a25 a0bc
00000250: f0d1 bbbc 5842 19bc e901 32bc 8195 e9bc
00000260: b15d 283c 483b 40bb 625c 2cbc cc75 c23c
00000270: 5f9f b8ba 046c 073a d87b 5ab9 c68f 2abc
00000280: 1ac9 203c b8cc 133c ddf8 5bbc 001a 703b
00000290: 5255 9fbb 3963 173c c9f4 963a 1d59 2c39
000002a0: c3e4 64bc 24b3 eabb 462b f3bb 6d42 863c
000002b0: 55e2 75bc 74c8 96bc e7f6 ec3c 7bc9 893c
000002c0: 227d 85bc 21b8 8f3b 82fb 5b3c 9278 0e3d
000002d0: 6c09 78bc 2e4c eaba 5ec1 91bc a9dd 423c
000002e0: f9f7 ab3a 2423 3d3c 81f3 a0bb faf6 07bd
000002f0: 0508 f3bb 6f9e 6b3c ac41 003c b834 34bc
00000300: 47d1 95bc 764f f7b9 f80c 2dbc e1e4 53bc
00000310: 8501 953c 535b e839 6298 29bb 2074 1b3c
00000320: 2bba f93c 50a6 44ba 9aea 543b 4738 b0bc
00000330: e069 0e3c 464d 76bc 2e31 d8ba 5455 46bb
00000340: e0c9 6f3a 7061 5cba b82d ae3b 2434 32ba
00000350: 8455 223b 9894 c8bb 528f 40bc 76f1 47bc
00000360: 485c eb3c 5efa 6a3a 005f d0ba c6cc 9bbb
00000370: cb62 38bc 82d5 48bc 491c 873b e6a7 67bc
00000380: 58ba d13c 02bb 533c c4b1 17b7 185c 1cbc
00000390: ef32 8d3a e44a 083a eee5 35bc f0bc 31ba
000003a0: 83ca 61bc 69eb 5b39 ace4 053c 642b 80bb
000003b0: 857f f1b8 1fb6 063c 604e 71b9 e4f1 b03c
000003c0: b6d1 e53b 5c2a 37bb 8056 11bd e400 29bc
000003d0: ab18 433b 9ad7 7dbb 5963 8ebc f210 2db9
000003e0: 7142 143b e810 13b8 d512 293b 3c88 cdbc
000003f0: 9c52 273c d3ce 2dbc 3060 b13c b98e 03bc
0.032610312 0.011927563 -0.00051074167 0.0012968916 -0.014646168 -0.039806686 0.017441956 -0.004949471
0.018521328 0.026450498 -0.009514757 0.0017300411 -0.001369055 0.0043055736 0.00052394794 0.002184778
0.009147003 -0.00051121926 0.034279346 -0.01670736 -0.026368592 -0.013137406 -0.005203095 0.020019807
0.03545475 -0.010154263 -0.015056023 -0.011018132 0.00087346317 0.0019488803 -0.0007098207 -0.00858874
-0.012757482 -0.003780804 -0.026438799 0.016508443 -0.0025715032 -0.009602981 0.005421794 0.0017569672
-0.005748454 -0.004152083 -0.01618039 0.008443555 0.0077779307 -0.02030966 -0.00069291505 0.0094109615
-0.015388881 -0.0043250415 0.0036757777 -0.015353413 -0.029760927 -0.0050993725 0.0093658585 0.020998016
-0.00985738 0.023533512 6.8747427e-06 -0.057314996 -0.020781757 0.03476976 -0.017706852 0.030726211
-0.023751311 -0.012871098 -0.014899881 0.0057623438 -0.009266442 -0.0032674645 -0.0021096978 0.0035820527
0.010131352 0.0027874885 -0.032276165 0.014988522 0.0055113737 0.011152114 -0.005197334 -0.0026116113
-0.00030398316 -0.00608679 -0.019214971 -0.00039395763 0.043466374 -0.0025558334 0.0013303525 0.0008289924
-0.023444112 -0.016683187 -0.006568826 -0.02141446 0.027783068 -0.0047576325 -0.012581976 -0.037471395
0.013921898 0.01554599 0.0031062826 -0.0031440742 -0.0023143229 -0.00019958205 -0.03317643 -0.0026480937
0.010840419 0.005155531 -0.011021461 -0.029212635 0.008748859 -0.018994765 -0.006777369 -0.023435038
0.011876028 -0.041070648 -0.015259351 -0.0042092353 -0.03936265 -0.017071402 0.006919857 0.004512045
0.0086621605 -0.006877537 -0.003681657 -0.009373742 -0.0013046219 0.010958797 -0.020766292 0.014416234
0.00089270755 -0.02176749 0.028343294 -0.0027037286 -0.010602214 -0.026311306 -0.008795639 0.0056649894
0.0006893724 -0.017162532 -0.010800743 0.0048572663 -0.025525758 0.0049026664 0.008368784 -0.0017389988
0.032081064 -0.00014944236 -0.0026744201 -0.01954903 -0.022927254 -0.0093541965 -0.010864713 -0.028513672
0.010276244 -0.002933221 -0.010520073 0.02373781 -0.0014085582 0.0005165937 -0.00020836235 -0.010410255
0.009813571 0.009020977 -0.013426033 0.003663659 -0.004862466 0.009239965 0.0011517043 0.00016436396
-0.013970557 -0.0071624685 -0.00742093 0.016389096 -0.015007575 -0.01840613 0.028926326 0.016819706
-0.01629502 0.0043859635 0.013426663 0.034782954 -0.015138965 -0.0017875487 -0.0177924 0.011893668
0.0013120166 0.011544023 -0.0049118404 -0.03319452 -0.0074167275 0.014381035 0.007828157 -0.010998897
-0.018288268 -0.00047170714 -0.010562174 -0.012932987 0.018189201 0.0004431853 -0.002587818 0.009488136
0.03048428 -0.0007501589 0.0032488466 -0.02151121 0.008692235 -0.015033072 -0.0016494149 -0.0030263262
0.0009147208 -0.00084068533 0.0053155087 -0.00067979307 0.002477021 -0.0061212294 -0.01175292 -0.012203565
0.028730527 0.0008963699 -0.0015897453 -0.0047546355 -0.011254023 -0.0122579355 0.004123245 -0.014139151
0.025601551 0.012923004 -9.041691e-06 -0.009543441 0.0010772626 0.0005199148 -0.011102183 -0.0006780168
-0.013781193 0.00020973165 0.008172195 -0.0039114226 -0.00011515528 0.008222132 -0.00023012748 0.021599717
0.007013525 -0.0027948832 -0.035482883 -0.010315154 0.0029769342 -0.0038733245 -0.017381357 -0.00016504878
0.002262261 -3.5063276e-05 0.0025798578 -0.025089376 0.010212567 -0.010608393 0.021652311 -0.008029633

action_model._continuous_distribution.mu.bias f4 [2]
00000000: 34b3 f3ba f141 e8ba
-0.0018592835 -0.0017719847
