results/hideandseek_05/Seek/checkpoint.pt (torch, 890347 bytes, 36 tensors)

network_body._body_endoder.seq_layers.0.weight f4 [128, 152]
00000000: 0ecb c6bd 159f 6cbe ae0a c93b 3b95 54bd
00000010: f846 893b 70bd 343e a73b b5be dacc 2bbd
00000020: 7e3d 56be cfab 7dbe 5993 5a3d ef9d 2cbe
00000030: 7283 15be 63af f2bd a12e 84be b447 81be
00000040: c17b 56be 4d40 a73d 025d a53c 02e5 afbd
00000050: 2a45 f0bd bf3d 30be c377 afbd c015 98bb
00000060: 8b27 80be 5c54 4c3e 4261 20be decd 353d
00000070: ecf0 f9bc 5709 c9bd bcde 54be 62ef e7bd
00000080: 5680 13be 142f 9a3c 4e1f a1be 3eac 423e
00000090: 8d17 2cbe a297 59bc 2701 82bc 2ec9 5fbd
000000a0: 4515 5cbd 4b8c 21be 7427 b33d 2a32 2bbe
000000b0: 1d09 cbbd 1b89 af3d 3442 e0bd 1a54 ab3d
000000c0: 03fc 5dbd 2fb6 12be 1d69 513d 67cd c7bd
000000d0: 5804 abbd a483 303e d08c b4be 7799 9c3d
000000e0: bb5d 56be 45d1 a73d f825 313c 030d 48be
000000f0: 0bee 04be 67ce 2ebe 042a 0c3e 0d91 943d
00000100: 8816 9bbe 70b5 8bbd b7cd 1fbe b00d 18be
00000110: 315f c5bc 57cb 01be f4d3 04bc ea22 75be
00000120: 6f66 4e3e 095c 8dbe 4d83 71be cbfc 23be
00000130: 9d84 5dbe a543 163d 8cfb 943d c5d6 78be
00000140: 2a70 dcbd f6d1 56be c41a cd3c bfcf 753d
00000150: 4b87 31be 19aa f5bd d128 903c 0a0f 283e
00000160: d5f0 b43d d150 49be c83f 8c3d b688 db3c
00000170: 19c8 36bd a1bb 29be 48a4 1cbe 7350 d5bd
00000180: a741 37be 99de f03d a223 973c 2fc6 8dbe
00000190: 787b 41be b5aa 22be 68e5 b83d 0ec0 a83c
000001a0: 275f c3bd 6fce 1cbc e394 46be 632c 00bd
000001b0: 2786 593d 0274 1fbe ba0b 593d e260 f1bd
000001c0: a582 1bbe 350f 073d e568 85bd b754 68bd
000001d0: 5262 87be b0fd 40be 9d95 b2bd 68e1 5fbd
000001e0: 3558 0f3e ef57 22be 3c60 04be 54c9 51bc
000001f0: 1b61 61be d7c9 2c3b 3d1d 00be e2c0 2dbd
00000200: c19f d6bb 184d c6bd 1ed2 333d 26ee 1bbe
00000210: cc65 753d c8fe c33b 517b fc3d 503d 253d
00000220: 0413 39be 7099 4a3e f324 8dbd d678 2f3d
00000230: 6d26 243b 74fa 8abd 1fc1 f83d c546 ef3a
00000240: b759 d4bd 9c61 3bbc fa10 ba3c 0455 c1bd
00000250: d3e4 453e 645f 103d a038 39be bbfa 5dbc
00000260: 1fc4 af3d 7b80 653e 2fd6 5bbe 183f ed3c
00000270: cc27 f6bc 245a 4e3e bf9a 613d 1c08 abbd
00000280: 68b9 2a3c d1b4 cb3c 3138 673d 8a84 693d
00000290: fedd b93c 95f0 f93d 778b b93c 699b 103e
000002a0: 0072 3fbc 1c1d 1c3e fce2 9fbc 619a 303d
000002b0: d370 38bc 13cc cc3d c5b2 73bd 2b49 5abd
000002c0: a8be 003e 33e8 79bd c60e 323d 6589 413e
000002d0: 7c84 21bd 1fb4 523d d12a 753d 139a 0dbe
000002e0: f68b fcbd 9445 113e b90b 1f3d a090 01bd
000002f0: d2a7 b23b 7dcc c7bc f8cc a03c 8991 9d3a
00000300: e4b0 3fbc 409c 8fbc 6139 62be 052d 7f3d
00000310: 30ee 05bd cc88 c63d 6272 2d3e b1b7 cb3d
00000320: 9dc7 af3c 896f d9bc 1c7b 64be 05b8 dc3a
00000330: 5c14 833d 674d d7bd 6c01 17bd 06b8 88bc
00000340: e866 903b 9ef0 00bd 8530 7dbd f1f1 c2bd
00000350: af68 d93d a75c eebd 0a33 0c3d 3c71 983c
00000360: 1754 12be 1eb1 8d3d 7844 363d c0f2 fd3d
00000370: 2fff 3abd 26b8 46bd 2252 21be 48d6 13bd
00000380: c278 963d a9f9 3f3d a9d3 c0bc 6e2f 3f3e
00000390: 4f7c 91bd 16c7 07be c103 933b 598d b23d
000003a0: d95e f0bd e02a 703e 6834 713d 53f1 68be
000003b0: c547 d33d ca09 38be ac99 1abc 05c6 013e
000003c0: baaa 0a3e f63f 213d b549 af3d 209a 013e
000003d0: 5c19 08be 2602 4d3c d8df 853d 6ce5 b1bd
000003e0: c7b0 9bbd bbed 213d 854b a4bd 8191 b83b
000003f0: 4f3e 0cbe 5e79 b53c 80f6 a53d c23e ab3a
-0.09706698 -0.2310756 0.0061353063 -0.05190013 0.0041893683 0.1765039 -0.35397074 -0.04194341
-0.20921895 -0.24772571 0.053363178 -0.16857122 -0.14600924 -0.118498586 -0.25816825 -0.25250018
-0.20945646 0.08166561 0.020185951 -0.08588602 -0.11731942 -0.17211054 -0.085677646 -0.0046412647
-0.2503017 0.19954056 -0.15662101 0.044385783 -0.030510388 -0.098162346 -0.20788091 -0.113249555
-0.14404425 0.018821277 -0.31469196 0.19011018 -0.16805859 -0.013280781 -0.01586969 -0.05463522
-0.05373122 -0.15776174 0.087477595 -0.16718355 -0.099138476 0.08571073 -0.10950127 0.083656505
-0.054195415 -0.1432731 0.051125634 -0.09755974 -0.08350438 0.17237717 -0.3526368 0.076464586
-0.20934193 0.08194212 0.010812275 -0.19536214 -0.12981431 -0.17070924 0.13687903 0.07254229
-0.30290627 -0.06821716 -0.15605818 -0.14848971 -0.024093242 -0.12675224 -0.008107174 -0.239391
0.20156263 -0.2760928 -0.23585244 -0.16014402 -0.21632619 0.036685605 0.07274541 -0.24300678
-0.10763581 -0.20978531 0.025037177 0.060012575 -0.17336766 -0.11995334 0.017597588 0.16411987
0.088349976 -0.19659735 0.06848103 0.026798587 -0.04462442 -0.16575481 -0.15297043 -0.10415735
-0.17896138 0.11761207 0.018449608 -0.27690265 -0.18894756 -0.15885432 0.09028131 0.020599391
-0.09539633 -0.009570702 -0.19392733 -0.03129233 0.053106453 -0.15571597 0.0529897 -0.11786057
-0.15186556 0.032973487 -0.06514148 -0.056721415 -0.264422 -0.18846774 -0.08719943 -0.054658324
0.13998492 -0.15853857 -0.12927336 -0.012804348 -0.22009699 0.0026365423 -0.12511154 -0.042420276
-0.006549806 -0.09682673 0.043901555 -0.15227565 0.059911534 0.0059813 0.12328208 0.040341675
-0.1807366 0.19785094 -0.06891813 0.042839848 0.0025047318 -0.067860514 0.1214621 0.0018255344
-0.10368674 -0.011436846 0.022713173 -0.094400436 0.19325571 0.03524722 -0.18088007 -0.013548548
0.08582329 0.22412293 -0.21468423 0.02896075 -0.030048274 0.20151573 0.055079218 -0.08351156
0.010420181 0.024866493 0.056450073 0.057011165 0.022688862 0.122040905 0.02264951 0.14121784
-0.011684895 0.1524548 -0.019517414 0.043115977 -0.011257368 0.099998616 -0.05949666 -0.053292435
0.1257273 -0.061012458 0.04347112 0.18900068 -0.039432988 0.051441308 0.059855286 -0.13828306
-0.12331383 0.14186698 0.03882954 -0.031632066 0.0054521346 -0.0243895 0.019628987 0.0012021522
-0.011699889 -0.01753056 -0.22092201 0.062298793 -0.032697856 0.09694061 0.16938165 0.09947146
0.021457488 -0.026542442 -0.22312587 0.001683951 0.064003676 -0.1051281 -0.03686659 -0.016689312
0.0044067986 -0.03147947 -0.06181385 -0.09518803 0.1061567 -0.11638766 0.034228362 0.018608682
-0.1428989 0.06918548 0.04449889 0.123998165 -0.04565352 -0.04851546 -0.15753987 -0.036093026
0.073472515 0.046868954 -0.023538427 0.18670437 -0.07103788 -0.13259539 0.0044865315 0.08718366
-0.11736841 0.23453856 0.05888787 -0.22748308 0.10316423 -0.17972484 -0.009436052 0.12673195
0.1354169 0.03936764 0.085589804 0.1265645 -0.13290924 0.012512719 0.065368354 -0.08686337
-0.07602077 0.039533358 -0.08022217 0.00563258 -0.13695644 0.022152599 0.08103657 0.0013064968

network_body._body_endoder.seq_layers.0.bias f4 [128]
00000000: df17 26be f4a2 1b3c aa0a f7bd b6d5 7dbe
00000010: 836f 1fbe ba6f 89be 6090 b7bc de50 89bd
00000020: a038 02be ab79 e8bc bd47 89bd 9bf6 933c
00000030: 8eea 55bd 2eca c9bd dffb 8dbe 8223 f7bc
00000040: b2d5 3cbe 7166 ad3d 8459 0dbb 4e94 02bd
00000050: 523e 6e3d f1c9 ebbd 2076 29be 2951 02be
00000060: e3f3 f7b9 b0a6 ffbd 020f 45bd a539 1b3c
00000070: 39c3 463d 5c3e 90be cb9f a4bc 96e0 91bc
00000080: e66f 4fbe b73a f3bc 0a14 003b f06e 1fbe
00000090: a2e5 85bb d1f4 8cbd 73c0 44be 4992 3c3d
000000a0: 6c1f 25bd c109 68bd ea36 84bd 60ab 67bd
000000b0: 9f23 10bb 11c5 acbd 652b 933c eb57 66bd
000000c0: f2e2 733d 125f 92bd c553 e2bd 782d 54bd
000000d0: d7f1 cebd ec4c d9bd 1b73 8dbd c23f 90bd
000000e0: 5e3a 9f3d db64 a7bb bf73 efbb b901 4a3c
000000f0: 58ee 01be d75c dcbd 9dbb 5fbd c05b 8abd
00000100: 06d9 9cbd be55 44bd 1391 6ebd 48ba 67be
00000110: 3b18 26bd 23b1 92bc 862c 11be 066e 0cbe
00000120: 1ca4 56be 3e55 13bc 0106 0ebd 01fe 6ebd
00000130: 3c34 ad3c fdee 0cbe 448d 03be db4b 4bbd
00000140: f6fd 173c 472d af3c 8d90 44bd 2600 7cbd
00000150: 7ca7 9f3d 8d0d 89bd 884e a73c b1ad 2fbd
00000160: f4aa f1bb a2e4 a03c 6f5d 093c e10c 29be
00000170: 2005 84bd a95f e9bc 49ba 89be 6a6f fc3c
00000180: c236 3ebe 9c4e 473c e520 89bc 607a 49be
00000190: c359 7dbd ac55 813d fba6 1a3d 93b4 11be
000001a0: 013e 8abe 0440 1abd 15ac 24bd cf32 a8bc
000001b0: ad78 5fbd 3d1d 013d b168 02be d959 8dbd
000001c0: da1a 98be 3800 863d d47f 1bbe a7d9 ffbd
000001d0: 9e24 8abe 0270 e6bd 53b1 89be 36d4 04be
000001e0: 60f6 99bc 558f 07be d762 21be 7d1a 10bd
000001f0: 6eac 9cbd 646c eabd 81ec 5ebd cff3 733d
-0.16220044 0.0094993 -0.12062581 -0.24788556 -0.15569882 -0.26843053 -0.02240771 -0.06704877
-0.12716913 -0.028378328 -0.06703136 0.018061927 -0.052225642 -0.09853016 -0.27731225 -0.030168299
-0.18440893 0.08466805 -0.0021568248 -0.031879716 0.058164902 -0.11513127 -0.16548967 -0.12726273
-0.0004729322 -0.12482965 -0.048110016 0.009474193 0.048526023 -0.28172576 -0.020095726 -0.017807286
-0.2025753 -0.029691083 0.0019543194 -0.15569663 -0.0040862123 -0.068826325 -0.19214039 0.046037946
-0.04031317 -0.056649927 -0.064557865 -0.05655992 -0.0021993888 -0.08436025 0.017965028 -0.05623619
0.059542604 -0.071470395 -0.11051134 -0.051801175 -0.10104721 -0.10610375 -0.0690672 -0.07043411
0.077748045 -0.0051084585 -0.007307499 0.012329512 -0.12688577 -0.10759895 -0.05462228 -0.06755781
-0.076585814 -0.047933333 -0.058243822 -0.22629654 -0.04055045 -0.017906731 -0.1417714 -0.13713846
-0.2096104 -0.008992491 -0.034673695 -0.058347706 0.021143071 -0.13763042 -0.12846857 -0.04963289
0.009276858 0.021383895 -0.047989417 -0.06152358 0.07795617 -0.06692038 0.020423189 -0.042890254
-0.0073751155 0.01964027 0.008384093 -0.16508819 -0.0644629 -0.028487997 -0.26899937 0.030814845
-0.18575576 0.012164738 -0.016739318 -0.19675589 -0.06185318 0.06315169 0.0377569 -0.1422904
-0.2700043 -0.037658706 -0.040203173 -0.02053204 -0.054558445 0.031522024 -0.12735249 -0.06901903
-0.29707986 0.065430105 -0.15185481 -0.12492686 -0.26981062 -0.112518325 -0.268931 -0.12971577
-0.018794239 -0.1323827 -0.1576036 -0.03518151 -0.07650076 -0.11446455 -0.054424766 0.059558686

network_body._body_endoder.seq_layers.2.weight f4 [128, 128]
00000000: 3b11 25be d94b 0b3e 91eb 56bb b2da 083e
00000010: e5f2 0f3e e784 863e a624 9abc 8253 59bd
00000020: ec6b 093d a748 94be 87d7 1e3e 0635 e8bd
00000030: 27f5 afbe 85fb f2bc 0eaf bb3c 2869 4e3b
00000040: 0cf5 4e3e a5cc de3c 4c81 d9bd 23fa 1e3d
00000050: b05d 9abe e6f4 a63b 2d44 3f3d b096 07bd
00000060: 77bb e83c 2a8c 123e ecaa ebbd 12ed 94be
00000070: 1e42 75bd aab3 6d3d 6d4b 86bd acf0 523e
00000080: 6886 62be 2629 9bbe 8862 93be 3d18 2ebe
00000090: 54df 2fbd cbc4 f3bd f0ce 203d 15e1 36be
000000a0: f839 2b3c 4bf4 98bd aeea f03d ec95 873d
000000b0: 5cf2 3cbe 4bf9 a03c ef2a c8bd 450e 06be
000000c0: cdc7 5dbe c13e 41bd d767 e23d cbc6 b0bd
000000d0: b228 1cbe 06a2 d53d 42ee 173e 75e7 c83c
000000e0: 1c01 3fbe 7af3 02bd f7f1 eabd 530f 0fbe
000000f0: 788f 453c f21b 9d3c 583a d6bd b3cb 163e
00000100: 0939 56bd 3cc5 c73c deb9 b8bc d82c 2d3e
00000110: 90f3 b03d 57c8 28be 4a0b 8e3b b808 503e
00000120: 444b 8d3d 951c 4bbe bcc0 873d 4f11 15bd
00000130: cc15 233d 219e 373b 0507 573b e9c1 d4bd
00000140: 108c 15be 5718 0fbe 0dff 9e3c 7236 b7bd
00000150: 0b90 21bc 8704 42bd 758d 9ebd 210b c9be
00000160: 6f01 6abe eae0 ab3d 9341 71bd c7b1 43be
00000170: 28c2 173d ab71 25be 581f 963d c398 a1bd
00000180: 1cd3 f83d 9eea 34bd 03a7 08be 0ed3 3abd
00000190: 92de aebd a946 8bbd b50c d4bd 50a9 8d3b
000001a0: f6b8 afbc 55f8 42bd 15d4 363e 711e a2bd
000001b0: b74e 0c3e 968e bfbd 9a82 e13d 0fb1 46bc
000001c0: 31d2 bf3d ecac 1cbe e639 ec3d 7a10 40bc
000001d0: 2e0e 513e eca0 f53c e0cb 113d c3fe d53b
000001e0: ab5b 013e 1b5f 143e ebd7 dd3c 39f7 0bbe
000001f0: 12d7 57bd 54c6 8bbe ac74 f93d 3c94 06bd
00000200: 123e c5bc 406e 35bd 2127 e13d dfdf bd3d
00000210: 7306 613e d268 f53d ab07 2abc 91b9 b53d
00000220: 4aa7 c73b bec6 83bd c278 1a3d a1b2 edbc
00000230: f3e4 0b3e 01b9 903d 7a05 29bc 098b 61bd
00000240: af1d 2e3d 9973 dfbd fccb abbc 96f9 7c3d
00000250: 6e36 92bd 7566 263e 3166 dcbb 74e1 883c
00000260: 7c63 ddbc d0a8 11be 46a6 d53b 53b7 26be
00000270: 5255 e3bd ac74 ed3c 9466 213c 55b0 44be
00000280: 5f46 1cbe 360d cdbd 1e0a 4cbd 92d1 79bd
00000290: 0aba ccbd 8ce2 f43a a35f 283e 936d d5bd
000002a0: f48f 483e d1b6 153d c06a 753d b097 69bd
000002b0: c94c 793c f7a8 1dbc 96c0 0abe f8f7 10bb
000002c0: 689a c73b d23d c4bc bd62 8f3c 6ffb 8d3d
000002d0: 2cc4 32be ffeb bfbd 1646 bf3b 552e 3c3c
000002e0: 630d aebc 5c99 fb3d ae25 f9bd 53f8 cc3d
000002f0: d3c9 25be dabc 333d 7de9 94be fe5d 4fbe
00000300: 2ab9 4e3c cf62 86bd 0bac 623d 1e6f 38be
00000310: 8158 2d3e 8cca 61bd aba8 f7bd 3a31 a63d
00000320: ffbe 6d3c f038 543d 617a 2abe d396 d4bb
00000330: 432e b5bd 6429 1a3e d43b a9bd c2e1 cf3c
00000340: 0e07 86bd e5dd fdbd 7286 e73c 1137 58bb
00000350: 5b97 10bd 539e 853c 47d5 26be 6d2f 8c3d
00000360: d759 9cbe a37d aabd 6379 c0bc 477e ca3b
00000370: 5fa7 86bc 632d 23bd ab7d 163c 7850 fbbc
00000380: e7e7 ac3d cf41 933e a05d 58bd 3c5c 683d
00000390: d321 5fbe 3e11 a7bd 8830 28bd ad21 843c
000003a0: 967d bf3d 7eb1 e73c 2f97 413e 1b59 68be
000003b0: 93df 9a3d 1191 24be 7d7c 003e 2633 93bd
000003c0: 6664 463e f98c 0dbe de2c 1c3e 1007 eabd
000003d0: b5fe cfbd 151d aebd 5ccf d9bd 9ce5 4c3e
000003e0: e90d ff3d 913b 013e e3f6 4bbe 5b01 e5bd
000003f0: b323 17bd 04cf 39bd 098f 0ebe c9a4 e43a
-0.16119854 0.13603152 -0.0032794217 0.13364676 0.140575 0.2627327 -0.018816303 -0.053058155
0.033550188 -0.2896168 0.15511905 -0.113382384 -0.34366724 -0.02966095 0.022910621 0.0031495783
0.20210665 0.027197191 -0.106203645 0.038812768 -0.30149603 0.005095112 0.046695877 -0.03310269
0.028409703 0.14311281 -0.1150721 -0.2908712 -0.059877507 0.05803267 -0.06557355 0.20599622
-0.22121584 -0.3030483 -0.2878611 -0.17001434 -0.04293759 -0.1190277 0.03925985 -0.178593
0.010450833 -0.0746847 0.117635116 0.06620392 -0.18451828 0.019650122 -0.09773814 -0.13091381
-0.21658249 -0.047178987 0.11054962 -0.08631667 -0.15249899 0.10431294 0.14836982 0.02452443
-0.18652767 -0.03197048 -0.114719324 -0.1397069 0.012058131 0.019178364 -0.10460347 0.14726143
-0.052300487 0.02438604 -0.022549566 0.16911638 0.08640206 -0.16482674 0.004334842 0.20315826
0.068991214 -0.19835122 0.06628558 -0.03639346 0.03981571 0.0028017836 0.003281058 -0.10388548
-0.14604211 -0.13974129 0.019408727 -0.089459315 -0.009861003 -0.0473676 -0.077418245 -0.39266303
-0.2285211 0.08392508 -0.058900427 -0.19110785 0.037050396 -0.16156642 0.07330197 -0.07890465
0.12149641 -0.04416906 -0.1334496 -0.045611434 -0.08538546 -0.06800587 -0.10353986 0.004323162
-0.021450501 -0.04760011 0.1785434 -0.079159625 0.13701902 -0.09353368 0.110112384 -0.012127175
0.09366263 -0.1530034 0.11534481 -0.011722678 0.20415565 0.02998396 0.03559482 0.006530614
0.12632625 0.14489405 0.027080497 -0.13668527 -0.05269534 -0.2729975 0.121804565 -0.03285621
-0.024077449 -0.044294596 0.10993791 0.09271216 0.21975116 0.119828835 -0.010377805 0.088732846
0.0060929405 -0.064343914 0.03771282 -0.029015841 0.13661556 0.07066537 -0.010316247 -0.055064235
0.042508777 -0.109107204 -0.02097129 0.06176146 -0.07139288 0.16250022 -0.0067260494 0.016709067
-0.027024977 -0.14224553 0.0065200655 -0.1628087 -0.11100258 0.028986298 0.009851117 -0.1920789
-0.1526122 -0.100122854 -0.049814336 -0.060990877 -0.09996422 0.0018683239 0.16442733 -0.1042129
0.19586164 0.0365513 0.059916258 -0.057029426 0.015216061 -0.009622804 -0.13550028 -0.0022120457
0.0060914047 -0.02395526 0.017503137 0.06932723 -0.17457646 -0.093711846 0.0058372123 0.011485656
-0.021246618 0.1228511 -0.1216539 0.100083016 -0.16190271 0.043881275 -0.29084387 -0.20250699
0.012617389 -0.06561815 0.055339854 -0.18011138 0.16928293 -0.055124804 -0.12092718 0.08114858
0.014510869 0.051812112 -0.16648246 -0.006487706 -0.08846714 0.15054852 -0.082633644 0.025376204
-0.06544314 -0.12395839 0.02826235 -0.0032991807 -0.035300594 0.016310846 -0.16292296 0.06844983
-0.30537292 -0.083247446 -0.023495382 0.006179604 -0.01643723 -0.039838206 0.009185235 -0.030678019
0.08442669 0.28761145 -0.052823663 0.056728587 -0.21790247 -0.081575856 -0.041061908 0.01612934
0.093501255 0.028282877 0.18905328 -0.22690241 0.07562175 -0.16070963 0.12547489 -0.0718749
0.19374236 -0.13823308 0.1525149 -0.11427128 -0.101560034 -0.08501641 -0.10635254 0.20009464
0.12453825 0.12620379 -0.19918399 -0.11181899 -0.03689928 -0.04536344 -0.13921751 0.0017444129

network_body._body_endoder.seq_layers.2.bias f4 [128]
00000000: 893c 51be a59f d3bd 53f5 08bb 5c81 46bd
00000010: cc0b 3dbd 8d2e b23b 713b 14be 8f18 f4bd
00000020: 4e9e 183c d4e2 e2bd ea3c 37be 2161 2fbe
00000030: 5cc3 53bd e9a1 b2bc 2974 07bb 1377 4ebe
00000040: 6284 83bc 9c9a 9d3a 00a7 67bd c535 a0bd
00000050: 87b1 05be 5ede febd 4040 eebd ea3a cebd
00000060: d68e 21be 4414 e6bd 69fa 79bd 7d02 22bc
00000070: 0a32 b8bd beb8 c6bc 1a93 363c cff4 e8bd
00000080: fa59 30bd e78e 5c3c c80c 5bbd 283d 72bd
00000090: 8070 99bd ca60 78bd 4ac7 9abd 8fdb 3ebd
000000a0: c347 f2bd d115 40bd c617 24be 2d0b 15bd
000000b0: e659 1dbd 26c2 02be 350a 58bd cf11 b03d
000000c0: ec50 ce3c fe96 dbbd fe18 96bd 918f 6a3c
000000d0: 0eb2 24bd a34a b6bc 4035 bfbd 68bb 2fbe
000000e0: e712 fcbd 42b3 18be 8388 08be 5edc 9f3d
000000f0: b5fc 6ebd 3d9f 13be b9fa bfbd d6b3 b0bd
00000100: ef83 88bd d7b4 c7bb 643d a6bd 9748 3f3b
00000110: d852 f4bd 0355 acbd 6f44 e2bd 014b 04be
00000120: f765 56bd d583 89bd 9d59 ebbc 7d10 49bd
00000130: c5a0 883d efa8 f63a 0519 2ebe 96a1 cfbd
00000140: 9d77 3abe 0e02 05bd 3c5c 38be 7896 193c
00000150: 5f2e 9ebd b017 6ebd e5fc a0bd 473f 623d
00000160: 8428 82bd 04bd e0bc 91e9 073b 6042 8fbd
00000170: 416c 09bd a5c4 0dbd ba6b 1abd 2063 c2bd
00000180: 75be 0fbd 5820 173c dd68 053c 9f06 c83b
00000190: 9892 e2ba 1a51 12be a828 3cbe bf45 b7bd
000001a0: 4d10 f3bd 52da 393d 734b 8ebd b7a8 0dbe
000001b0: 37cd 0dbe bc4d d8bc 0765 dcbd d409 47bd
000001c0: b336 c6bd 6069 3ebd da99 12be 5d60 7dbd
000001d0: a937 6dbd fb2c 2dbd 9580 c2bd 2866 f83c
000001e0: 540f 5dbd 9cfd 06be d5b8 b8bd e36e 9cbd
000001f0: bd12 d2bd cb7e f3bb 4d76 24be 63e0 d4bd
-0.20433249 -0.10333184 -0.0020898178 -0.04846321 -0.04615383 0.005437678 -0.144758 -0.11918747
0.0093150865 -0.1107842 -0.1789433 -0.17126895 -0.05169998 -0.02180572 -0.0020668602 -0.2016261
-0.016054336 0.0012024227 -0.056555748 -0.07822756 -0.13056003 -0.12444757 -0.116333485 -0.10069831
-0.15777144 -0.11234334 -0.061029825 -0.009888289 -0.08993919 -0.024258014 0.01114347 -0.113748185
-0.04305456 0.013461805 -0.053478986 -0.059140354 -0.07492161 -0.06063918 -0.075575426 -0.046596106
-0.11830094 -0.046895806 -0.16024694 -0.03638761 -0.038415812 -0.12769374 -0.05274411 0.08597147
0.025185071 -0.10722159 -0.07328986 0.014316455 -0.04020887 -0.022252386 -0.093363285 -0.17161334
-0.12308293 -0.14912131 -0.13333325 0.078057036 -0.05834647 -0.14416213 -0.093739934 -0.08628051
-0.06665789 -0.006094556 -0.08117178 0.0029187554 -0.11929864 -0.08414652 -0.11048209 -0.12919237
-0.052343335 -0.06714598 -0.028729254 -0.04908799 0.06671289 0.0018818657 -0.17001732 -0.10138242
-0.18209691 -0.032472663 -0.18003935 0.009374253 -0.07723688 -0.05812806 -0.07860736 0.055236127
-0.06355384 -0.02743388 0.0020738582 -0.06995082 -0.033550505 -0.034611363 -0.037700392 -0.09491563
-0.035093743 0.00922402 0.008142677 0.006104305 -0.001728612 -0.1428875 -0.18374884 -0.0894885
-0.118683435 0.045374222 -0.069479845 -0.13833891 -0.13847815 -0.026404254 -0.10761457 -0.048593357
-0.09678402 -0.046487212 -0.14316502 -0.061859477 -0.05791441 -0.042279225 -0.09497181 0.03032215
-0.053969696 -0.13182682 -0.09019629 -0.076383375 -0.1025748 -0.0074308864 -0.16060753 -0.10394361

action_model._continuous_distribution.log_sigma f4 [1, 2]
00000000: 63cb 86be b40b 83be
-0.26327047 -0.25594866

action_model._continuous_distribution.mu.weight f4 [2, 128]
00000000: e36e 3dbd 9a66 a43d 63e2 c5bd c4aa 8bbd
00000010: 0b33 c9bc edc8 c93d a697 d7bd dd24 493d
00000020: d755 923d b236 84bd 0ca1 e6bb 1d86 343d
00000030: fd90 fa3c 4dfd 2c3e ede5 2e3e e0aa a1bd
00000040: 34b8 663d b14c 123d 37c6 0fbe 5f03 82bc
00000050: bd71 99bd e410 4abc c675 09bd a2fa 06bd
00000060: 4033 e2bc 3ff1 63bd 99b6 4f3d 8250 b63d
00000070: b2f7 cbbc 0987 c5bd 18d1 38be 3c58 663d
00000080: ab03 cfbd 455e 0ebe 88f9 01be 21d4 8a3c
00000090: bedd 803d ae21 153d ab6e 98bd ecbb 753d
000000a0: 2c64 03be 288f d9bd deea a7bd 0a16 97bd
000000b0: b0b1 20be 1110 afbc 690c 9b3d e00f c33c
000000c0: f5fa 20bd 0f6c 8f3d 2566 48bd bf29 2abe
000000d0: e740 23be e14f 613c b19b 95bd 77fe 353c
000000e0: 1302 e03c e31d 17bd 15e5 213d b420 553d
000000f0: 3407 a8bd d0b2 28bd 5324 03be d80d 98b9
00000100: 4e2b 923d f6da d4b8 0116 023d b5d2 063d
00000110: 2c5e 05bd 1c76 f33d fd8b eb3c d920 493d
00000120: a5d6 20bc fa96 a9bd fc67 29be f6b4 923d
00000130: dadc d6bd ca2b cebd d509 6b3b 7f30 ab3d
00000140: 2acf ab3c 5169 003d b187 283d 97cb 39be
00000150: 29e2 04be ffb1 16be cc74 a13c 871d 75be
00000160: d6e3 2abd c089 3039 21bc ffbd 1b44 a8bc
00000170: 942e 9cbd 514c e5bd a8ba 903d a2c9 f7bd
00000180: 00a5 913c b551 07be 27ff babd ef4b 573d
00000190: 0bae 4bbe c50b 9fbd ab6c cdbc fbbc 163d
000001a0: c5d0 8c3d 0da1 5dbe d90d f8bc e3cc 9e3c
000001b0: 9068 053d 145d 0ebd 97f6 143d 41a3 cdbd
000001c0: bbbf b7bd f421 133d 4e91 863d e7c3 843d
000001d0: dd1c 56bc 3777 a73d 2820 633d 1f29 66bc
000001e0: 4565 d1bc 7627 3abd 2509 b1bd ea2b 623d
000001f0: 472e 8ebd 0c70 1bbe 4b7d e9bb a2d9 98bd
00000200: 3b63 843d 9d86 0dbb 613e 383d 4aa4 10bc
00000210: 3351 233c c56b 473b 8934 6a3d 9a1d 1d3d
00000220: 784a e23d 91f5 e23c 02f1 193c 5160 003c
00000230: 4429 153c 3c17 e43c ede6 85bc c666 5d3d
00000240: 5c9d 073d a602 2f3d 2b0a 803d bcc3 8e3d
00000250: 41a3 503d 2020 703d a378 133d 189b bbb9
00000260: d778 ffba dcf5 423d 5ebe 05bd 45e9 273d
00000270: c661 2f3d 37b1 77bc 6672 793d df74 62bd
00000280: d2af f33c ebcd 643c 4bef 0c3c e72b 3d3d
00000290: 4e0e c1bc 1a04 a43c cdfc 0b3c 76de 683c
000002a0: 7fd3 593d 42ce f83c f056 a03d 981e cebc
000002b0: f5de 253d e352 053d 908d 9e3d 9140 7bbd
000002c0: e6b6 4e3d da41 06bd 2abb 983d 18ad e33c
000002d0: e466 163c 5800 cf3c 13ff ab3c 6d87 713c
000002e0: bd39 d2bc eb6d 333d f246 e5ba d86a 4bbd
000002f0: 4bac e03c 31ee 9d3d 4238 493d c2b8 0f3d
00000300: 9da4 8f3c 95f4 82bd 37f4 22bb 6e77 273c
00000310: b046 6f3d 4004 023d 3b55 24bb 8c44 653d
00000320: 2c70 243d 0106 3d3d 27fe 903d bc8f e33c
00000330: 00e8 493b 8c56 873d de3f 5d3c 2428 3cba
00000340: cfc4 10bc 9075 3ebc b058 683d af00 773c
00000350: f0a5 363d 4cca 1b3d 3052 a63c 0fd7 b93c
00000360: fbd7 8ebb de8c 84bd ddbe 92bb 8e17 113d
00000370: ee41 983c 2bdf 313b fb15 5dbc 72dd 8e3c
00000380: a917 6e3c 769c ac3d 9cda 2a3c f071 b53d
00000390: fef5 ae3d 51e7 273d b839 863d 0d23 5ebd
000003a0: 99da 5a3d ef4f a73d 0b6e 883d 8348 223d
000003b0: f73a 243d 4999 bd3d d14d fe3c c03c 853d
000003c0: f24d 3f3d aa31 acbb 9b98 eaba 4abe 65bc
000003d0: b05b 493d 9382 0a3d 4f1f 34bc 5e03 95bd
000003e0: 1dd0 653d ed97 913d 887b 343d a97d 8c3d
000003f0: a78a 783d 7250 173c e487 413d 8d14 793d
-0.046248328 0.08027382 -0.096623205 -0.0681968 -0.024560472 0.09852777 -0.105269715 0.04910742
0.07145279 -0.06455745 -0.0070382413 0.044073213 0.030586714 0.16893502 0.17079897 -0.0789392
0.056328014 0.03571767 -0.14040457 -0.015870748 -0.07492397 -0.012333129 -0.033559583 -0.032953866
-0.027612329 -0.055649992 0.050711248 0.089020744 -0.024898384 -0.096448965 -0.18048513 0.05623649
-0.101081215 -0.13903148 -0.12692845 0.016946854 0.06292294 0.036409073 -0.07442983 0.05999367
-0.12831181 -0.10623008 -0.08199094 -0.073772505 -0.15692782 -0.021369966 0.075707264 0.02381128
-0.03930183 0.070030324 -0.048925538 -0.16617487 -0.15942727 0.013751955 -0.073050864 0.011108032
0.027344739 -0.036893737 0.03952511 0.05203314 -0.08204499 -0.041186154 -0.12806825 -0.00029002014
0.07137166 -0.000101497324 0.031759266 0.03291579 -0.032560512 0.11887762 0.028753275 0.04910359
-0.0098168 -0.082807496 -0.16543573 0.07163422 -0.10491343 -0.10066946 0.0035864015 0.08358859
0.020972807 0.031350438 0.04114503 -0.1814407 -0.12976898 -0.14716338 0.019709013 -0.23937045
-0.041721188 0.00016835984 -0.124870546 -0.020540288 -0.076260716 -0.11196197 0.07066852 -0.12099005
0.017778873 -0.13214763 -0.09130698 0.05256265 -0.19890611 -0.07765917 -0.025076231 0.03680132
0.06875757 -0.21643467 -0.03028004 0.019384807 0.03257042 -0.034756735 0.03636798 -0.10040904
-0.089721166 0.035921052 0.065706834 0.06482678 -0.013068405 0.08177035 0.05545059 -0.01404789
-0.025560984 -0.04544779 -0.08644322 0.05521766 -0.069424205 -0.15179461 -0.007125532 -0.07463385
0.06464239 -0.0021595128 0.044981364 -0.008828232 0.00996809 0.0030429226 0.057179008 0.03835831
0.1104936 0.027704986 0.00939584 0.007835464 0.009104077 0.02784311 -0.016345466 0.05405309
0.033109054 0.042727135 0.062519394 0.06970927 0.05093694 0.058624387 0.03600372 -0.00035782973
-0.0019490969 0.04759775 -0.03265225 0.040993948 0.042817853 -0.015117935 0.060900114 -0.05528724
0.029746924 0.01396511 0.008601974 0.046184447 -0.023566391 0.020021487 0.008544159 0.014213195
0.053180214 0.030371789 0.07829082 -0.025161073 0.04049583 0.03254975 0.07741845 -0.061340872
0.050467394 -0.032777645 0.07457574 0.027792498 0.0091798045 0.025268719 0.020995652 0.014741761
-0.025662297 0.043805998 -0.0017492457 -0.04966244 0.027425906 0.07711447 0.049125917 0.03508831
0.017534548 -0.063943066 -0.0024864802 0.010221345 0.058417022 0.031742334 -0.0025075215 0.055973575
0.040146038 0.046148304 0.07079726 0.027778499 0.0030808449 0.066083044 0.013503997 -0.0007177612
-0.008835985 -0.011624709 0.056725204 0.015075847 0.044591844 0.038034722 0.020302862 0.022685556
-0.004359243 -0.06472181 -0.004478319 0.035422854 0.018586125 0.0027141075 -0.01349401 0.017439578
0.014532008 0.0842828 0.010428097 0.088596225 0.08543013 0.040992085 0.06553978 -0.054232646
0.053431127 0.08169543 0.06661614 0.039619934 0.040095296 0.092577524 0.031042965 0.06505728
0.046705194 -0.005254944 -0.0017898263 -0.014022419 0.049159706 0.03381593 -0.010993793 -0.07276033
0.056106675 0.07109056 0.04406312 0.06859905 0.060679104 0.009235488 0.047248736 0.060810614

action_model._continuous_distribution.mu.bias f4 [2]
00000000: 9232 c93b 0259 80bd
0.0061400617 -0.06266977

exp_avg f4 [128, 152]
00000000: c986 8227 6b93 1d38 0400 0000 70a0 bd33
00000010: 9236 c833 0e95 a131 30ed 1d38 0400 0080
00000020: acca 70a8 a457 cb32 0400 0080 3cf2 1d38
00000030: 0400 0000 0400 0000 b503 3f33 0400 0000
00000040: 3cf2 1d38 0400 0080 0000 0000 fe9f 0733
00000050: 0400 0000 3cf2 1d38 0400 0080 0000 0000
00000060: 1bec ca32 0400 0000 3cf2 1d38 0400 0000
00000070: 0000 0000 d0ca aa33 0400 0080 3cf2 1d38
00000080: 0400 0000 0000 0000 f4a9 fa32 0400 0000
00000090: 3cf2 1d38 0400 0080 0000 0000 32a5 ef35
000000a0: 0400 0000 3cf2 1d38 0400 0080 0000 0000
000000b0: e926 f735 0400 0000 3cf2 1d38 0400 0000
000000c0: 0000 0000 3b58 f735 0400 0080 3cf2 1d38
000000d0: 0400 0080 0000 0000 44a7 c835 0400 0000
000000e0: 3cf2 1d38 0400 0000 0000 0000 c78f 0836
000000f0: 0400 0080 3cf2 1d38 0400 0080 0000 0000
00000100: 67e6 aa35 0400 0000 3cf2 1d38 0400 0000
00000110: 0000 0000 38d6 2336 0400 0080 4aff 7537
00000120: 0400 0000 d7e4 c037 93b8 eb37 0400 0080
00000130: 3cf2 1d38 0400 0080 0400 0000 570e 3a37
00000140: 0400 0080 cc6c 1c38 cd60 8f25 d8b7 c234
00000150: 417f 8e37 0400 0000 3cf2 1d38 0400 0080
00000160: 0000 0000 8ffc bf36 0400 0080 3cf2 1d38
00000170: 0400 0080 0000 0000 733d 3737 0400 0000
00000180: 3cf2 1d38 0400 0000 0000 0000 0417 8736
00000190: 0400 0080 3cf2 1d38 0400 0000 0000 0000
000001a0: 010f 5a37 0400 0000 3cf2 1d38 0400 0080
000001b0: 0000 0000 b7e0 0336 0400 0080 3cf2 1d38
000001c0: 0400 0080 0000 0000 146f 0836 0400 0000
000001d0: 3cf2 1d38 0400 0080 0000 0000 ed55 0a36
000001e0: 0400 0080 3cf2 1d38 0400 0080 0000 0000
000001f0: 62c8 1736 0000 0000 3cf2 1d38 0400 0080
00000200: 0000 0000 1ada d435 0400 0080 3cf2 1d38
00000210: 0400 0000 0000 0000 f857 3536 0000 0000
00000220: 3cf2 1d38 0400 0080 0000 0000 c3cf ab35
00000230: 7c22 543a 1801 8fb8 0000 0000 3af9 ee3a
00000240: 7a5e b3b8 0000 0000 e823 543a 3aba c8b8
00000250: 0000 0000 48fc ee3a bac6 c8b8 0000 0000
00000260: 2e9d 7bae 78ff d7b9 0400 0000 422a eab4
00000270: 2ae5 0936 b516 1e35 8e89 d8b9 0400 0080
00000280: d8de 7a31 59b0 7b35 0400 0080 043a d8b9
00000290: 0400 0080 0400 0000 38ed 0134 0400 0000
000002a0: 043a d8b9 0400 0080 0000 0000 b030 7ab4
000002b0: 0400 0000 043a d8b9 0400 0000 0000 0000
000002c0: ad71 0635 0400 0000 043a d8b9 0400 0000
000002d0: 0000 0000 3681 9834 0400 0080 043a d8b9
000002e0: 0400 0000 0000 0000 7c06 4035 0400 0000
000002f0: 043a d8b9 0400 0000 0000 0000 b487 9837
00000300: 0400 0000 043a d8b9 0400 0080 0000 0000
00000310: 2ce5 9437 0400 0000 043a d8b9 0400 0000
00000320: 0000 0000 3e6e 9d37 0400 0080 043a d8b9
00000330: 0400 0000 0000 0000 a8c5 edb6 0400 0000
00000340: 043a d8b9 0400 0000 0000 0000 2ad6 ad37
00000350: 0400 0080 043a d8b9 0400 0080 0000 0000
00000360: cedf 2bb7 0400 0000 043a d8b9 0400 0000
00000370: 0000 0000 298e d037 0400 0080 0327 003a
00000380: 0400 0080 0444 6cba 43c9 3fba 0400 0080
00000390: 043a d8b9 0400 0080 0400 0000 42e9 f037
000003a0: 0400 0080 40ee 21ba ab49 11ac 0145 5739
000003b0: b7ec 50b9 0400 0000 043a d8b9 0400 0000
000003c0: 0000 0000 5671 7e37 0400 0080 043a d8b9
000003d0: 0400 0080 0000 0000 e2a8 b3b9 0400 0080
000003e0: 043a d8b9 0400 0000 0000 0000 e69b 3c37
000003f0: 0400 0080 043a d8b9 0400 0000 0000 0000
3.6228383e-15 3.756901e-05 6e-45 8.830182e-08 9.323152e-08 4.7026623e-09 3.7652615e-05 -6e-45
-1.3366624e-14 2.3672165e-08 -6e-45 3.7657315e-05 6e-45 6e-45 4.4474024e-08 6e-45
3.7657315e-05 -6e-45 0.0 3.157765e-08 6e-45 3.7657315e-05 -6e-45 0.0
2.3623263e-08 6e-45 3.7657315e-05 6e-45 0.0 7.953133e-08 -6e-45 3.7657315e-05
6e-45 0.0 2.9181116e-08 6e-45 3.7657315e-05 -6e-45 0.0 1.7854966e-06
6e-45 3.7657315e-05 -6e-45 0.0 1.8414258e-06 6e-45 3.7657315e-05 6e-45
0.0 1.8428613e-06 -6e-45 3.7657315e-05 -6e-45 0.0 1.4949842e-06 6e-45
3.7657315e-05 6e-45 0.0 2.0349269e-06 -6e-45 3.7657315e-05 -6e-45 0.0
1.2733043e-06 6e-45 3.7657315e-05 6e-45 0.0 2.4413584e-06 -6e-45 1.4662577e-05
6e-45 2.2994745e-05 2.8100132e-05 -6e-45 3.7657315e-05 -6e-45 6e-45 1.1089803e-05
-6e-45 3.7294623e-05 2.487214e-16 3.626908e-07 1.6986976e-05 6e-45 3.7657315e-05 -6e-45
0.0 5.7216453e-06 -6e-45 3.7657315e-05 -6e-45 0.0 1.0921957e-05 6e-45
3.7657315e-05 6e-45 0.0 4.025993e-06 -6e-45 3.7657315e-05 6e-45 0.0
1.2997306e-05 6e-45 3.7657315e-05 -6e-45 0.0 1.9651322e-06 -6e-45 3.7657315e-05
-6e-45 0.0 2.0330235e-06 6e-45 3.7657315e-05 -6e-45 0.0 2.0613618e-06
-6e-45 3.7657315e-05 -6e-45 0.0 2.2617392e-06 0.0 3.7657315e-05 -6e-45
0.0 1.5858707e-06 -6e-45 3.7657315e-05 6e-45 0.0 2.7022306e-06 0.0
3.7657315e-05 -6e-45 0.0 1.280096e-06 0.0008092297 -6.818975e-05 0.0 0.0018232234
-8.552983e-05 0.0 0.00080925087 -9.5714306e-05 0.0 0.0018233145 -9.573759e-05 0.0
-5.7210396e-11 -0.00041198335 6e-45 -4.3616643e-07 2.0547982e-06 5.889263e-07 -0.00041301217 -6e-45
3.650646e-09 9.3761406e-07 -6e-45 -0.00041241955 -6e-45 6e-45 1.2100361e-07 6e-45
-0.00041241955 -6e-45 0.0 -2.3300777e-07 6e-45 -0.00041241955 6e-45 0.0
5.008431e-07 6e-45 -0.00041241955 6e-45 0.0 2.840622e-07 -6e-45 -0.00041241955
6e-45 0.0 7.153501e-07 6e-45 -0.00041241955 6e-45 0.0 1.8183004e-05
6e-45 -0.00041241955 -6e-45 0.0 1.7749691e-05 6e-45 -0.00041241955 6e-45
0.0 1.8767194e-05 -6e-45 -0.00041241955 6e-45 0.0 -7.0861606e-06 6e-45
-0.00041241955 6e-45 0.0 2.0722935e-05 -6e-45 -0.00041241955 -6e-45 0.0
-1.0244503e-05 6e-45 -0.00041241955 6e-45 0.0 2.486173e-05 -6e-45 0.00048886257
-6e-45 -0.00090128207 -0.0007316062 -6e-45 -0.00041241955 -6e-45 6e-45 2.8718849e-05
-6e-45 -0.00061771646 -2.0646633e-12 0.00020529704 -0.00019924609 6e-45 -0.00041241955 6e-45
0.0 1.5165968e-05 -6e-45 -0.00041241955 -6e-45 0.0 -0.00034267368 -6e-45
-0.00041241955 6e-45 0.0 1.1241971e-05 -6e-45 -0.00041241955 6e-45 0.0

exp_avg_sq f4 [128, 152]
00000000: e68a 7e1e f8af 8e30 2ed1 1211 edee 122e
00000010: 4c83 222e 9c4a 0a2c b4a4 9230 19c0 b715
00000020: b326 522b 3522 482c 891a ef0e 3835 9330
00000030: 8988 f50f bba8 fc13 3224 252c 5b50 1f0b
00000040: 3835 9330 21ff 2414 0000 0000 1ad7 eb2c
00000050: f3dc 050d 3835 9330 09d9 a60f 0000 0000
00000060: e4a0 8a2b cb6a 8804 3835 9330 4f75 9813
00000070: 0000 0000 8d87 a62c b19a b60d 3835 9330
00000080: 7070 2a0f 0000 0000 282b 322b c815 cd0a
00000090: 3835 9330 f401 0000 0000 0000 6f2a b12c
000000a0: c815 cd0a 3835 9330 0db4 170d 0000 0000
000000b0: 75b6 bc2c c815 cd0a 3835 9330 f401 0000
000000c0: 0000 0000 9dbb bc2c 358b 480d 3835 9330
000000d0: b760 640d 0000 0000 ec22 3e2c c815 cd0a
000000e0: 3835 9330 f401 0000 0000 0000 731f e62c
000000f0: 28f9 fe0d 3835 9330 d47e 4d0e 0000 0000
00000100: abe6 f02b c815 cd0a 3835 9330 f401 0000
00000110: 0000 0000 f99c 252d 92ca 8510 7635 0d30
00000120: 31a4 ea14 2ff5 1b30 7346 2b30 013b 420e
00000130: 3835 9330 90fe 1f16 f401 0000 f985 212f
00000140: e849 0711 c880 8430 67ef 5b1a 64d5 312f
00000150: 24bb c12f 4b9e 050e 3835 9330 cea4 5714
00000160: 0000 0000 d7dd 2d2e 1668 d708 3835 9330
00000170: bcf1 d813 0000 0000 282c b32e d5d1 760d
00000180: 3835 9330 9881 a811 0000 0000 6dcb ad2d
00000190: 7495 0506 3835 9330 5761 9d0b 0000 0000
000001a0: 2e77 a62e f401 0000 3835 9330 ab25 000d
000001b0: 0000 0000 6f7d c02c f401 0000 3835 9330
000001c0: 81cd 160d 0000 0000 fce3 392d f401 0000
000001d0: 3835 9330 7123 870d 0000 0000 9549 802d
000001e0: f401 0000 3835 9330 9bb3 070d 0000 0000
000001f0: 203e 2a2d 0000 0000 3835 9330 03d3 7e11
00000200: 0000 0000 0b75 802d f401 0000 3835 9330
00000210: 915b 330c 0000 0000 5337 de2c 0000 0000
00000220: 3835 9330 da29 8e13 0000 0000 e936 7c2c
00000230: 6965 0135 cd0b b631 0000 0000 eeb8 2336
00000240: 89df bf31 0000 0000 c066 0135 d8d1 bd31
00000250: 0000 0000 c2b7 2336 a19a bb31 0000 0000
00000260: f5da fe2e 450c 3936 7a7a d514 d1b0 5531
00000270: cd3e be31 c73a fe2f 4438 3936 eb0f c01a
00000280: 0936 902f 520e aa30 299a f41a d154 3936
00000290: b616 5713 42d1 bb16 cd64 6330 0d67 1b19
000002a0: d154 3936 e161 e617 0000 0000 5bae a030
000002b0: 8ca5 e81a d154 3936 7eeb 2813 0000 0000
000002c0: e6a3 1730 0d67 1b19 d154 3936 37d9 0718
000002d0: 0000 0000 691d 5630 e069 491b d154 3936
000002e0: a4d9 7613 0000 0000 8431 2330 1d02 e219
000002f0: d154 3936 f401 0000 0000 0000 d1a8 4f32
00000300: 1d02 e219 d154 3936 0fa1 7c11 0000 0000
00000310: 43ed 5c32 1d02 e219 d154 3936 f401 0000
00000320: 0000 0000 da35 5d32 7562 b71a d154 3936
00000330: 1b4c bb10 0000 0000 dc56 f631 1d02 e219
00000340: d154 3936 f401 0000 0000 0000 02d0 8632
00000350: a0ea d01a d154 3936 4c8c 2a13 0000 0000
00000360: cba3 9f31 c4bd e419 d154 3936 f401 0000
00000370: 0000 0000 ce04 c232 65ec 181d 5171 8935
00000380: 60e1 7818 0012 e435 ce42 f635 b928 2c1d
00000390: d154 3936 f964 231a 1bb2 0f05 2032 c334
000003a0: d09a 631a 5a29 1836 1d8c 7f28 db94 1235
000003b0: 5b43 9035 c12a 6f1b d154 3936 346e 0017
000003c0: 0000 0000 4645 d033 27c7 8b1a d154 3936
000003d0: 191f 341f 0000 0000 941b 8634 3c59 311b
000003e0: d154 3936 a854 5b13 0000 0000 21b5 4e33
000003f0: 6f6a 631a d154 3936 9978 f218 0000 0000
1.34753716e-20 1.0381873e-09 1.1581828e-28 3.3408765e-11 3.695115e-11 1.9652396e-12 1.066971e-09 7.421619e-26
7.4660693e-13 2.8440698e-12 5.89436e-30 1.0710783e-09 2.4211457e-29 6.3780124e-27 2.3468003e-12 3.068274e-32
1.0710783e-09 8.330199e-27 0.0 6.702983e-12 4.1249747e-31 1.0710783e-09 1.6452463e-29 0.0
9.850146e-13 3.207152e-36 1.0710783e-09 3.848587e-27 0.0 4.733053e-12 1.1253857e-30 1.0710783e-09
8.403302e-30 0.0 6.3298195e-13 1.9748975e-32 1.0710783e-09 7e-43 0.0 5.0353536e-12
1.9748975e-32 1.0710783e-09 4.6747196e-31 0.0 5.363538e-12 1.9748975e-32 1.0710783e-09 7e-43
0.0 5.3641106e-12 6.1797323e-31 1.0710783e-09 7.037434e-31 0.0 2.702001e-12 1.9748975e-32
1.0710783e-09 7e-43 0.0 6.5404847e-12 1.5713941e-30 1.0710783e-09 2.5329266e-30 0.0
1.7117049e-12 1.9748975e-32 1.0710783e-09 7e-43 0.0 9.414019e-12 5.277136e-29 5.1371474e-10
2.3692724e-26 5.67371e-10 6.230955e-10 2.3940756e-30 1.0710783e-09 1.2924243e-25 7e-43 1.4690461e-10
1.0672396e-28 9.640866e-10 4.5481526e-23 1.6173868e-10 3.5239467e-10 1.6469731e-30 1.0710783e-09 1.0887228e-26
0.0 3.953268e-11 1.2964312e-33 1.0710783e-09 5.4764434e-27 0.0 8.147821e-11 7.605718e-31
1.0710783e-09 2.6585595e-28 0.0 1.9758162e-11 2.512432e-35 1.0710783e-09 6.062066e-32 0.0
7.5699766e-11 7e-43 1.0710783e-09 3.9488386e-31 0.0 5.470894e-12 7e-43 1.0710783e-09
4.6469685e-31 0.0 1.0566655e-11 7e-43 1.0710783e-09 8.32855e-31 0.0 1.4584592e-11
7e-43 1.0710783e-09 4.181628e-31 0.0 9.677176e-12 0.0 1.0710783e-09 2.010209e-28
0.0 1.4603893e-11 7e-43 1.0710783e-09 1.3817213e-31 0.0 6.3157617e-12 0.0
1.0710783e-09 3.588711e-27 0.0 3.5841835e-12 4.8203816e-07 5.2982387e-09 0.0 2.4396536e-06
5.5842446e-09 0.0 4.8205766e-07 5.5244804e-09 0.0 2.4395854e-06 5.4599956e-09 0.0
1.1589477e-10 2.757429e-06 2.1555812e-26 3.1096088e-09 5.5368674e-09 4.6244095e-10 2.75999e-06 7.9435056e-23
2.6231842e-10 1.2373198e-09 1.01165094e-22 2.7616518e-06 2.7148012e-27 3.034354e-25 8.2725365e-10 8.034123e-24
2.7616518e-06 1.488811e-24 0.0 1.1691087e-09 9.6220406e-23 2.7616518e-06 2.1320688e-27 0.0
5.5166394e-10 8.034123e-24 2.7616518e-06 1.7558007e-24 0.0 7.789454e-10 1.666054e-22 2.7616518e-06
3.115687e-27 0.0 5.936942e-10 2.3368706e-23 2.7616518e-06 7e-43 0.0 1.208737e-08
2.3368706e-23 2.7616518e-06 1.9928925e-28 0.0 1.28596325e-08 2.3368706e-23 2.7616518e-06 7e-43
0.0 1.28761375e-08 7.584609e-23 2.7616518e-06 7.3875754e-29 0.0 7.169417e-09 2.3368706e-23
2.7616518e-06 7e-43 0.0 1.5694244e-08 8.640584e-23 2.7616518e-06 2.1526188e-27 0.0
4.64613e-09 2.3651293e-23 2.7616518e-06 7e-43 0.0 2.2586757e-08 2.0239246e-21 1.0240275e-06
3.2167034e-24 1.6992562e-06 1.8347871e-06 2.2785064e-21 2.7616518e-06 3.3789175e-23 6.7565405e-36 3.635805e-07
4.7067556e-23 2.2673835e-06 1.4185726e-14 5.460585e-07 1.0748439e-06 1.9783431e-22 2.7616518e-06 4.1498127e-25
0.0 9.6983555e-08 5.78108e-23 2.7616518e-06 3.8142206e-20 0.0 2.497951e-07 1.466993e-22
2.7616518e-06 2.7683425e-27 0.0 4.812785e-08 4.7028476e-23 2.7616518e-06 6.2677306e-24 0.0

exp_avg f4 [128]
00000000: 3cf2 1d38 043a d8b9 ae6b e538 e4c6 0034
00000010: 7b3f 813a 309a 5733 70eb b839 2a44 bf38
00000020: 82ee 71ba 6abc f5b9 215f 24b7 1d76 c5b7
00000030: a164 22b8 3f50 3ab9 4877 8eb6 ac5d e2ba
00000040: ffec 423a 475d 6039 cbc1 c5b9 8aec 2b3a
00000050: 542e bab9 6efb f639 d47e 06b8 64cd 4e38
00000060: a52c 92b8 468b d138 70b9 0237 0ffb aa37
00000070: 69b5 973a 86e2 afb5 0464 a1b6 c10c 80b9
00000080: 4555 1bb8 c7c3 883a d949 243a 1030 86b6
00000090: a150 f138 9e70 93b9 507a 09b6 1db7 d43a
000000a0: 18ba 2337 eb52 a536 278c 593a 8b61 09b9
000000b0: 5416 4538 57bd f239 2048 3ab9 64ab acb9
000000c0: 500e b93a c8ec dc38 c4b9 353a 8054 e937
000000d0: 0667 ab39 5636 b8b9 c822 3739 e6ca 2bba
000000e0: 2088 023a 7e22 a937 2531 aeb7 e5ef b4b9
000000f0: c495 f5b7 0dd3 10ba 8cb4 3aba 12d8 f337
00000100: f84e 2938 f059 a236 1a67 f1b9 472d 1c37
00000110: 6e56 bf39 0ce8 8fb6 a375 37b8 aee0 3236
00000120: 9c3d 0cb4 bda6 1e37 b3b9 d138 705b 2fb6
00000130: f89b c0b9 55bb 2db7 3559 35b9 26e9 6e36
00000140: a44d 2ebb c041 ff3a d212 4738 d0b5 2f39
00000150: b4bd b73a 14bc 58b9 ae71 77b8 a923 88b6
00000160: d34b aab9 ae33 1038 6448 a2b7 5cc8 1c36
00000170: 76b5 1d3a 4e35 60b7 5b74 5736 56c7 d738
00000180: 103d 60b7 a870 af3a ec71 0036 562a bdb5
00000190: 409f 1937 b765 a6ba a384 0b37 7035 3c34
000001a0: 8c13 08b5 e44c 1139 e48f 593a 6744 00b9
000001b0: 86f9 0b37 5db0 a6b8 0046 6eba 8370 313a
000001c0: b690 4cb5 3c3e 4f3a 0400 3935 2b1c 83b7
000001d0: 6f45 a3b5 c8de a7b8 dead ba34 9a21 8db9
000001e0: 388f 673a 82a6 7fb7 31b1 aa38 0bd1 2bba
000001f0: 82cc acb6 5b03 b837 365c 0fb9 a0e6 2f3a
3.7657315e-05 -0.00041241955 0.00010939628 1.1993285e-07 0.0009860838 5.019882e-08 0.0003527063 9.120286e-05
-0.0009228961 -0.0004687042 -9.797311e-06 -2.353923e-05 -3.8717528e-05 -0.00017768236 -4.245816e-06 -0.0017270348
0.0007435828 0.00021397053 -0.00037719155 0.00065583794 -0.00035511202 0.00047108106 -3.2066207e-05 4.9305512e-05
-6.970138e-05 9.991838e-05 7.791779e-06 2.0382487e-05 0.001157445 -1.3104443e-06 -4.8098173e-06 -0.00024423565
-3.7034293e-05 0.0010434323 0.00062671077 -3.9991064e-06 0.00011506794 -0.0002812193 -2.0485786e-06 0.0016228888
9.758885e-06 4.927036e-06 0.00082987774 -0.00013101676 4.6989255e-05 0.00046298906 -0.00017765211 -0.00032934092
0.0014118645 0.000105345214 0.0006932283 2.7815113e-05 0.0003269242 -0.00035135698 0.00017465197 -0.00065533665
0.00049793907 2.0162432e-05 -2.0765301e-05 -0.0003451101 -2.9276016e-05 -0.0005524613 -0.00071222405 2.9068473e-05
4.0366285e-05 4.8384463e-06 -0.0004604392 9.3088665e-06 0.00036494754 -4.288746e-06 -4.3740158e-05 2.6654848e-06
-1.306093e-07 9.456356e-06 0.00010000486 -2.6130256e-06 -0.000367373 -1.035522e-05 -0.00017294737 3.5600474e-06
-0.002659657 0.0019474551 4.7462825e-05 0.00016757031 0.0014018328 -0.0002066943 -5.899526e-05 -4.0572672e-06
-0.0003248142 3.4380406e-05 -1.9345614e-05 2.3362436e-06 0.00060161145 -1.3363851e-05 3.2105224e-06 0.00010289128
-1.3365658e-05 0.0013385015 1.9139798e-06 -1.4093919e-06 9.156589e-06 -0.0012695108 8.3159275e-06 1.7528305e-07
-5.069239e-07 0.00013856922 0.00082993344 -0.00012232513 8.343142e-06 -7.948347e-05 -0.00090894103 0.000676878
-7.6206504e-07 0.0007905697 6.8917893e-07 -1.5629534e-05 -1.2164654e-06 -8.004677e-05 3.4771705e-07 -0.0002691865
0.0008833292 -1.52379525e-05 8.139236e-05 -0.0006554282 -5.1498073e-06 2.1936072e-05 -0.00013671894 0.0006710086

exp_avg_sq f4 [128]
00000000: 3835 9330 d154 3936 872b 1035 35f2 dc2b
00000010: 4c6a c336 b744 9e2e 5a09 0637 7804 8633
00000020: 5ed2 2535 3976 f035 9d0e a233 47e4 3835
00000030: 067d 3e36 a077 9c33 1c0e 652d f652 0c37
00000040: eca5 2135 5fd8 9136 bc00 d235 7d82 0335
00000050: 0e2d 1d36 9d88 5934 f158 c630 051f b633
00000060: af48 f335 b785 8133 09bd 0d35 77c6 9635
00000070: a764 0937 9e71 852c 41d4 1636 7993 0c35
00000080: 739c 4c31 35e9 9536 55d5 8236 da29 5635
00000090: 348d f634 264d 6135 57f6 8a32 b61f eb36
000000a0: 7676 ba34 6364 b736 23b8 e335 63da 9d35
000000b0: eb2d 7636 5d54 0c37 78e2 8836 34b9 9736
000000c0: 23da 0738 8bfb 2934 582f 2e37 ed95 8b35
000000d0: 1b5f 8835 38bd f134 a8e3 f033 67eb 4235
000000e0: 6373 2e37 0e41 a934 f6e0 eb35 e69e c436
000000f0: ba58 8a31 0383 4235 c8c8 fd35 0e1a 1a34
00000100: 1100 da35 73cb b436 5e01 9634 79c7 a62e
00000110: db0c bd33 46dc 0735 fd56 2d31 fb2e d630
00000120: e13f 9333 1ba1 c734 c081 b136 f8ca 4535
00000130: 7a7f 5535 b1a2 8531 15c1 ab32 a654 9d34
00000140: 9a05 5a37 7292 bb36 dab9 2434 3d0b 5437
00000150: f308 0338 f14c 2237 dbfe 6835 ffe6 9334
00000160: 8f21 7536 7086 9f35 32f6 0f37 5758 6430
00000170: 7f35 a035 3ba4 d335 f949 5a2e cecf fb35
00000180: 6e1a 1630 2c18 2136 2784 1036 6665 7d31
00000190: af5f 9436 e7e1 f036 7d9e 3e35 530f d733
000001a0: b307 7b2c 10d4 4936 6052 fa34 2665 0b36
000001b0: f29f cf32 feb2 0a35 24c9 6835 67cc 1837
000001c0: 6b2c e72a 63e8 d836 2cb4 b132 d71b e830
000001d0: e62a 3d2c c5af 1c32 a235 fe2e 2a5d d033
000001e0: d757 2936 db84 b330 0349 2532 db24 f336
000001f0: 0a79 0136 a245 da35 b0b9 2e35 6dd4 2537
1.0710783e-09 2.7616518e-06 5.370752e-07 1.5699166e-12 5.8238275e-06 7.1972144e-11 7.9892e-06 6.240674e-08
6.1773414e-07 1.7915801e-06 7.546371e-08 6.887753e-07 2.838498e-06 7.286076e-08 1.3020276e-11 8.363966e-06
6.021862e-07 4.3465257e-06 1.5646433e-06 4.899119e-07 2.3421048e-06 2.02594e-07 1.4431675e-09 8.480678e-08
1.8126065e-06 6.031353e-08 5.2801676e-07 1.1233632e-06 8.189271e-06 3.7927014e-12 2.247529e-06 5.2368665e-07
2.9774838e-09 4.467695e-06 3.899137e-06 7.9782114e-07 4.592381e-07 8.39313e-07 1.6177337e-08 7.0072374e-06
3.4731391e-07 5.4655115e-06 1.6966409e-06 1.176097e-06 3.6683584e-06 8.364293e-06 4.0794803e-06 4.521711e-06
3.2389664e-05 1.5830862e-07 1.0382231e-05 1.0399941e-06 1.0160469e-06 4.5027423e-07 1.1217281e-07 7.261319e-07
1.0398074e-05 3.1526037e-07 1.7574337e-06 5.8597534e-06 4.0264156e-09 7.246128e-07 1.8908404e-06 1.4351846e-07
1.6242285e-06 5.3881026e-06 2.7940672e-07 7.5842395e-11 8.803337e-08 5.061196e-07 2.522426e-09 1.5583902e-09
6.8568404e-08 3.7183858e-07 5.290116e-06 7.368358e-07 7.9534186e-07 3.8893053e-09 1.9994824e-08 2.930512e-07
1.2995117e-05 5.5900828e-06 1.5341303e-07 1.2638801e-05 3.124117e-05 9.673867e-06 8.67976e-07 2.7548955e-07
3.6527379e-06 1.188555e-06 8.580786e-06 8.3071455e-10 1.1936498e-06 1.5768522e-06 4.9633162e-11 1.8761436e-06
5.460724e-10 2.400494e-06 2.1534595e-06 3.6873984e-09 4.4218827e-06 7.178856e-06 7.1011146e-07 1.0014505e-07
3.567352e-12 3.007477e-06 4.6626064e-07 2.077149e-06 2.4170706e-08 5.1669474e-07 8.6719433e-07 9.107497e-06
4.1064664e-13 6.464355e-06 2.0687445e-08 1.6888134e-09 2.6882329e-12 9.1203605e-09 1.156011e-10 9.702701e-08
2.5234092e-06 1.3061724e-09 9.620865e-09 7.246255e-06 1.9292952e-06 1.6262532e-06 6.509026e-07 9.884226e-06
