results/hideandseek_05/Hide/Hide-500645.onnx (onnx, 148430 bytes, 7 tensors)

network_body._body_endoder.seq_layers.0.weight f4 [128, 149]
0	0xbd0f2155	-0.034943897
1	0x3ba87495	0.005140851
2	0xbced6a8a	-0.028981466
3	0xbe321d99	-0.17394103
4	0xbe08a0c1	-0.13342573
5	0xbd8ecbd8	-0.06972474
6	0xbe35a45d	-0.17738481
7	0xbdf6cc02	-0.1205063
8	0x3defbd87	0.11706071
9	0xbdb603fc	-0.08887479
10	0x3e866e17	0.26255867
11	0xbea5adf4	-0.32359278
12	0x3dd2bd87	0.10290056
13	0x3dab739a	0.083716586
14	0xbdc553bc	-0.09635112
15	0xbdb60034	-0.088867575
16	0xbe88c016	-0.2670905
17	0xbb97e85c	-0.0046358537
18	0x3c644ee2	0.013934823
19	0xbe08eac9	-0.13370813
20	0x3da56aed	0.08077035
21	0xbe88dff3	-0.2673336
22	0x3d7655b4	0.060140327
23	0xbc5f8d2b	-0.013644497
24	0xbd8419b6	-0.064502165
25	0xbd05c219	-0.03265581
26	0xbe9d7fab	-0.30761465
27	0xbd402ca6	-0.04691758
28	0xbd08e330	-0.033419788
29	0xbdcce2d2	-0.100042
30	0x3d884ed2	0.06655659
31	0xbec297c9	-0.38006428
32	0xbd9a2b9a	-0.075278476
33	0x3d048160	0.032349944
34	0xbe9f1c67	-0.31076357
35	0x3e27aab2	0.16373709
36	0xbdafc4fd	-0.085824944
37	0x3c9d2395	0.019182006
38	0x3d96d42f	0.073646896
39	0xbe4866fe	-0.19570538
40	0xbe2ca10c	-0.1685831
41	0xbe535d79	-0.20641126
42	0x3d76b3fa	0.060230233
43	0x3cba05ae	0.022707786
44	0xbe0e43e5	-0.13893087
45	0x3e3121c5	0.17298038
46	0xbe4d0e8f	-0.20025085
47	0xbda67c49	-0.08129174
48	0x3d721b6b	0.05910818
49	0xbe8db5f3	-0.2767788
50	0x3c09cd60	0.008410782
51	0xbe0139d8	-0.12619722
52	0x3e0e47ba	0.13894549
53	0xbe19a200	-0.15003204
54	0xbebfa676	-0.37431687
55	0x3e20e5b9	0.15712632
56	0xbe74cf85	-0.23907287
57	0x3de89ec9	0.11358411
58	0xbe111345	-0.14167507
59	0xbe6d020b	-0.2314531
60	0x3d2abaaf	0.04168194
61	0xbe772c97	-0.24138103
62	0x3d745dff	0.059659954
63	0x3cc56b8d	0.024099136
64	0xbe9430b3	-0.28943405
65	0xbc8813cf	-0.016611008
66	0xbe8b2b9a	-0.27181703
67	0x3ce64812	0.028110538
68	0xbc817826	-0.015804362
69	0xbe04800d	-0.12939472
70	0xbe0e3dd0	-0.13890767
71	0xbdc6404b	-0.09680232
72	0x3e09f30e	0.13471624
73	0xbe0ecfea	-0.139465
74	0xbe85b9be	-0.26118273
75	0xbd95a338	-0.07306522
76	0xbe5b20c0	-0.21399212
77	0x3de500d6	0.111818
78	0xbdf80fcc	-0.12112388
79	0xbe5da5ee	-0.21645328
80	0xbd08b5d1	-0.03337652
81	0xbe315aa0	-0.17319727
82	0xbe1e118c	-0.15436381
83	0x3e31b6dc	0.17354912
84	0xbd803380	-0.06259823
85	0x3b0453cf	0.0020191555
86	0xbe945cef	-0.28977153
87	0xbd94eb0c	-0.07271394
88	0x381ac8d3	3.6903493e-05
89	0xbe43cc75	-0.19120963
90	0x3d0956fe	0.033530228
91	0xbde77e69	-0.11303408
92	0xbe11be39	-0.1423272
93	0xbe1cebfa	-0.15324393
94	0xbe2bc6b5	-0.1677502
95	0xbd392b31	-0.045207206
96	0xbd84eaaf	-0.06490075
97	0xbe214b8d	-0.15751477
98	0x3dfdb423	0.12387874
99	0xbeefba08	-0.46821618
100	0xbd9bc7cc	-0.076064676
101	0xbd8731e5	-0.066013135
102	0xbde453d1	-0.11148799
103	0x3ad9fd01	0.0016631187
104	0xbecad185	-0.39612976
105	0x3e132b8c	0.1437208
106	0xbe7f97ef	-0.24960302
107	0xbd2c2d5d	-0.04203545
108	0x3d8084dd	0.06275342
109	0x3d9b7de2	0.075923696
110	0xbd53fc8e	-0.051754527
111	0xbe413c4d	-0.18870659
112	0xbdc6634d	-0.09686909
113	0x3d22678b	0.039649528
114	0xbeaca915	-0.3372275
115	0x3d5ee98d	0.05442195
116	0xbe1b3dad	-0.15160246
117	0xbaee22b7	-0.0018168305
118	0xbb843c6c	-0.004035523
119	0xbe30820b	-0.17237107
120	0xbd75e70a	-0.06003479
121	0xbe4ce713	-0.20010023
122	0x3ddf1c8f	0.10894119
123	0x3e01886d	0.12649699
124	0xbe7419bc	-0.23837942
125	0xbe0704d5	-0.13185437
126	0xbe43132f	-0.19050287
127	0xbc62c991	-0.0138420025
128	0x3d64c44a	0.05585126
129	0xbd8da008	-0.06915289
130	0xbba3405b	-0.004982037
131	0xbe084593	-0.1330779
132	0xbd77e65c	-0.060522422
133	0xbb9e8b1c	-0.0048383605
134	0xbe924490	-0.28567934
135	0xbe4bb252	-0.19892243
136	0xbe463f3b	-0.19360058
137	0xbd3b7fb5	-0.045776088
138	0xbb67657c	-0.0035308292
139	0xbd989c4d	-0.07451687
140	0x3c792e83	0.015208843
141	0xbd8f0bec	-0.06984696
142	0xbced3306	-0.028954994
143	0x3cf4558e	0.029825952
144	0x3dba7f90	0.09106362
145	0x3c9d47b2	0.019199226
146	0x3dc528dd	0.09626935
147	0xbd83902e	-0.064239845
148	0x3c36fb30	0.011168286
149	0x3cfac6f1	0.03061244
150	0xbc66f4fb	-0.014096494
151	0x3d643d29	0.05572239
152	0xbe116667	-0.1419922
153	0xbd7ed22d	-0.062212158
154	0xbe14c08f	-0.1452658
155	0x3d9be678	0.07612318
156	0x3e05262f	0.13002847
157	0xbe939a68	-0.2882874
158	0xbc8c655e	-0.01713818
159	0x3d4c81f7	0.04992863
160	0xbd17f208	-0.037096053
161	0x3de54737	0.11195224
162	0x3d60b80e	0.05486303
163	0x3d76d366	0.0602602
164	0xbbb79d9a	-0.0056035044
165	0xbd959fad	-0.07305846
166	0xbca8c965	-0.020603845
167	0xbe1bf13f	-0.15228747
168	0xbd91fea2	-0.071286455
169	0x3d346b56	0.044047676
170	0xbe2774d8	-0.16353166
171	0xbd9aedb6	-0.07564871
172	0x3df06c25	0.11739377
173	0x3e1ae295	0.15125497
174	0xbcfd6c1e	-0.030935343
175	0x3d9ecbac	0.07753691
176	0xbd834b99	-0.064109035
177	0x3e187cbd	0.14891334
178	0x3e18209f	0.14856194
179	0x3dfb5c0d	0.12273417
180	0x3be24eee	0.006906382
181	0xbd907cec	-0.07055077
182	0x3dd19d6a	0.102351025
183	0x3dee7711	0.11643804
184	0xbddb1909	-0.106981345
185	0xbaf0c6b5	-0.0018369766
186	0xbca4161c	-0.020030074
187	0x3d2a69e9	0.04160491
188	0xbdcc836b	-0.099860035
189	0xbddcaefb	-0.107755624
190	0xbd56a933	-0.052407455
191	0xbd3435e1	-0.043996695
192	0xbcfadf5c	-0.030624084
193	0xbe2a3ff8	-0.16625965
194	0x3c7320bb	0.0148393465
195	0xbdc3bbde	-0.09557317
196	0x3c9275d6	0.017878454
197	0x3ddaed7c	0.10689828
198	0xbd751a45	-0.059839506
199	0xbea617ad	-0.32439938
200	0x3de920bd	0.113831975
201	0x3a21e09f	0.0006175134
202	0x3b14adaf	0.0022686531
203	0x3c0e1d0e	0.008673919
204	0xbde7475c	-0.112929076
205	0xbdcfbd9c	-0.10143587
206	0xbe08e181	-0.13367273
207	0x3b6cdafe	0.0036141272
208	0xbe1949d5	-0.14969571
209	0x3be5914b	0.0070058457
210	0xbc9367e6	-0.017993879
211	0x3d01e236	0.031709872
212	0xbd78be67	-0.060728457
213	0x3d9855c9	0.07438237
214	0xbdc4c050	-0.09606993
215	0xbcc431f8	-0.023949608
216	0x3c246461	0.010033698
217	0xbdc5c0a2	-0.096558824
218	0xbe12b2f4	-0.14326078
219	0xbde7c86c	-0.11317524
220	0xbda0b72f	-0.078474395
221	0xbd009008	-0.03138736
222	0xbd4a577b	-0.049399834
223	0x3ccbadbd	0.024863118
224	0x3e4ea399	0.20179595
225	0xbc36d6a1	-0.01115957
226	0xbd452e86	-0.04814007
227	0xb809d65d	-3.2862987e-05
228	0x3c38e0e2	0.011284085
229	0xbe34d275	-0.17658408
230	0x3cefd819	0.029277848
231	0x3d8adac8	0.067800105
232	0xbe12bade	-0.14329097
233	0xbe2167ad	-0.15762205
234	0xbdea581f	-0.11442589
235	0xbda807aa	-0.08204587
236	0x3d31e5f9	0.04343221
237	0xbd21892d	-0.03943746
238	0xbdb21769	-0.086958714
239	0x3c95749a	0.018244077
240	0x3de5eca6	0.11226778
241	0xbc4d771b	-0.012540604
242	0xbe4d6c37	-0.20060812
243	0xbe414c56	-0.18876776
244	0x3dfb1174	0.12259188
245	0xbc6059d5	-0.013693293
246	0xbdef920a	-0.116977766
247	0x3cad4d6a	0.021155078
248	0xbe2e1b81	-0.1700268
249	0xbcaeb46b	-0.021326264
250	0x3d019d0e	0.03164392
251	0x3d7e934b	0.06215219
252	0xbbcd65dd	-0.0062682466
253	0xbdf942b5	-0.121709265
254	0x3da99e49	0.082821436
255	0xbbd5daa2	-0.006526307

network_body._body_endoder.seq_layers.0.bias f4 [128]
0	0xbe5eb7cb	-0.21749799
1	0xbcfce48b	-0.030870697
2	0xbd979f99	-0.07403488
3	0xbe883bc9	-0.26608112
4	0xbd446a45	-0.04795291
5	0xbd439a5f	-0.04775464
6	0xbe4c7ade	-0.19968745
7	0x3ce66cd7	0.02812807
8	0xbddd779f	-0.108138315
9	0xbe2c4df0	-0.16826606
10	0xbd30b9d6	-0.043145977
11	0xbe5018ad	-0.20321913
12	0x3bbfed4d	0.005857146
13	0xbe879a1c	-0.26484764
14	0xbde81f2a	-0.11334069
15	0xbd907f97	-0.07055586
16	0xbd579c5e	-0.052639358
17	0xbe1fcb83	-0.15604977
18	0xbe003713	-0.12521009
19	0xbc817b4e	-0.015805867
20	0xbdff3aca	-0.12462385
21	0xbe340f6e	-0.17584011
22	0xbdf142e3	-0.11780336
23	0xbdf76b8e	-0.12081061
24	0xbd33d727	-0.043906357
25	0xbdfe2a59	-0.12410421
26	0xbe04a7d3	-0.12954645
27	0xbe8701dc	-0.26368606
28	0xbe095185	-0.13410003
29	0x3ab81bf5	0.0014046418
30	0xbd0605c8	-0.032720357
31	0xbdb79b79	-0.08965201
32	0xbe02d6ec	-0.12777299
33	0xbe0f50af	-0.13995622
34	0xbcc5b566	-0.02413435
35	0xbd3aaba0	-0.04557383
36	0xbe17fb21	-0.14841892
37	0xbdb5756d	-0.08860288
38	0x3aa3fa1e	0.0012510454
39	0xbd28a910	-0.041176856
40	0xbd9213f9	-0.07132716
41	0xbdd4c672	-0.10389413
42	0xbe7da624	-0.24770409
43	0xbd83bb05	-0.064321555
44	0xbdd83550	-0.105570436
45	0xbd651729	-0.05593029
46	0xbd9219b5	-0.071338095
47	0xbd6e9d06	-0.058255218
48	0xbd5a7033	-0.053329658
49	0x3c8dc56d	0.017306054
50	0xbd8d9fc6	-0.0691524
51	0xbdd63276	-0.104588434
52	0xbdb792fb	-0.08963581
53	0xbbec8070	-0.0072174594
54	0xbd6e5802	-0.0581894
55	0xbdd63f02	-0.104612365
56	0xbd21eb85	-0.03953125
57	0xbd1dde60	-0.03854215
58	0xbe2d2efb	-0.16912453
59	0xbdfe544a	-0.124184206
60	0x3a60458c	0.0008555285
61	0xbdd797eb	-0.10527023
62	0xbe3e2d35	-0.18571933
63	0xbdf05dcb	-0.117366396
64	0x3bb4974d	0.0055112005
65	0xbdd6d2ce	-0.104894266
66	0xbd514dc4	-0.051099554
67	0xbdb58b43	-0.08864453
68	0xbdb26c90	-0.08712113
69	0xbd85f895	-0.06541554
70	0xbc99771a	-0.01873355
71	0xbe05a487	-0.13051043
72	0x3d1d75a2	0.03844226
73	0x3c29cd59	0.0103639
74	0x3c45cac1	0.012072266
75	0xbdcb870c	-0.099378675
76	0xbdebc1bf	-0.115115635
77	0xbd3c8738	-0.046027392
78	0xbe173863	-0.14767604
79	0xbd9e39e3	-0.07725885
80	0xbd1140fa	-0.035462357
81	0xbe78853d	-0.24269576
82	0xbd00cfd7	-0.03144821
83	0x3c54ac22	0.012980493
84	0xbdb47576	-0.088114664
85	0xbd072443	-0.032993566
86	0xbe1126a0	-0.1417489
87	0xbd80907f	-0.062775604
88	0x3db4211e	0.08795379
89	0xbe1042d1	-0.14087988
90	0xbc3e868f	-0.011628761
91	0x3d40e694	0.047094896
92	0xbdcd14e1	-0.10013748
93	0xbc1b1a03	-0.009466651
94	0xbd1d6b75	-0.038432557
95	0xbdaeff22	-0.085447565
96	0xbdb668e5	-0.08906726
97	0x3bb520e2	0.0055276016
98	0xbd8fc5c2	-0.07020141
99	0x3cbf8924	0.023380823
100	0xbdb09f8e	-0.08624183
101	0xbe478bf8	-0.19486988
102	0xbdff53b0	-0.12467134
103	0xbe190df1	-0.14946724
104	0xbe08eb5a	-0.1337103
105	0xbe329ef0	-0.17443442
106	0xbe27778b	-0.16354196
107	0xbe849ecd	-0.25902405
108	0xbdda6d1d	-0.10665343
109	0xbdea2c26	-0.11434202
110	0xbe1b705e	-0.15179583
111	0xbd96c7a9	-0.07362301
112	0x3c598bea	0.013277987
113	0xbdbadf8b	-0.09124669
114	0x3c324e14	0.010882873
115	0xbd0a0058	-0.033691734
116	0xbcc219eb	-0.023694
117	0xbda4cab7	-0.08046477
118	0xbe4ec56f	-0.20192502
119	0xbd8e6342	-0.06952526
120	0xbe173b70	-0.14768767
121	0xbda8d998	-0.08244628
122	0xbdf57f04	-0.11987117
123	0xbc4aa06d	-0.01236735
124	0xbda1e4c1	-0.079049595
125	0xbdca0d6d	-0.09865842
126	0xbda17e71	-0.07885445
127	0xbcd9a727	-0.026568962

network_body._body_endoder.seq_layers.2.weight f4 [128, 128]
0	0xbdf3a4f3	-0.11896696
1	0xbe0256a5	-0.12728365
2	0xbd9688c0	-0.07350302
3	0xbc718bb0	-0.014742777
4	0xbd453931	-0.048150245
5	0xbe0f8075	-0.14013846
6	0x3e166e59	0.14690532
7	0x3a5f1870	0.00085104164
8	0xbc962881	-0.01832986
9	0xbd584cad	-0.0528075
10	0xbdeb4b1a	-0.11488934
11	0xbe424612	-0.18972042
12	0x3cbcfd74	0.023070075
13	0xbe32550b	-0.17415254
14	0x3db0dec4	0.08636239
15	0xbc541bff	-0.012946128
16	0x3dc88541	0.09791041
17	0xbbf8856d	-0.007584265
18	0x3c8529a0	0.0162552
19	0xbd167d42	-0.03674055
20	0xbbb4c54a	-0.0055166828
21	0xbdbe321a	-0.092869
22	0x3d8a28b7	0.06746047
23	0xbba93164	-0.0051633585
24	0x3d306c36	0.043071948
25	0xbc471f9b	-0.012153531
26	0xbbd796f6	-0.0065792752
27	0xbd48eed3	-0.049055886
28	0x3e180366	0.14845046
29	0xbdbdea55	-0.09273211
30	0x3df2a480	0.11847782
31	0xbcc11395	-0.023568908
32	0xbe25d619	-0.16194953
33	0x3dd1bb0e	0.10240756
34	0x3cee2fe5	0.029075572
35	0xbc154292	-0.00911011
36	0xbdc41d93	-0.09575953
37	0x3cc8260e	0.024432208
38	0xbe69d7a9	-0.22836174
39	0xbe14d9dd	-0.14536233
40	0x3e1a6038	0.15075767
41	0xbd98fbc6	-0.07469897
42	0x3e503c31	0.20335461
43	0x3d3ddd96	0.0463539
44	0xbc8954e4	-0.016764112
45	0xbe0752d3	-0.13215189
46	0x3cb326ec	0.021869145
47	0x3cc52b2e	0.024068441
48	0xbe21a193	-0.15784292
49	0xbada8c21	-0.0016673842
50	0x3e070ea9	0.13189186
51	0xba16995e	-0.00057448994
52	0xbe8402c1	-0.2578335
53	0x3afaafb1	0.0019125846
54	0xbdc3c6de	-0.09559415
55	0xbe1106e8	-0.14162791
56	0xbd876ba6	-0.06612329
57	0xbdf347fa	-0.11878963
58	0x3d18e1b6	0.03732463
59	0x3e3e0e6c	0.18560189
60	0xbee682af	-0.4502158
61	0x3dd22241	0.1026044
62	0x3b6baf8b	0.0035962786
63	0x3dcd960f	0.10038387
64	0x3d357158	0.044297546
65	0x3d58ba60	0.052912116
66	0x3def088b	0.11671551
67	0x3cfcb832	0.03084955
68	0x3d378108	0.04480079
69	0xbd31d4b9	-0.04341576
70	0x3e6e3fce	0.23266527
71	0xbe08df09	-0.13366331
72	0xbe2b1239	-0.1670617
73	0xbdc6eb15	-0.09712807
74	0xbe45b9d6	-0.19309172
75	0xbd674e1b	-0.05647097
76	0x3e21e19e	0.15808722
77	0xbd7f69e1	-0.062356833
78	0xbd1a07f3	-0.037605237
79	0x3db9982e	0.09062229
80	0xbc90a764	-0.017657943
81	0xbd800623	-0.062511705
82	0xbdfcd84c	-0.12345943
83	0xbb759272	-0.0037471321
84	0xbd9bba97	-0.076039486
85	0xbe2dd8ce	-0.16977236
86	0x3d57b659	0.052664135
87	0xbdf0e3af	-0.11762177
88	0xbe54eb5f	-0.20792912
89	0xbc980a06	-0.018559467
90	0xbdc42812	-0.09577955
91	0xbe1703c4	-0.1474753
92	0xbda26fae	-0.079314575
93	0xbde7ffbe	-0.11328076
94	0x3c411e56	0.011787018
95	0xbd891fc8	-0.06695515
96	0xbb099446	-0.002099292
97	0x3af386f9	0.0018579654
98	0xbe657bf4	-0.22410566
99	0x3dc469a5	0.095904626
100	0x3dff9780	0.12480068
101	0xbd881531	-0.06644667
102	0xbd5bb21b	-0.05363665
103	0x3d083d7e	0.03326177
104	0xbe1d0b40	-0.15336323
105	0x3d6c9911	0.057763163
106	0x3dc149a8	0.09437877
107	0xbd5d1397	-0.05397376
108	0x3e316159	0.17322291
109	0x3ddac39b	0.1068184
110	0x3d5a8c9b	0.053356748
111	0xbcc49d55	-0.024000803
112	0xbe0ddd23	-0.13853888
113	0xbe282c12	-0.16423061
114	0x3e047d7c	0.12938493
115	0x3cace507	0.021105302
116	0xbc71dd83	-0.014762285
117	0x3dfa1773	0.12211504
118	0x3da6cea9	0.08144886
119	0xbd36ddd8	-0.04464516
120	0xbd90d3c0	-0.07071638
121	0xbd41dc89	-0.04732946
122	0xbe0bcc12	-0.13652065
123	0xbe7da95d	-0.24771638
124	0xbc20c775	-0.009813179
125	0xbdd618cb	-0.10453948
126	0xbcbf48a3	-0.023350066
127	0xbe6a7c9e	-0.228991
128	0x3db70306	0.089361235
129	0x3cbd5761	0.023112955
130	0xbdcef323	-0.101049684
131	0xbd23dd5c	-0.040006027
132	0x3ceb948f	0.028757362
133	0xbdb9b6f4	-0.09068099
134	0x3d510613	0.051031183
135	0xbe9a9274	-0.3018986
136	0xbd19e548	-0.037572175
137	0x3d005e7c	0.031340107
138	0x3caac0ce	0.02084389
139	0xbddb6c36	-0.10713999
140	0x3cecffd7	0.028930588
141	0x3e5f8e19	0.2183155
142	0x3d9bef82	0.07614042
143	0x3dcdefe2	0.1005552
144	0x3d18aa11	0.037271563
145	0x3d816779	0.06318564
146	0x3e11e15d	0.14246126
147	0xbdae2f86	-0.08505158
148	0x3e6d4989	0.23172583
149	0xbad06b87	-0.0015901186
150	0xbe3d6acd	-0.18497773
151	0x3d469803	0.048484813
152	0xbd023077	-0.0317845
153	0xbd787fe5	-0.060668845
154	0x3c6a449b	0.014298583
155	0xbd5cb759	-0.05388579
156	0x3c4ee989	0.012628921
157	0xbde21c89	-0.11040599
158	0xbe059d7b	-0.13048355
159	0xbc9234e7	-0.017847491
160	0x3d572eda	0.052534916
161	0x3d62a760	0.055335402
162	0xbd9cd7f6	-0.07658379
163	0xbccd369b	-0.025050452
164	0xbb5d27c4	-0.0033745626
165	0x3e5b5d5e	0.21422336
166	0x3df01981	0.117236145
167	0xbe12cf6e	-0.1433694
168	0xbdb51a02	-0.08842851
169	0x3c8b7289	0.017022388
170	0x3d710fb4	0.058852866
171	0x3de21b15	0.11040322
172	0xbd25ebbe	-0.040508024
173	0xbe2cb602	-0.16866305
174	0x3e2a4a17	0.16629826
175	0xbde3f21e	-0.111301646
176	0xbd5be616	-0.053686224
177	0xbd3d6973	-0.046243142
178	0x3d9de279	0.07709212
179	0xbaf0f329	-0.0018383014
180	0x3d2ae30e	0.041720442
181	0xbda08805	-0.07838444
182	0xbd2a0f89	-0.04151872
183	0x3da95dda	0.08269854
184	0x3e334acc	0.17509001
185	0xbe0c4789	-0.13699163
186	0x3d126208	0.03573802
187	0x3d931fc3	0.071837924
188	0xbd8d433b	-0.06897589
189	0x3c9b5b18	0.018964335
190	0xbdcc3baf	-0.09972321
191	0x3e20854d	0.1567585
192	0xbe8e4df7	-0.27793857
193	0xbe15ace6	-0.14616737
194	0xbc92f2f3	-0.017938113
195	0x3e3061dd	0.17224832
196	0x3cd1684f	0.025562434
197	0x3d46577b	0.04842327
198	0x3e111fd9	0.14172305
199	0xbc5f4abd	-0.013628659
200	0x3e468708	0.19387448
201	0xbd9c0cd1	-0.07619632
202	0xbd80abfb	-0.06282803
203	0x3cc9ed38	0.024649248
204	0x3c67e66b	0.014154057
205	0xbb1ab00c	-0.0023603467
206	0xba3f4e74	-0.0007297762
207	0x3d779862	0.060448058
208	0xbcc4bb9b	-0.024015239
209	0xbe06098f	-0.13089584
210	0xbb34e402	-0.0027601724
211	0xbe407394	-0.1879409
212	0xbe075607	-0.1321641
213	0xbd5da9af	-0.0541169
214	0x3db69925	0.08915929
215	0xbd8562d0	-0.065129876
216	0xbe30bcc9	-0.17259516
217	0x3e3b2974	0.18277532
218	0xbd0a84e0	-0.033818126
219	0xbd3e94dd	-0.046528686
220	0x3c522b9b	0.012827779
221	0x3dba6abe	0.09102391
222	0x3d57c0ce	0.052674107
223	0xbe027a08	-0.12741864
224	0x3db930c2	0.09042503
225	0xbe74c833	-0.23904495
226	0xbd2eeb8a	-0.042705096
227	0xbd5abc0c	-0.05340199
228	0xbe06d237	-0.13166128
229	0x3e1e5e5a	0.1546568
230	0xbd645a4e	-0.055750184
231	0x3dcbc032	0.09948768
232	0x3e749794	0.23885947
233	0x3e3cf94c	0.18454474
234	0x3e3a3719	0.1818508
235	0x3e344b99	0.17606963
236	0xbda4b16b	-0.08041652
237	0x3d9e0bc0	0.07717085
238	0x3e491c63	0.19639735
239	0xbde3000f	-0.110839956
240	0xbe31618e	-0.1732237
241	0x3cec1de5	0.028822849
242	0x3e0fe0ec	0.14050645
243	0x3dc36e7a	0.09542556
244	0xbe4524d6	-0.19252333
245	0x3d07b100	0.033127785
246	0x3d052e8e	0.0325151
247	0x3c9f7938	0.019466981
248	0x3e332e05	0.17498024
249	0xbd3cbaf7	-0.04607674
250	0x3dec571b	0.115400515
251	0x3ad0e65d	0.0015937794
252	0x3d64b76f	0.055839
253	0x3d17c0b8	0.037049025
254	0x3cd1c8a5	0.02560837
255	0xbdaad22e	-0.0834087

network_body._body_endoder.seq_layers.2.bias f4 [128]
0	0xbd9be2e3	-0.076116346
1	0xbdb70a74	-0.08937541
2	0xbdc12925	-0.09431676
3	0xbd951b4e	-0.072805986
4	0xbdc92324	-0.09821156
5	0xbe419e40	-0.18908024
6	0x3b7d1e0e	0.003862265
7	0xbcf06b7a	-0.029348124
8	0xbd093c19	-0.03350458
9	0xba2cf168	-0.00065972516
10	0x3d9bb39f	0.076026194
11	0xbd9f889b	-0.07789727
12	0x3d7d8c18	0.061901182
13	0x3bf5cc77	0.0075011807
14	0x3b8e7a15	0.0043480494
15	0x3caeca9a	0.021336842
16	0xbca004a9	-0.019533472
17	0x3c19abac	0.009379309
18	0xbdad94c1	-0.08475638
19	0xbd8c4be6	-0.06850414
20	0xbdaa2724	-0.08308247
21	0x3d08da52	0.03341133
22	0xbe1d6d28	-0.15373671
23	0x3c4e710b	0.012600194
24	0xbc5f2616	-0.01361992
25	0xbc9ee850	-0.019397885
26	0xbd52adb8	-0.051435202
27	0xbd765f25	-0.06014933
28	0xbdb93499	-0.09043235
29	0xbdc37910	-0.09544575
30	0xbd82a73e	-0.06379555
31	0xbdfd4a72	-0.12367715
32	0xb6b6f4bf	-5.452515e-06
33	0xbd032378	-0.032016248
34	0xbe31c1b5	-0.1735905
35	0xbdd772a1	-0.105199106
36	0xbd0b817b	-0.03405903
37	0xbcecc4fa	-0.02890252
38	0xbb416edd	-0.0029515543
39	0xbe10247e	-0.1407642
40	0xbd9cdfcb	-0.076598726
41	0xbdafcf79	-0.08584494
42	0xbceba6bb	-0.028766027
43	0xbda320bb	-0.07965227
44	0x3d64f8c4	0.055901304
45	0x3db2ed3e	0.087366566
46	0x3c5ed1f2	0.01359986
47	0xbe041ca6	-0.12901554
48	0x3c9cf7e6	0.019161176
49	0xbe566085	-0.20935257
50	0xbca847be	-0.020542022
51	0x3d48decf	0.04904061
52	0x3d30dccd	0.043179322
53	0xbdca55a8	-0.09879619
54	0xbd49b242	-0.049242266
55	0x3ad9219c	0.0016565803
56	0xbcc6540f	-0.024210004
57	0x3d670f1a	0.056410886
58	0xbb87f555	-0.004149119
59	0x3ce3b92f	0.027798263
60	0xbdcc7896	-0.099839374
61	0xbda213bb	-0.079139195
62	0x3bdcdea6	0.006740409
63	0xbe1eb1fe	-0.15497586
64	0xbdbca9c3	-0.09212067
65	0xbe4f9c04	-0.20274359
66	0xbd7ae0b2	-0.061249442
67	0x3c131bd5	0.008978804
68	0xbc91d4c1	-0.017801644
69	0x3c6c5d09	0.014426478
70	0xbe62ba85	-0.22141464
71	0xbd89108e	-0.06692611
72	0xbd8b5cd8	-0.06804818
73	0xbe108db6	-0.14116558
74	0xbd370200	-0.04467964
75	0xbe1c804b	-0.15283315
76	0x3ca9c16f	0.02072212
77	0xbc80cc26	-0.015722346
78	0xbd1d5772	-0.038413472
79	0xbd687859	-0.056755397
80	0xbdc034b6	-0.09385054
81	0xbd13cf38	-0.03608629
82	0xbe024ec6	-0.12725362
83	0xbd4c6bdc	-0.04990755
84	0xbd83402f	-0.064087264
85	0xbd5b670a	-0.053565063
86	0xbe104290	-0.14087892
87	0xbd141981	-0.036157135
88	0xbda39546	-0.07987456
89	0xbddb47a3	-0.10707023
90	0x3d6d3d20	0.05791962
91	0x3b64847a	0.0034869001
92	0xbcf92fd1	-0.030418308
93	0xbd05d49d	-0.032673467
94	0xbbaa1023	-0.005189912
95	0xbdcf3b39	-0.10118718
96	0xbdf308f8	-0.11866945
97	0x3d87f21d	0.06637976
98	0xbda4d886	-0.08049111
99	0x3d5c1828	0.053733975
100	0xbc26f4f6	-0.010190239
101	0xbcf1d37f	-0.029519795
102	0xbd7d22b4	-0.061800674
103	0xbe4902c7	-0.19629966
104	0x3cc4efff	0.02404022
105	0x3b7420be	0.0037250961
106	0xbe05c3bb	-0.13062946
107	0xbd45b483	-0.048267853
108	0x3cd69097	0.026191993
109	0xbe2c5197	-0.16827999
110	0xbd086105	-0.03329565
111	0xbd94a119	-0.072572894
112	0xbce65333	-0.028115844
113	0x3b212e57	0.002459427
114	0xbda7e596	-0.08198087
115	0x3d958885	0.0730143
116	0x3bdcd629	0.006739397
117	0x3d807631	0.06272543
118	0xbd737955	-0.059441883
119	0xbcf829b3	-0.030293321
120	0x3d81d2a4	0.06339005
121	0xbd34e746	-0.044165872
122	0x3c6be522	0.014397891
123	0xbce41bce	-0.02784529
124	0xbd80c683	-0.06287863
125	0x3c9f0c84	0.019415148
126	0xbd9896a9	-0.07450611
127	0xbd550e3a	-0.05201552

action_model._continuous_distribution.log_sigma f4 [1, 2]
0	0x3e2d5778	0.16927898
1	0x3d088ffb	0.033340435

action_model._continuous_distribution.mu.weight f4 [2, 128]
0	0x3db53634	0.08848229
1	0x3d253d5e	0.040341727
2	0x3d87b526	0.06626348
3	0x3d8c0238	0.06836361
4	0x3c19904f	0.009372785
5	0x3ca79d12	0.02046064
6	0xbcf2e1f9	-0.029648768
7	0x3dc2902a	0.09500153
8	0x3d824b9b	0.06362077
9	0x3c872b27	0.016500069
10	0x3d30e113	0.043183398
11	0x3cf99a6d	0.030469144
12	0xbe0d9155	-0.13824971
13	0x3d75acdc	0.059979305
14	0x3d064027	0.032776024
15	0xbd9f1242	-0.07767154
16	0x3db0ea3b	0.08638426
17	0x3cb14de2	0.021643583
18	0x3d57775b	0.05260406
19	0x3d00c477	0.031437363
20	0x3d6e9ea3	0.058256757
21	0x3d5545cb	0.052068513
22	0x3d5509d0	0.05201131
23	0xbc337211	-0.0109524885
24	0x3a9c9ce6	0.0011948615
25	0x3d3c5f6f	0.04598945
26	0x3bfc1888	0.007693354
27	0x3d98c777	0.0745992
28	0x3db8434d	0.089972116
29	0x3d0007a7	0.031257298
30	0x3d4e2968	0.050332457
31	0x3db61475	0.088906206
32	0x3d5729a7	0.052529957
33	0x3d842ab8	0.064534605
34	0x3d066563	0.032811534
35	0x3dc0778a	0.093978
36	0x3ce25e7f	0.02763295
37	0xbd17b6a7	-0.037039425
38	0xbc8d43f9	-0.017244326
39	0x3d053080	0.032516956
40	0x3cd04087	0.025421394
41	0x3cbd5bd5	0.023115078
42	0xbce3918e	-0.027779367
43	0x3ddec037	0.10876506
44	0xbd6fc305	-0.058535594
45	0xbd9f81dc	-0.077884406
46	0xbc77535a	-0.015095556
47	0x3d9793fc	0.07401273
48	0x3d80037f	0.06250667
49	0x3d8327da	0.064040855
50	0xbd5af5e1	-0.053457145
51	0xbddb7b23	-0.10716846
52	0xbc65863b	-0.014009054
53	0x3db3dfb7	0.087829046
54	0x3d7e7e80	0.06213236
55	0xbcd1749e	-0.025568303
56	0x3d45f390	0.048327982
57	0x3d9b2694	0.075757176
58	0x3d6ae8ab	0.057350796
59	0x3d922a48	0.07136971
60	0xbd1c022f	-0.03808802
61	0x3d54ff44	0.052001253
62	0x3d2f77e4	0.042838946
63	0x3d011aaf	0.031519588
64	0xbca074de	-0.019586977
65	0x3d891d28	0.06695014
66	0x3ce4cc1a	0.027929354
67	0x3da5f4d2	0.081033364
68	0xbadcb590	-0.0016838778
69	0x3d206c68	0.039165884
70	0x3cdb1a81	0.026746036
71	0xbc74bf98	-0.014938258
72	0x3d1f0c2e	0.038829975
73	0xbaceb00f	-0.0015769022
74	0x3d9ea28a	0.077458456
75	0x3db6ca9b	0.08925363
76	0x3d7d8f33	0.061904144
77	0x3db2cdd3	0.08730664
78	0x3da5f606	0.08103566
79	0xbc1e9738	-0.009679608
80	0x3d56bbf1	0.05242533
81	0x3d136046	0.035980485
82	0x3d9faeac	0.07796988
83	0xbc1fb01f	-0.00974658
84	0x3cec73b3	0.028863763
85	0x3de621cb	0.11236914
86	0x3df4f66e	0.11961065
87	0x3d84cc35	0.06484262
88	0x3d20b591	0.039235655
89	0x3cb9aa23	0.022664135
90	0x3c92910f	0.017891435
91	0x3d8529da	0.06502123
92	0x3d818dff	0.06325912
93	0x3e06b6c9	0.13155665
94	0xba8faf32	-0.0010962246
95	0x3d8f2683	0.069897674
96	0x3d48a934	0.04898949
97	0x3d77837e	0.060428135
98	0xbd3fa8db	-0.046791892
99	0xbd6a0d66	-0.057141684
100	0xbbee33c3	-0.007269354
101	0x3e279aad	0.16367598
102	0x3d5891d1	0.052873436
103	0xbc8fc925	-0.017551968
104	0x3d315a68	0.04329911
105	0x3b92454f	0.0044638286
106	0x3dbc05ae	0.09180771
107	0x3d5ed9d3	0.054406952
108	0xbd2ba4aa	-0.041905083
109	0x3d340841	0.043953184
110	0xbcafb852	-0.021450195
111	0x3d5cace2	0.05387581
112	0xbc5718d3	-0.013128477
113	0x3e03ef79	0.1288432
114	0x3df24c70	0.118309855
115	0x3ddecca3	0.10878875
116	0x3dbf10d5	0.09329382
117	0x3858b7df	5.1669656e-05
118	0x3d812758	0.06306332
119	0x3dfc4f5d	0.12319825
120	0x3d9e4ba9	0.07729275
121	0x3bcdd9e8	0.00628208
122	0x3d55890f	0.052132662
123	0x3d0ea682	0.034826763
124	0x3d1c7429	0.038196716
125	0x3d88c2ae	0.06677757
126	0x3d93b4eb	0.07212242
127	0x3e205a36	0.15659413
128	0xbdbf9fae	-0.09356628
129	0x3b70f12c	0.0036764843
130	0xbce5a7d7	-0.028034134
131	0xbd353bc0	-0.044246435
132	0x3cbefa1f	0.023312626
133	0xbd2c9870	-0.042137563
134	0x3d26fd6e	0.040769033
135	0x3bac000e	0.00524903
136	0xbdaeef6b	-0.08541759
137	0xbd1a190a	-0.037621535
138	0xbccfd35b	-0.025369337
139	0xbcb211a2	-0.021736924
140	0x3be210de	0.0068989834
141	0xbd20edae	-0.03928917
142	0xbc90d2e6	-0.01767869
143	0x3b09405a	0.0020942898
144	0xbdc6250c	-0.09675035
145	0xbd8cc843	-0.068741344
146	0xbd442881	-0.04789019
147	0xbdfaf7d9	-0.122543044
148	0xbb971e25	-0.004611748
149	0xbd692a50	-0.056925118
150	0x3bd96022	0.0066337744
151	0xbd22b3a1	-0.03972209
152	0xbe093f29	-0.13403
153	0xbcd80dca	-0.026373763
154	0xbd9bad48	-0.0760141
155	0xbd9107b5	-0.07081548
156	0xbce58bf4	-0.028020836
157	0xbc6028ed	-0.0136816325
158	0xbdeafe5a	-0.11474295
159	0xbcfb1cce	-0.030653384
160	0x3d3d7504	0.046254173
161	0xbd8b3789	-0.06797702
162	0xbd0f6820	-0.03501141
163	0x3d2d9112	0.042374678
164	0xbd435814	-0.04769142
165	0xbce47a3e	-0.02789032
166	0xbcfb2fc0	-0.030662417
167	0xbcc3b8d9	-0.023891853
168	0x3c9bbd0c	0.019011043
169	0xbc994d35	-0.018713573
170	0xbd9bcb89	-0.076071806
171	0xbd383cc9	-0.044979844
172	0xbc59648e	-0.013268603
173	0x3c4a62a3	0.012352618
174	0xbc93cfee	-0.018043485
175	0xbd400e02	-0.04688836
176	0xbda77b49	-0.08177812
177	0xbce21371	-0.027597161
178	0x3c0f6bbd	0.008753714
179	0x3aaab9bf	0.0013025327
180	0x3ae8e2c2	0.0017767774
181	0xbd23ab40	-0.03995824
182	0xbd10302a	-0.035202183
183	0x3cb9b584	0.022669561
184	0xbd7125a6	-0.058873795
185	0xbddb8abc	-0.10719821
186	0xbd451756	-0.048117958
187	0xbd6dc91e	-0.05805313
188	0xbdefc737	-0.11707919
189	0xbd3de181	-0.046357635
190	0xbd5704ca	-0.0524948
191	0xbd6278ec	-0.0552911
192	0xbd4c592b	-0.049889725
193	0xbd7c8b2a	-0.061656155
194	0xbc37d2dc	-0.011219706
195	0xbd851139	-0.064974256
196	0xbd0857b0	-0.03328675
197	0xbd179f34	-0.037017062
198	0xbcb0b1ae	-0.0215691
199	0xbb5e6484	-0.0033934424
200	0xbb8ff657	-0.0043933797
201	0xbc781031	-0.015140579
202	0xbdaf39f3	-0.08555975
203	0xbcc425de	-0.023943838
204	0xbd8cda08	-0.06877524
205	0xbd110009	-0.035400424
206	0xbd91646a	-0.070992306
207	0xbc72705d	-0.014797297
208	0xbcd453e9	-0.025918918
209	0xbbc8d765	-0.0061291927
210	0xbbb5d6ab	-0.005549272
211	0x3c81f472	0.01586363
212	0xbd7a540e	-0.061115317
213	0xbd984fa2	-0.07437064
214	0x3cb6a00e	0.022293117
215	0xbd1260f5	-0.035736997
216	0xbd7257af	-0.059165653
217	0xbd7d18e9	-0.061791334
218	0x39bfe447	0.0003660044
219	0xbcbc9586	-0.023020517
220	0xbdb15958	-0.08659619
221	0xbd100abb	-0.035166483
222	0xbd777bb5	-0.06042071
223	0xbcda1441	-0.026620986
224	0xbd0d19f8	-0.034448594
225	0xbca87c24	-0.020567007
226	0xbe104e3e	-0.14092347
227	0xbdbea1de	-0.093082175
228	0xbddd6c98	-0.10811728
229	0xbd3d0c7f	-0.046154495
230	0xbd42b35a	-0.047534324
231	0xbd3423e7	-0.04397955
232	0xbd5a5eb0	-0.053312957
233	0xba9dd6af	-0.001204213
234	0xbb33eb07	-0.002745332
235	0x3d133058	0.035934776
236	0x3ac8464c	0.0015279739
237	0xbd057f91	-0.03259236
238	0xbcff8fc4	-0.031196482
239	0xbd9ebc5a	-0.07750769
240	0xbc7c5593	-0.015401262
241	0xbdea95cc	-0.11454353
242	0xbc026586	-0.007958775
243	0x3d83f3b0	0.06442964
244	0xbdcffb5d	-0.101553656
245	0x3d2dd994	0.042443827
246	0xbc448206	-0.011993891
247	0xbcfb7261	-0.030694189
248	0x3d45a3a8	0.048251778
249	0xbc16f8ba	-0.0092145745
250	0xbd58a2ae	-0.05288952
251	0xbda3586c	-0.079758495
252	0xbdd97d2c	-0.10619578
253	0x3c4f8719	0.012666487
254	0xbd582665	-0.05277099
255	0xbd191a5b	-0.03737865

action_model._continuous_distribution.mu.bias f4 [2]
0	0x3d25f924	0.040520802
1	0xbc5ba1d4	-0.013405282
