Assets/Neural Networks/hideandseek_21/Hide_21.onnx (onnx, 229755 bytes, 9 tensors)

network_body._body_endoder.seq_layers.0.weight f4 [128, 177]
000000 59 1d d2 bc dc be 74 be 30 0e 37 3e 4e 69 e2 be
       -0.02564876 -0.23900932 0.17876506 -0.44220966
000010 64 5f 7c be 70 22 e0 bd 37 a7 ae 3d 6a 21 3a bf
       -0.24645764 -0.109440684 0.085279875 -0.72707236
000020 59 19 c1 3d bd 61 82 3e 21 bf 13 3f 41 bd 2b bf
       0.09428663 0.25465193 0.57713515 -0.67085654
000030 14 9f ff 3c ff 23 24 be 68 eb 5d 3d f0 6d a5 be
       0.031203784 -0.16029356 0.05417958 -0.32310438
000040 61 0b 91 bd 25 35 71 be 11 17 c6 3c 58 f8 da be
       -0.070822485 -0.2355543 0.02418092 -0.42767596
000050 bb 80 9c 3d 66 d1 8a 3e 4d 06 60 be d0 1d 3e bf
       0.07641741 0.27112883 -0.21877404 -0.7426424
000060 7a 5f d9 bc 50 46 48 3d c4 3b 0f bd 79 8a 66 3e
       -0.026534785 0.04889518 -0.034969106 0.2251376
000070 96 3c 0b bf 20 37 09 bf f4 6d e4 bc d3 96 1a bf
       -0.5438932 -0.5359974 -0.027884461 -0.6038639
000080 74 c5 0f bb 38 7f a6 3d 19 a4 8b 3e 2d 73 05 bf
       -0.002193776 0.08129734 0.27273634 -0.5212887
000090 d9 70 28 bd 41 a3 07 3e 91 f1 5e bd 86 32 90 bf
       -0.041123245 0.1324587 -0.054429594 -1.1265419
0000a0 7c ea 7b 3e df 67 b7 be 57 17 0b bd 67 9c c3 be
       0.24601167 -0.35821435 -0.033957805 -0.38205263
0000b0 a5 dd 2b bd c6 6b af bd 7c bc a0 bc 9b 6a 40 be
       -0.041959424 -0.08565478 -0.019621126 -0.18790667
0000c0 f4 56 f0 3d 7f 30 fa be 6b 56 84 3d f6 b8 92 be
       0.11735335 -0.48865125 0.064617954 -0.2865674
0000d0 b7 dc 49 3c c3 8f 87 be 55 0d 9f 3d 9f 74 f5 be
       0.012320689 -0.2647687 0.07766215 -0.47940537
0000e0 ad 1e a2 bc 96 43 08 bf 85 59 66 bd 5a 33 fe 3d
       -0.019790018 -0.5322813 -0.056237716 0.12412138
0000f0 98 28 76 bd dc 86 0d bf 84 ed 01 3b 4b 5e 53 3e
       -0.060097307 -0.55283904 0.0019825408 0.20641439
000100 79 6e ab bd ca 95 c8 be 02 a9 5d 3d 35 3f 1d bf
       -0.0837068 -0.3917678 0.054116257 -0.6142457
000110 ad 3c b0 bd 51 1a e3 3e fe f6 d2 3b d0 cb 59 3e
       -0.08605323 0.44356015 0.006438135 0.21269155
000120 a3 4c f7 bb 4a a7 29 bf 8e da 0f 3e 84 26 b3 3d
       -0.0075469776 -0.6627089 0.14048216 0.08747581
000130 0d 66 38 3e 9f cf d5 be 6e ab cc bd e3 fd db be
       0.1800768 -0.41759965 -0.09993635 -0.42967138
000140 65 d3 c1 3c 0b 6b d0 3e fd b9 ff bd f1 10 0a 3f
       0.023660371 0.40706667 -0.12486646 0.539321
000150 2c 0b 20 3e 96 d6 da be 05 56 52 3e ef 70 63 3f
       0.15629262 -0.4274184 0.20540626 0.888442
000160 d9 d8 77 be 2c 02 56 be aa d3 d1 3d 2c e5 32 bf
       -0.24203815 -0.20899266 0.1024545 -0.6988094
000170 21 f1 26 bd b9 c6 cb be c4 0b 1f 3f be ee 4a 3d
       -0.040757302 -0.3980005 0.6212733 0.04954409
000180 bf f6 9e 3c dc 38 c6 be 0d bf 8c bd 22 1f a4 be
       0.019404767 -0.38715255 -0.068723775 -0.32055002
000190 11 6a 9a 3e 18 c9 9c 3d 38 9f 47 3d e1 96 f2 be
       0.30159047 0.07655543 0.048735827 -0.47380736
0001a0 b1 6c 42 3e 22 99 f2 3b ea a8 a6 bc 28 28 3a 3e
       0.18986775 0.0074035088 -0.020344216 0.18179381
0001b0 a6 07 01 3e 5a 28 e2 be f4 c4 1c be e5 d7 f2 be
       0.12600574 -0.4417141 -0.15309507 -0.4743034
0001c0 01 c7 2e 3e 94 94 49 be 76 d8 ac bd cd 67 1f bf
       0.17068101 -0.19685584 -0.08439724 -0.6226776
0001d0 1f f8 44 ba 9a 9e ec be 8b 95 47 be bf 74 0c 3c
       -0.00075137796 -0.46214753 -0.1949064 0.008572756
0001e0 2f b1 63 bd 85 66 0e bf 2f 7c 61 3d e6 a3 2b bf
       -0.055588897 -0.5562518 0.05505007 -0.67046964
0001f0 78 63 dd 3d ce 38 be be 4c b2 a6 bb f2 f5 19 bf
       0.10809988 -0.37152714 -0.0050871726 -0.6014091
000200 6b 92 2b bd 07 e1 0c bc ed 20 b2 bd 25 a9 8f be
       -0.041887682 -0.008598573 -0.08697686 -0.28058735
000210 53 b5 a3 3c ec 9c 20 bf 95 db bd 3d 7e 92 c9 bd
       0.019983923 -0.62739444 0.092703976 -0.09842394
000220 5f 18 6c bd bd 5e 16 bf 5b fa 55 bc 2b 0a 0e bf
       -0.05764043 -0.5873831 -0.013060178 -0.55484265
000230 b9 ff 02 3e aa 88 07 bf 2a a1 b0 bb a9 19 03 be
       0.12792863 -0.5294291 -0.005390306 -0.12802757
000240 9a 0e 7d bc 25 54 10 bf 43 02 8f bc 25 a2 be 3e
       -0.015445376 -0.56378394 -0.017457133 0.3723308
000250 59 3c 26 bd 9c 74 35 bf d4 88 cf ba ca ee 01 bf
       -0.040584896 -0.70881057 -0.0015833625 -0.5075499
000260 d6 4b 1f be 5d 6f 7f 3d 57 66 cc 3d f0 bf 99 be
       -0.15556273 0.062362064 0.09980457 -0.3002925
000270 3e 15 91 3c bf 2d 7e be 26 c8 f5 3b b0 a8 cd be
       0.017710324 -0.24822138 0.007500666 -0.4016776
000280 34 da 67 3d e4 34 34 bf aa e5 33 ba 05 cd aa be
       0.05660458 -0.70393205 -0.0006862531 -0.33359542
000290 e2 e7 70 be de ab 27 3d c4 62 29 3e e6 99 9a be
       -0.23525956 0.04093539 0.16541582 -0.3019554
0002a0 9e d6 44 be d1 df 31 bf c1 9b 94 bd 15 49 4b 3d
       -0.19222495 -0.6948214 -0.0725627 0.049630243
0002b0 a2 75 4f be 03 dd 06 bb 30 e7 c5 bc b1 01 0b bf
       -0.20259717 -0.002057851 -0.02415809 -0.54299456
0002c0 f3 df 24 bd ca d0 ce 3d f7 1e 9b bc 9c c6 18 3e
       -0.040252637 0.10098417 -0.018935664 0.14919513
0002d0 c0 d0 a6 3d 2e d9 f3 be 7b 96 0a bf a9 ea 3c bb
       0.08145285 -0.47626632 -0.54135865 -0.0028826392
0002e0 9a 8b 08 bf 88 39 e9 3d 72 60 c4 3e 66 59 7d be
       -0.53338015 0.11387926 0.38354832 -0.24741134
0002f0 24 5b 07 bf 00 64 1b 3e 7e 88 fa be f1 78 23 be
       -0.52873445 0.15174866 -0.4893226 -0.15964104
000300 9b db cb 3e 7c 9b 0a bf 20 b9 29 bf 34 05 65 bd
       0.39815983 -0.541435 -0.66298103 -0.055913165
000310 f3 e7 b2 be e5 93 b6 bd 72 34 d9 be 56 17 52 be
       -0.34942588 -0.089149274 -0.42422825 -0.20516714
000320 49 d2 bc be 67 2a c1 3d 61 3d da be cf bc 4d bd
       -0.36879185 0.09431916 -0.42624953 -0.05022889
000330 c0 25 98 bd 32 2f e1 be 3f b6 36 bf 96 b1 b3 3d
       -0.07429075 -0.4398132 -0.71371835 0.08774106
000340 0b 4f b4 be 19 57 cd 3c 95 f1 10 be d3 68 3b be
       -0.35216555 0.025065945 -0.14154656 -0.18301706
000350 28 54 e3 be 3d f1 04 ba 4d e0 d0 be 57 e0 ee bd
       -0.44400144 -0.00050713477 -0.40796128 -0.11663883
000360 db c9 df bd 80 36 fc bd 55 ff 18 bf 77 11 9a 3c
       -0.10927173 -0.123150826 -0.59764606 0.018807156
000370 3b 0b e9 be fb a6 c0 3a 0b 7d 11 bf 20 b6 91 3d
       -0.4551638 0.0014698202 -0.56831425 0.07114816
000380 b3 46 12 bf f8 96 33 be 83 dc 01 bf c2 1f 40 be
       -0.5713913 -0.17538059 -0.507271 -0.18762115
000390 91 aa a6 be e3 71 4b bd ce 64 35 bf 68 dd ae 3c
       -0.32552007 -0.049669158 -0.7085694 0.02134581
0003a0 34 7d 12 bf 3b be f4 3d d9 27 c8 be 13 a5 8f bd
       -0.57222295 0.11950346 -0.390929 -0.07013907
0003b0 d9 8c e7 be 59 51 51 bd d5 9a e1 be 82 c6 78 3e
       -0.45224646 -0.05110297 -0.4406344 0.24294475
0003c0 8a 05 5b 3e 32 73 c3 bc b2 52 16 bf d6 b7 59 3c
       0.21388832 -0.02385864 -0.58719933 0.013288459
0003d0 6c e7 07 bf 91 ab dc 3b 55 5f e6 bd f6 8b 07 be
       -0.53087497 0.0067343195 -0.11248652 -0.13236985
0003e0 0d f6 c4 be f6 08 80 bd d9 ec 01 bf 70 82 70 3e
       -0.38468972 -0.06251709 -0.50752026 0.23487258
0003f0 6b 4f 0a be a0 29 ab be e5 df e8 be c0 1f 1d be
       -0.13506858 -0.33430195 -0.45483318 -0.15344143

network_body._body_endoder.seq_layers.0.bias f4 [128]
000000 4d 19 09 bf 95 9f 27 bf db f8 1c bf 71 06 b9 be
       -0.5355423 -0.6547788 -0.61317223 -0.36137727
000010 33 59 3d be 5e 8f e6 be 68 37 fa be ee 88 bc be
       -0.18491058 -0.45031255 -0.48870397 -0.3682322
000020 4e 45 49 3f e3 51 1d bf f9 a9 eb be 92 0d ee be
       0.78621376 -0.61453074 -0.46028116 -0.46494728
000030 d4 a9 1a bf ea eb 0b bf e3 c8 15 bf a5 46 01 bf
       -0.6041539 -0.5465685 -0.58509654 -0.5049842
000040 7d ab 2a bf 0e 2f 1c bf 9c 56 8c be 92 0c 0f bf
       -0.6666792 -0.610093 -0.27409828 -0.55878556
000050 4f f5 d5 be 9f 6c f9 be 9c 7d 1e bf 0b fa e6 be
       -0.41788718 -0.48715684 -0.61910415 -0.45112643
000060 e3 62 0e bf 23 5e 03 bf 43 8b a8 be 15 79 29 bf
       -0.5561964 -0.51315516 -0.32918748 -0.6620038
000070 03 0c 25 bf df 47 a7 be 40 de 0c bf 16 13 31 bf
       -0.64471453 -0.3267202 -0.55026627 -0.6916975
000080 f1 27 db 3e f8 2d d0 be d9 a2 19 bf 9c 46 b7 3c
       0.4280391 -0.4066007 -0.6001411 0.022372536
000090 d1 7d 34 bf 1d fb 17 bf 3d 48 17 bf ac ff 09 3c
       -0.7050448 -0.59367543 -0.590946 0.008422773
0000a0 eb 29 a6 be 15 80 cb 3e 36 aa f2 be 45 3a 23 bf
       -0.32453856 0.39746156 -0.47395486 -0.6376079
0000b0 4c 20 2d bf ad 1c 27 bf e7 8a 17 bf 44 e5 67 be
       -0.67627406 -0.6527813 -0.59196323 -0.22646052
0000c0 bd a2 0f bf 34 1b 0f bf 29 b5 1a 3f 8e 53 32 bf
       -0.56107694 -0.55900884 0.6043268 -0.69658744
0000d0 df 3b 92 be f2 1c 04 bf ef 57 53 bf 5c 1d e0 be
       -0.28561303 -0.5160667 -0.8255605 -0.437724
0000e0 0c 97 1f bf 1e e2 2e bf ab 6c 11 bf b8 4c 90 be
       -0.62339854 -0.6831378 -0.5680644 -0.28183532
0000f0 84 80 c8 3e 47 72 51 bf 4f 2f 1c bf 0f c8 0e bf
       0.3916055 -0.81815 -0.6100969 -0.55774015
000100 45 ae f5 be 52 48 04 bf 03 ec 28 bf 96 c0 14 bf
       -0.4798452 -0.5167285 -0.65985125 -0.5810636
000110 0d 11 11 bf 75 47 26 bf f3 91 1b bf 4d cd 24 bf
       -0.5666664 -0.64952785 -0.60769576 -0.64375764
000120 77 d6 23 bf fe 88 01 bf 75 17 96 3d d5 bc 17 bf
       -0.6399912 -0.5059966 0.07328693 -0.5927251
000130 23 4a 0f bf eb 53 0b 3f f0 b7 1b bf ed ab 0f bf
       -0.559725 0.54424924 -0.6082754 -0.5612171
000140 a1 65 fc be 2e 03 d9 be 97 cd 20 bf 68 f5 0b bf
       -0.49296287 -0.42385238 -0.62813705 -0.54671335
000150 8a 1b 15 3f cb 0f 3e bf 46 57 13 bf 8d 69 2d bf
       0.58245146 -0.7424285 -0.57555044 -0.6773918
000160 63 d6 16 bf c5 d7 17 bf c3 88 02 bf e7 a4 c2 3e
       -0.5892088 -0.59313613 -0.5098993 0.38016436
000170 60 66 49 bf 8e c0 39 bf 12 db 19 bf 63 54 4f 3f
       -0.78671837 -0.7255944 -0.600999 0.8098814
000180 f8 1b 12 bf 95 2a 59 bc 0e 38 b5 be bb 7e 38 bf
       -0.57073927 -0.013254781 -0.3539433 -0.72068375
000190 3c 54 4d bf 8a 53 e6 be 87 6b 0b bf a9 25 e5 be
       -0.80206656 -0.4498561 -0.5446095 -0.44755295
0001a0 de 28 02 bf 5d 25 16 bf a3 34 12 bf 89 d0 36 bf
       -0.5084361 -0.5865076 -0.5711157 -0.7141195
0001b0 90 0f 2a bf 76 ea db be b0 5b f1 be 91 e6 18 bf
       -0.66429996 -0.42952317 -0.47140265 -0.59726816
0001c0 5c fc 12 bf 88 82 26 bf 25 18 de 3e 33 9f 2d bf
       -0.5741632 -0.65042925 0.43377796 -0.67821044
0001d0 1f 10 fc 3e d3 86 12 bf 6a 02 d0 be c0 6e 4c bf
       0.4923105 -0.57236975 -0.40626842 -0.7985649
0001e0 09 00 e7 be 58 13 87 be 76 9b 44 bf 04 a5 5d bf
       -0.45117214 -0.26381946 -0.76799715 -0.8657992
0001f0 d2 95 1c bf 04 47 09 bf 9a 93 1d bf 84 fc 03 bf
       -0.6116611 -0.53623986 -0.6155335 -0.51557183

network_body._body_endoder.seq_layers.2.weight f4 [128, 128]
000000 1b 42 a5 3d 5e 60 71 3d 70 96 38 3f 41 3f db bd
       0.08069249 0.058929794 0.7210455 -0.10705424
000010 a6 12 0e 3f 89 ef 8d be 7b 11 e9 3d 15 bf 91 be
       0.55497205 -0.27721813 0.11380287 -0.28466097
000020 f2 eb 27 bf e0 b6 50 3c 14 0e 90 3e 88 ab 49 bd
       -0.655944 0.012738913 0.2813574 -0.04923585
000030 3d 05 20 3e 2f 7f 66 3d 2d 78 26 3e a7 90 de 3d
       0.15626998 0.056273635 0.16256781 0.10867434
000040 a7 8c 23 be c5 61 45 3e b8 7e 21 3e ba df 86 bb
       -0.15971623 0.19275577 0.15770996 -0.0041160258
000050 96 a8 17 bb a2 10 05 3e f9 d8 34 3e a9 34 2e bc
       -0.0023141257 0.12994626 0.17660893 -0.010632672
000060 b1 5c c1 3e 57 72 46 bc 03 09 c7 3e 2a a6 97 3d
       0.3776603 -0.012112222 0.38874063 0.0740474
000070 af 28 40 bc e2 cc c7 bc 49 6f a7 3e c4 e0 f4 3d
       -0.01172845 -0.024389688 0.3270209 0.11956933
000080 7a a4 f3 bd 99 40 3f 3e 90 0e c5 bc b4 90 94 bf
       -0.11896606 0.18676986 -0.024054796 -1.160666
000090 16 0f b3 bc 80 2d 28 bd 7e da fa 3d 8f c9 9f 3d
       -0.02185778 -0.041059017 0.12248705 0.07802116
0000a0 75 81 65 3e 2e ac 99 be 03 d0 4a be de 36 b3 3e
       0.22412665 -0.30014175 -0.19805913 0.35002798
0000b0 8f a4 99 bc ff 0e 49 3e c6 7e 89 bc 53 3d 56 bd
       -0.018755225 0.19634627 -0.016784083 -0.052304577
0000c0 08 87 26 3e ae 75 a1 3d bd 48 b9 bd 4b e7 f3 3d
       0.16262448 0.07883774 -0.09047077 0.1190935
0000d0 74 6d 9e bd b0 a6 a2 3e a3 2f 57 bf 63 fd b5 3e
       -0.0773572 0.31767797 -0.8405706 0.3554488
0000e0 a7 c3 8b 3e b9 46 90 3e 30 27 b0 3e f5 3c c2 be
       0.27297708 0.28178957 0.34404898 -0.37937132
0000f0 4b bf cd be c7 48 a6 be 6c 1b cc 3e a9 63 c3 bd
       -0.40185007 -0.324774 0.3986467 -0.09540493
000100 92 7f 1e 3e b5 1a 68 bd ee c5 38 3e ae 4a 2c 3e
       0.15478352 -0.056666095 0.18044254 0.16825363
000110 7b f0 94 3e 89 a1 b7 3e d8 e4 82 be 84 42 66 3d
       0.29089722 0.3586543 -0.2556522 0.056215778
000120 8c ce 01 be 4d b5 9c 3d 35 56 f0 be 9c e6 93 bd
       -0.12676448 0.07651768 -0.4694077 -0.072217196
000130 2c 91 cc 3c 1d f3 4f be 23 1d 15 be 48 12 24 be
       0.024971567 -0.20307584 -0.14561896 -0.16022599
000140 5c d3 a6 bd 00 ad 1e 3f 37 39 00 3d 94 68 9f 3d
       -0.08145782 0.6198273 0.031304564 0.077836186
000150 3c 54 8b bf 88 58 8a be f7 0e ee be 10 f1 8a 3e
       -1.0885081 -0.2702067 -0.46495792 0.2713704
000160 ea ef f1 3c 62 4f 1f 3d 55 7d 3c 3e 0b 2e c3 be
       0.029533345 0.038894065 0.18407185 -0.38121065
000170 1f 9c cb 3d 59 68 62 bd 67 e3 44 be 7c 38 c8 be
       0.09941887 -0.055275295 -0.19227372 -0.39105594
000180 ad f5 ab 3c e7 f3 09 3e 69 30 64 3d 86 83 a3 bd
       0.02099117 0.13471948 0.05571023 -0.079840705
000190 16 b4 14 be fa 5b f2 bd c8 e6 99 3d ce b2 e9 3e
       -0.14521822 -0.118339494 0.07514721 0.4564423
0001a0 8d 1e 58 3c 85 fd 90 3d 0c 1b be 3d 77 92 97 bc
       0.013190878 0.07079605 0.092825025 -0.018502457
0001b0 58 36 c4 bd 16 24 ba bd 9b e2 04 3f 42 a4 87 be
       -0.09580678 -0.09088914 0.5190827 -0.26492506
0001c0 8f b6 80 3e 58 03 29 3e 22 6b d4 be 08 8a d4 3e
       0.2513928 0.16505182 -0.41487986 0.4151156
0001d0 70 6b 57 be 77 cc ad 3e f0 11 79 be 64 b6 6c 3e
       -0.21037078 0.33945057 -0.24323249 0.23116452
0001e0 cc 78 b6 3e e6 0a 93 3d ed 0a c8 3d 25 3b 29 bf
       0.35639036 0.07179813 0.09767709 -0.6610587
0001f0 4b 0f 46 3d 9b df 02 3e 0c ce ff bd f5 73 9b bd
       0.04835443 0.12780611 -0.12490472 -0.075904764
000200 bc 44 a8 be 8c da 81 3d 74 87 00 3e e0 12 95 3e
       -0.3286494 0.06340513 0.12551671 0.29115963
000210 2e 11 11 3f 34 e7 bb bd ee e2 67 3e d2 de 70 bd
       0.5666684 -0.09174958 0.2264516 -0.058806248
000220 85 18 15 bf 9a 2a 23 3e 5a 79 2c bd 3e a4 e1 bc
       -0.5824054 0.1593422 -0.042107917 -0.027544137
000230 7b 58 1c be 99 f3 dd 3d 5f 23 03 3e c7 de 95 3d
       -0.15268128 0.10837478 0.12806462 0.07317882
000240 ea 41 0f be 22 46 0b bd d7 ab 39 be c5 86 be bc
       -0.13989988 -0.03400243 -0.18131958 -0.023257622
000250 8f 4c 94 3c 83 fd b2 3c 53 41 35 3c 7c af bb 3e
       0.018102912 0.0218494 0.011062938 0.3665732
000260 96 d6 f4 3e 0e a2 d9 bd dc b0 a8 3e aa cb ed 3d
       0.47819966 -0.106266126 0.32947433 0.116111115
000270 6e 25 10 3e 5b b5 e8 bd 93 a2 51 3d a1 19 24 bd
       0.14076778 -0.11362716 0.051180433 -0.040063504
000280 b1 87 29 bf f7 12 1d be 21 65 9e be 46 7b 26 3f
       -0.66222674 -0.15339266 -0.3093653 0.6503185
000290 c0 9f 8e 3b 74 8b 41 3e e6 ce e0 bd ed f0 80 be
       0.00435254 0.18900853 -0.10976963 -0.25183812
0002a0 eb 8c 8d be b9 5b 9e be b9 a4 42 be 4e cc 58 bd
       -0.27646574 -0.30929354 -0.19008149 -0.052929215
0002b0 67 78 13 be 9e f6 2b 3d ad 76 38 bd d8 52 84 bf
       -0.14401399 0.04198324 -0.045035053 -1.0337782
0002c0 03 4e 2c be ee a9 a1 3d 43 14 68 bf ab 26 70 be
       -0.16826634 0.0789374 -0.90655917 -0.2345225
0002d0 11 0f 16 bf a7 3a 7b 3d c6 d3 33 be 90 c3 32 3d
       -0.5861674 0.061335232 -0.17561254 0.043643534
0002e0 cc 95 c6 3d b1 f3 a4 3e 76 c1 07 3e dc e2 bb be
       0.0969654 0.32217172 0.13257393 -0.36696517
0002f0 94 11 14 3f 81 1f 88 3e f0 c0 ac be 5f 7a b8 be
       0.5783932 0.26586536 -0.3374095 -0.36030862
000300 52 d5 09 bf d5 ba 98 3e de 9c 9f 3e 2a 3e 41 3e
       -0.53841126 0.29830042 0.31174368 0.1887137
000310 93 96 9d bd a2 da 2d be 55 58 67 bd 14 34 dc bc
       -0.076947354 -0.16977933 -0.056480724 -0.026880302
000320 7a 56 eb 3d 73 bc ea bd 4b 72 4f 3f c9 09 32 3c
       0.114911035 -0.11461725 0.8103377 0.010866591
000330 ed 43 27 bc 97 72 92 3c 9b 50 85 bd dc 83 c1 be
       -0.010209066 0.017876906 -0.06509515 -0.37795913
000340 5b 00 38 3d d6 c3 7e be 2f 3d 64 3e 89 c4 3c 3e
       0.044922214 -0.24879393 0.22288965 0.18434347
000350 4b a5 24 3e 8d 57 a3 be f5 56 d6 bc e0 34 b4 be
       0.1607868 -0.31902733 -0.026164511 -0.3519659
000360 20 ec 25 3e 8c f7 95 3e 20 12 df 3c 66 0b d1 be
       0.16203356 0.29290426 0.027230322 -0.4082901
000370 9b dc 77 3d dd 54 e1 3d 04 44 ae bd 5a 50 d5 be
       0.06051312 0.110025145 -0.08509067 -0.41662866
000380 0c 42 01 bd aa 84 2f bf 29 d9 a7 3e ea 72 05 3e
       -0.031557128 -0.68561804 0.32782868 0.13032117
000390 3b c0 b9 bd 11 58 57 be 3a ea 8e 3e ef e6 4d be
       -0.09069868 -0.21029688 0.27913076 -0.20107625
0003a0 8d 20 d7 be 7b 20 93 3d 7d a4 93 3d ac 8b 6c bd
       -0.42017022 0.071839295 0.07209108 -0.05775039
0003b0 e1 d2 b6 be 57 7b 9b 3e a5 16 12 3e 6c dc ed 3d
       -0.35707763 0.30367538 0.1426645 0.11614308
0003c0 e4 35 ba be 3f c7 a4 3c d1 c8 5e bf 80 f0 d6 3d
       -0.3636924 0.02011454 -0.8702517 0.104950905
0003d0 4c c6 38 3e 20 13 15 3e 46 6e 21 3e bd 8b 76 be
       0.18044394 0.14558077 0.15764722 -0.24076743
0003e0 12 45 0e bf 05 34 53 3e fb 95 2c 3e 40 2a b9 3e
       -0.5557414 0.20625313 0.16854088 0.36165047
0003f0 14 54 8a be 90 a4 55 3d 8d 50 f4 be 61 68 b4 be
       -0.27017272 0.052158892 -0.47717705 -0.35235885

network_body._body_endoder.seq_layers.2.bias f4 [128]
000000 22 64 3c be d8 21 7f bf 7e 6e 3b bf e3 69 0d be
       -0.18397573 -0.99661016 -0.7321547 -0.13809924
000010 cd 42 45 bf 69 e7 28 bf 05 ea 89 3e 61 a6 5b 3e
       -0.77055055 -0.65978104 0.26936355 0.21450187
000020 5e db e7 3b 0b 1b 53 be ea df 52 be 82 73 8f 3f
       0.007075711 -0.20615785 -0.20593229 1.1207125
000030 ba d4 9a be 87 52 ee be 01 4d 7e bf 52 d5 fe be
       -0.30240422 -0.46547338 -0.9933625 -0.49772125
000040 b2 8c 33 bf c0 cc c9 bd 7f a8 09 bf 37 7c 31 bf
       -0.7013656 -0.09853506 -0.5377273 -0.6933016
000050 2f c4 96 be 5d 72 b0 3d 43 99 1e bf ab f1 91 be
       -0.2944655 0.08615563 -0.6195261 -0.2850469
000060 89 30 03 bd 34 5a ed be ba 3e 70 3e da 18 6d bf
       -0.03202871 -0.46357882 0.23461428 -0.92616045
000070 01 e9 99 3f 61 ae 0f bf 66 70 99 bd 1f 95 91 3c
       1.2024232 -0.56125456 -0.074921414 0.017771302
000080 3e 83 75 bd 2d 07 45 3d a9 06 46 be 45 dd 34 3e
       -0.059939615 0.048102546 -0.19338478 0.17662533
000090 76 9a b1 be 56 19 12 3c af dd 8f bf be 4b 6c bf
       -0.34688157 0.008917173 -1.1239527 -0.92303073
0000a0 59 e2 08 3f 1a c3 90 3e 2f a1 4e bf d1 42 3f bf
       0.5347038 0.2827385 -0.80714697 -0.7471133
0000b0 73 d9 a2 3e 6a 3a 44 bf 30 7e 1d 3f a3 34 f3 be
       0.31806526 -0.7665163 0.6152067 -0.47501096
0000c0 b9 aa 81 3f 4f 51 20 bf d7 d6 88 3e ff ea b8 3d
       1.0130225 -0.6262407 0.2672641 0.09029197
0000d0 17 3d 7a bf 48 ec 1d bf 56 ba a2 bf 3d c0 32 be
       -0.97749466 -0.6168866 -1.2713115 -0.17456146
0000e0 21 8d 5f 3f 36 a7 15 bf 02 51 98 be 92 cf 8e be
       0.8732472 -0.5845827 -0.29749304 -0.2789274
0000f0 0b f0 0e be ff f3 b8 be 1d 13 ea be 01 bb 51 3e
       -0.13958757 -0.36123654 -0.45717707 0.20481493
000100 3c 6f 2e bf 44 d3 74 3f d1 14 ea be c0 77 43 be
       -0.6813848 0.95634866 -0.45719007 -0.1908865
000110 93 83 fb 3e da 99 29 3e 06 08 5c be 20 a3 0f 3e
       0.4912382 0.16562596 -0.21487436 0.14027071
000120 4f ff 68 bf b0 35 9c bc 23 a2 af be cc 0e 00 bf
       -0.9101457 -0.019068569 -0.34303388 -0.5002258
000130 ce c1 a0 be 78 2c 96 bf 31 1e 42 be d3 c4 cc 3e
       -0.3139786 -1.1732321 -0.1895683 0.39993915
000140 7b dd f9 bd c0 1c 53 3e 76 27 95 be c7 9e 33 bf
       -0.12200447 0.20616436 -0.2913167 -0.7016415
000150 e5 9c c9 bf f5 d0 f1 3e 25 72 d8 be 52 51 52 3e
       -1.5751005 0.47229734 -0.42274585 0.20538834
000160 0e 16 2c 3f 40 0c e6 3d dd 9c 2f bf fc 1b e0 be
       0.6722115 0.11232805 -0.6859873 -0.4377135
000170 6c 47 d6 3e cc 17 22 3f d6 12 da 3e 4e 20 d7 be
       0.41851366 0.6331756 0.42592496 -0.42016834
000180 82 71 1d bf c1 f9 25 bf 4a 6e 23 3f 15 b8 5c bf
       -0.61501324 -0.6483422 0.6384016 -0.86218387
000190 21 11 58 be b4 94 e6 bd 3a a7 1e bf 8c b6 81 be
       -0.21100284 -0.112588316 -0.6197392 -0.25334585
0001a0 de e5 90 3f fd 5e e1 be 27 33 06 bf 4f df 7a 3e
       1.132015 -0.44017783 -0.524218 0.24499248
0001b0 20 0e cb 3e 0f 29 3f bf 39 a8 01 3f 45 a8 03 be
       0.39659214 -0.74672025 0.5064731 -0.12857158
0001c0 43 cb 0b be 76 5c 0e bf 52 c3 f0 be 49 49 64 3c
       -0.13651757 -0.55609834 -0.47024018 0.013933488
0001d0 df 4a d0 3d cf c5 07 3e 54 ca a2 3c e2 01 04 3e
       0.101705305 0.13259052 0.019871868 0.12891343
0001e0 92 db 0d bf 39 5c d1 3d 18 a4 56 3f 9b d8 1c be
       -0.5541316 0.10222668 0.8384414 -0.15317003
0001f0 03 6c 8b 3c 71 78 16 3f 5c f1 5d be 87 6c 0d be
       0.017019277 0.5877753 -0.21674103 -0.13810931

network_body._body_endoder.seq_layers.4.weight f4 [128, 128]
000000 4d 8e 24 be 2b 2c 1f be 20 ad 1b bd 7b 95 c9 bd
       -0.16069908 -0.15544192 -0.0380069 -0.09842964
000010 d7 3e d6 bc 91 a2 20 3d f0 9a 06 bd 05 01 bc bb
       -0.026153011 0.039217535 -0.032862604 -0.005737426
000020 a2 56 cd bd a6 ce 1a be 39 b7 d9 3c 81 ae 67 bd
       -0.100262895 -0.15117893 0.026576625 -0.056562904
000030 28 b6 34 be 5e 6e 20 be 2b 55 b1 bd 6b 1d 8f be
       -0.17647612 -0.15667102 -0.086588226 -0.27952132
000040 0d 0f 66 be 2b 2e 27 be 9f d0 70 3c f4 8e a8 bd
       -0.22466679 -0.16326205 0.014698177 -0.08230391
000050 76 0e 57 be 33 a1 6d bd 55 88 55 be c4 98 a7 bd
       -0.2100161 -0.05801506 -0.20852788 -0.081834346
000060 08 cb d7 bd 45 f9 3f 3d 44 b1 42 be 0e 87 6d bc
       -0.10536772 0.04686858 -0.19012934 -0.014497532
000070 cc 95 30 3d 00 54 e4 3c c0 16 72 be f0 bb 58 bd
       0.043111607 0.027872086 -0.23641491 -0.052913606
000080 ac e7 49 be 86 7d 69 bd a1 59 0d 3d ed 14 7a be
       -0.19717282 -0.057004474 0.034509305 -0.24422045
000090 9c bf 9e be 49 dd 75 3b 66 ac c9 3d 6b e2 57 bc
       -0.3100556 0.003751593 0.098473355 -0.013176541
0000a0 c6 c4 58 3d 4c af 78 3e a2 2e 92 3d 94 50 22 bd
       0.052922033 0.2428562 0.07137801 -0.039627627
0000b0 dc 04 aa bd c4 bf 3a be 85 90 be bc c7 7b c7 3d
       -0.08301708 -0.18237215 -0.023262272 0.097404055
0000c0 a7 28 8f 3c c9 0e dc bd fa 21 3d be 7c 71 3a 3e
       0.01747544 -0.107450075 -0.18469992 0.18207353
0000d0 97 65 06 3e 67 1b ba bd 0e 35 b4 bd 5a c7 b0 bd
       0.13124691 -0.09087258 -0.08799182 -0.08631773
0000e0 08 ac 93 bd 86 05 92 3c a6 4b db bd c8 33 81 be
       -0.07210547 0.0178249 -0.10707788 -0.25234818
0000f0 ea ab 13 3d 4a 72 c3 bd cc 0a 1d bd 63 30 0c be
       0.036052622 -0.09543283 -0.038340375 -0.13690333
000100 d4 42 02 bd 4c f7 17 be e9 06 5e 3d ca a2 fa bc
       -0.031802014 -0.1484043 0.05420581 -0.030595202
000110 d1 68 0a 3d 08 d4 7a be 02 3e 64 bd 32 5b fa bc
       0.033791367 -0.24494946 -0.055723198 -0.030561063
000120 b7 49 48 3c 35 a4 bc 3d 38 f7 38 bd 0b 0b 37 3d
       0.012224606 0.092110075 -0.04515764 0.044688266
000130 5a b6 11 be 29 a2 14 bd 12 ec ad bd 20 29 9d 3d
       -0.14229718 -0.03628746 -0.084922925 0.076738596
000140 41 3f b3 bd 2b fb 36 be e5 75 2b be 89 e2 bf bc
       -0.08752299 -0.1786925 -0.16744192 -0.02342345
000150 4b ca b4 3d b0 25 7b 3d 07 83 f0 3d 15 9c a7 bc
       0.08827647 0.06131524 0.117437415 -0.020460168
000160 c0 3e d7 bd b2 31 51 bc 31 da 6d bd 65 8a 23 3e
       -0.105100155 -0.012768196 -0.05806941 0.15970762
000170 be c1 34 be da 3c 30 3e e5 39 1b 3d ed f0 80 3d
       -0.17652032 0.17210713 0.03789701 0.06295953
000180 bb 27 da 3d 96 70 18 be c2 58 26 3e 85 c7 d7 bc
       0.10652109 -0.14886698 0.16244796 -0.026340256
000190 83 6c a2 bd 7f 84 a4 be 7d f0 c7 3c d0 99 4e be
       -0.07930853 -0.32132336 0.024406666 -0.20175862
0001a0 9d a6 8e 3d d3 88 0e 3e 84 3b 1f be f6 a4 42 be
       0.06965373 0.13919382 -0.15550047 -0.1900824
0001b0 97 c2 9e 3d 09 fe 07 be 63 e4 61 bd 13 20 f1 3d
       0.07751959 -0.132805 -0.055149447 0.11773696
0001c0 50 6c aa bc fb 9b 5f 3e 21 8e 2a bd ab 08 b2 bd
       -0.0208036 0.21836846 -0.04163945 -0.086930595
0001d0 77 1f d3 3c 0a c4 8e bd d3 f4 27 be 99 26 77 bc
       0.02577184 -0.06970985 -0.16401987 -0.015084886
0001e0 03 0e 94 3e 8f 12 06 bd 24 23 46 3e 31 87 a8 3c
       0.2891694 -0.032732543 0.19349343 0.020572277
0001f0 73 26 da bd b6 75 e2 3c eb 74 09 be 80 bc 21 3d
       -0.10651865 0.02764402 -0.13423507 0.03948641
000200 f0 95 a2 bd fc b3 bf bc c2 aa 25 be 90 7c f7 bc
       -0.079387546 -0.023401253 -0.1617842 -0.030210763
000210 10 c6 ae bd 36 e7 31 3e 3c 4d 2a bd df 1e 0d 3d
       -0.08533871 0.17373356 -0.041577563 0.03445327
000220 37 41 2f be e7 56 54 3d b3 c2 47 be c6 dc de 3b
       -0.17114721 0.05184069 -0.19507866 0.0068012206
000230 1a 81 cc bc 76 2b c0 3d ca a5 4a be ae 29 f5 3d
       -0.024963904 0.093832895 -0.19789806 0.119708404
000240 32 d6 db 3d f2 83 23 3e de f6 15 be 1f a5 4c be
       0.10734214 0.15968302 -0.14644954 -0.19984864
000250 bd c1 d3 bd 96 20 3f 3e 62 9e b1 bd 26 9b c9 bd
       -0.10339687 0.18664774 -0.08672787 -0.09844045
000260 75 59 73 bd 2d 34 43 3e a8 b6 01 bb 72 5e f4 bd
       -0.059411485 0.19062872 -0.001979271 -0.119320765
000270 07 96 82 be 16 ed 1a be b3 0d 06 be a7 7e 45 3e
       -0.25505087 -0.15129504 -0.13091163 0.19286595
000280 26 09 f9 bc ab 68 c4 3a 50 96 f1 bd 59 bf a3 bd
       -0.03039987 0.0014984807 -0.11796248 -0.07995481
000290 d5 61 c9 3d 68 c3 d1 bd 86 8a 76 3e d2 7a 89 bd
       0.09833113 -0.10242349 0.2407628 -0.06712879
0002a0 eb f3 d0 bd 6c 05 aa 3d 51 f7 93 bd 77 a0 05 3d
       -0.10202774 0.083018154 -0.07224906 0.032623734
0002b0 44 ff 51 be 46 b0 63 3e b9 d4 47 be af bc 7e 3c
       -0.20507532 0.22235212 -0.19514741 0.015547915
0002c0 7b 48 07 3d f6 31 8e be b6 65 d3 bd b6 65 ae bd
       0.033028107 -0.27772492 -0.10322134 -0.085154936
0002d0 a7 14 eb bc e1 47 19 be e7 98 27 bd c1 4f 88 3d
       -0.028696371 -0.14968826 -0.040917303 0.06655837
0002e0 41 6e a1 3c 9d 15 1d be fb c6 0e be 8f 81 46 be
       0.019705893 -0.15340276 -0.13943093 -0.1938536
0002f0 bc 9e 4b be 64 48 0d be 98 5e 67 be b6 45 9e 3d
       -0.19884771 -0.13797146 -0.22594678 0.0772814
000300 6d 77 85 be 7b 14 45 be 86 e2 6e 3d 9f 92 02 be
       -0.26067677 -0.19246094 0.0583215 -0.12751244
000310 45 39 16 3d f6 0a d4 bd 02 58 65 be 8a 7e f1 3d
       0.03667571 -0.10353653 -0.22396854 0.117917135
000320 60 b7 c3 3c f8 92 aa 3d 96 44 89 3b 70 8e b0 3d
       0.023891151 0.08328813 0.0041890843 0.08620918
000330 af d2 b9 bd a7 23 cc 3c 1f 76 0c 3d 47 8f 81 3b
       -0.09073388 0.024919344 0.034292337 0.0039538476
000340 b2 b4 97 bd 92 2b 57 be b5 a8 07 3e f6 9c c8 bb
       -0.07407512 -0.21012715 0.1324795 -0.006122227
000350 a0 d3 34 be fe 01 8f 3c 44 f6 90 3d 57 a9 ce bd
       -0.17658854 0.017457005 0.070782214 -0.10090893
000360 a1 5e 8d bd c4 94 45 bd 3e 52 39 3e 04 a7 ad 3d
       -0.06902815 -0.048237577 0.18097779 0.08479121
000370 09 0a 82 be 0b 25 6f be b4 57 1e bd 0e 56 21 bd
       -0.2539828 -0.23353975 -0.03865786 -0.03938871
000380 e1 b9 50 bd 36 bc 22 3b 44 ab 1d 3d 11 f5 13 3e
       -0.050958518 0.002483142 0.03849341 0.14448954
000390 69 66 72 be 2c df c6 3d 24 79 34 bc da 85 9f 3c
       -0.23671879 0.097105354 -0.01101521 0.019473005
0003a0 68 14 1e be 09 bb 8b 3d 7e 7f b1 3d 28 16 eb 3d
       -0.15437472 0.068227835 0.08666895 0.11478835
0003b0 cc e6 85 bd d2 d6 53 3d 9c c3 ef bd 8b 6f c2 bd
       -0.06538162 0.05171854 -0.117072314 -0.094939314
0003c0 19 f5 2b 3c 09 9b b7 bd a4 58 83 3d 36 92 37 bd
       0.010495448 -0.089651175 0.06413391 -0.044817172
0003d0 aa 1f c5 bd 7f 1f 9b bd 96 23 80 3d 24 09 1d be
       -0.0962518 -0.07574367 0.062567875 -0.15335518
0003e0 e8 4e a0 3c b6 89 cf 3d 42 b9 db 3d 74 61 d5 bc
       0.019568875 0.10133688 0.107286945 -0.026047446
0003f0 d3 b0 06 be 86 07 06 be d3 63 1c 3e 29 b1 7b 39
       -0.1315339 -0.13088807 0.15272455 0.00024003223

network_body._body_endoder.seq_layers.4.bias f4 [128]
000000 1b 39 99 bd 38 8a 94 bd 62 50 94 3d 3f c0 15 3e
       -0.07481595 -0.07252926 0.07241894 0.14624117
000010 d5 60 28 bd 8e 1c eb bd b0 0f fd bd 3d 9e 38 3e
       -0.04110797 -0.11480056 -0.12356508 0.18029113
000020 2f c5 c2 bd be 1e f5 bd 62 ed d9 bd 4d 81 dc 3d
       -0.09510266 -0.11968754 -0.1064098 0.1076685
000030 32 1c 18 3d 2f e2 2a 3e 42 f4 5c 3a 9f 28 2c be
       0.037136264 0.16687845 0.0008428731 -0.1681237
000040 75 ae 07 3e c9 47 2f be ef af 4d 3e 21 7f d4 bb
       0.13250144 -0.17117228 0.20086645 -0.0064848815
000050 80 24 5d 3e 29 24 82 be 1c 3d 51 3e ec 58 1c 3b
       0.21595955 -0.25418213 0.20433468 0.0023856713
000060 5a d7 ed bd 9d 9c c8 bd fa e5 10 be 44 79 2f bd
       -0.11613341 -0.097954966 -0.14150229 -0.042840257
000070 c6 25 3c 3e d5 9a 0e be 09 0d 2d be c4 71 bc bd
       0.18373784 -0.13926251 -0.16899504 -0.092013866
000080 c2 ca 4c be 79 2a 22 bc c3 f0 d9 3d e3 a2 e7 3d
       -0.19999221 -0.009897822 0.10641625 0.11310365
000090 06 d0 32 be 2b 73 fc 3d 8d b1 70 bd bc e2 00 3e
       -0.17462167 0.12326654 -0.058763076 0.12586492
0000a0 d9 ce 9e 3e 66 fc 27 3c 8e 36 42 3d 6d 19 f5 bc
       0.31017187 0.010253048 0.04741531 -0.02991935
0000b0 c4 5c 3e bd 6e 42 82 bd 1d f8 28 3c ee 74 07 be
       -0.046475187 -0.06360327 0.010313061 -0.13228199
0000c0 5e 62 50 be ed b2 fc bc bf fa a9 3c 0a 3d 23 bd
       -0.20350024 -0.030847037 0.020749448 -0.039853133
0000d0 d5 d5 aa bd a4 0f d7 3d a9 2c 16 3e 57 d9 5c 3e
       -0.083415665 0.1050103 0.14665474 0.21567284
0000e0 cf 69 be 3b 64 0a 10 be 41 aa 5b 3e a3 14 dc bd
       0.005810953 -0.14066464 0.21451665 -0.10746124
0000f0 e2 5e f2 bd e5 db aa bd 68 b9 0e bd 0d 67 e5 bd
       -0.11834504 -0.08342723 -0.034844786 -0.11201296
000100 9c 07 97 3d a0 4c 79 3e 33 d6 70 3d 67 37 ed bc
       0.07374498 0.24345636 0.058798026 -0.028957082
000110 c3 82 13 be 27 9c be bc 9b dc 08 be 94 ef 7f 3e
       -0.1440535 -0.023267819 -0.13365404 0.24993736
000120 e1 50 23 3d b8 28 5c bd 5e 8a ba bd 64 17 35 3e
       0.039872054 -0.05374977 -0.09108423 0.17684704
000130 cb c9 2f 3d 8d 80 a8 bd 74 6a f7 3d 7f 82 25 bd
       0.042917054 -0.08227644 0.12080851 -0.040407654
000140 40 19 c7 bd 98 75 81 bd e9 fa 05 be 49 1a 20 3e
       -0.09721613 -0.06321257 -0.13083996 0.15635027
000150 69 13 16 3e f6 ea a3 3e ea 9a ff 3c 72 08 33 bd
       0.14655842 0.32015198 0.031201798 -0.043709226
000160 af 8e 88 bd 44 56 d1 bd 1c 5d 14 be 7f ec a6 bd
       -0.0666784 -0.10221532 -0.14488643 -0.08150577
000170 8e 9e be bb 7d 3c 88 3e 17 07 7f bd 3e eb 94 3d
       -0.005817241 0.2660865 -0.06226262 0.072714314
000180 c9 18 38 be 6c 70 e3 3d c0 dd 18 bd 9e f6 9e bd
       -0.17978205 0.11105427 -0.037320852 -0.07761882
000190 a4 69 59 bd 62 0a fa bd 72 24 87 3e 64 28 56 bd
       -0.053079262 -0.122090116 0.26394993 -0.052284613
0001a0 5d b5 0d be 26 cc 8e 3b 2c e4 55 bd a9 f1 16 be
       -0.13838716 0.0043578325 -0.052219555 -0.14740624
0001b0 9a 4f 08 be c2 bb e2 bc c9 7e 6e 3e 87 73 fb bd
       -0.13311616 -0.02767742 0.23290552 -0.122778945
0001c0 63 ee 3e be e5 46 17 be a7 c0 12 3d f1 c3 29 bc
       -0.18645625 -0.14773138 0.03582826 -0.0103616575
0001d0 85 49 97 bd 6d a7 14 be e8 17 e4 bd d9 c1 a0 3d
       -0.073870696 -0.14516993 -0.11137372 0.078494735
0001e0 9a 8e 38 3e 31 82 a0 bd 2b 5f c2 3a 4c 84 4a bc
       0.18023148 -0.07837332 0.0014829388 -0.012360644
0001f0 61 8e 9c bd ae 6e d3 3d 99 6a 49 be b6 c4 16 be
       -0.07644344 0.10323845 -0.1966957 -0.14723477

action_model._continuous_distribution.log_sigma f4 [1, 2]
000000 80 35 03 41 bf 8f e8 40
       8.200562 7.267547

action_model._continuous_distribution.mu.weight f4 [2, 128]
000000 8e 72 82 3f 37 bd 6b 3e 0c cb 6d 3e 96 d4 7d be
       1.0191209 0.23021398 0.23221987 -0.24788126
000010 ef fd d3 3e cd 2e 41 be dc 8a 14 40 6b f2 c3 be
       0.41404673 -0.1886551 2.3209753 -0.38270888
000020 bd 87 fa 3e 57 6f f9 3f c2 13 95 3e 79 6f 9a bf
       0.48931685 1.9487103 0.29116637 -1.2065269
000030 20 4b 33 3f ee 92 c0 3e d0 2e a5 be 47 84 37 3f
       0.70036507 0.37612098 -0.32262278 0.71686214
000040 c3 cb 7f 3e 92 20 15 3f 80 25 07 be 96 3c 31 3f
       0.24980073 0.58252823 -0.13197899 0.6923307
000050 94 b7 00 be 7b 2a 13 3f 65 eb 58 bf 0b 48 6f 3f
       -0.1257003 0.57486695 -0.84734184 0.93469304
000060 05 32 ab 3f 61 f2 a4 3e 89 77 14 40 4c 5b e9 3e
       1.337464 0.3221617 2.3197958 0.45577466
000070 27 b3 a5 bf be d3 c1 3e 2b 98 c0 3f cf e6 e0 3f
       -1.2945298 0.3785686 1.5046438 1.7570437
000080 a2 ab a2 3f 9e 46 40 3f a2 ed 72 3f 3a 03 36 bf
       1.2708628 0.75107753 0.9489385 -0.71098673
000090 dd c0 96 3f 3b 77 1b 3f b2 d4 4b bb d6 63 fc 3d
       1.1777607 0.60728806 -0.0031102118 0.1232373
0000a0 5f 7c 98 bf 52 9b 32 bf 55 7c 54 3f d6 7e 18 3f
       -1.1912955 -0.6976825 0.83002216 0.59568536
0000b0 8f ea 1d bf f3 85 4f 3f 2d 56 03 bf a9 4c 5a 3e
       -0.61686033 0.81063765 -0.5130337 0.21318306
0000c0 8c 0f 20 3f f9 87 88 3f a8 6e b3 3f fa d7 b6 3e
       0.6252372 1.0666496 1.4018145 0.35711652
0000d0 ac 3b 02 3e ba 65 bf bb 4a 78 91 bf 49 ab 42 bf
       0.12718076 -0.005840984 -1.1364834 -0.7604261
0000e0 cd e9 6a bf 70 ab 87 3f a2 6b a4 3e e3 0e ec 3f
       -0.91763 1.0599194 0.32113367 1.8442043
0000f0 18 d0 29 3f 12 59 00 3f 0e 1d 8f 3c cf 66 10 40
       0.6633315 0.5013591 0.017469909 2.256275
000100 11 c4 40 be 78 83 a8 bf de 75 06 be d3 5b 94 3f
       -0.18824793 -1.3165121 -0.131309 1.1590523
000110 98 ae 3c 3e e8 97 45 3f 4b 38 bf 3f 46 f7 f3 3e
       0.18425977 0.77184916 1.4939054 0.47649592
000120 be cd 82 3e d5 96 35 be d8 53 c0 3f 85 46 f8 3e
       0.25547594 -0.17733319 1.5025587 0.48491302
000130 d4 3e 92 3f 43 e1 28 3f bf 85 c0 3f 3f 30 a2 be
       1.1425424 0.6596872 1.5040816 -0.31677434
000140 e9 f4 e4 3f f6 3c ba 3f e9 16 d3 3f 58 6b 2a 3f
       1.7887241 1.4549854 1.6491367 0.66570044
000150 83 f9 7a 3e 31 31 55 bf d5 6d 0f 3c 12 d3 45 40
       0.24509244 -0.83278185 0.008754213 3.0910077
000160 19 a4 1b 40 06 37 94 3f 41 d7 8c 3e 42 cf 27 3e
       2.4318907 1.1579292 0.27507976 0.16387656
000170 ac 0e cd 3f b5 d8 a9 bf b8 38 a9 3d 36 b8 0d 3f
       1.6020103 -1.3269259 0.08262771 0.5535921
000180 bd 6d 11 3f 37 63 4c 3f c2 29 15 3f b3 79 3e 3f
       0.5680807 0.7983889 0.5826684 0.7440445
000190 9d 48 96 3f bf 55 90 3f 18 a9 3e be 88 52 33 3f
       1.174091 1.1276168 -0.18619192 0.7004781
0001a0 47 e4 ba 3e 17 d9 98 3f 8f fa 62 3f 37 2b 8d 3e
       0.36502287 1.194125 0.8866357 0.27572033
0001b0 e8 3d 3e 3f c1 06 f5 3e df 87 28 bf fd 89 85 3f
       0.7431321 0.47856715 -0.6583232 1.0432736
0001c0 a8 60 da 3e d9 9d 27 3e 38 1f ac 3f 68 c8 08 3f
       0.42651868 0.16368808 1.3447027 0.53430796
0001d0 88 e5 9e be 81 98 4e 3f 58 c9 c9 3f e8 e6 85 3f
       -0.31034493 0.8070145 1.576457 1.0461092
0001e0 6c 0b 52 3d 71 ec 7a be 29 d1 84 bf 8a 72 8e 3f
       0.051280424 -0.24504258 -1.0376331 1.1128705
0001f0 19 97 7a 3b 34 63 df 3f b0 68 2d 3f 3e 76 4b 3f
       0.0038237034 1.7452149 0.67737865 0.794773
000200 33 25 cf be cc 8c 0e 3f 11 55 84 be 17 f2 6e bf
       -0.40458068 0.5568359 -0.2584615 -0.9333815
000210 06 95 3d 3f a0 00 a3 3f 1b 0e eb 3e 21 ce 1a bf
       0.74055517 1.2734566 0.459092 -0.6047078
000220 90 1a d0 3d 7e 0c 2e 3f 62 d6 39 3f fc 5a 93 3e
       0.101613164 0.6798781 0.7259275 0.28780353
000230 13 37 35 bf a8 a7 9e be b8 8e 94 be dc ff 10 3f
       -0.7078716 -0.30987287 -0.29015136 0.5664041
000240 21 66 b2 be 1e 22 95 3e bb c7 13 be ad 6b 41 be
       -0.34843543 0.29127592 -0.1443166 -0.18888731
000250 a6 e0 c3 be 16 0d a9 bd bb 61 e9 3d 95 48 65 3d
       -0.3825733 -0.08254449 0.11395594 0.055977423
000260 66 64 f0 3e 8a fe 46 3f a4 ac b7 3f 30 d4 43 3f
       0.46951598 0.77732146 1.4349561 0.7649565
000270 d2 c9 68 3e 93 e2 0c 3f dc 63 39 3f 0c d0 8a 3e
       0.22733238 0.55033225 0.72418 0.27111852
000280 04 38 59 3e 58 7b 64 be 69 35 c1 bf 34 18 36 3e
       0.21212775 -0.22312677 -1.5094424 0.1778267
000290 9f 98 e3 3e 32 64 24 bf 4a 71 bc 3e df e6 33 bf
       0.44452378 -0.64215386 0.36805183 -0.70274156
0002a0 91 c0 1d bf 5e ce f1 3e 41 2a 0d bf 14 ca 0d be
       -0.6162196 0.47227758 -0.551426 -0.13846618
0002b0 37 13 95 3f a7 f7 a8 3d 08 ce 22 3f 36 ec 98 3f
       1.1646489 0.08250361 0.6359563 1.1947086
0002c0 f2 52 b8 bc 40 ee f7 39 0a 13 15 bf 42 d2 eb 3e
       -0.022500489 0.0004728902 -0.58232176 0.4605885
0002d0 85 6d a7 3e e7 cc a4 bf 9d 65 51 bd 00 3e 76 bc
       0.32700744 -1.2875031 -0.051122297 -0.01502943
0002e0 00 36 22 3f e0 7f 87 3f 6b 05 bf be 6c 24 0b 3e
       0.6336365 1.0585899 -0.3730882 0.13588113
0002f0 98 54 2c 3f e1 17 26 3f 5e f4 c1 3e 66 d0 ad 3f
       0.6731658 0.64880186 0.3788175 1.3579223
000300 41 e6 6c be 96 ff e5 3c cd 5c 3e bc 53 22 17 3f
       -0.2313471 0.028075974 -0.011618805 0.5903675
000310 82 7b 17 3f 95 a1 96 3e e1 a4 d0 3d cd 17 c7 bf
       0.5917283 0.29420152 0.10187698 -1.5554138
000320 89 6a 49 bf 97 20 91 3e c3 61 22 3f 9e 5b 29 bf
       -0.78678185 0.28345177 0.6343042 -0.6615542
000330 50 79 54 be 1a 62 3f bf 9b dc 1a bf d1 5a 94 3e
       -0.20749402 -0.74759066 -0.6049287 0.28975537
000340 24 f0 09 3f c4 c8 33 bf eb 3b b5 3f e9 b3 b4 be
       0.5388205 -0.7022822 1.415891 -0.3529351
000350 7d 70 cb be 7a dd b7 be 3f 7e c9 3e 8a cd 7b 3f
       -0.3973426 -0.3591116 0.3935413 0.983605
000360 a2 5c a6 3f 5c a1 8c 3f e5 14 11 3d 25 aa d5 3e
       1.2997019 1.0986743 0.035420317 0.41731372
000370 2a fd 01 3e 1d ba 77 bc 3d 38 c1 3e f5 cb d7 be
       0.1269423 -0.015120056 0.3773822 -0.42147794
000380 f1 25 e2 3e ae 4f 01 bf a0 3a 1a 3f 2f f4 14 3f
       0.44169572 -0.50512207 0.60245705 0.58185095
000390 88 26 3b 3f 1e 76 aa 3f 20 a4 38 bf 35 09 bb bc
       0.7310567 1.3317297 -0.72125435 -0.022831539
0003a0 b6 08 ca 3e e1 c9 e9 bd 04 54 ec 3e 04 9a a6 3d
       0.3945977 -0.114154585 0.4615785 0.08134845
0003b0 40 40 a1 3e 5c 39 ec 3e 6c 04 87 be f7 56 b5 3c
       0.3149433 0.46137512 -0.2637056 0.022136195
0003c0 87 e1 04 3f 01 4a 0f be ec aa 94 3f 6f ca b0 be
       0.5190663 -0.13993074 1.1614661 -0.34529445
0003d0 dd 44 2b 3f f3 1b 90 3f 09 b8 ba 3e 65 88 8e be
       0.6690195 1.125853 0.36468533 -0.27838436
0003e0 86 1b 13 bf 37 ef d8 3e fd 40 24 3f 93 81 e8 bd
       -0.5746387 0.42370006 0.64161664 -0.11352839
0003f0 04 fb 8e 3e 55 39 f1 be 57 33 ac 3c a3 30 45 3e
       0.27925885 -0.47114053 0.021020574 0.19256835

action_model._continuous_distribution.mu.bias f4 [2]
000000 fe 0e 25 3f 08 e6 95 3f
       0.64476 1.1710825
