results/hideandseek_11/Seek/Seek-7144.onnx (onnx, 149966 bytes, 7 tensors)

network_body._body_endoder.seq_layers.0.weight f4 [128, 152]
-0.02834432 -0.078785874 0.013778915 -0.055296484 0.03877885 -0.051167913 0.1193221 0.057203118
-0.1391187 0.018064493 0.00037561 0.022398539 -0.13545743 -0.015322764 0.12054328 0.008533316
-0.026694566 -0.05618865 0.008159751 -0.07760147 -0.09684377 0.017677901 0.028265342 0.0022045702
0.05426852 -0.07892322 0.103519455 0.07629753 0.071642704 -0.034806408 -0.047826346 0.01526149
-0.0041249185 -0.06914058 0.10463864 -0.0037843415 -0.10468826 0.21649352 -0.013567942 0.009173233
0.09924054 0.07553086 0.10437599 -0.10002595 -0.02763419 -0.025632776 -0.00064137735 0.012709452
0.05517619 0.16807958 0.14985666 0.10472266 0.00032003172 -0.026038332 0.07546721 -0.071001634
0.02155335 0.015186584 0.10789784 0.104948625 0.024295872 0.19330156 -0.020330075 -0.062205013
0.041637424 0.028086333 -0.06954288 -0.1645827 0.09341307 -0.007089738 -0.04948061 -0.07027036
0.0074470947 -0.12148183 0.0718999 0.036223494 0.07686091 0.056851 -0.019059865 0.036826767
0.011256302 0.050414737 0.072186075 0.11608414 -0.11944811 -0.091594696 -0.029361453 0.06357024
0.049151886 0.004448203 -0.017619874 0.0672548 0.0463977 -0.043768924 0.025375346 0.012299454
-0.034968793 -0.055519793 -0.18349743 0.017322809 0.014635682 -0.07349978 0.033381224 -0.061787657
-0.111073084 0.12837371 0.050545193 0.025671678 -0.023952955 0.10039427 0.0688609 0.07288475
0.031300515 0.033266354 -0.19834921 0.051273588 -0.08301664 0.028296996 -0.11271515 -0.19575953
0.06913753 -0.07093423 0.0469267 -0.006502941 0.0019743221 -0.13815011 -0.07002625 0.038202703
-0.07643771 0.130817 -0.038805667 -0.044148367 0.041941915 0.028352704 -0.0702977 0.058871802
-0.017719142 -0.08745966 0.009536184 -0.03875086 0.0103235245 -0.025729481 0.013222054 -0.013314753
-0.10602971 0.06614456 0.09406569 -0.08162089 -0.11610897 0.0023064467 0.026020633 0.051088057
-0.087265216 0.057093117 0.108967245 -0.13043208 -0.15462217 0.004724387 -0.06543844 -0.03774429
0.12923369 0.08855804 0.12770887 0.10477105 -0.102951266 0.06779432 0.004656651 0.16151507
0.042794894 -0.05662094 0.05758113 -0.046362434 -0.020354822 0.068692766 -0.12532489 0.054550655
-0.011848594 -0.04492161 0.21011257 0.09051118 -0.043785524 -0.08236766 0.06542304 0.0085572805
-0.031653754 0.10864547 -0.014258876 -0.052177235 -0.032100905 -0.025678322 -0.029419312 -0.07264436
-0.01111219 -0.12323751 0.0023408767 0.048397556 -0.023420135 0.07152909 -0.010688932 0.054853357
0.044936694 -0.10323777 0.033043683 0.0076674777 0.044372026 -0.05861157 -0.079713956 -0.07070843
0.09333678 -0.012346378 0.024185317 0.012250276 0.028830232 0.08194465 -0.3668474 0.09934796
-0.0120199565 -0.072299324 -0.065917835 -0.113040484 -0.08177897 -0.115801945 0.076883174 0.004855139
-0.06441424 -0.14560835 0.056195844 0.07549273 -0.0117349755 -0.06741281 0.069249764 0.036166586
-0.08076854 -0.03466977 -0.05125597 0.027393263 0.05537661 -0.046013758 0.000928916 -0.042168926
-0.04611607 0.05510231 -0.07950911 -0.056866515 0.005327912 0.06057065 0.052439433 -0.06498263
0.027026508 0.008985819 -0.021808736 -0.014036732 0.1370934 -0.0999372 -0.018133176 0.10081388
00000000: 5932 e8bc 7d5a a1bd f5c0 613c 917e 62bd
00000010: 92d6 1e3d 7295 51bd 255f f43d d14d 6a3d
00000020: 2275 0ebe fdfb 933c 85ed c439 247d b73c
00000030: 5ab5 0abe 550c 7bbc 65df f63d 52cf 0b3c
00000040: 90ae dabc 1226 66bd 7ab0 053c 85ed 9ebd
00000050: 0756 c6bd 3fd1 903c b88c e73c 8d7a 103b
00000060: ab48 5e3d 7fa2 a1bd 0202 d43d e141 9c3d
00000070: 69b9 923d 2a91 0ebd 8fe5 43bd 540b 7a3c
00000080: 532a 87bb 9499 8dbd c94c d63d b702 78bb
00000090: cc66 d6bd 7ab0 5d3e 134c 5ebc 544b 163c
000000a0: a03e cb3d ecaf 9a3d 14c3 d53d 68da ccbd
000000b0: 1961 e2bc d4fb d1bc 1b22 28ba 4e3b 503c
000000c0: 6e00 623d 0e1d 2c3e 0674 193e d578 d63d
000000d0: eec9 a739 574e d5bc 8d8e 9a3d 4e69 91bd
000000e0: a790 b03c 26d1 783c 8bf9 dc3d 4eef d63d
000000f0: 2308 c73c d8f0 453e 428b a6bc afca 7ebd
00000100: 018c 2a3d 4f15 e63c 7f6c 8ebd 5e88 28be
00000110: 5a4f bf3d 0851 e8bb 2eac 4abd e8e9 8fbd
00000120: c206 f43b 77cb f8bd 4140 933d 165f 143d
00000130: 4169 9d3d 98dc 683d 6f23 9cbc aad7 163d
00000140: 5a6c 383c af7f 4e3d 4bd6 933d 86bd ed3d
00000150: 36a1 f4bd 0096 bbbd 6e87 f0bc 1d31 823d
00000160: 7d53 493d 3bc2 913b 8e57 90bc e2bc 893d
00000170: 840b 3e3d 0b47 33bd f5df cf3c a683 493c
00000180: 703b 0fbd b968 63bd c0e6 3bbe 90e8 8d3c
00000190: 80ca 6f3c 0d87 96bd c0ba 083d 0e15 7dbd
000001a0: 497a e3bd 6674 033e 7a08 4f3d 694d d23c
000001b0: fd38 c4bc 839b cd3d f206 8d3d 9a44 953d
000001c0: f834 003d 4d42 083d 0e1c 4bbe 4104 523d
000001d0: a104 aabd 1acf e73c 33d7 e6bd 3075 48be
000001e0: fa97 8d3d f745 91bd 3636 403d 9f16 d5bb
000001f0: a163 013b 3977 0dbe ec69 8fbd 707a 1c3d
00000200: 608b 9cbd e4f4 053e b1f2 1ebd ebd4 34bd
00000210: 49cb 2b3d ee43 e83c 3ef8 8fbd 8f23 713d
00000220: bc27 91bc 0d1e b3bd a83d 1c3c 39b9 1ebd
00000230: 0024 293c a2c6 d2bc 50a1 583c 1f26 5abc
00000240: 1b26 d9bd cd76 873d 83a5 c03d da28 a7bd
00000250: 8aca edbd c127 173b 3929 d53c b641 513d
00000260: 1bb8 b2bd 79da 693d 382a df3d fd8f 05be
00000270: 4655 1ebe 08cf 9a3b 9704 86bd c299 1abd
00000280: d655 043e eb5d b53d 1dc6 023e 3492 d63d
00000290: 1dd8 d2bd c0d7 8a3d d296 983b 3564 253e
000002a0: b349 2f3d 5ceb 67bd 31da 6b3d 89e6 3dbd
000002b0: 28bf a6bc cbae 8c3d 2b55 00be 8270 5f3d
000002c0: 9b20 42bc b9ff 37bd c027 573e ed5d b93d
000002d0: 7358 33bd 60b0 a8bd 84fc 853d d633 0c3c
000002e0: 5ea7 01bd 8481 de3d 109e 69bc ccb7 55bd
000002f0: 3d7c 03bd 585b d2bc c500 f1bc 91c6 94bd
00000300: e70f 36bc f363 fcbd 6569 193b 843c 463d
00000310: 95db bfbc d87d 923d a120 2fbc eaad 603d
00000320: 8a0f 383d 536e d3bd d058 073d 773f fb3b
00000330: 71bf 353d b012 70bd 1241 a3bd 95cf 90bd
00000340: 5b27 bf3d 7648 4abc 4920 c63c 62b5 483c
00000350: 612d ec3c 99d2 a73d 6cd3 bbbe f176 cb3d
00000360: 5aef 44bc ab11 94bd eeff 86bd c581 e7bd
00000370: bc7b a7bd 9229 edbd ed74 9d3d dc17 9f3b
00000380: 9deb 83bd 5b1a 15be 9d2d 663d ef9b 9a3d
00000390: 0e44 40bc ba0f 8abd d2d2 8d3d 6a23 143d
000003a0: fa69 a5bd e401 0ebd c8f1 51bd d667 e03c
000003b0: 96d2 623d ec78 3cbd 7f82 733a 53b9 2cbd
000003c0: 34e4 3cbd f6b2 613d acd5 a2bd ddec 68bd
000003d0: c495 ae3b ee18 783d bbca 563d 9d15 85bd
000003e0: b266 dd3c 4239 133c 3ca8 b2bc 52fa 65bc
000003f0: 3662 0c3e e0ab ccbd 078c 94bc 8277 ce3d

network_body._body_endoder.seq_layers.0.bias f4 [128]
0.0021404196 -0.0023585246 -0.0124221705 -0.018013205 -0.0018480639 0.0048768893 -0.011829375 -0.0011791625
-0.0015545603 -0.009481303 -0.0028146878 -0.016881956 -0.0015355 0.0053691175 -0.0011910412 0.0023882124
-0.0019155017 0.00014295834 -0.0047994945 -0.003209525 -0.00061746646 -0.014823064 -0.009624361 0.0036887783
-0.0041655577 -0.0029194348 -0.0063840887 0.007963677 -0.008585599 -0.006364767 -0.0173135 -0.018960819
0.0022332433 -0.014543234 -0.0053613908 -0.0012699685 -0.0040724794 -0.020146696 -0.0012956652 -0.009771948
0.0046422402 -0.008098329 -0.021325922 -0.004473159 0.0021186443 0.0029939187 -0.0033378443 -0.0069658505
-0.028631475 -0.0047196033 -0.009831249 -0.0011783275 -0.01717386 -0.0022602414 -0.0060221553 0.0018919442
0.0016314872 -0.010364301 -0.009089158 -0.016371196 -0.004442065 0.0021122638 -0.011550895 -0.0051037497
-0.009429099 -0.022110015 -9.805692e-05 0.002379818 -0.0020181413 -0.00057377055 -0.004252406 -0.016369497
0.0007186804 -0.011138333 -0.009722575 -0.012832109 -0.023747656 -0.009138492 -0.0045132167 -0.009477669
-0.0016675154 0.0059979944 -0.015087539 -0.00692395 -0.005615999 -0.018347304 -0.0037002284 -0.0037771536
-0.004258073 -0.006840575 0.0012222973 -0.0008570309 -0.0005820387 -0.0010396814 -0.0057954933 0.0031903584
-0.013163416 -0.00524774 -0.022525087 -0.005373328 -0.015051999 0.004004783 -0.008219032 -0.01721213
-0.023529755 -0.002595814 -0.004349044 -0.011168134 -0.00891986 -0.0044096485 -0.0069810846 -0.013193548
-0.010289495 0.00074566546 -0.0072512673 -0.0041264496 0.0039103534 0.007803234 -0.0040484783 -0.011914621
-0.0032218471 -0.0044026943 -0.008087996 -0.00196888 -0.01875319 0.0015046827 0.00016242987 -0.029153291
00000000: 4846 0c3b 7a91 1abb 5c86 4bbc 6e90 93bc
00000010: bc3a f2ba 50ce 9f3b ffcf 41bc 218e 9aba
00000020: 63c2 cbba 7857 1bbc a076 38bb 074c 8abc
00000030: d542 c9ba 6cef af3b b61c 9cba 8e83 1c3b
00000040: 9211 fbba 16e7 1539 1445 9dbb e556 52bb
00000050: 79dd 21ba 70dc 72bc 7faf 1dbc 6ebf 713b
00000060: 3b7f 88bb fd53 3fbb 9e31 d1bb 157a 023c
00000070: 9daa 0cbc 898f d0bb 0bd5 8dbc b853 9bbc
00000080: 9b5b 123b bf46 6ebc 9bae afbb 1275 a6ba
00000090: 6f72 85bb af0a a5bc 4fd3 a9ba 851a 20bc
000000a0: ef1d 983b dbae 04bc b3b3 aebc 9493 92bb
000000b0: f4d8 0a3b 9f35 443b bcbf 5abb ca41 e4bb
000000c0: 8e8c eabc e7a6 9abb 3f13 21bc 1c72 9aba
000000d0: 32b0 8cbc 8f20 14bb 8055 c5bb 1dfb f73a
000000e0: a0d7 d53a 07cf 29bc b1ea 14bc e31c 86bc
000000f0: be8e 91bb e86d 0a3b f73f 3dbc 5b3d a7bb
00000100: 827c 1abc 1020 b5bc e8a3 cdb8 b8f6 1b3b
00000110: cb42 04bb 1769 16ba c457 8bbb 5319 86bc
00000120: d365 3c3a 8e7d 36bc 6f4b 1fbc c43d 52bc
00000130: 728a c2bc 9db9 15bc 9be3 93bb 3a48 1bbc
00000140: 8890 daba d38a c43b ba31 77bc 4de2 e2bb
00000150: 6a06 b8bb 164d 96bc 887f 72bb 1f8a 77bb
00000160: 4e87 8bbb e726 e0bb 7e35 a03a 5faa 60ba
00000170: f593 18ba eb45 88ba 1fe8 bdbb 5515 513b
00000180: 5eab 57bc 3cf5 abbb 8886 b8bc be12 b0bb
00000190: a99c 76bc 8e3a 833b 1ea9 06bc 7400 8dbc
000001a0: 79c1 c0bc 881e 2abb 6d82 8ebb 8dfa 36bc
000001b0: 9b24 12bc d07e 90bb 95c1 e4bb c029 58bc
000001c0: 4595 28bc c378 433a 0a9c edbb 2b37 87bb
000001d0: 6c22 803b 45b2 ff3b 19a9 84bb 8b35 43bc
000001e0: a025 53bb 7a44 90bb 8483 04bc 5308 01bb
000001f0: 4aa0 99bc c638 c53a f051 2a39 e2d2 eebc

network_body._body_endoder.seq_layers.2.weight f4 [128, 128]
0.1309126 0.15004772 -0.06173564 0.2059273 -0.020902416 0.05355519 -0.13870728 0.10982592
-0.13073917 -0.0072346926 -0.039472643 0.07268083 -0.08040432 -0.07761594 -0.08449953 -0.1210658
0.13122845 0.024903584 -0.042553 -0.13453835 0.0068669454 0.16402252 -0.060205903 0.02732533
0.22383085 0.23815499 0.06655285 0.023147693 -0.034496143 -0.114743225 0.06601674 0.028989093
-0.10575452 -0.014510162 0.050939232 0.09053689 0.0034558873 -0.06702825 -0.006233879 -0.18988301
-0.017066808 -0.13117638 -0.047015425 0.024449896 0.035315856 0.045385227 0.13605548 0.0039390153
-0.08030847 0.084939435 -0.07805301 -0.030762786 -0.11598923 0.10537203 -0.17617697 0.042883772
-0.05674712 -0.028084042 -0.18287788 0.054960977 -0.14057747 -0.06693351 0.021913234 0.059491117
0.23932588 -0.040747922 0.1722138 0.100410484 -0.14423653 -0.12360222 -0.03199953 -0.06182528
0.10302804 -0.058073558 -0.1838883 -0.24484365 -0.025361052 0.02528556 0.03524336 -0.025168462
0.15983108 -0.030510863 -0.0512274 -0.01959959 -0.072557606 -0.12825099 0.082107104 0.056428727
-0.027404139 0.08851733 0.15998514 -0.06568027 0.07408999 -0.05007417 0.06644566 0.008125357
0.102835275 -0.09830532 -0.024391858 0.028290596 -0.033771835 0.032924358 -0.22944881 0.0101716975
-0.019487312 0.0001825919 -0.1070731 -0.072696984 -0.013793855 -0.0062026735 0.1022596 -0.0037529245
0.11097428 -0.1020973 -0.06514187 0.06610511 -0.06540233 -0.04283635 -0.0507805 -0.010676958
-0.1320703 0.036557253 -0.1328496 -0.109010845 -0.0957139 -0.09163387 0.23541161 0.11897662
-0.012598721 -0.10162241 0.0724859 0.023198785 -0.0060039693 0.11946297 0.06970597 0.037935536
0.010450673 0.00047315826 -0.022137657 -0.043031648 0.019069899 -0.012243758 0.21425582 -0.022913832
-0.10717702 -0.055093344 -0.1575011 0.072289616 0.17433403 0.008794936 -0.15468185 0.053024225
0.13244644 0.25668585 0.046017006 0.041006763 0.028354624 0.0027514931 0.019374423 0.06496764
0.0767065 0.030092683 0.0132843545 -0.061432693 0.04511178 0.06367645 0.008645782 -0.09273164
-0.035488784 0.002135763 -0.10406779 0.00084114325 -0.1070348 -0.15904726 0.114013605 0.06983703
-0.009690274 -0.0018682666 0.070503056 -0.06867076 0.121521905 0.12890586 0.038883142 0.11647496
0.017617125 -0.047415793 0.08264008 -0.010808718 -0.07468847 -0.09068675 -0.013356617 0.12270718
-0.18874374 -0.00435165 0.07911092 0.09159091 0.07309946 -0.043808866 0.022092598 0.067218944
-0.05143227 -0.2082224 0.03189565 -0.071912 0.04806341 -0.10596749 -0.11204885 0.013952602
-0.076604046 -0.13388205 0.041014414 0.10969788 -0.13286999 -0.007291214 -0.03668946 0.015840538
0.033319443 -0.0072431974 -0.06771195 0.0999872 0.017738983 0.05577153 -0.12551837 0.027728619
-0.027919276 0.013109214 -0.1193876 -0.116353065 0.07089107 0.091960244 0.075486735 -0.048672613
-0.047138628 0.12404759 0.117882304 -0.032657553 -0.15546505 -0.06922481 0.037780564 -0.009885213
-0.026299069 -0.054648597 0.019133436 0.035690486 -0.04755752 0.0774869 0.014490785 0.076674476
0.007378896 -0.10371553 0.061755568 -0.029094387 -0.059967317 -0.021182243 0.09673748 0.13486195
00000000: f40d 063e 1ca6 193e 83de 7cbd 9bde 523e
00000010: 8b3b abbc b05c 5b3d 4809 0ebe 69ec e03d
00000020: 7de0 05be 0011 edbb 11ae 21bd b0d9 943d
00000030: 05ab a4bd 1bf5 9ebd 170e adbd 59f1 f7bd
00000040: c060 063e 9a02 cc3c 0e4c 2ebd 6cc4 09be
00000050: 1d04 e13b 85f5 273e 779a 76bd 5fd9 df3c
00000060: ea33 653e e7de 733e dc4c 883d 3ba0 bd3c
00000070: d44b 0dbd 7ffe eabd c933 873d 897a ed3c
00000080: d395 d8bd 08bc 6dbc a8a5 503d 686b b93d
00000090: 2b7c 623b 1b46 89bd 9145 ccbb b170 42be
000000a0: b1cf 8bbc 1a53 06be 3f93 40bd 264b c83c
000000b0: 5ca7 103d dce5 393d 2152 0b3e db12 813b
000000c0: c478 a4bd baf4 ad3d 42da 9fbd 3d02 fcbc
000000d0: c38b edbd 4acd d73d bc67 34be e5a6 2f3d
000000e0: ab6f 68bd 8110 e6bc 5744 3bbe c31e 613d
000000f0: 8af3 0fbe 7014 89bd 6283 b33c f5ac 733d
00000100: d811 753e 4be7 26bd d058 303e 03a4 cd3d
00000110: beb2 13be 2923 fdbd f011 03bd 813c 7dbd
00000120: 5d00 d33d 8ade 6dbd 374d 3cbe 4bb8 7abe
00000130: fbc1 cfbc aa23 cf3c 575b 103d 172e cebc
00000140: c2aa 233e ebf1 f9bc d2d3 51bd 528f a0bc
00000150: 1599 94bd 3a54 03be c527 a83d cf21 673d
00000160: a57e e0bc 9348 b53d 25d3 233e 6183 86bd
00000170: 7ebc 973d 931a 4dbd aa14 883d 3820 053c
00000180: 4d9b d23d 4d54 c9bd 6fd1 c7bc aec1 e73c
00000190: 5654 0abd b1db 063d a1f4 6abe 31a7 263c
000001a0: dba3 9fbc 2476 3f39 2449 dbbd 28e2 94bd
000001b0: 9fff 61bc cc3f cbbb 7b6d d13d a0f3 75bb
000001c0: 7c46 e33d 6418 d1bd 1a69 85bd 1e62 873d
000001d0: a8f1 85bd 2b75 2fbd 37ff 4fbd 68ee 2ebc
000001e0: 703d 07be 0fbd 153d ba09 08be 1441 dfbd
000001f0: a605 c4bd 8aaa bbbd be0f 713e 04aa f33d
00000200: de6a 4ebc 691f d0bd 7d73 943d 610b be3c
00000210: f2bc c4bb 00a9 f43d 01c2 8e3d 4b62 1b3d
00000220: 4d39 2b3c 3a12 f839 085a b5bc f441 30bd
00000230: 7a38 9c3c 0b9a 48bc e165 5b3e cab5 bbbc
00000240: a07f dbbd 8fa9 61bd f847 21be 940c 943d
00000250: 9f84 323e a318 103c eb64 1ebe ee2f 593d
00000260: 0aa0 073e 546c 833e 547c 3c3d b5f6 273d
00000270: f547 e83c 6552 343b 1cb7 9e3c c10d 853d
00000280: 4c18 9d3d ee84 f63c 9fa6 593c d9a0 7bbd
00000290: 21c7 383d cc68 823d 0aa7 0d3c 16ea bdbd
000002a0: b05c 11bd 28f8 0b3b 7e21 d5bd 2b80 5c3a
000002b0: 1035 dbbd 49dd 22be f77f e93d b706 8f3d
000002c0: f4c3 1ebc a0e0 f4ba e863 903d 41a3 8cbd
000002d0: 7ae0 f83d e6ff 033e ee43 1f3d 6d8a ee3d
000002e0: ca51 903c 1037 42bd 343f a93d 0d17 31bc
000002f0: 45f6 98bd fab9 b9bd b6d5 5abc e74d fb3d
00000300: 0a46 41be 4998 8ebb e804 a23d 0494 bb3d
00000310: 2bb5 953d ed70 33bd 89fb b43c 16aa 893d
00000320: a5aa 52bd 4138 55be 03a5 023d 9946 93bd
00000330: 23de 443d 7c05 d9bd de79 e5bd 7499 643c
00000340: 95e2 9cbd 6018 09be bbfe 273d 48a9 e03d
00000350: 120f 08be 23eb eebb b047 16bd 04c4 813c
00000360: f879 083d 5858 edbb 90ac 8abd 17c6 cc3d
00000370: 5851 913c b070 643d e387 00be 2127 e33c
00000380: f7b6 e4bc 07c8 563c 7c81 f4bd 844a eebd
00000390: 562f 913d a755 bc3d ca98 9a3d ef5c 47bd
000003a0: 6f14 41bd aa0c fe3d 476c f13d edc3 05bd
000003b0: 3b32 1fbe bdc5 8dbd cbbf 1a3d 97f5 21bc
000003c0: 2571 d7bc 35d7 5fbd b9bd 9c3c 3030 123d
000003d0: adcb 42bd 74b1 9e3d c26a 6d3c 8207 9d3d
000003e0: abca f13b cf68 d4bd 68f3 7c3d 5a57 eebc
000003f0: 4aa0 75bd 6286 adbc 4d1e c63d 4019 0a3e

network_body._body_endoder.seq_layers.2.bias f4 [128]
-0.011210322 -0.0023760863 -0.002230656 -0.008060056 -0.0016975075 -0.0021231058 -0.010088522 0.0015210076
-0.0067152493 -0.0038421836 -0.015086756 -0.0068187495 -0.00631312 -0.0025838853 -0.0038994362 0.0016061877
-0.0073988712 -0.0030191944 -0.009382884 -0.0037349975 0.0015222456 -0.0023189147 -0.011298655 -0.007583542
-0.008336592 -0.009092652 -0.004798396 0.0011716658 -0.010985615 -0.010726737 -0.013457638 -0.0074738795
-0.0012625409 -0.008352275 -0.010302821 -0.016263528 -0.0061763613 -0.0025429244 -0.011635599 -0.0010461641
0.0016960936 -0.0032622544 -0.0005389619 -0.00814008 0.005741858 0.0034538894 -0.014159093 -0.0036224895
-0.00914743 -0.0015981722 -0.0071800863 0.0062795877 -0.003711643 0.008267225 -0.005276988 -0.00047229344
-0.010322639 4.4974695e-06 -0.0040745395 -0.0022928505 0.015922835 -0.007473771 -0.0085348915 -0.0019526031
0.0016710977 -0.011487637 -0.0026384697 -0.0072833295 0.0035231235 -0.0024133965 0.00028425813 0.00094311737
-0.0016655951 -0.011139613 -0.008132691 -0.0015703349 -0.0055980464 -0.00030857368 -0.006976142 0.0018654217
0.003261154 -0.0044677993 0.00016515088 -0.011267804 -0.0055006538 -0.0071474407 -0.0030755287 -0.005254003
-0.0010793936 -0.00183955 0.0007610342 -0.009026399 0.0043606856 -0.013703663 -0.00043768942 0.004502982
0.01004681 -0.0020331568 -0.010384476 0.00090948277 -0.009230906 -0.008810075 -0.004247693 0.0015579192
-0.012121715 -0.0036824532 -0.004911485 0.0045796493 -0.0040015243 -0.008756353 -0.007223933 -0.0010539216
-0.008145301 -0.0057381247 -0.013557157 -0.0015688897 -0.002611458 -0.009584016 -0.006048548 0.011752541
0.0027067442 0.00064902444 -0.0077635217 -0.006087307 -0.004133608 -0.0062589124 -0.0025837922 -0.0028011468
00000000: 80ab 37bc 1db8 1bbb 3330 12bb 530e 04bc
00000010: e67e deba ce23 0bbb 544a 25bc 8c5c c73a
00000020: 980b dcbb 25cd 7bbb 712e 77bc d16f dfbb
00000030: 4ade cebb 6756 29bb af8d 7fbb b786 d23a
00000040: 3b72 f2bb addd 45bb abba 19bc dcc6 74bb
00000050: 1686 c73a eff8 17bb fe1d 39bc 5c7f f8bb
00000060: 3496 08bc 59f9 14bc dd3b 9dbb 9592 993a
00000070: 02fd 33bc 32bf 2fbc 6d7d 5cbc 72e7 f4bb
00000080: d87b a5ba fbd7 08bc 2acd 28bc 173b 85bc
00000090: 1363 cabb 31a7 26bb 3da3 3ebc 711f 89ba
000000a0: 754f de3a 8ccb 55bb 1f49 0dba f85d 05bc
000000b0: 3226 bc3b a65a 623b 8afb 67bc 4a67 6dbb
000000c0: 1adf 15bc c379 d1ba ee46 ebbb 00c5 cd3b
000000d0: 093f 73bb 4173 073c 95ea acbb 279e f7b9
000000e0: 4920 29bc f8e8 9636 b783 85bb a643 16bb
000000f0: 9b70 823c 89e6 f4bb eed5 0bbc 7dee ffba
00000100: bc08 db3a a436 3cbc 2dea 2cbb ffa8 eebb
00000110: 34e4 663b 132a 1ebb 7b08 9539 893b 773a
00000120: 1950 daba ec82 36bc fa3e 05bc b2d3 cdba
00000130: d16f b7bb 0fc8 a1b9 1f98 e4bb 2a81 f43a
00000140: 16b9 553b 9e66 92bb 5a2c 2d39 989c 38bc
00000150: d43e b4bb 1435 eabb cf8e 49bb c629 acbb
00000160: 707a 8dba 0e1d f1ba 2480 473a 76e3 13bc
00000170: 15e4 8e3b 5485 60bc ae79 e5b9 c08d 933b
00000180: 609b 243c b63e 05bb a623 2abc 5b6a 6e3a
00000190: 3a3d 17bc 2258 10bc 3b30 8bbb 1833 cc3a
000001a0: 289a 46bc 5055 71bb 86f0 a0bb e210 963b
000001b0: 381f 83bb ce76 0fbc beb6 ecbb be23 8aba
000001c0: de73 05bc e106 bcbb d61e 5ebc 34a3 cdba
000001d0: ff24 2bbb 4706 1dbc e632 c6bb bb8d 403c
000001e0: a263 313b 4b23 2a3a 2465 febb 0878 c7bb
000001f0: 3873 87bb 9017 cdbb d754 29bb 7293 37bb

action_model._continuous_distribution.log_sigma f4 [1, 2]
0.054157525 0.026506905
00000000: 48d4 5d3d 0225 d93c

action_model._continuous_distribution.mu.weight f4 [2, 128]
0.006125135 0.028005196 -0.010063634 -0.008630951 -4.3623626e-05 -0.003898415 -0.030484991 0.007939462
-0.0065224855 0.0119159985 0.007661474 0.0019432585 -0.001108098 0.015231528 -0.0033109845 -0.00078162627
-0.025929596 -0.00028699532 -0.027258113 -0.017760564 0.0049208826 0.00085287786 -0.0016249298 0.008547491
-0.00074208097 -0.010875015 -0.0018979646 0.008935108 -0.012485983 0.00047769482 0.0104603255 0.013347865
-0.015564658 -0.008210019 -0.004583195 -0.017409304 0.00042104197 0.001285961 0.00026589495 -0.026071692
0.0037805007 0.020063907 0.014918953 -0.0027709445 -0.008186898 -0.005651141 0.0064833793 -0.017504558
-0.034556545 -0.011296637 -0.025816757 0.013782436 -0.0016147512 -0.007956987 0.0010175485 0.0084909145
0.0019710618 0.022624755 -0.010682584 -0.012107305 0.0096652 -0.007702963 0.001039651 -0.0067094923
0.016328448 -0.017812084 -0.0051419414 0.012334629 0.004633825 0.005158232 0.024805034 0.004824196
-0.020901253 -0.0063531613 -0.01788258 -0.0017015204 -0.012585284 0.00034953823 0.015497774 -0.001958486
0.0031149478 -0.010994297 0.014582184 0.0075571444 -0.024647111 -0.0076231435 0.0022241313 -0.012612434
-0.026509684 0.028125655 0.013690388 0.024965635 -0.0149211595 0.0011661454 -0.015043939 -0.013412351
-0.01464237 0.002189947 0.026518567 -0.0029646493 -0.005955159 0.0018881204 -0.0047143907 0.0001259024
-0.014938824 -0.014824534 0.03409248 0.010424341 -0.0058744503 0.0009717153 -0.00162448 0.03240092
0.0090275165 0.016646579 -0.028294683 0.001415567 0.0025218728 -0.015406136 -0.013897547 0.02421239
-0.03386952 0.021181488 0.0054428414 0.014776198 0.0032615408 -0.013864649 0.009886646 0.011748839
-0.006313388 0.010962059 -0.0010425914 0.0022998978 -0.00046923783 0.007838087 -0.016486788 -0.005582025
0.004248974 0.009607294 0.0018434667 -0.016961638 0.020303406 -0.012295216 0.008783651 0.0032709327
0.013016674 -0.00053419743 0.013727512 -0.014991703 0.020265738 0.010725377 -0.008526722 -0.002547817
-0.0011428191 -0.012339898 -0.0096360175 -0.02083695 -0.0023576429 -0.021817446 -0.0012987476 0.00040640988
-0.0079201525 -0.0074897716 -0.006268697 -0.0021184518 0.003821258 0.0068092225 0.0033886712 -0.014421112
-0.005675777 0.0060050706 0.010408973 0.011780728 -0.014687553 0.02599864 -0.0036346146 -0.004462733
0.025675895 -0.0071909945 -0.011350028 -0.011780683 0.014532663 -0.018765781 0.0010353418 -0.021944514
0.0032446948 -0.02478708 -0.0077079013 0.012356817 -0.02262467 0.0020926574 -0.006058228 -0.018331775
0.01398203 0.010997628 0.02227589 -0.002602892 -0.002387063 0.009313136 0.0066407425 -0.012117905
0.014059613 -0.0018995706 -0.013666551 -0.0077701383 0.008002459 -0.01353555 -0.010569869 0.023228932
0.0110337315 0.007032793 -0.036604434 -0.008357708 -0.020049617 0.0034445897 -0.0067634755 -0.009704765
0.0018607399 0.010307594 0.0016087266 -0.0007334082 -0.0010990764 0.0007200578 -0.014543212 0.009207883
0.013084808 0.005220477 -0.014463294 -0.017449679 0.0030521413 -0.00049486104 0.0019363753 0.012261819
-0.0037825601 0.00961563 0.004303034 -0.008874254 0.009000669 -0.002132775 -0.0030786386 0.0043403185
0.0023926408 0.010138862 0.013210422 0.004444658 -0.0110881105 -0.0024336202 -0.019393554 -0.029479481
0.0038027968 0.0076661543 0.0013814482 0.01740422 0.00047562283 0.006439718 0.0106989825 -0.006606376
00000000: 5bb5 c83b 276b e53c f1e1 24bc d568 0dbc
00000010: 83f8 36b8 8d7c 7fbb a9bb f9bc 8414 023c
00000020: 93ba d5bb 523b 433c 1a0d fb3b efb4 fe3a
00000030: 993d 91ba a98d 793c 1afd 58bb 0de6 4cba
00000040: 4e6a d4bc dc77 96b9 684c dfbc 9a7e 91bc
00000050: 5b3f a13b aa93 5f3a 99fb d4ba c70a 0c3c
00000060: 3688 42ba 1e2d 32bc 20c5 f8ba 8f64 123c
00000070: 0292 4cbc 1d73 fa39 c961 2b3c 01b1 5a3c
00000080: e802 7fbc 5183 06bc a02e 96bb f59d 8ebc
00000090: 4cbf dc39 b18d a83a d167 8b39 4d94 d5bc
000000a0: 47c2 773b 105d a43c a06e 743c bc98 35bb
000000b0: 5722 06bc 352d b9bb 8772 d43b b865 8fbc
000000c0: 2a8b 0dbd 8815 39bc aa7d d3bc bacf 613c
000000d0: 0fa6 d3ba 065e 02bc 435f 853a 7a1d 0b3c
000000e0: ee2c 013b 8d57 b93c 0106 2fbc b85d 46bc
000000f0: c95a 1e3c 2369 fcbb e644 883a 4ddb dbbb
00000100: 3dc3 853c a6ea 91bc bb7d a8bb 2f17 4a3c
00000110: 57d7 973b 6306 a93b ed33 cb3c 4a14 9e3b
00000120: 1b39 abbc 2e2e d0bb 7d7e 92bc 8d05 dfba
00000130: 8232 4ebc 3a42 b739 60ea 7d3c f159 00bb
00000140: 2724 4c3b 6d21 34bc 1dea 6e3c eca1 f73b
00000150: bde8 c9bc 90cb f9bb bbc2 113b 62a4 4ebc
00000160: d62a d9bc c667 e63c a64d 603c bb84 cc3c
00000170: e177 74bc 59d9 983a db7a 76bc 7abf 5bbc
00000180: 8de6 6fbc 3785 0f3b 773d d93c 904a 42bb
00000190: 7f23 c3bb cf7a f73a 2d7b 9abb ab04 0439
000001a0: f8c1 74bc 9ae2 72bc 8ea4 0b3d dbca 2a3c
000001b0: 767e c0bb b6ba 7e3a 81ec d4ba d4b6 043d
000001c0: 26e8 133c 685e 883c 40ca e7bc 8c8a b93a
000001d0: 0146 253b 056a 7cbc 89b2 63bc 1059 c63c
000001e0: c4ba 0abd cd84 ad3c dd59 b23b de17 723c
000001f0: 93bf 553b 8e28 63bc 99fb 213c 347e 403c
00000200: 89e0 cebb 359a 333c 90a7 88ba e2b9 163b
00000210: 0904 f6b9 526b 003c 4d0f 87bc 6be9 b6bb
00000220: fa3a 8b3b e967 1d3c 7aa0 f13a 22f3 8abc
00000230: 5453 a63c e071 49bc 4de9 0f3c 255d 563b
00000240: e343 553c 6209 0cba 5ce9 603c c39f 75bc
00000250: 5504 a63c 7eb9 2f3c aab3 0bbc 47f9 26bb
00000260: a5ca 95ba 492d 4abc 63e0 1dbc 40b2 aabc
00000270: af82 1abb 80ba b2bc bd3a aaba 6913 d539
00000280: 87c3 01bc c26c f5bb a469 cdbb b9d5 0abb
00000290: 126e 7a3b e61f df3b 7814 5e3b 8746 6cbc
000002a0: defb b9bb 2fc6 c43b 668a 2a3c f403 413c
000002b0: 10a4 70bc 1afb d43c b732 6ebb 1e3c 92bb
000002c0: 4156 d23c 6fa2 ebbb 78f5 39bc c403 41bc
000002d0: 681a 6e3c b2ba 99bc 4eb4 873a fbc4 b3bc
000002e0: f2a4 543b 460e cbbc 9092 fcbb 3f74 4a3c
000002f0: 5f57 b9bc f724 093b 1a84 c6bb 852c 96bc
00000300: e214 653c 652f 343c ed7b b63c 4895 2abb
00000310: 4670 1cbb 2096 183c 969a d93b 2d8a 46bc
00000320: 4b5a 663c 03fb f8ba abe9 5fbc a59c febb
00000330: bf1c 033c 36c4 5dbc 3e2d 2dbc 9a4a be3c
00000340: d3c6 343c 5873 e63b 88ee 15bd c5ee 08bc
00000350: 183f a4bc a0be 613b 25a0 ddbb bc00 1fbc
00000360: 12e4 f33a 2fe1 283c e8db d23a 3142 40ba
00000370: e20e 90ba 43c2 3c3a a746 6ebc a9dc 163c
00000380: aa61 563c 8910 ab3b 74f7 6cbc a1f2 8ebc
00000390: 6f06 483b 90b9 01ba f9cd fd3a cce5 483c
000003a0: d4e4 77bb e08a 1d3c 7700 8d3b 5265 11bc
000003b0: 8b77 133c 07c6 0bbb fcc2 49bb 3b39 8e3b
000003c0: dacd 1c3b 781d 263c 8770 583c 7ea4 913b
000003d0: e8aa 35bc 5f7d 1fbb 3bdf 9ebc f47e f1bc
000003e0: 5838 793b 5d34 fb3b b611 b53a 4b93 8e3c
000003f0: 045d f939 4504 d33b c94a 2f3c 4c7a d8bb

action_model._continuous_distribution.mu.bias f4 [2]
0.0012140903 0.01057119
00000000: 1c22 9f3a c932 2d3c
