results/hideandseek_23/Seek/Seek-31368.onnx (onnx, 148430 bytes, 7 tensors)

network_body._body_endoder.seq_layers.0.weight f4 [128, 149]
0	0x3dc720a9	0.09723026
1	0x3c7c0717	0.01538255
2	0x3ca35fd4	0.019943155
3	0xbe0856ca	-0.13314357
4	0x3d35f0eb	0.04441921
5	0xbe0d291c	-0.13785213
6	0x3dc25bb4	0.09490147
7	0x3e24e1c3	0.16101746
8	0xbc858ca0	-0.016302407
9	0x3d57cd4c	0.05268602
10	0x3d99d20f	0.075107686
11	0xbdb7c10c	-0.08972368
12	0x3da559cf	0.0807377
13	0xbd950307	-0.07275968
14	0xbdd4ec94	-0.10396686
15	0xbcd2b09e	-0.025718983
16	0xbe51d2e9	-0.20490612
17	0xbcdcb986	-0.026943933
18	0xbd348a4f	-0.044077214
19	0xbe208c76	-0.15678582
20	0xbc5726e9	-0.0131318355
21	0xbdac56e6	-0.08415012
22	0xbdd35055	-0.103180565
23	0x3d866efa	0.06564136
24	0xbc5b3686	-0.013379699
25	0xbdc76661	-0.09736324
26	0xbe1235b1	-0.14278294
27	0xbe358d0f	-0.17729591
28	0xbe337ae7	-0.17527352
29	0xbdd5ea62	-0.104450956
30	0xbe131b4a	-0.14365879
31	0x3d00cc67	0.031444933
32	0x3cbe5ac0	0.023236632
33	0xbb8f63f4	-0.004375929
34	0xbdc111e1	-0.09427238
35	0xbddaf3b0	-0.10691011
36	0xbb292563	-0.0025809638
37	0xbcc9b06c	-0.024620257
38	0x3da738d8	0.08165139
39	0xbd260945	-0.040536184
40	0x3d5ee2c4	0.05441548
41	0xbdeca44d	-0.115547754
42	0x3e2e6ddc	0.17034096
43	0x3dcbde71	0.09954537
44	0xbe315047	-0.1731578
45	0x3c055f2e	0.008140368
46	0xbd205e21	-0.03915227
47	0xbdd499f4	-0.10380927
48	0xbdbc4e0a	-0.09194572
49	0xbd6a33da	-0.057178356
50	0xbccbeca6	-0.024893116
51	0xbc2908b0	-0.010317013
52	0xbe1a3d49	-0.15062441
53	0xbd87c77d	-0.06629846
54	0x3e22169a	0.15828934
55	0xbc4663cc	-0.012108754
56	0xbc21e889	-0.009882101
57	0xbd123118	-0.03569135
58	0x3ddd0680	0.107922554
59	0x3d0618f2	0.032738633
60	0xbd804055	-0.0626227
61	0x3df3bf3c	0.119017094
62	0x3d86127a	0.06546493
63	0x3c9231f8	0.017846093
64	0xbd5a45e1	-0.053289298
65	0xbe194c94	-0.14970618
66	0xbb8a00ec	-0.0042115357
67	0xbd6dd778	-0.058066815
68	0xbc5d2d34	-0.013499547
69	0xbd2694ac	-0.04066913
70	0x3d0998ea	0.033593096
71	0xbd9b43a1	-0.075812586
72	0xbc3a02eb	-0.011353235
73	0xbd756abe	-0.05991625
74	0x3e119ad0	0.14219213
75	0xbdb939f0	-0.09044254
76	0x3ddf581b	0.10905477
77	0xbba0a947	-0.004902992
78	0x3e3529a4	0.17691666
79	0xbd9a9f3e	-0.07549904
80	0xbdb97cac	-0.090569824
81	0x3c84aa91	0.016194614
82	0xbdba0d02	-0.09084512
83	0xbdc7d180	-0.09756756
84	0x3d810c13	0.06301131
85	0xbdaa41e4	-0.08313349
86	0xbad78f19	-0.0016445845
87	0x3d6a2140	0.057160616
88	0xbd95984e	-0.073044404
89	0x3af6600d	0.0018796936
90	0xbdcbb05c	-0.09945747
91	0xbd82377d	-0.0635824
92	0xbdb3bdf0	-0.08776462
93	0x3cac4ab3	0.021031713
94	0x3d02502d	0.031814743
95	0x3d025d24	0.031827107
96	0x3c5abe6f	0.013351067
97	0xbbb3b090	-0.0054836944
98	0x3da79653	0.08182969
99	0x3e08d1b9	0.13361253
100	0x3c8306dc	0.015994482
101	0xbd59c31a	-0.05316458
102	0xbd2d4bb2	-0.042308517
103	0xbdace200	-0.084415436
104	0xbe039ac0	-0.12852001
105	0xbc16b160	-0.009197563
106	0x3d0899aa	0.03334967
107	0xbdd92608	-0.10602957
108	0x3c196b6e	0.009363992
109	0x3d8221b7	0.06354087
110	0xbc39bb72	-0.011336194
111	0xbc3dfc4c	-0.011595797
112	0x3d8dddc7	0.06927066
113	0xbc9350ee	-0.017982926
114	0xbc6c9aa4	-0.014441166
115	0x3e00229f	0.12513207
116	0x3dba3be7	0.09093457
117	0xbe05eb3a	-0.13078013
118	0xbd4f1656	-0.05055841
119	0x3d7cae08	0.061689407
120	0x3da45a70	0.08025062
121	0xbcb52e57	-0.022116823
122	0x3dc74a25	0.09730939
123	0xbc9e918c	-0.019356512
124	0x3de90d37	0.11379474
125	0x3e5a94f1	0.21345879
126	0x3d27b7e4	0.040946856
127	0x3cb6a16a	0.022293765
128	0xbd485471	-0.048908655
129	0x3d7ab578	0.06120822
130	0x3bfdbdb6	0.0077435626
131	0xbceb4a38	-0.028721914
132	0x3dfbb81a	0.12290974
133	0x3e100486	0.14064226
134	0x3da6f61f	0.081524126
135	0x3d3294b3	0.043598842
136	0xbcf456d7	-0.029826565
137	0x3d87dbef	0.06633746
138	0x3d41a2bc	0.047274336
139	0x3b79f430	0.0038139932
140	0xbe3dc73c	-0.18533033
141	0x3c12d75e	0.00896248
142	0xbd0afe70	-0.033934057
143	0xbd48ddbe	-0.049039595
144	0x3d5db00f	0.05412298
145	0xbd5382a9	-0.05163828
146	0xbcb67919	-0.02227454
147	0x3d4b2807	0.04959872
148	0x3db531fd	0.08847425
149	0xbda1d0ce	-0.079011545
150	0xbda87c31	-0.08226813
151	0xbbe02bf3	-0.0068411767
152	0xbd0ea4ea	-0.034825243
153	0x3d13e664	0.03610839
154	0xbd3f2b93	-0.046672415
155	0x3d00541c	0.031330213
156	0x3d8678b9	0.06565995
157	0xbd9bf52b	-0.076151215
158	0x3c91e75c	0.017810516
159	0xbdc1ce2e	-0.09463154
160	0x3d80c98e	0.062884435
161	0x3c89d786	0.016826402
162	0xbda875dd	-0.08225606
163	0xbbe21006	-0.006898883
164	0xbd0bebf5	-0.034160573
165	0x3e36b31e	0.17841765
166	0xbb3289af	-0.002724271
167	0xbcdf1d57	-0.02723567
168	0xbc34eb1d	-0.0110423835
169	0x3bfa2141	0.0076333587
170	0x3c71ab0a	0.014750252
171	0xbe15ab85	-0.14616211
172	0xbc9dd7b1	-0.019267889
173	0xbcc4f011	-0.024040254
174	0x3dff9cd1	0.12481082
175	0x3ccb12a8	0.02478917
176	0xbdc2fc21	-0.09520746
177	0x3e000da2	0.125052
178	0x3d71d092	0.0590368
179	0xbd255108	-0.04036048
180	0xbc47b9ad	-0.012190265
181	0x3ca04885	0.01956583
182	0x3de4ba9e	0.11168407
183	0x3def47e8	0.11683637
184	0x3d70fec4	0.058836713
185	0x3e7f8f65	0.24957044
186	0xbc8b4d49	-0.017004626
187	0x3d5c139c	0.05372964
188	0x3ca05519	0.019571828
189	0x3e21c00a	0.15795913
190	0x3bddaf73	0.0067653
191	0x3c7d8e67	0.015475846
192	0x3e66a767	0.22524796
193	0xbbdd7638	-0.0067584775
194	0x3c25e65c	0.010125723
195	0xbd733a35	-0.059381682
196	0x3d9b9623	0.07596996
197	0x3d017814	0.031608656
198	0xbd7901c6	-0.060792707
199	0x3dc88500	0.09790993
200	0xbd673349	-0.056445394
201	0xbe3503e7	-0.1767727
202	0x3e31b5b1	0.17354466
203	0xbbcda9e7	-0.0062763575
204	0xbd3809f9	-0.044931386
205	0xbda4938a	-0.08035953
206	0xbc6d800b	-0.01449586
207	0x3e20feb9	0.15722169
208	0x3d0fdfcd	0.035125542
209	0xbe206ec3	-0.15667252
210	0xbcc46e0c	-0.023978256
211	0xbdb78268	-0.0896042
212	0xbda72cb9	-0.08162827
213	0x3e10cfdf	0.14141797
214	0x3da232df	0.07919859
215	0x3d7bef4d	0.061507512
216	0x3cd703e1	0.026246967
217	0x3e27bb27	0.16379987
218	0x3dfe56e1	0.124189146
219	0xbe1b3921	-0.15158512
220	0x3d7adc4f	0.06124526
221	0xbd77c98d	-0.06049495
222	0x3cf99c82	0.030470137
223	0xbdb65c81	-0.089043625
224	0xbddad4df	-0.10685133
225	0xbcd31a28	-0.025769308
226	0x3d937234	0.07199517
227	0x3dc3ec96	0.095666096
228	0xbe05d037	-0.13067709
229	0xbc91d7fd	-0.017803187
230	0x3abd9c4e	0.0014466138
231	0x3cc1467e	0.023593184
232	0xbc74c5ee	-0.014939768
233	0x3e18d0dd	0.14923425
234	0x3e0ce7af	0.13760255
235	0xbc423cab	-0.011855285
236	0xbd871071	-0.06594933
237	0x3dc28c11	0.09499372
238	0x3d89cbb1	0.06728304
239	0x3e2161e0	0.15759993
240	0xbdd22260	-0.10260463
241	0xbd7cf878	-0.061760396
242	0xbcd22f1b	-0.025657227
243	0xbe15a909	-0.14615263
244	0x3dd4d6c3	0.10392525
245	0x3d70d380	0.058795452
246	0x3cc9d4f3	0.024637675
247	0xbdba1e3d	-0.09087799
248	0xbd3f22c7	-0.046664026
249	0xbd4cf602	-0.0500393
250	0xbd42e571	-0.047582094
251	0x3de429bd	0.111407734
252	0x3cbc76d9	0.02300589
253	0xbda563bc	-0.080756634
254	0xbcc5383c	-0.024074666
255	0xbd5ec14a	-0.054383554

network_body._body_endoder.seq_layers.0.bias f4 [128]
0	0xbb041b6f	-0.0020157953
1	0x3b0e5926	0.0021720617
2	0xba86da82	-0.0010288509
3	0xb9ce5afe	-0.00039359176
4	0xba963e42	-0.0011462646
5	0xbb233adc	-0.002490691
6	0xbb431300	-0.0029765964
7	0xbb93d08c	-0.0045109447
8	0x3b0ef5a5	0.0021813896
9	0xbaeefb53	-0.001823286
10	0xbb16c6ac	-0.0023006601
11	0xbb0c9ac8	-0.0021454562
12	0xba86bfe2	-0.0010280574
13	0xbbaa08d3	-0.00518904
14	0x3b0acdc6	0.002117978
15	0xba649224	-0.00087192864
16	0xba823965	-0.0009935318
17	0x3a8adf43	0.0010595102
18	0xbb245a33	-0.0025078177
19	0x3a4a61d9	0.0007720269
20	0xba0994da	-0.0005248316
21	0xba472d03	-0.0007597955
22	0xbb0dbb58	-0.0021626558
23	0xb9bb5a7e	-0.0003573484
24	0x3a88cdca	0.0010437306
25	0x3a29dd38	0.00064798025
26	0x3a2920af	0.00064517086
27	0xbb5d9b00	-0.003381431
28	0xbaf90195	-0.0018997664
29	0xbb271ece	-0.0025500539
30	0xbae6b404	-0.0017601256
31	0xbb651fe0	-0.0034961626
32	0xb9a22992	-0.0003093002
33	0x3ab2c7bf	0.0013639851
34	0xba85fa1e	-0.0010221635
35	0xbb11a3bc	-0.0022222837
36	0x3a517b3a	0.00079910795
37	0xba8ca8df	-0.001073148
38	0xba8dc378	-0.00108157
39	0xb9e3db28	-0.00043460098
40	0x3b2f61b8	0.0026761126
41	0x3a0ea7c4	0.0005441869
42	0xbb2ffbad	-0.0026852891
43	0xba503bd7	-0.0007943487
44	0xbabc3ac2	-0.0014360773
45	0x3ac3c767	0.0014936746
46	0xba9d8231	-0.001201695
47	0x3b1619a0	0.0022903457
48	0x39ca75d6	0.00038616237
49	0xba8bfe1e	-0.0010680591
50	0x3b651e8c	0.0034960834
51	0xbb1f4f7a	-0.0024308846
52	0x38143d95	3.5343302e-05
53	0xbb37ffb7	-0.0028076002
54	0xb9fd2572	-0.0004828382
55	0xbb05605a	-0.002035162
56	0xb9e2199b	-0.00043125157
57	0x399e874b	0.0003023691
58	0xbb0a29f4	-0.0021082135
59	0xbaf04b49	-0.0018332984
60	0xb8f4f422	-0.000116803
61	0xba3d5140	-0.0007221885
62	0xba945597	-0.0011317012
63	0x3b29cdef	0.00259101
64	0xba7c1945	-0.00096168026
65	0xba052f16	-0.0005080564
66	0xbb0c1b17	-0.0021378451
67	0xb919b04f	-0.00014656897
68	0xbabfcf40	-0.0014633909
69	0xb9d1a3b5	-0.00039985558
70	0xbab02208	-0.0013437876
71	0xbb85fcf8	-0.004088994
72	0xb934edb0	-0.00017254683
73	0x39397e59	0.00017690043
74	0xbb58591a	-0.0033012093
75	0xbb8c68ce	-0.0042849546
76	0xbaef46ff	-0.0018255411
77	0xbb641cd3	-0.003480722
78	0xbb73255e	-0.003710113
79	0xb9335516	-0.00017102467
80	0xb781c0cc	-1.5467776e-05
81	0x39861b04	0.000255786
82	0x3b088b72	0.002083507
83	0x3ac3bbd2	0.0014933294
84	0xbb355247	-0.002766745
85	0xbb5666a1	-0.003271498
86	0xbaf2ef19	-0.0018534391
87	0xbb3ab8e9	-0.0028491563
88	0xbb6cde6c	-0.0036143316
89	0xbb4f4624	-0.00316275
90	0x3accaa78	0.0015614768
91	0x3a595831	0.00082910346
92	0x3b888c64	0.0041671265
93	0xbb70049b	-0.0036623839
94	0xbb672ea1	-0.0035275596
95	0x3a898401	0.0010491611
96	0x39959c67	0.00028536023
97	0x3b4b7f04	0.003105105
98	0xbafb1f11	-0.0019159039
99	0xb9929f3f	-0.00027965938
100	0xbb920108	-0.0044556893
101	0x3aee4e63	0.001818132
102	0x38829dea	6.228297e-05
103	0xbb140b50	-0.002258975
104	0xbab58311	-0.0013848265
105	0x3abb15f6	0.0014273513
106	0x3b515155	0.0031939347
107	0x3b2e875b	0.002663097
108	0x3b0ff08e	0.002196345
109	0xbaf37229	-0.0018573451
110	0xbb84a901	-0.004048467
111	0xbb4584c3	-0.0030138947
112	0xb982e4cd	-0.00024966002
113	0xbaed4470	-0.0018102061
114	0xbaac78a1	-0.0013158509
115	0xba09b73d	-0.000525344
116	0xbb24fdd3	-0.0025175705
117	0xbba35805	-0.004984858
118	0xbb2b013c	-0.0026093265
119	0x3972e3eb	0.00023163825
120	0x3a65590d	0.00087489263
121	0xbbb1c152	-0.005424657
122	0x3a943819	0.0011308222
123	0xbb8cef78	-0.004301008
124	0xbb04f612	-0.002028827
125	0x3a9d3033	0.0011992514
126	0xba8c8230	-0.0010719951
127	0x3b346b07	0.0027529614

network_body._body_endoder.seq_layers.2.weight f4 [128, 128]
0	0x3d73bd53	0.059506726
1	0x3cd2473f	0.025668738
2	0xbcd7c97e	-0.026341196
3	0xbd7df42f	-0.06200045
4	0xbd8bd85b	-0.06828376
5	0x3e1a2bec	0.15055817
6	0xbdc4b0a3	-0.09604003
7	0x3db75b1f	0.08952927
8	0xbcd6029b	-0.02612429
9	0xbe606fbd	-0.21917625
10	0xbdf8c7da	-0.12147494
11	0x3d5e9956	0.05434545
12	0x3db58785	0.08863739
13	0xbd47d04d	-0.048782635
14	0xbd2ba4a3	-0.041905057
15	0x3c9a6525	0.018847058
16	0x3da5e84d	0.081009485
17	0x3d2d9f1c	0.042388067
18	0xbd8a5209	-0.06753928
19	0x3e006ee1	0.12542297
20	0xbdbd57b5	-0.092452444
21	0x3be6a73b	0.0070389784
22	0x3ddb73cf	0.10715448
23	0xbd87a5e7	-0.0662344
24	0x3c30b25f	0.0107847145
25	0xbde839fd	-0.113391854
26	0x3c4e0f7c	0.012576934
27	0xbdd23e3b	-0.10265776
28	0xbdc748b2	-0.097306624
29	0xbc07ec37	-0.008296064
30	0xbd2a31b5	-0.04155131
31	0x3de719b9	0.11284203
32	0x3daee753	0.08540215
33	0xbda5caaa	-0.08095296
34	0x3b420742	0.0029606377
35	0x3c23c946	0.009996718
36	0x3dd289a5	0.1028016
37	0x3d9abb3e	0.07555245
38	0xbd91203a	-0.07086225
39	0xbdf40693	-0.119153164
40	0x3de02c61	0.109459646
41	0x3d6071e4	0.054796115
42	0xbd49f449	-0.049305234
43	0x3de5ab74	0.11214343
44	0xbda38b62	-0.079855695
45	0x3d58ad6e	0.05289977
46	0x3d47eb9f	0.04880869
47	0xbe336250	-0.17517972
48	0xbc4fe78c	-0.012689482
49	0xbd740ce7	-0.059582617
50	0x3cc3a5f1	0.023882838
51	0xbcede10c	-0.029037975
52	0x3dffe1c1	0.12494231
53	0xbc1eacae	-0.009684725
54	0x3d92914e	0.07156621
55	0xbd673a84	-0.05645229
56	0xbd03b611	-0.032156054
57	0xbdb40bd9	-0.08791322
58	0xbd6f6858	-0.05844912
59	0xbdc609e6	-0.09669857
60	0xbd87e1d9	-0.06634874
61	0xbd8bc555	-0.068247475
62	0xbd99a282	-0.07501699
63	0xbcecf0d8	-0.028923437
64	0xbd01d332	-0.031695552
65	0x3ca575db	0.0201978
66	0xbbc3a382	-0.0059704194
67	0xbddbb103	-0.10727122
68	0x3e4dbafa	0.20090857
69	0xbce64678	-0.028109774
70	0xbd4c2c6f	-0.049847063
71	0x3da9805f	0.08276438
72	0x3d684988	0.05671075
73	0x3c34176c	0.010991912
74	0x3d80255e	0.06257127
75	0xbd61b866	-0.055107497
76	0xbcb8257d	-0.022478813
77	0x3cb03914	0.021511592
78	0x3ddd2854	0.107987076
79	0x3d203f92	0.039123125
80	0xbc1a8091	-0.009430067
81	0xbcaf1f44	-0.021377213
82	0xbd4cda1b	-0.05001269
83	0x3c897898	0.016781136
84	0x3d81a7f6	0.06330864
85	0xbd0f7393	-0.03502233
86	0x3e43f2e0	0.19135618
87	0x3c87e52d	0.016588772
88	0x3d4431c8	0.047899038
89	0x3d8cfe27	0.06884413
90	0x3df05159	0.11734266
91	0x3c15fb3c	0.009154137
92	0x3dfdf287	0.12399774
93	0x3d80baa9	0.062856026
94	0xbcc80224	-0.024415083
95	0x3d579588	0.05263284
96	0x3ce49e3f	0.027907489
97	0x3e59b70c	0.21261233
98	0x3db81a84	0.089894325
99	0x3d883c9e	0.06652187
100	0x3dfd1a78	0.12358564
101	0xbd90fc2e	-0.070793495
102	0xbdb7a2f3	-0.08966627
103	0x3d12c3ae	0.035831146
104	0xbe1274aa	-0.14302316
105	0xbd48fbf3	-0.049068402
106	0x3cfe1985	0.031018028
107	0xbd7f6d76	-0.06236025
108	0x3e0e5700	0.13900375
109	0x3de4f6a7	0.11179858
110	0xbc4543fa	-0.012040133
111	0xbd24eb5b	-0.040263515
112	0x3d7de6f6	0.06198784
113	0xbd52a9da	-0.051431514
114	0xbdb23f6d	-0.08703504
115	0x3e1204b6	0.1425961
116	0xbe1265c6	-0.14296636
117	0x3dca19c8	0.09868199
118	0xbe0e4dd8	-0.13896883
119	0x3e458275	0.19288047
120	0x3dd70667	0.10499268
121	0xbc9ad0e9	-0.018898444
122	0x3d8fa7ba	0.07014413
123	0x3d628fa0	0.055312753
124	0x3d1905d9	0.037359092
125	0xbdbb8d9b	-0.091578685
126	0xbd8721a9	-0.06598217
127	0x3c88dcd1	0.016706856
128	0xbdde1dc5	-0.10845522
129	0xbdc90aff	-0.098165505
130	0x3d60c7ff	0.05487823
131	0x3ddc41fc	0.10754773
132	0xbd81f353	-0.063452385
133	0xbd3a6829	-0.04550949
134	0xbe010f60	-0.12603521
135	0x3d1b7a6d	0.03795855
136	0xbcbd4f7a	-0.023109186
137	0xbe382df1	-0.17986275
138	0x3dba8ce1	0.09108902
139	0x3d942649	0.07233865
140	0x3d15ca43	0.036569845
141	0x3df29660	0.11845088
142	0xbe7918eb	-0.24325912
143	0x3e49a471	0.19691636
144	0x3dc8db0f	0.09807407
145	0x3e4e3bc7	0.20139991
146	0xbc2c2560	-0.010506958
147	0x3d7c1d29	0.061551247
148	0xbbf0236f	-0.0073284428
149	0x3d37a1bb	0.044831973
150	0xbd463aae	-0.048395805
151	0xbccc1c1a	-0.024915744
152	0x3d8fa2bb	0.0701346
153	0xba246a98	-0.0006271987
154	0xbd20f801	-0.039299015
155	0xbdf1399b	-0.117785655
156	0xbd8fcb26	-0.07021169
157	0xbd2e47a8	-0.042548805
158	0xbe69eb99	-0.2284378
159	0x3e14e7a1	0.14541484
160	0x3bc3c709	0.0059746546
161	0x3dda3ff0	0.10656726
162	0x3e0d1fdb	0.13781683
163	0x3d232970	0.03983444
164	0xbce2b282	-0.02767301
165	0x3c999252	0.018746529
166	0x3d27ae9d	0.04093801
167	0xbe3a8839	-0.18216027
168	0xbdba8340	-0.09107065
169	0x3d7666d8	0.060156673
170	0xbdda2fb8	-0.10653633
171	0x3dc599dd	0.09648488
172	0xbcee2b65	-0.029073426
173	0xbe3f314a	-0.18671146
174	0xbdf38443	-0.11890461
175	0x3e67b396	0.226271
176	0xbd23b0a3	-0.039963376
177	0xbd933107	-0.071870856
178	0xbdc7c6ca	-0.09754713
179	0xbdb451cd	-0.08804665
180	0x3ac4e651	0.0015022253
181	0x3ca58e2a	0.02020939
182	0x3d2ee412	0.042697974
183	0xbc9ee3a9	-0.019395666
184	0xbd328743	-0.043586027
185	0xbc17f222	-0.009274038
186	0x3dc2d4b3	0.095132254
187	0x3dfa142c	0.12210879
188	0xbbee5de0	-0.0072743744
189	0x3e00bea3	0.12572722
190	0xbda5b339	-0.08090825
191	0xbe590611	-0.2119372
192	0x3c0afab6	0.008482626
193	0x3d9ec204	0.07751849
194	0xbe2fbd08	-0.17161953
195	0x3e0ddf5f	0.1385474
196	0xbd06de78	-0.032927006
197	0x3e4f2c3b	0.20231716
198	0xbcef15a9	-0.029185133
199	0x3c2d6feb	0.010585765
200	0xbc38bb98	-0.011275195
201	0x3d2617ac	0.04054992
202	0x3d3de29b	0.046358686
203	0x3d098337	0.0335724
204	0x3cb2160d	0.02173903
205	0xbe45a43f	-0.19300936
206	0x3d17586c	0.03694956
207	0x3cecb9ae	0.028897133
208	0xbd4d17fc	-0.0500717
209	0xbcab931b	-0.020944169
210	0x3c30829a	0.010773325
211	0xbcaea0b2	-0.02131686
212	0xbe139cf7	-0.14415346
213	0xbcf8bcad	-0.030363405
214	0xbccbad41	-0.024862887
215	0xbd36de09	-0.044645343
216	0xbdfee5da	-0.124461845
217	0xbc4e8ca0	-0.01260677
218	0xbdb764d9	-0.08954782
219	0xbddca5f3	-0.1077384
220	0x3d379405	0.044818897
221	0x3c7f4ddd	0.015582529
222	0x3d199370	0.037494123
223	0x3bcc5be0	0.0062365383
224	0x3e1f4631	0.1555412
225	0x3dd8b363	0.1058109
226	0x3e2d131c	0.16901821
227	0xbdf6694a	-0.12031801
228	0x3b0666a8	0.0020507965
229	0xbdb9ae45	-0.090664424
230	0x3e2525b3	0.16127662
231	0xbb2f8640	-0.00267829
232	0x3e0c6c72	0.13713244
233	0x3dac5fb0	0.084166884
234	0xbe57a971	-0.2106073
235	0xbd2d29ea	-0.0422763
236	0x3d6501e3	0.055910002
237	0xbd8e0fba	-0.06936593
238	0x3d9e3a27	0.077259354
239	0xb9d316ba	-0.0004026199
240	0x3dcc670f	0.09980594
241	0xbc95adfd	-0.01827144
242	0x3d629a24	0.05532278
243	0x3b3646a7	0.0027813108
244	0x3e398972	0.18118837
245	0xbe127073	-0.14300708
246	0xbc72c949	-0.014818498
247	0x3da88e62	0.08230282
248	0xbd25a26e	-0.04043811
249	0xbe1f0622	-0.15529683
250	0x3d2b76a4	0.04186119
251	0xbcf1cdcb	-0.029517075
252	0x3e07a63d	0.13247009
253	0xbe1a9838	-0.1509713
254	0x3de764e7	0.112985425
255	0x3de4c87c	0.11171052

network_body._body_endoder.seq_layers.2.bias f4 [128]
0	0xba1bcf05	-0.0005943629
1	0x3ac46f91	0.0014986863
2	0xba0334c0	-0.0005005114
3	0xba2f906c	-0.0006697241
4	0xb9decacf	-0.00042494244
5	0xbb5033e4	-0.003176921
6	0x3ad8d657	0.001654337
7	0xb9ba744e	-0.00035563338
8	0x3ac1f3f5	0.0014797436
9	0x39e31172	0.00043309812
10	0xb983c4c4	-0.0002513287
11	0x3b3a38ba	0.002841516
12	0x3b45d5f7	0.0030187347
13	0x3b5f6d06	0.0034092083
14	0xb93e07b6	-0.00018122685
15	0x38cb3177	9.689008e-05
16	0xb9779f33	-0.00023615062
17	0xbb5fef2b	-0.0034169655
18	0xbb06e8c5	-0.0020585519
19	0xbad1ab17	-0.0015996423
20	0x3b283222	0.0025664647
21	0x3aa3c33c	0.0012494097
22	0xbab7753b	-0.0013996729
23	0xbb306245	-0.0026914042
24	0x3ac9fa46	0.001540967
25	0x3b76b793	0.003764604
26	0x3aa7786a	0.0012776975
27	0xbb09bf9e	-0.0021018754
28	0x3acfbc7c	0.0015849019
29	0x3a68a0a5	0.00088740356
30	0xba895c88	-0.0010479847
31	0xbb14a61e	-0.0022682021
32	0xba1964f2	-0.0005851529
33	0xba4e578e	-0.0007871323
34	0xb9d93f40	-0.0004143659
35	0xb946ae69	-0.00018947724
36	0xba64a3ee	-0.0008721937
37	0xb99ad0ee	-0.00029528834
38	0x3abb8bfb	0.0014308685
39	0x38ef703e	0.00011417315
40	0x3b5f22c2	0.0034047817
41	0xb99d486e	-0.00029999338
42	0xb9ca64ad	-0.00038603452
43	0xbb367db8	-0.002784593
44	0x3b19e638	0.0023483168
45	0x39ff9ad7	0.00048752755
46	0x3a22f8a9	0.0006216863
47	0x3b0e2c01	0.002169371
48	0xbaa1433e	-0.0012303365
49	0x3ab65009	0.001390935
50	0x3911d508	0.00013907638
51	0xba120f4d	-0.0005571738
52	0x3a510d3f	0.0007974691
53	0xbaf69068	-0.0018811347
54	0xbac04a17	-0.0014670518
55	0x3a92bdd9	0.0011195495
56	0x393e744c	0.00018163136
57	0xba894c44	-0.0010475
58	0xb922d9c6	-0.00015530651
59	0xbaff256a	-0.0019466106
60	0xbb65fe76	-0.0035094297
61	0xb9dd819b	-0.00042248968
62	0x3b038b4a	0.0020072036
63	0x39ad3536	0.00033036777
64	0xba150ea0	-0.0005686078
65	0xbafaae70	-0.0019125473
66	0xbabc85c1	-0.0014383123
67	0x394b08f8	0.0001936293
68	0xbaa9a8b1	-0.0012943951
69	0xbb697513	-0.003562276
70	0xbb4d047a	-0.0031283186
71	0x3b196b64	0.0023409957
72	0xbb2579c1	-0.0025249573
73	0x3a26f62a	0.0006369079
74	0x39d3c00e	0.00040388148
75	0x39c99051	0.00038445232
76	0x3a81c718	0.0009901254
77	0xbab7e4e5	-0.0014030008
78	0xbb153824	-0.0022769058
79	0x3aa5784f	0.0012624356
80	0xba738a49	-0.00092903204
81	0x3ac26ce9	0.0014833483
82	0x39db46e2	0.00041823747
83	0x3a0864e7	0.0005203024
84	0xb977c3ae	-0.00023628652
85	0x3ae494e2	0.001743939
86	0xbb0907dd	-0.0020909228
87	0xbb17b713	-0.0023149892
88	0x3b475813	0.0030417487
89	0x3ac07e49	0.0014686073
90	0xbb350945	-0.0027623933
91	0xbafab7ad	-0.0019128226
92	0xba0e8234	-0.0005436272
93	0xbb5ae7b8	-0.0033402275
94	0x3a135312	0.00056199834
95	0xbb1c00db	-0.002380422
96	0xbace32e9	-0.0015731725
97	0xb90a9b2e	-0.00013218515
98	0xbaaf6ad4	-0.0013383278
99	0xba25f7e3	-0.00063311885
100	0x3b239f05	0.002496661
101	0xba30c28f	-0.00067428587
102	0xbae2ca54	-0.001730273
103	0x3828d0f8	4.024894e-05
104	0xb8963ae4	-7.1635266e-05
105	0x3b0e1ca4	0.0021684552
106	0xbab99845	-0.001415976
107	0x3b932e85	0.0044916295
108	0x398eee2a	0.00027261797
109	0x39242e81	0.00015657583
110	0x3b7c1346	0.0038463636
111	0x3a85fc1d	0.001022223
112	0x3a9ef329	0.0012126911
113	0x39b6e98e	0.00034887757
114	0xba26d879	-0.00063646544
115	0xba1a2dce	-0.0005881459
116	0xbb049fcb	-0.0020236846
117	0x3a0fd0f1	0.0005486152
118	0x392da73c	0.00016560865
119	0xbb33d748	-0.002744155
120	0xba9674d2	-0.0011478907
121	0x3a3eb9ef	0.0007275631
122	0xba52b245	-0.00080374285
123	0x3a98aac7	0.0011647575
124	0x395e3ab0	0.00021193433
125	0x39b944bc	0.0003533716
126	0xbaa265a6	-0.0012389913
127	0x397dbb33	0.00024197697

action_model._continuous_distribution.log_sigma f4 [1, 2]
0	0xbbbee509	-0.005825643
1	0x3b119676	0.0022214926

action_model._continuous_distribution.mu.weight f4 [2, 128]
0	0x3bb8d3b7	0.0056404728
1	0x3c5c1f47	0.0134351915
2	0x3c6f1dff	0.014594554
3	0xbcb457fa	-0.022014607
4	0xbbbcaaa5	-0.005757647
5	0xbbd01389	-0.006349985
6	0xbcd0c25e	-0.025483306
7	0xbc2167f7	-0.009851447
8	0xbb0939ac	-0.0020938916
9	0xbca53a35	-0.020169357
10	0x3caee8e3	0.021351283
11	0xba6cd1f0	-0.00090339687
12	0x3c84ebac	0.016225658
13	0x3d35f769	0.0444254
14	0x3c85c398	0.016328618
15	0x3d0075e3	0.031362426
16	0xbc751430	-0.014958426
17	0xbbe2256e	-0.0069014346
18	0xbc6ec22a	-0.0145726595
19	0xbb7a6ba8	-0.003821114
20	0x3ca49493	0.020090377
21	0x3ca92bba	0.020650733
22	0xbc95cd33	-0.018286323
23	0xbc09aafa	-0.00840258
24	0x3cb0e9ad	0.0215958
25	0x3c3ebf54	0.011642296
26	0xbba94bdc	-0.005166514
27	0xbcaee35c	-0.021348648
28	0x3b6b5bbd	0.0035912835
29	0x3c6a94d2	0.014317708
30	0xbd0dc712	-0.034613676
31	0xbaa9e9f9	-0.0012963406
32	0x3c37edff	0.011226176
33	0xbc70bd60	-0.014693588
34	0x3bb1de24	0.0054280926
35	0x3bf668f4	0.0075198356
36	0xbc979426	-0.01850326
37	0x3c4e3c43	0.01258761
38	0xbc14b5f3	-0.009076583
39	0x3be918f5	0.007113571
40	0x3bf8ac98	0.007588934
41	0xbc593eb0	-0.013259575
42	0x3d071c08	0.032985717
43	0xbc4d05d8	-0.0125136
44	0x3abc1274	0.0014348761
45	0x3cc27b85	0.02374054
46	0x3ba391c7	0.0049917432
47	0x3b7b1055	0.0038309295
48	0x3b17a365	0.0023138162
49	0xbc654e43	-0.01399571
50	0x3c287ba3	0.010283384
51	0xbc46cbd3	-0.012133556
52	0x3d38e307	0.045138385
53	0xbbd53945	-0.006507071
54	0xbcfc1a1c	-0.030774169
55	0x3c628808	0.013826378
56	0xbc134042	-0.008987488
57	0xbcc46c1b	-0.02397733
58	0x3a937d21	0.0011252501
59	0xbc1dafb8	-0.009624414
60	0xbb0b965a	-0.0021299333
61	0xbd28ee9f	-0.04124319
62	0x3a0c7451	0.00053579087
63	0x3ceaf497	0.028681083
64	0xbce2dedf	-0.027694164
65	0xbc8db182	-0.017296556
66	0x3c5cdedf	0.013480871
67	0xbce5e85f	-0.028064905
68	0xbc9e32ca	-0.019311327
69	0xbc481f44	-0.012214486
70	0xbc8f2049	-0.01747145
71	0x3c6e1a00	0.014532566
72	0xbc625074	-0.013813127
73	0x3d1bd354	0.038043335
74	0x3a93e2da	0.0011282817
75	0xbc525f7a	-0.012840146
76	0x3cc38a88	0.023869768
77	0xbc803dc3	-0.01565445
78	0xbc803ae2	-0.015653078
79	0xbbf4af59	-0.007467192
80	0xbb58e457	-0.0033095086
81	0x3c96d2d3	0.018411076
82	0x3ba53d6d	0.005042723
83	0x3cbec78d	0.023288513
84	0x3c89be3a	0.01681434
85	0x3c90da7f	0.017682312
86	0xbc991959	-0.018688845
87	0xbb5f06a9	-0.003403107
88	0x3d3a0312	0.045413084
89	0x3d11dd6a	0.035611548
90	0xbc318f77	-0.010837427
91	0xbc4cb60e	-0.012494577
92	0xbc5701e3	-0.013123008
93	0xbb1499ef	-0.002267476
94	0xbba8f35e	-0.0051559648
95	0x3c72115f	0.014774649
96	0x3b2e439e	0.0026590596
97	0xbd0c07ad	-0.034187008
98	0xbb79c10c	-0.003810945
99	0xbc40d334	-0.011769105
100	0x3c5b489a	0.013384009
101	0x3bf95e2c	0.007610103
102	0xbcd0164b	-0.025401255
103	0x3aea85a1	0.0017892608
104	0x3c57c007	0.0131683415
105	0x3ca74ce8	0.020422414
106	0xbbdf0ca0	-0.006806925
107	0x3be19bdf	0.0068850364
108	0x3c7485a6	0.014924442
109	0x3c550b4f	0.013003184
110	0x3c6838a2	0.014173659
111	0x3d234384	0.03985931
112	0xbbbd73f8	-0.005781647
113	0x3c36d2cd	0.011158657
114	0xbbc95631	-0.006144308
115	0x3c092033	0.008369493
116	0xbcb688e8	-0.022282079
117	0x3c9cd99d	0.019146735
118	0xbb3fa650	-0.0029243417
119	0xbb2f331b	-0.0026733342
120	0x3bc8d006	0.006128314
121	0x3bbd55ba	0.0057780417
122	0x3c90e082	0.017685179
123	0x3c80a9d6	0.015705984
124	0x3c9169ca	0.01775064
125	0x3be55fee	0.006999961
126	0xbc61fe8e	-0.013793601
127	0xbc51db46	-0.0128086265
128	0x3b6029b1	0.0034204538
129	0x3ca37933	0.019955253
130	0x3c5339d8	0.012892209
131	0x3c2eb506	0.010663277
132	0x3c21adbb	0.009868081
133	0xbb2ca76f	-0.0026344915
134	0x3cd3f369	0.025872903
135	0x37c32cd4	2.3266686e-05
136	0x3c920ec7	0.017829312
137	0xbd32fd8e	-0.04369884
138	0x3cd67e89	0.026183384
139	0x3cc67fc1	0.02423084
140	0xbc0b0d56	-0.008487066
141	0x3939fbba	0.0001773675
142	0xbccc9f0b	-0.024978181
143	0xbcc43ff2	-0.023956273
144	0xbc2b42ef	-0.01045297
145	0x3b17b806	0.0023150458
146	0xbc3f50ea	-0.011677006
147	0xbb5d5eb9	-0.0033778383
148	0x3bae193d	0.005313067
149	0x3c11276d	0.0088594975
150	0xbcfd1fb7	-0.030898912
151	0x3b999724	0.004687207
152	0x3b9f98b7	0.0048705
153	0x3bab9f7a	0.005237517
154	0x3cb56c39	0.022146331
155	0x3cf976a5	0.030452082
156	0xbba630c9	-0.0050717336
157	0xbb0d3507	-0.00215465
158	0x3d1919a7	0.03737798
159	0xbb5a940e	-0.0033352408
160	0x3b4e64c0	0.0031493157
161	0xbcb8699e	-0.0225113
162	0xbb421b21	-0.002961822
163	0x3a7a8b08	0.00095574604
164	0xbc9dfbf1	-0.019285174
165	0xbb09ce75	-0.00210276
166	0xbc8359fb	-0.016034117
167	0x3c373a80	0.011183381
168	0xbca3f217	-0.020012898
169	0x3c686b84	0.01418579
170	0xbc9c7616	-0.019099277
171	0xbb9e12bc	-0.0048240107
172	0x3bddc7ae	0.0067681884
173	0x3c807735	0.015681842
174	0x3ae07466	0.0017124533
175	0x3c8e5811	0.017375978
176	0xbce8ac4f	-0.028402476
177	0x3cabee69	0.020987706
178	0x3be99fff	0.0071296687
179	0x3c9f2b5a	0.019429851
180	0xbca022bf	-0.019547818
181	0x3caa05bf	0.020754693
182	0xbb81677d	-0.0039491043
183	0x3b813d95	0.0039441087
184	0xbc8abeb3	-0.016936636
185	0xbc942e44	-0.018088467
186	0xbd3b5a4c	-0.04574041
187	0xbb715e9e	-0.0036830078
188	0xbc1ed47f	-0.009694218
189	0x3c6eae10	0.014567867
190	0xbae51444	-0.0017477353
191	0x3c4043bc	0.011734899
192	0xbbb19290	-0.005419083
193	0xbad7cdd1	-0.0016464536
194	0xbc17d876	-0.009267917
195	0xbaab9083	-0.0013089332
196	0xbb84a00c	-0.0040473994
197	0xbce99696	-0.028514188
198	0x3b0cd11a	0.002148694
199	0xbb188d52	-0.0023277593
200	0xbc68d4a4	-0.014210854
201	0xbcd03075	-0.025413731
202	0x3c91b3b1	0.017785879
203	0x3ce259d8	0.027630731
204	0xbcec6a10	-0.028859168
205	0xbc607369	-0.013699391
206	0x3d069173	0.032853555
207	0xbcab8219	-0.020936059
208	0x3d5738bc	0.05254434
209	0xbc29fb9c	-0.01037493
210	0xbb84f075	-0.004056985
211	0xbb3893c7	-0.0028164254
212	0x3a823dd0	0.0009936634
213	0xbc72ea80	-0.014826417
214	0x3cbf2a3d	0.02333557
215	0xbc8d7fcd	-0.017272854
216	0x39d8cec3	0.0004135278
217	0x3aed3831	0.0018098411
218	0x3c22ef3f	0.009944736
219	0xbcf11f55	-0.029433886
220	0x3b924d73	0.004464799
221	0x3c320845	0.010866229
222	0x3c2a97d6	0.010412177
223	0x3cde97f0	0.027172059
224	0xbd5a51c3	-0.05330063
225	0xbccf9e0f	-0.025343923
226	0xbc7b7780	-0.015348315
227	0x3cb14862	0.02164096
228	0xbcaa6623	-0.020800656
229	0x3bb4f2df	0.0055221166
230	0xbba097a2	-0.0049008885
231	0xbb99c6ee	-0.0046929037
232	0xbb9a6896	-0.0047121746
233	0xbb61de42	-0.0034464751
234	0xbc8c040f	-0.017091779
235	0xbc23de29	-0.010001698
236	0xbc167c8c	-0.009184968
237	0xbcd1e88a	-0.025623579
238	0x3bfa0cf5	0.007630939
239	0x3ba7b4ff	0.005118012
240	0x3ca84023	0.020538395
241	0x3c08a2b6	0.008339575
242	0x3bc1d03e	0.005914717
243	0x3c1de148	0.009636231
244	0xbac999e4	-0.0015380946
245	0x3cc524cc	0.024065398
246	0xbcae581d	-0.02128225
247	0x3c90488c	0.017612718
248	0xbc56469e	-0.01307836
249	0xbcbd7e08	-0.023131385
250	0x3c1c9b85	0.009558563
251	0xbb61fb03	-0.003448189
252	0x3bcc40ec	0.006233325
253	0x3bec5e7a	0.007213411
254	0xbc33c0da	-0.010971272
255	0xbc40d59d	-0.011769679

action_model._continuous_distribution.mu.bias f4 [2]
0	0x3a900c13	0.0010989927
1	0x3a0a4d3e	0.0005275792
