results/hideandseek_10/Hide/checkpoint.pt (torch, 994795 bytes, 36 tensors)

network_body._body_endoder.seq_layers.0.weight f4 [128, 186]
0	0x3da0d804	0.07853702
1	0x3da81a87	0.08208185
2	0xbddaf75c	-0.10691711
3	0xbc78c20d	-0.015182984
4	0x3cdfb13d	0.027306193
5	0x3d01d80d	0.031700183
6	0x3db92532	0.090402976
7	0xbd07501a	-0.033035375
8	0xbe1c30ea	-0.15253034
9	0x3d92dddc	0.071712226
10	0x3d6dbf12	0.058043547
11	0xbd59a10b	-0.0531321
12	0xbd8c00db	-0.06836101
13	0x3de6333c	0.11240241
14	0xbdb6aae9	-0.08919317
15	0xbd7eac2b	-0.06217591
16	0x3da58ba3	0.08083274
17	0x3d7fa997	0.062417593
18	0x3bd1f86f	0.0064077894
19	0x3b310ce4	0.002701574
20	0x3dcbf586	0.09958939
21	0xbe13d3e8	-0.14436305
22	0x3dbab9f6	0.091175005
23	0x3caaa722	0.020831648
24	0x3e111767	0.14169084
25	0xbd12f9dd	-0.03588282
26	0x3cb70c27	0.022344662
27	0x3b55c8eb	0.0032620977
28	0x3d8b4452	0.068001404
29	0x3be321e0	0.0069315284
30	0x3dbdc63f	0.09266328
31	0x3d013db6	0.031552993
32	0x3c1ad093	0.009449142
33	0x3dcf56d7	0.10123985
34	0xbd8860cf	-0.0665909
35	0xbc6307c6	-0.013856834
36	0xbd974dc1	-0.07387877
37	0x3d03b17e	0.03215169
38	0xbbe8d0bc	-0.007104961
39	0x3de16097	0.11004751
40	0xbe5f9181	-0.21832849
41	0x3aec4bc4	0.0018027951
42	0xbda58ecf	-0.08083879
43	0xbcfc4241	-0.030793311
44	0xbd7c9d10	-0.061673224
45	0xbdc9c245	-0.09851507
46	0x3c47cbce	0.012194587
47	0xbd8043e1	-0.06262947
48	0x3d829fda	0.063781455
49	0xbd9e3bc2	-0.07726242
50	0xbd2f21ab	-0.042756718
51	0xbd75bb89	-0.0599933
52	0x3da3cd41	0.079981335
53	0x3dee8898	0.11647147
54	0x3e029c1b	0.12754862
55	0x3db0e404	0.086372405
56	0xbc8fdc90	-0.017561227
57	0x3d282109	0.04104713
58	0x3d83c7ed	0.06434617
59	0x3df69161	0.120394476
60	0xbc067cb3	-0.008208442
61	0x3d700d8d	0.058606673
62	0xbdb31882	-0.08744909
63	0x3c86a787	0.016437305
64	0x3c79fc93	0.015257972
65	0xbc0c7503	-0.00857282
66	0xbd9c8bf4	-0.076438814
67	0x3dbdab79	0.092612214
68	0xbdab6624	-0.08369091
69	0xbe1d4a25	-0.15360315
70	0xbb20ccc3	-0.002453611
71	0xbdc022a3	-0.093816064
72	0xbc40992e	-0.011755271
73	0xbd42ae92	-0.047529764
74	0xbcd69cb7	-0.026197774
75	0xbd843a7c	-0.064564675
76	0x3cbebf36	0.023284536
77	0x3d896c8d	0.067101575
78	0x3d94aeb8	0.072598875
79	0x3d7bcf78	0.061477154
80	0x3d16ccda	0.036816455
81	0x3cf04f9e	0.02933484
82	0xbd6fc537	-0.058537688
83	0x3d84d99b	0.064868174
84	0xbd49d42d	-0.049274612
85	0xbe2f9ef9	-0.17150487
86	0x3d7e42dc	0.06207548
87	0xbe08a0f4	-0.13342649
88	0x3e3e5bae	0.1858966
89	0xbdca6932	-0.09883346
90	0xbd932ec8	-0.07186657
91	0x3c1b7dec	0.009490471
92	0xbdb4b2b5	-0.08823148
93	0xbda14395	-0.078742184
94	0xbdcdde3f	-0.10052156
95	0xbde52995	-0.11189572
96	0x3db74b6c	0.089499325
97	0x3db223f2	0.08698262
98	0xbd3f6c27	-0.046734
99	0x3e037433	0.12837295
100	0xbd268746	-0.04065635
101	0xbd2588cf	-0.040413674
102	0xbbc8b496	-0.006125043
103	0x3b3daaf0	0.0028940998
104	0xbe14187f	-0.1446247
105	0x3d0b35fe	0.033987038
106	0xbd9c6ba0	-0.07637715
107	0x3d7f80f0	0.062378824
108	0xbddc7694	-0.107648045
109	0xbdf70693	-0.12061801
110	0x3cd9d6ba	0.026591647
111	0x3c5fcc8d	0.013659609
112	0xbd806974	-0.062701136
113	0xbd055bb7	-0.03255817
114	0x3dd1a584	0.10236648
115	0x3bd3baa5	0.0064614587
116	0xbd684a94	-0.05671175
117	0x3cf2aaf3	0.02962253
118	0x3e069163	0.13141398
119	0x3e473711	0.194546
120	0xbc33fd67	-0.010985709
121	0x3cbaf75d	0.02282303
122	0x3c289984	0.010290507
123	0x3d4ef10a	0.05052284
124	0x3dba1703	0.090864204
125	0xbc97115a	-0.018440891
126	0xbd82ae5e	-0.06380914
127	0x3d71e784	0.05905868
128	0x3c13e18a	0.009025941
129	0xbd5e6524	-0.054295674
130	0xbc709fcd	-0.014686537
131	0x3d2d2e89	0.042280708
132	0xbda21e77	-0.07915967
133	0x3ccd263a	0.025042642
134	0xbd5fea05	-0.054666538
135	0xbd164685	-0.036688346
136	0x3cf2dace	0.02964535
137	0x3ca4db3d	0.020124072
138	0xbccb53b8	-0.024820194
139	0xbd0c15f0	-0.03420061
140	0xbd0701a3	-0.032960545
141	0xbccc4f6e	-0.024940219
142	0xbdd8807c	-0.105713814
143	0x3d24ea4f	0.040262517
144	0x3c0c4770	0.008561954
145	0xbd3d8392	-0.046268053
146	0x3e090e91	0.13384463
147	0x3c568383	0.013092878
148	0xbd10095b	-0.035165172
149	0x3e0611e1	0.13092758
150	0xbdc6b018	-0.09701556
151	0xbdd618d0	-0.10453951
152	0x3e0006ba	0.12502566
153	0xbd8a743c	-0.06760451
154	0x3dfdc77d	0.12391565
155	0x3cb67859	0.022274183
156	0xbc63d369	-0.013905385
157	0x3dc4fd73	0.09618654
158	0x3d99e79a	0.075148776
159	0x3b9538b7	0.00455388
160	0x3d0170fb	0.031601887
161	0x3e474604	0.19460303
162	0x3d831a2a	0.06401475
163	0x3d0c1f41	0.034209494
164	0x3da887fb	0.08229061
165	0x3d434ed5	0.047682602
166	0x3d10a242	0.03531099
167	0x3e65ae7e	0.22429845
168	0xbdb98cf9	-0.090600915
169	0xbd74964e	-0.059713654
170	0xbe3029e4	-0.1720348
171	0x3ddd4515	0.10804192
172	0xbd20e0a3	-0.03927673
173	0xbc2fba00	-0.010725498
174	0xbd9b3d40	-0.07580042
175	0xbd5b002e	-0.05346697
176	0x3e3af4ed	0.18257494
177	0xbd122a4b	-0.035684865
178	0xbd667c4a	-0.056270875
179	0x3c6eb824	0.01457027
180	0xbc04cdea	-0.008105734
181	0x3d3404d3	0.043949913
182	0x3df2b8e3	0.118516706
183	0xbd6f1644	-0.058370844
184	0x3e02b3b0	0.12763858
185	0xbbd7848b	-0.0065770797
186	0x3d4ccc87	0.04999974
187	0x3da53782	0.08067228
188	0xbc7fa89e	-0.015604166
189	0xbcd1be30	-0.025603384
190	0x3cd2424f	0.025666384
191	0xbc219410	-0.009861961
192	0x3d4dcc5f	0.05024373
193	0x3c6bf8e0	0.014402598
194	0xbd47adf4	-0.04874988
195	0xbd135a57	-0.035974827
196	0xbe1a0f1b	-0.15044825
197	0x3e19ac88	0.15007222
198	0xbdf76ef7	-0.12081712
199	0xbc976791	-0.018482001
200	0xbd6649bf	-0.056222674
201	0xbca5ee72	-0.020255301
202	0x3c0fce8c	0.008777272
203	0x3d9b9d5f	0.075983755
204	0x3d6a3ffa	0.05718992
205	0xbdbaad03	-0.091150306
206	0x3e131496	0.14363322
207	0xbc24a0e2	-0.010048123
208	0xbd67d3d0	-0.056598485
209	0xbde98a33	-0.114033125
210	0xbdd9675a	-0.10615416
211	0xbe525659	-0.20540752
212	0x3dd4abbd	0.10384319
213	0x3cbfde1b	0.023421338
214	0x3d4e1f21	0.050322656
215	0x3df7773d	0.1208329
216	0xbd702758	-0.05863127
217	0x3cf5f410	0.030023605
218	0xbe1b73b3	-0.15180854
219	0x3d3004fd	0.042973507
220	0xbd993b43	-0.074820064
221	0x3cd9ef24	0.026603289
222	0x3d19dd0b	0.03756432
223	0xbc898873	-0.016788697
224	0x3d9dfdee	0.07714449
225	0x3da8756a	0.0822552
226	0xbc1478da	-0.009062016
227	0xbd2e86aa	-0.042608894
228	0xbd5996b7	-0.05312225
229	0xbd1fb040	-0.038986444
230	0x3c857d65	0.016295144
231	0xbdaf6a8a	-0.085652426
232	0x3d5ca84d	0.05387144
233	0x3da544e0	0.080697775
234	0x3d95688f	0.072953336
235	0xbcbf7e45	-0.02337564
236	0xbdaabe73	-0.083371066
237	0xbb93a08f	-0.004505224
238	0xbd0e0e24	-0.034681454
239	0xbd8986ef	-0.0671519
240	0x3def138e	0.11673652
241	0xbd364943	-0.04450346
242	0xbd0e3fa2	-0.034728654
243	0xbe1ee721	-0.15517856
244	0x3de046c1	0.10950995
245	0xbc27f10e	-0.010250343
246	0x3c42fa62	0.011900516
247	0xbd95a3e2	-0.07306649
248	0xbd499c2d	-0.049221206
249	0xbd660ac8	-0.056162626
250	0xbe084636	-0.13308033
251	0xbde419de	-0.11137746
252	0x3c01d9a4	0.007925425
253	0x3c2f1509	0.0106861675
254	0xbdb915f6	-0.09037392
255	0x3cb7ca0d	0.022435213

network_body._body_endoder.seq_layers.0.bias f4 [128]
0	0x3cc0e0f5	0.023544768
1	0xbcef8c1b	-0.029241612
2	0xbd8a8367	-0.06763344
3	0x3c504392	0.0127114225
4	0x3c01c002	0.007919313
5	0xbd2c4720	-0.042060018
6	0x3c57f989	0.013182052
7	0xbd061aba	-0.032740332
8	0xbd402d55	-0.046918232
9	0xbc27c1c1	-0.010239066
10	0x3d63d88c	0.055626437
11	0x3cf2e8d5	0.029652039
12	0xbd017348	-0.03160408
13	0xbba89ead	-0.0051458688
14	0xbc913ff0	-0.017730683
15	0xbd378d0c	-0.044812247
16	0xbc9ec7b4	-0.019382335
17	0xbc284201	-0.010269643
18	0xbdb9c2ba	-0.09070344
19	0xbcb7c4d6	-0.022432726
20	0x3bb9625b	0.005657477
21	0xbda5f5f2	-0.08103551
22	0xbc36bfcb	-0.011154125
23	0xbd337f61	-0.04382265
24	0xbc04a72a	-0.008096496
25	0xbc7984e8	-0.015229441
26	0xbc3b7ba4	-0.011443052
27	0x3aa46dc8	0.0012544924
28	0xbca6b11c	-0.020348124
29	0xb8eda590	-0.00011331879
30	0xbc52d701	-0.012868644
31	0xbce225d0	-0.027605921
32	0xbbb941bf	-0.0056535895
33	0xbc8233a0	-0.015893757
34	0xbd2f1ed8	-0.042754024
35	0xbd1485c1	-0.03626037
36	0xbafac900	-0.0019133389
37	0x3c5f70d0	0.013637736
38	0xbd558c84	-0.05213596
39	0xbcac745c	-0.021051578
40	0xbd2c1c43	-0.04201914
41	0xbc48da2e	-0.012259049
42	0xbc92a391	-0.01790026
43	0xbd86695a	-0.06563063
44	0xbd236ab3	-0.03989668
45	0x3cab688e	0.020923879
46	0x3c69b7ae	0.014264984
47	0x3c02dc61	0.007987113
48	0xbb80d467	-0.0039315703
49	0x3c6fb98e	0.014631642
50	0x3a91f060	0.0011134259
51	0xbc3caad6	-0.01151534
52	0xbcd006fe	-0.02539396
53	0x3d638757	0.055548992
54	0x3c880b03	0.016606813
55	0xbcfc2aa7	-0.030782057
56	0xbaebd29d	-0.0017991845
57	0xbd8b85ab	-0.068126045
58	0xbccdf6e8	-0.025142148
59	0xbdceb5dc	-0.10093281
60	0xbd8b9f3e	-0.068174824
61	0xbcfa0fd8	-0.030525133
62	0x3cb31e65	0.02186508
63	0xba725852	-0.0009244728
64	0xbd82db25	-0.06389455
65	0xbba7ba59	-0.00511865
66	0x3d8c6f8c	0.068572134
67	0xbb9259e4	-0.004466282
68	0xb99a5af3	-0.0002944093
69	0xbd30e046	-0.043182634
70	0xbb5e0840	-0.003387943
71	0xbccc0785	-0.02490593
72	0xbcaf045e	-0.021364387
73	0x3cb4f8e3	0.022091335
74	0xbc27703d	-0.010219631
75	0xbcf1785f	-0.029476343
76	0xbd98ab34	-0.074545294
77	0x3c9d6ce7	0.019216968
78	0xbd3122f1	-0.043246213
79	0xbd76ece0	-0.060284495
80	0xbc9e7d93	-0.019346988
81	0xbd48d4ce	-0.04903107
82	0x3bc75697	0.0060833204
83	0xbd120765	-0.035651583
84	0x3c754e6f	0.014972313
85	0xbd53ea71	-0.051737253
86	0xbcd0bc97	-0.025480552
87	0xbceb47aa	-0.028720696
88	0xbd5ef519	-0.054432962
89	0xbcc01326	-0.02344663
90	0xbbc22090	-0.005924292
91	0xbd6daf82	-0.058028705
92	0xbd1ca032	-0.03823871
93	0x3c5263b8	0.012841158
94	0xbda00ac6	-0.07814555
95	0xbd2ffa0f	-0.042963084
96	0xbd15d3e7	-0.03657904
97	0xbd2fdc5a	-0.042934753
98	0x3cb42203	0.021988874
99	0xbc8f6a80	-0.017506838
100	0xbd3bf399	-0.04588661
101	0xbcd548ae	-0.026035633
102	0xbc0a4d1c	-0.008441236
103	0xbd500e22	-0.050794728
104	0xbd0175a5	-0.031606335
105	0x3c08fd8a	0.00836123
106	0xbdf70aee	-0.120626315
107	0xbc559a8e	-0.013037337
108	0xbcc30ed5	-0.023810783
109	0xbc66d5f4	-0.014089096
110	0xbd9b439b	-0.07581254
111	0xbd07824d	-0.03308325
112	0xbd68b109	-0.05680946
113	0x3baeaecd	0.0053308965
114	0xbc3c3c00	-0.0114889145
115	0xbda33fbe	-0.07971142
116	0xbcd3cf75	-0.02585576
117	0xbb3a701a	-0.0028448165
118	0x3c52aa7c	0.012858029
119	0xbc512784	-0.012765769
120	0xbd6b3203	-0.05742074
121	0xbdb9a3a7	-0.09064417
122	0x3c2aca04	0.010424141
123	0x3cd55193	0.026039874
124	0xbce761a5	-0.028244803
125	0xbae36dc1	-0.0017351435
126	0xbcd1be0b	-0.025603315
127	0x3c568b14	0.013094682

network_body._body_endoder.seq_layers.2.weight f4 [128, 128]
0	0x3d77b4c5	0.06047513
1	0xbca425e7	-0.020037604
2	0x3d71be8a	0.059019603
3	0x3d8fbb22	0.070181146
4	0xbbe0df56	-0.006862561
5	0x3cc86e71	0.024466725
6	0xbd1accca	-0.03779296
7	0x3db73d92	0.089472905
8	0xbc58bba3	-0.01322833
9	0x3cb66ccb	0.022268673
10	0xbdb70bdf	-0.08937811
11	0xbda68296	-0.08130376
12	0x3d17e645	0.037084837
13	0xbdd8e074	-0.10589686
14	0xbdaebfb8	-0.08532661
15	0x3e3f9a50	0.1871121
16	0x3d2bcdbe	0.041944258
17	0xbc522457	-0.012826047
18	0xbdd0db10	-0.10198033
19	0xbdc66940	-0.096880436
20	0xbe2e4012	-0.17016628
21	0x3c40ba51	0.011763171
22	0x3dbb1264	0.09134367
23	0x3c55bf2b	0.013046066
24	0x3c611c5a	0.01373967
25	0xbdf580e8	-0.119874775
26	0xbdef5ca3	-0.11687591
27	0x3d7ff9ed	0.062494207
28	0xbd9999d1	-0.07500041
29	0xbe18d078	-0.14923275
30	0xbe1cc2b8	-0.15308654
31	0x3bd6b2ee	0.006552092
32	0xbdca0cce	-0.098657236
33	0xbe0430bd	-0.12909217
34	0x3df87710	0.12132084
35	0xbb96e0b0	-0.0046044216
36	0xbde62412	-0.112373486
37	0x3db7156e	0.08939634
38	0x3e14601f	0.14489792
39	0x3b911b81	0.0044283275
40	0x3c6e6323	0.014550003
41	0xbd97f384	-0.07419494
42	0x3bf6ad03	0.007527949
43	0xbc26db59	-0.0101841325
44	0xbe4ce07a	-0.20007506
45	0xbcea4512	-0.028597388
46	0xbd5d425b	-0.05401836
47	0x3c7d0935	0.01544409
48	0xbc65bdc0	-0.014022291
49	0x3ab0a330	0.0013476368
50	0xbcdd4d32	-0.027014349
51	0xbda8aab7	-0.08235686
52	0x3d2f9720	0.042868733
53	0xbb63cd07	-0.0034759657
54	0xbd019673	-0.03163762
55	0x3da5b0e9	0.080903836
56	0xbdf521d0	-0.1196934
57	0x3d04afd1	0.032394234
58	0xbd03851c	-0.032109365
59	0xbdb1bb3e	-0.08678292
60	0xbe22a4ce	-0.1588318
61	0xbd8aa743	-0.06770184
62	0x3ce8bd5b	0.028410604
63	0xbe015f43	-0.12633996
64	0xbc0d937d	-0.008641121
65	0x3e33ddc1	0.17565061
66	0xbd4471e6	-0.047960185
67	0xbcff8e8d	-0.031195903
68	0xbd9a393d	-0.075304486
69	0x3e3a0190	0.18164659
70	0x3d594de5	0.0530528
71	0x3d2c0e88	0.042006046
72	0xbd915c7e	-0.070977196
73	0x39edeaa9	0.00045378998
74	0xbe05b3c0	-0.1305685
75	0xbdca2225	-0.09869794
76	0xbdc07793	-0.09397807
77	0xbce4eb70	-0.027944297
78	0x3dfafdd3	0.122554444
79	0x3d95f429	0.073219605
80	0xbddcfba9	-0.10790188
81	0x3dae26bf	0.08503484
82	0x3bc481f4	0.005996937
83	0xbe46a132	-0.19397429
84	0x3d5dadd1	0.054120842
85	0xbe0af3f2	-0.1356962
86	0x3c62f3cf	0.013852074
87	0xbe0d1c74	-0.13780385
88	0xbdccb90c	-0.099962324
89	0xbda1c984	-0.07899764
90	0xbdce6c1e	-0.100792155
91	0x3d327c33	0.043575477
92	0x3d9d6cb4	0.07686749
93	0x3dd069d1	0.10176433
94	0x3deda345	0.11603407
95	0xbdf66068	-0.12030107
96	0x3c37f5ba	0.011228019
97	0x3e2deeff	0.16985701
98	0xbd90e513	-0.070749424
99	0x3d6bc08e	0.05755668
100	0xbd97b4d1	-0.07407535
101	0xbe1db238	-0.15400016
102	0xbcda1f83	-0.026626354
103	0x3d234828	0.039863735
104	0x3d1c6227	0.038179543
105	0xbd664a72	-0.05622334
106	0x3bdfd30e	0.0068305796
107	0xbcae26f4	-0.021258809
108	0x3dfbbf8e	0.122923955
109	0xbd082dd4	-0.03324683
110	0x3e192b3b	0.14957897
111	0xba974537	-0.0011541013
112	0x3c021152	0.0079387
113	0xbdc84685	-0.097790755
114	0xbdf384c8	-0.118905604
115	0x3b8218a7	0.003970224
116	0xbd8304b8	-0.063973844
117	0xbd972ca9	-0.07381565
118	0xbe7e8752	-0.24856308
119	0x3e0a73ba	0.13520709
120	0x3dbf2065	0.09332351
121	0x3d32ed82	0.043683536
122	0xbd559663	-0.052145373
123	0xbdf63290	-0.12021363
124	0x3d41e5a5	0.047338147
125	0x3d2393d4	0.0399359
126	0x3d991b86	0.07475953
127	0x3e1aca7b	0.15116303
128	0x3e1646a5	0.14675386
129	0xbd4b31a8	-0.049607903
130	0x3cc479ab	0.023983797
131	0xbdfee7bf	-0.12446546
132	0xbd90efcc	-0.070769876
133	0x3d7004ff	0.058598515
134	0x3cd44e44	0.025916226
135	0x3dbd6d1b	0.09249326
136	0x3e1314ab	0.14363353
137	0xbd959333	-0.07303467
138	0xbe28c31f	-0.16480683
139	0x3cbcb339	0.023034679
140	0xbd2f6442	-0.042820223
141	0x3e064f2b	0.13116138
142	0x3e17642b	0.14784305
143	0xbc1d8868	-0.009615041
144	0x3d3cb3f6	0.04607006
145	0xbda18fac	-0.07888731
146	0xbe3aaa45	-0.18229015
147	0x3a28ae55	0.0006434669
148	0xbdaa34e0	-0.08310866
149	0xbd5210fd	-0.051285733
150	0xbd752e66	-0.059858702
151	0x3d548134	0.05188103
152	0xbe1a1d82	-0.15050319
153	0x3d9007dc	0.07032749
154	0xbd3871b4	-0.04503031
155	0x39d63b7f	0.0004086159
156	0xbd630c8a	-0.05543188
157	0xbd8037b6	-0.06260626
158	0xbcb36b1e	-0.021901663
159	0x3ac25d4d	0.0014828831
160	0xbb8da77e	-0.004322945
161	0x3e09177a	0.13387862
162	0xbd395af4	-0.045252755
163	0xbd02f73d	-0.031974066
164	0xbdbfd865	-0.09367446
165	0xbdb227e6	-0.08699016
166	0x3d5f3dd6	0.05450233
167	0x3d82ca21	0.06386209
168	0x3cc1cc8f	0.023657111
169	0x3d7a36ac	0.061087295
170	0x3d726219	0.059175584
171	0xbceac639	-0.028658973
172	0x3c63c7fd	0.013902661
173	0x3d11cc08	0.03559497
174	0xbd2f52fa	-0.042803742
175	0xbe4277d3	-0.18991022
176	0xbd9f403e	-0.07775925
177	0x3ddaab88	0.10677248
178	0x3d9b7522	0.07590701
179	0x3caffd8a	0.021483202
180	0xbc148e09	-0.009067067
181	0xbe493480	-0.19648933
182	0xbdefb0ae	-0.11703621
183	0xbe620675	-0.22072776
184	0x3d7d5766	0.061850928
185	0x3dc801de	0.09765981
186	0x3e0ebd4f	0.13939403
187	0x3e0430a6	0.12909183
188	0xbdd321cb	-0.1030918
189	0xbcf8b6bc	-0.030360572
190	0x3c674f3c	0.014118012
191	0x3d80b072	0.06283654
192	0xbc9a9304	-0.01886893
193	0xbda37c04	-0.079826385
194	0x3dc4c9d6	0.0960881
195	0x3d7f4049	0.062317166
196	0xbdf41ea4	-0.11919907
197	0xbd673c47	-0.05645397
198	0x3e1f9b7c	0.15586656
199	0xbe9934dc	-0.2992314
200	0xbcdb1f20	-0.02674824
201	0xbd970d2a	-0.07375558
202	0x3c9bd8e5	0.019024322
203	0x3dbdc9e7	0.092670254
204	0xbd4feed1	-0.050764862
205	0xbcb14a2f	-0.021641819
206	0xbca52e18	-0.02016358
207	0x3d93e1da	0.07220812
208	0x3d074ad3	0.033030342
209	0xbd7a9f78	-0.061187238
210	0x3d0ecf81	0.03486586
211	0xbd9a083e	-0.07521103
212	0xbd8532c5	-0.06503824
213	0xbe666c9c	-0.22502369
214	0xbd6cc9fb	-0.05780981
215	0xbe1dd374	-0.15412694
216	0x3cdd1bf3	0.026990866
217	0xbda9d1bd	-0.082919575
218	0x3e93755a	0.2880047
219	0xbe02ebac	-0.12785214
220	0xbdb3dd9d	-0.08782504
221	0x3dc1fd3a	0.09472127
222	0x3ded2c34	0.11580697
223	0xbd1d48ec	-0.03839962
224	0x3df556f0	0.11979473
225	0xbb1f349d	-0.0024292835
226	0x3d976d22	0.07393862
227	0xbd2ada20	-0.041711926
228	0x3da32538	0.07966083
229	0x3e5f7de3	0.21825366
230	0x3c946edc	0.018119268
231	0x3bb454dc	0.00550328
232	0xbe0e68a9	-0.13907112
233	0x3c8db05c	0.017296009
234	0x3db4b2ec	0.08823189
235	0x3dd79087	0.10525613
236	0xbd4903ce	-0.049075894
237	0xbd47b2ed	-0.04875462
238	0x3a922c10	0.0011152048
239	0xbdba617a	-0.091006234
240	0xbe541dfd	-0.20714565
241	0xbce80d23	-0.028326577
242	0xbd503d75	-0.05083986
243	0x3d97803e	0.07397507
244	0x3d76a154	0.06021245
245	0xbdb4a3aa	-0.08820279
246	0xbe1d72eb	-0.15375869
247	0xbda8cc2f	-0.0824207
248	0xbdaa97c0	-0.08329725
249	0x3d738602	0.05945397
250	0x3b9d2dbc	0.0047967117
251	0x3d5b8c54	0.053600624
252	0xbd9123eb	-0.07086929
253	0x3db804e0	0.08985305
254	0x3dd71563	0.10502126
255	0x3c2c11b3	0.010502267

network_body._body_endoder.seq_layers.2.bias f4 [128]
0	0xbd152272	-0.036409803
1	0x3bccb7c6	0.0062474934
2	0xbbbf53c4	-0.005838843
3	0x3b95f25a	0.0045760097
4	0x3d4120ad	0.047150303
5	0xbd205114	-0.039139822
6	0x3a83de61	0.0010060781
7	0xbce9f2ef	-0.028558223
8	0x3c3cc480	0.011521459
9	0x3c314996	0.010820767
10	0xbcaffa14	-0.021481551
11	0x3bc6506f	0.006052069
12	0xbc58082b	-0.013185541
13	0xbcc10b2c	-0.023564897
14	0xbd0b2277	-0.033968415
15	0xbc9238c0	-0.017849326
16	0x3a577894	0.00082195667
17	0xbd882d90	-0.06649315
18	0xbc3a8721	-0.011384756
19	0xbd3a616b	-0.04550306
20	0x3be98179	0.00712603
21	0xbb8768b4	-0.0041323546
22	0xbd7af9ec	-0.0612735
23	0xbd924aea	-0.07143195
24	0x3cb2d170	0.021828383
25	0x3d62b654	0.055349663
26	0xbd14d65e	-0.03633725
27	0xbc21b106	-0.009868866
28	0x3c82f3d0	0.0159854
29	0xbd2247a4	-0.039619103
30	0xbbc853c9	-0.0061135036
31	0x3d95a739	0.07307286
32	0xbc1cd570	-0.009572372
33	0xbc0dced6	-0.008655271
34	0x3d4e50f9	0.05037019
35	0xbc14e722	-0.0090883095
36	0xbcdd37ac	-0.027004085
37	0x3bb48c79	0.0055099097
38	0xbcb1df5b	-0.02171295
39	0xbc47ebfb	-0.012202258
40	0x3cb1666f	0.02165529
41	0x3d039eaa	0.032133736
42	0xbc2b6ca2	-0.010462912
43	0xbd1fc863	-0.039009463
44	0xbd2868e5	-0.04111566
45	0xbd334465	-0.043766398
46	0x3cd0dd98	0.02549629
47	0xbbcbaeaf	-0.0062158923
48	0xbccfb50d	-0.025354886
49	0x3cafc0ea	0.021454293
50	0xbceea3d8	-0.029130861
51	0xbc268540	-0.010163605
52	0x3c040290	0.008057252
53	0xbd40e343	-0.047091734
54	0xbbc3d485	-0.005976262
55	0xbd22ff5e	-0.03979432
56	0xbc1f9df4	-0.009742249
57	0xbba4e315	-0.005031953
58	0x3d86e1f9	0.065860696
59	0xbcb40db9	-0.0219792
60	0xbd161287	-0.036638763
61	0x3ca4b0e1	0.020103874
62	0xbc750804	-0.014955524
63	0xbc982350	-0.018571526
64	0xbcc54bc9	-0.024083989
65	0xbd272533	-0.04080696
66	0xbd246ea6	-0.040144585
67	0xbb4de04d	-0.0031414211
68	0xbd07a5c2	-0.033117063
69	0xbce68ab5	-0.028142313
70	0xbd0450e8	-0.03230372
71	0xbc05619b	-0.008140947
72	0xbc982346	-0.018571507
73	0xbbc436c3	-0.0059879734
74	0x3b3a2c19	0.0028407632
75	0x3bb2bd3d	0.005454688
76	0xbc6007e1	-0.0136737535
77	0x3adcceb9	0.0016846276
78	0xbb746a29	-0.0037294722
79	0xbd13926d	-0.036028314
80	0x3bcd95f2	0.0062739784
81	0x3c9339be	0.01797187
82	0xbd2dede3	-0.042463195
83	0xbd27ed8f	-0.040998038
84	0xbd52ba82	-0.0514474
85	0xbd509e0a	-0.050931968
86	0xbc0c6eda	-0.008571351
87	0xbbbd0796	-0.0057687266
88	0xbb2962ff	-0.002584636
89	0xbd89319b	-0.066989146
90	0x3d09562a	0.033529438
91	0xbcb61aeb	-0.022229632
92	0xbd032c57	-0.032024708
93	0xbbf04dea	-0.007333507
94	0xbd04a925	-0.03238787
95	0xbbf19140	-0.0073720515
96	0xbc80ae41	-0.01570809
97	0xbd28a418	-0.041172117
98	0x3a9b9c40	0.0011872128
99	0xbcbd2a2c	-0.023091398
100	0xbcad0c0c	-0.021123908
101	0xbd8b83c4	-0.06812242
102	0xbc92a99f	-0.017903147
103	0xbc63f37c	-0.013913032
104	0xbc6acfdc	-0.014331784
105	0xbd28422b	-0.041078728
106	0xbcd00edb	-0.025397709
107	0xbcb93643	-0.022608882
108	0xbd39680a	-0.045265235
109	0x3cb6c48d	0.02231052
110	0xbce3e60e	-0.02781966
111	0xbcefc9fe	-0.029271122
112	0xbd280871	-0.041023675
113	0xbd561d40	-0.05227399
114	0xbd8938fd	-0.06700323
115	0xbcddb054	-0.027061619
116	0xbc498bef	-0.012301429
117	0x3d34e010	0.044158995
118	0x3d515b56	0.051112495
119	0xbcd7150e	-0.026255157
120	0xbca63087	-0.020286812
121	0xbd4f515b	-0.050614696
122	0xbd560b66	-0.052256964
123	0xbd05bea3	-0.03265251
124	0xbce9812f	-0.028503982
125	0xbd752bba	-0.059856154
126	0xbaa93c30	-0.0012911614
127	0xbcbe9f91	-0.023269447

action_model._continuous_distribution.log_sigma f4 [1, 2]
0	0x3e89a6d7	0.268851
1	0x3d88b682	0.066754356

action_model._continuous_distribution.mu.weight f4 [2, 128]
0	0x3a3689a4	0.0006963259
1	0xbd28410e	-0.041077666
2	0x3b838d7c	0.004014669
3	0xbcd5b43f	-0.026086925
4	0xbce589f2	-0.028019879
5	0x3bd556a9	0.006510575
6	0xbc80f015	-0.01573948
7	0x3bf47e9e	0.007461383
8	0xbcd2df08	-0.025741115
9	0xbd54f9b7	-0.05199596
10	0x3c09db99	0.008414173
11	0xbc905718	-0.017619655
12	0xbc9bd3a5	-0.019021818
13	0xbce4ebb8	-0.02794443
14	0xbc843da9	-0.016142683
15	0x3a9fdc59	0.0012196406
16	0xbaebd209	-0.0017991673
17	0x3b914b20	0.0044340044
18	0x3ce83ddf	0.028349815
19	0xbcdd89ae	-0.02704319
20	0x3cf507f6	0.029911023
21	0x3cc3c5fd	0.02389812
22	0xbd59363e	-0.053030245
23	0xbc135e6d	-0.008994681
24	0xbca7d0cd	-0.020485306
25	0xbd3b8d96	-0.045789324
26	0xba8b444c	-0.0010625212
27	0xbcb34023	-0.021881169
28	0xbc66df15	-0.014091273
29	0xbc70f19d	-0.014706043
30	0x3bc360c0	0.0059624612
31	0xbd0f094a	-0.034920968
32	0xba8fc503	-0.0010968748
33	0xbc1ddf4c	-0.009635758
34	0x3cb81252	0.022469673
35	0x3c126a9c	0.0089365505
36	0x3ccc06fd	0.024905676
37	0x3d48dd2c	0.04903905
38	0x3c01cc6c	0.007922273
39	0x3c18caaf	0.009325667
40	0xbcdb56ef	-0.026774852
41	0x3ce37e08	0.027770057
42	0xbbb1909b	-0.0054188496
43	0x3b4821bf	0.0030537692
44	0xbcd2f30e	-0.025750663
45	0x3afb16f3	0.001915662
46	0xbd5dbada	-0.054133274
47	0xbb92fb9b	-0.00448556
48	0x3c464b74	0.01210295
49	0xbd4d86fc	-0.05017756
50	0xbc04ab4e	-0.008097483
51	0x3bf37a7c	0.0074303728
52	0xba4e7e3a	-0.00078770856
53	0x3c195d54	0.00936063
54	0x3b7a0908	0.0038152356
55	0xbca955eb	-0.020670852
56	0x3c472614	0.012155075
57	0x3d0c72dc	0.034289226
58	0xbd3ba829	-0.045814667
59	0x3d0cbafc	0.03435801
60	0xbc12f681	-0.008969904
61	0xbd90dcd2	-0.07073368
62	0x3c6a281e	0.014291791
63	0x3bbddb72	0.005793982
64	0xbd06f06a	-0.03294412
65	0x396dba04	0.00022671378
66	0xbbcb1294	-0.006197283
67	0x3c4c7b6b	0.012480597
68	0x3c6f2a84	0.014597539
69	0x3bbfcc9e	0.0058532497
70	0xbcf3d52c	-0.029764734
71	0xbd1fe07f	-0.039032456
72	0xbc1a177b	-0.009405012
73	0x3bf11cca	0.0073581683
74	0xbcb9539c	-0.022622876
75	0x3c8de6e1	0.017322006
76	0x3d35900e	0.044326834
77	0x3c4a8d54	0.012362797
78	0xbcb21b38	-0.021741495
79	0x3b6f0523	0.0036471568
80	0x3c566be8	0.01308725
81	0xbbacfc80	-0.005279124
82	0xbc682a79	-0.0141702825
83	0x3b818e4c	0.0039537307
84	0x3baa58a5	0.0051985555
85	0xbb32be13	-0.0027273938
86	0xbd2a6241	-0.04159761
87	0x3d032170	0.03201431
88	0x3ba8ce58	0.005151551
89	0xbd054edf	-0.03254592
90	0xbbc80609	-0.006104235
91	0xbb5b3408	-0.003344776
92	0x3c87c133	0.016571617
93	0xba47b924	-0.00076188357
94	0x3cbe0856	0.023197334
95	0xbd1aeedf	-0.03782546
96	0x3cb67444	0.022272237
97	0xbae2588b	-0.001726882
98	0x38f9d4b9	0.00011912868
99	0xbcd221ab	-0.02565082
100	0xbd0f1f5c	-0.034942016
101	0xbacd2552	-0.0015651381
102	0x3c1f1337	0.009709171
103	0x3cc36d91	0.023855956
104	0x3c9e7f6f	0.019347874
105	0x3bfb02f4	0.007660264
106	0x3b0e274e	0.0021690908
107	0xbb083fc6	-0.0020789965
108	0x3b2e9cfa	0.0026643858
109	0x3832939e	4.2575986e-05
110	0x3ba88a55	0.0051434436
111	0xbc0efd49	-0.00872738
112	0xbd092652	-0.03348381
113	0x3c4b54d6	0.012410363
114	0xbb8261f0	-0.00397896
115	0x3c60a803	0.013711932
116	0x3af45273	0.0018640294
117	0x3ca0fa1d	0.019650513
118	0x3cd4c9c6	0.02597512
119	0xbc59fec0	-0.013305366
120	0xbba292e4	-0.0049613584
121	0x3b923112	0.004461416
122	0xbc46bdbd	-0.012130198
123	0xbc62706b	-0.013820748
124	0x3b09054e	0.0020907703
125	0xbb224936	-0.0024762875
126	0xbc5380eb	-0.012909154
127	0x3a81eaab	0.0009911855
128	0x3cab5e18	0.02091889
129	0xba84b761	-0.0010125452
130	0xbaddbd3d	-0.0016917359
131	0xbb4d2bae	-0.0031306553
132	0xbca64c67	-0.020300103
133	0x3ac78197	0.0015221116
134	0xbbefa0cb	-0.007312869
135	0xbb55543e	-0.0032551433
136	0xbc6249be	-0.013811527
137	0x3c031f85	0.00800312
138	0xbc55fbc5	-0.013060515
139	0x3bada278	0.005298909
140	0x3d18df3e	0.037322275
141	0x3d3a9cf6	0.045559846
142	0x3d7397b2	0.05947084
143	0x3ba488aa	0.0050211744
144	0xbcbf707b	-0.023369065
145	0xbb4c3b6d	-0.003116335
146	0x3d28ed1e	0.041241758
147	0x3ca86c4e	0.020559456
148	0x3d952719	0.07282848
149	0x3c3f8307	0.011688954
150	0x3d0a2e9f	0.033735868
151	0x3caa1168	0.020760253
152	0xbc906b39	-0.017629253
153	0xbc96378a	-0.01833703
154	0x3d10f4ea	0.03538982
155	0x3d37776b	0.04479162
156	0xbcecd578	-0.028910384
157	0x3c502562	0.012704225
158	0xbc2ebff5	-0.010665883
159	0xbcc9efe2	-0.024650518
160	0xbb2e0474	-0.0026552947
161	0xbd1fae71	-0.03898472
162	0xbd611b26	-0.05495753
163	0x3ce8300f	0.028343229
164	0x3c9ea565	0.019365976
165	0x3d166250	0.03671485
166	0xbbdd5799	-0.006754827
167	0x3d098037	0.03356954
168	0xbcf58368	-0.029969886
169	0x3ce4aa04	0.027913101
170	0x3d83b4a8	0.06430942
171	0xbbe54712	-0.0069969976
172	0x3b5214a3	0.0032055757
173	0x3cd408ec	0.02588316
174	0xba2be5fb	-0.0006557402
175	0x3c2cf58c	0.01055659
176	0xb970f0be	-0.00022977867
177	0xbb8a258b	-0.0042159013
178	0x3c878390	0.016542226
179	0xbb55c289	-0.0032617173
180	0xbcba2b7b	-0.022725811
181	0x3a8ce94b	0.0010750679
182	0xbbe7d7f0	-0.0070753023
183	0x3d081ba2	0.033229478
184	0x3c85681f	0.016285
185	0xbc842084	-0.016128786
186	0xbd106c5f	-0.0352596
187	0x3c3bc83a	0.011461312
188	0x3d33e8a0	0.04392302
189	0x389b5b3b	7.407969e-05
190	0x3cb719e9	0.022351222
191	0xbbb20ac2	-0.0054334113
192	0x3ce8b962	0.02840871
193	0xbb80f514	-0.0039354656
194	0x3db9ad06	0.09066205
195	0xbc82bf74	-0.015960433
196	0x3c8a8284	0.016907938
197	0xbbdf1666	-0.00680809
198	0x3c8f268a	0.017474432
199	0x3b3fb4ab	0.0029251974
200	0xbbbf1de6	-0.0058324216
201	0xbbc0e6f0	-0.005886905
202	0xbb87a362	-0.00413935
203	0x3c07f6f6	0.008298626
204	0x3d33717e	0.043809406
205	0xbc9b1c2a	-0.018934328
206	0xbba2d575	-0.0049692937
207	0xbb12819b	-0.0022355083
208	0xbc19576f	-0.009359225
209	0x39c7bdfe	0.00038097793
210	0x3c7e9997	0.015539548
211	0xbb9edd3b	-0.00484815
212	0x3d7bd77a	0.06148479
213	0x3c58eedb	0.013240541
214	0x3a31e6ff	0.0006786435
215	0x3d925817	0.07145708
216	0xbb4c9415	-0.0031216193
217	0x3b805d8e	0.0039174026
218	0xbbe5f015	-0.0070171454
219	0x3c92b63e	0.017909165
220	0xbb769a60	-0.0037628636
221	0xba86c7a4	-0.0010282886
222	0xbbc272d8	-0.0059341006
223	0x3c30796c	0.010771137
224	0x3d24776c	0.040152952
225	0x3d40e637	0.04709455
226	0xbc10c1c3	-0.008835259
227	0x3d9722c2	0.073796764
228	0x3d4e1cb4	0.050320342
229	0x3d70e0a9	0.058808003
230	0xbc6fa9b2	-0.014627861
231	0x3d358291	0.04431397
232	0x3b7999d7	0.003808608
233	0x3c2b81d9	0.01046797
234	0xbbf36bb0	-0.007428609
235	0xbc3c5b40	-0.011496365
236	0x3b95283e	0.0045519164
237	0xba78238b	-0.00094657455
238	0xbb6350c1	-0.0034685584
239	0x3d68d595	0.056844313
240	0x3c3e6efa	0.011623139
241	0x3a01d5a7	0.0004952796
242	0xbb3d66bb	-0.0028900343
243	0x3bbd3081	0.0057736044
244	0xbb15b7b0	-0.0022845082
245	0xbca931c1	-0.020653607
246	0xbd8346cd	-0.064099886
247	0x3d13a7ff	0.036048885
248	0x3c547b8a	0.012968907
249	0xbb432673	-0.0029777556
250	0x3b5e44e9	0.0033915585
251	0x3d93acff	0.07210731
252	0x3df112ef	0.117711894
253	0x3c492d0d	0.012278807
254	0xbac6e1d0	-0.0015173499
255	0x3b3d090a	0.00288445

action_model._continuous_distribution.mu.bias f4 [2]
0	0xbd349e62	-0.044096358
1	0xbd40e4bf	-0.04709315

exp_avg f4 [128, 186]
0	0x00000000	0.0
1	0x36de5a81	6.6266516e-06
2	0x00000004	6e-45
3	0x80000004	-6e-45
4	0xb50a24eb	-5.146273e-07
5	0xb640efb4	-2.8749755e-06
6	0x00000000	0.0
7	0x36cd15df	6.112022e-06
8	0x00000004	6e-45
9	0x80000004	-6e-45
10	0xa893c7be	-1.6406903e-14
11	0xb6f655b2	-7.3413476e-06
12	0x00000000	0.0
13	0x3772725d	1.4450951e-05
14	0x00000000	0.0
15	0x80000004	-6e-45
16	0xb70be76e	-8.33893e-06
17	0xb6ec234a	-7.0374563e-06
18	0x00000000	0.0
19	0x36cd15df	6.112022e-06
20	0x00000004	6e-45
21	0x80000004	-6e-45
22	0x00000000	0.0
23	0xb68284a9	-3.8897456e-06
24	0x00000000	0.0
25	0x36cd15df	6.112022e-06
26	0x00000000	0.0
27	0x00000004	6e-45
28	0x00000000	0.0
29	0x352ef144	6.517114e-07
30	0x00000000	0.0
31	0x36cd15df	6.112022e-06
32	0x00000000	0.0
33	0x80000004	-6e-45
34	0x00000000	0.0
35	0x35e0f7fa	1.6761471e-06
36	0x00000000	0.0
37	0x36cd15df	6.112022e-06
38	0x00000000	0.0
39	0x00000004	6e-45
40	0x00000000	0.0
41	0x369b8688	4.6350215e-06
42	0x00000000	0.0
43	0x36cd15df	6.112022e-06
44	0x00000000	0.0
45	0x00000004	6e-45
46	0x00000000	0.0
47	0x35fe7915	1.8959714e-06
48	0x00000000	0.0
49	0x36cd15df	6.112022e-06
50	0x00000000	0.0
51	0x00000004	6e-45
52	0x00000000	0.0
53	0x35b9eb4b	1.3852053e-06
54	0x00000000	0.0
55	0x36cd15df	6.112022e-06
56	0x00000000	0.0
57	0x00000004	6e-45
58	0x00000000	0.0
59	0x35be96f1	1.4200033e-06
60	0x00000000	0.0
61	0x36cd15df	6.112022e-06
62	0x00000000	0.0
63	0x00000004	6e-45
64	0x00000000	0.0
65	0x35ad0745	1.289162e-06
66	0x00000000	0.0
67	0x36cd15e1	6.112023e-06
68	0x00000000	0.0
69	0x00000004	6e-45
70	0x00000000	0.0
71	0x350502f8	4.955068e-07
72	0x00000000	0.0
73	0x36cd15df	6.112022e-06
74	0x00000000	0.0
75	0x00000004	6e-45
76	0x00000000	0.0
77	0x3656cea2	3.200876e-06
78	0x00000000	0.0
79	0x3653233a	3.1461955e-06
80	0x00000000	0.0
81	0x00000004	6e-45
82	0x00000000	0.0
83	0x363b52f0	2.7913447e-06
84	0x00000000	0.0
85	0x36eca633	7.052696e-06
86	0x00000000	0.0
87	0x80000004	-6e-45
88	0xb57c82a2	-9.406741e-07
89	0x364058d2	2.866193e-06
90	0x00000000	0.0
91	0x35d519a7	1.5877202e-06
92	0x00000000	0.0
93	0x03144d57	4.3582073e-37
94	0x3698ca26	4.553486e-06
95	0x3674875c	3.6437623e-06
96	0x00000000	0.0
97	0x36ccfe02	6.109244e-06
98	0x00000000	0.0
99	0x2d5b862f	1.24785035e-11
100	0x313e1728	2.7661802e-09
101	0x366464da	3.403335e-06
102	0x00000000	0.0
103	0x36c59d44	5.8893656e-06
104	0x00000000	0.0
105	0x80000004	-6e-45
106	0x00000000	0.0
107	0x36922a2e	4.3560494e-06
108	0x00000000	0.0
109	0x36cd15df	6.112022e-06
110	0x00000004	6e-45
111	0x80000004	-6e-45
112	0x00000000	0.0
113	0x36a078d7	4.782439e-06
114	0x00000000	0.0
115	0x35a47540	1.2253076e-06
116	0x00000000	0.0
117	0x80000004	-6e-45
118	0x00000000	0.0
119	0x362518e2	2.46014e-06
120	0x00000000	0.0
121	0x36cd15df	6.112022e-06
122	0x00000004	6e-45
123	0x00000000	0.0
124	0x00000000	0.0
125	0x36901bdf	4.294779e-06
126	0x00000000	0.0
127	0x36cd15df	6.112022e-06
128	0x00000000	0.0
129	0x00000004	6e-45
130	0x00000000	0.0
131	0x35c3d210	1.4589768e-06
132	0x00000000	0.0
133	0x36cd15df	6.112022e-06
134	0x00000000	0.0
135	0xa5ac192b	-2.9854298e-16
136	0x00000000	0.0
137	0x362f3344	2.6106873e-06
138	0x00000000	0.0
139	0x36cd15df	6.112022e-06
140	0x00000000	0.0
141	0x80000004	-6e-45
142	0x00000000	0.0
143	0xb5a33d20	-1.2162236e-06
144	0x00000000	0.0
145	0x36cd15df	6.112022e-06
146	0x00000000	0.0
147	0x80000004	-6e-45
148	0x00000000	0.0
149	0x3625ec45	2.4724443e-06
150	0x00000000	0.0
151	0x36cd15df	6.112022e-06
152	0x00000000	0.0
153	0x80000004	-6e-45
154	0x00000000	0.0
155	0xb5983492	-1.1340182e-06
156	0x00000000	0.0
157	0x36cd15df	6.112022e-06
158	0x00000000	0.0
159	0x00000000	0.0
160	0x00000000	0.0
161	0x35a9b456	1.2643966e-06
162	0x00000000	0.0
163	0x36cd15df	6.112022e-06
164	0x00000000	0.0
165	0x00000004	6e-45
166	0x00000000	0.0
167	0x36087303	2.0332525e-06
168	0xb910a55b	-0.0001379451
169	0x395eb379	0.00021238429
170	0x00000000	0.0
171	0xb82e8982	-4.1612897e-05
172	0x39378bd5	0.00017504331
173	0x00000000	0.0
174	0x38d6916c	0.00010231402
175	0x39353f97	0.00017285194
176	0x00000000	0.0
177	0xb913018e	-0.00014019592
178	0x3954bc63	0.00020288075
179	0x00000000	0.0
180	0xb84d585d	-4.8958103e-05
181	0x393f4bed	0.00018243464
182	0x00000000	0.0
183	0x38d6916c	0.00010231402
184	0x39353f97	0.00017285194
185	0x00000000	0.0
186	0x00000000	0.0
187	0xb7467744	-1.1829488e-05
188	0x00000004	6e-45
189	0x80000004	-6e-45
190	0xb65a1b92	-3.250058e-06
191	0xb6f626e1	-7.3358974e-06
192	0x00000000	0.0
193	0xb77cfe2a	-1.5079548e-05
194	0x00000004	6e-45
195	0x80000004	-6e-45
196	0xa72fccca	-2.4397145e-15
197	0xb7367881	-1.0876102e-05
198	0x00000000	0.0
199	0xb715853c	-8.912113e-06
200	0x00000000	0.0
201	0x80000004	-6e-45
202	0xb6cef1d9	-6.167433e-06
203	0xb723c5f2	-9.761645e-06
204	0x00000000	0.0
205	0xb77cfe2a	-1.5079548e-05
206	0x00000004	6e-45
207	0x80000004	-6e-45
208	0x00000000	0.0
209	0xb69d6b15	-4.6914306e-06
210	0x00000000	0.0
211	0xb77cfe2a	-1.5079548e-05
212	0x00000000	0.0
213	0x00000004	6e-45
214	0x00000000	0.0
215	0xb6b5f3fe	-5.422625e-06
216	0x00000000	0.0
217	0xb77cfe2a	-1.5079548e-05
218	0x00000000	0.0
219	0x80000004	-6e-45
220	0x00000000	0.0
221	0xb57a90f8	-9.3343215e-07
222	0x00000000	0.0
223	0xb77cfe2a	-1.5079548e-05
224	0x00000000	0.0
225	0x00000004	6e-45
226	0x00000000	0.0
227	0x34fd72b2	4.7208374e-07
228	0x00000000	0.0
229	0xb77cfe2a	-1.5079548e-05
230	0x00000000	0.0
231	0x00000004	6e-45
232	0x00000000	0.0
233	0xb4f2712e	-4.5158362e-07
234	0x00000000	0.0
235	0xb77cfe2a	-1.5079548e-05
236	0x00000000	0.0
237	0x00000004	6e-45
238	0x00000000	0.0
239	0xb4d7a604	-4.0167663e-07
240	0x00000000	0.0
241	0xb77cfe2a	-1.5079548e-05
242	0x00000000	0.0
243	0x00000004	6e-45
244	0x00000000	0.0
245	0xb53325db	-6.6737783e-07
246	0x00000000	0.0
247	0xb77cfe2a	-1.5079548e-05
248	0x00000000	0.0
249	0x00000004	6e-45
250	0x00000000	0.0
251	0xb4c5c372	-3.6836315e-07
252	0x00000000	0.0
253	0xb77cfe2a	-1.5079548e-05
254	0x00000000	0.0
255	0x00000004	6e-45

exp_avg_sq f4 [128, 186]
0	0x00000000	0.0
1	0x35bf5fde	1.425851e-06
2	0x263777ef	6.365342e-16
3	0x24f88dc8	1.0779304e-16
4	0x3104de12	1.933476e-09
5	0x3122ab6c	2.3671545e-09
6	0x00000000	0.0
7	0x35bf9d80	1.4276447e-06
8	0x263777ef	6.365342e-16
9	0x2520af80	1.393725e-16
10	0x2c55ed38	3.0400803e-12
11	0x311f98cc	2.32244e-09
12	0x00000000	0.0
13	0x35bf7fba	1.4267782e-06
14	0x00000000	0.0
15	0x251c53c7	1.3559228e-16
16	0x30709974	8.752956e-10
17	0x31184e3d	2.2163384e-09
18	0x00000000	0.0
19	0x35bf9d9c	1.4276479e-06
20	0x263777ef	6.365342e-16
21	0x2c0aab46	1.9706055e-12
22	0x00000000	0.0
23	0x30625c0e	8.234914e-10
24	0x00000000	0.0
25	0x35bf9da6	1.4276491e-06
26	0x00000000	0.0
27	0x25052d1a	1.1551192e-16
28	0x00000000	0.0
29	0x307cc87a	9.196196e-10
30	0x00000000	0.0
31	0x35bf9d89	1.4276458e-06
32	0x00000000	0.0
33	0x2be20610	1.6059949e-12
34	0x00000000	0.0
35	0x2fbdcc8d	3.4524242e-10
36	0x00000000	0.0
37	0x35bf9d97	1.4276474e-06
38	0x00000000	0.0
39	0x240fb1a7	3.115866e-17
40	0x00000000	0.0
41	0x305b9493	7.988287e-10
42	0x00000000	0.0
43	0x35bf9cb5	1.4276217e-06
44	0x00000000	0.0
45	0x22df0967	6.0454226e-18
46	0x00000000	0.0
47	0x32a30364	1.897724e-08
48	0x00000000	0.0
49	0x35bf9aac	1.4275624e-06
50	0x00000000	0.0
51	0x233dcf65	1.0289628e-17
52	0x00000000	0.0
53	0x320c5a5c	8.169618e-09
54	0x00000000	0.0
55	0x35bf9d99	1.4276476e-06
56	0x00000000	0.0
57	0x22bcefce	5.1211405e-18
58	0x00000000	0.0
59	0x32ad8d80	2.0204197e-08
60	0x00000000	0.0
61	0x35bf9aa0	1.4275611e-06
62	0x00000000	0.0
63	0x23b4962f	1.9579244e-17
64	0x00000000	0.0
65	0x3165a3d4	3.3417011e-09
66	0x00000000	0.0
67	0x35bf8aff	1.4271062e-06
68	0x00000000	0.0
69	0x2290a991	3.9210814e-18
70	0x00000000	0.0
71	0x33423c1b	4.522381e-08
72	0x00000000	0.0
73	0x35bf9a98	1.4275602e-06
74	0x00000000	0.0
75	0x23caa5c6	2.1971092e-17
76	0x00000000	0.0
77	0x31124bff	2.1288995e-09
78	0x00000000	0.0
79	0x35bf8a17	1.4270798e-06
80	0x00000000	0.0
81	0x2287ed77	3.684325e-18
82	0x00000000	0.0
83	0x33e36128	1.0588184e-07
84	0x00000000	0.0
85	0x3556b578	7.9985284e-07
86	0x00000000	0.0
87	0x2a4efa41	1.83833e-13
88	0x35133a0f	5.4846254e-07
89	0x35337dcd	6.686576e-07
90	0x00000000	0.0
91	0x35a4f3ce	1.2289909e-06
92	0x00000000	0.0
93	0x27abcf8e	4.7687066e-15
94	0x342489a4	1.5323764e-07
95	0x34d64958	3.991397e-07
96	0x00000000	0.0
97	0x35afe5fc	1.310545e-06
98	0x00000000	0.0
99	0x311f0d65	2.314516e-09
100	0x33e26195	1.0541695e-07
101	0x3514e8b8	5.5472947e-07
102	0x00000000	0.0
103	0x35bf6b51	1.4261842e-06
104	0x00000000	0.0
105	0x236b0e79	1.274244e-17
106	0x00000000	0.0
107	0x343e268b	1.7709151e-07
108	0x00000000	0.0
109	0x35bf690b	1.426118e-06
110	0x200286e0	1.1056055e-19
111	0x2490950a	6.270253e-17
112	0x00000000	0.0
113	0x3450b2c6	1.9436547e-07
114	0x00000000	0.0
115	0x35bf7ac9	1.4266344e-06
116	0x00000000	0.0
117	0x22d76d3e	5.839153e-18
118	0x00000000	0.0
119	0x342271c9	1.512882e-07
120	0x00000000	0.0
121	0x35bf8693	1.4269775e-06
122	0x200286e0	1.1056055e-19
123	0x00000000	0.0
124	0x00000000	0.0
125	0x33af331e	8.158371e-08
126	0x00000000	0.0
127	0x35bf9d9c	1.4276479e-06
128	0x00000000	0.0
129	0x2b91c6d1	1.0358052e-12
130	0x00000000	0.0
131	0x34626ec8	2.1088192e-07
132	0x00000000	0.0
133	0x35bc165b	1.4013598e-06
134	0x00000000	0.0
135	0x32eeab72	2.7784811e-08
136	0x00000000	0.0
137	0x346f4bc5	2.2286174e-07
138	0x00000000	0.0
139	0x35bf9da1	1.4276485e-06
140	0x00000000	0.0
141	0x297cd3d0	5.613896e-14
142	0x00000000	0.0
143	0x327164d3	1.4050971e-08
144	0x00000000	0.0
145	0x35bf9d8e	1.4276463e-06
146	0x00000000	0.0
147	0x155b205f	4.4252234e-26
148	0x00000000	0.0
149	0x33fdc328	1.1816729e-07
150	0x00000000	0.0
151	0x35bf9d9c	1.4276479e-06
152	0x00000000	0.0
153	0x2a680782	2.0608344e-13
154	0x00000000	0.0
155	0x31957daa	4.350757e-09
156	0x00000000	0.0
157	0x35bf99ac	1.4275333e-06
158	0x00000000	0.0
159	0x00000000	0.0
160	0x00000000	0.0
161	0x3398e955	7.1204944e-08
162	0x00000000	0.0
163	0x35bf9d91	1.4276467e-06
164	0x00000000	0.0
165	0x2bd4c7b3	1.5118934e-12
166	0x00000000	0.0
167	0x311e2883	2.3015054e-09
168	0x3bd4ebb2	0.0064978236
169	0x3afd0284	0.0019303118
170	0x00000000	0.0
171	0x3bd4aa87	0.006490055
172	0x3aeeaf5b	0.0018210219
173	0x00000000	0.0
174	0x3b95b120	0.004568234
175	0x3b2b7f5f	0.0026168448
176	0x00000000	0.0
177	0x3bd4ebe0	0.006497845
178	0x3afd3224	0.0019317311
179	0x00000000	0.0
180	0x3bd4b055	0.006490747
181	0x3aeeadd1	0.001820976
182	0x00000000	0.0
183	0x3b95b140	0.004568249
184	0x3b2b7f91	0.0026168565
185	0x00000000	0.0
186	0x00000000	0.0
187	0x3510a4e4	5.388413e-07
188	0x1bfccc40	4.1821896e-22
189	0x2478b550	5.3930005e-17
190	0x2e2e51c5	3.9635645e-11
191	0x2e586865	4.9205435e-11
192	0x00000000	0.0
193	0x3510a5c0	5.388538e-07
194	0x1bfccc40	4.1821896e-22
195	0x24c8effb	8.7142717e-17
196	0x291c2cff	3.4677986e-14
197	0x2ea4cbc6	7.494054e-11
198	0x00000000	0.0
199	0x3510a13b	5.38788e-07
200	0x00000000	0.0
201	0x23a1f268	1.7558318e-17
202	0x2ead832c	7.89043e-11
203	0x2ecf5cba	9.429742e-11
204	0x00000000	0.0
205	0x3510a5bb	5.388535e-07
206	0x1bfccc40	4.1821896e-22
207	0x2ad17573	3.7207355e-13
208	0x00000000	0.0
209	0x2d8cc50d	1.6003665e-11
210	0x00000000	0.0
211	0x3510a5c0	5.388538e-07
212	0x00000000	0.0
213	0x236cf699	1.2845805e-17
214	0x00000000	0.0
215	0x2e0f92bf	3.2644772e-11
216	0x00000000	0.0
217	0x3510a5af	5.388528e-07
218	0x00000000	0.0
219	0x2bcd53b0	1.4589354e-12
220	0x00000000	0.0
221	0x2d177241	8.608726e-12
222	0x00000000	0.0
223	0x3510a5be	5.3885367e-07
224	0x00000000	0.0
225	0x23264e60	9.0154746e-18
226	0x00000000	0.0
227	0x2d9c7a58	1.7789478e-11
228	0x00000000	0.0
229	0x3510a5bd	5.388536e-07
230	0x00000000	0.0
231	0x2133f042	6.096554e-19
232	0x00000000	0.0
233	0x326c4dc5	1.3754691e-08
234	0x00000000	0.0
235	0x3510a5c0	5.388538e-07
236	0x00000000	0.0
237	0x21995398	1.038981e-18
238	0x00000000	0.0
239	0x3195a7a4	4.3555293e-09
240	0x00000000	0.0
241	0x3510a5bd	5.388536e-07
242	0x00000000	0.0
243	0x21188e13	5.1687637e-19
244	0x00000000	0.0
245	0x327bbc98	1.4653004e-08
246	0x00000000	0.0
247	0x3510a5c0	5.388538e-07
248	0x00000000	0.0
249	0x2277a77d	3.356341e-18
250	0x00000000	0.0
251	0x30c88ca5	1.4591889e-09
252	0x00000000	0.0
253	0x3510a596	5.388514e-07
254	0x00000000	0.0
255	0x219bb7f3	1.05519e-18

exp_avg f4 [128]
0	0x36cd15df	6.112022e-06
1	0xb77cfe2a	-1.5079548e-05
2	0xb89f214e	-7.587914e-05
3	0x36a00376	4.7687745e-06
4	0xb70dcadf	-8.4514895e-06
5	0xb7c69b34	-2.3675711e-05
6	0xb714071e	-8.8231445e-06
7	0x39833a39	0.00025029646
8	0x3904f56f	0.00012679932
9	0x3852e79d	5.028361e-05
10	0xb9cd954d	-0.00039211885
11	0xb8c65c33	-9.458549e-05
12	0x37fc299b	3.0060115e-05
13	0x363e9324	2.8397853e-06
14	0x376e79f1	1.4214297e-05
15	0xb5c65cdf	-1.4779179e-06
16	0x395bb46f	0.00020952684
17	0xb914a6c4	-0.00014176505
18	0x3706e36a	8.039971e-06
19	0x380ed2ed	3.4051878e-05
20	0xb9237ed5	-0.0001559214
21	0xb8d9db93	-0.00010388265
22	0xb94b4016	-0.00019383462
23	0xb7cc3467	-2.4343097e-05
24	0x36cdf087	6.137477e-06
25	0x37c24322	2.3157863e-05
26	0xb7501a2e	-1.2403862e-05
27	0xb6dd1d53	-6.589727e-06
28	0xb522d860	-6.066457e-07
29	0x3823caa6	3.905096e-05
30	0x37a23a2e	1.9338997e-05
31	0xb50cbe7c	-5.2431255e-07
32	0xb91657ae	-0.00014337778
33	0x39a85fee	0.0003211493
34	0x365f6da7	3.3293416e-06
35	0x381b13f0	3.6973448e-05
36	0x39565f54	0.00020444143
37	0x38ec8af5	0.0001127924
38	0xb7457aa2	-1.1770668e-05
39	0x349f7b85	2.970593e-07
40	0x35ec0ad1	1.7586518e-06
41	0x36d20e19	6.260129e-06
42	0x38e5a928	0.00010951079
43	0x37890464	1.6333717e-05
44	0x368607ea	3.9944325e-06
45	0xb9840962	-0.00025183993
46	0x39063a4d	0.00012800955
47	0xb662e76c	-3.381133e-06
48	0xb9a06483	-0.00030592465
49	0x38ab428a	8.166309e-05
50	0x35f7211b	1.8412569e-06
51	0x39678cba	0.00022082301
52	0x3903dc5c	0.00012575224
53	0xb85a1dc0	-5.2002957e-05
54	0xb924319a	-0.00015658737
55	0xb90bb5ee	-0.00013323847
56	0x35d6fc18	1.6017611e-06
57	0x38e99b11	0.00011139189
58	0x3925818d	0.00015783888
59	0xb5a0d190	-1.198192e-06
60	0x38657277	5.470446e-05
61	0xb796c895	-1.7974797e-05
62	0xb8925266	-6.9771704e-05
63	0xb71d4810	-9.374708e-06
64	0xb7b8345a	-2.1958887e-05
65	0x385ce908	5.2669115e-05
66	0x3890a502	6.89719e-05
67	0x37e77e05	2.7596028e-05
68	0x36e9f294	6.972181e-06
69	0xb701e5e1	-7.742522e-06
70	0x39dd43aa	0.00042202818
71	0x378fa9bc	1.7125967e-05
72	0x36c540ca	5.8786e-06
73	0x388f126d	6.8222034e-05
74	0x3954f5a7	0.00020309408
75	0xb6707b7e	-3.5834669e-06
76	0x36bb2e44	5.5784203e-06
77	0x39c64932	0.00037820038
78	0x37983d3b	1.8148325e-05
79	0x36d01bb7	6.2021095e-06
80	0xb84d40d1	-4.8936174e-05
81	0x35d54d76	1.5892281e-06
82	0x3791c169	1.737541e-05
83	0x37105349	8.60246e-06
84	0x39282fed	0.00016039582
85	0xb9027baa	-0.00012443835
86	0x37491f24	1.1987784e-05
87	0x37e37767	2.711611e-05
88	0xb67b2984	-3.742608e-06
89	0x396d292b	0.00022617418
90	0x39babec2	0.0003561881
91	0xb90ab56e	-0.00013228293
92	0xb61ad69e	-2.3072712e-06
93	0x394156cb	0.00018438247
94	0xb88c93b5	-6.703233e-05
95	0x37306157	1.0513081e-05
96	0x375d1ff9	1.3180071e-05
97	0x37a25622	1.9352014e-05
98	0x391574cd	0.00014253259
99	0x38048c60	3.1601987e-05
100	0xb9f97c54	-0.00047585613
101	0xb9130c2f	-0.00014023551
102	0x390a935d	0.00013215603
103	0x3695c42a	4.4633825e-06
104	0x38a2d2ab	7.764002e-05
105	0xb69cdc8a	-4.6748364e-06
106	0x35e28220	1.6876184e-06
107	0x38e535d6	0.00010929599
108	0x3966aec6	0.00021999617
109	0xb8a3994f	-7.8010016e-05
110	0x36b0eb2b	5.272586e-06
111	0x38d2814e	0.00010037665
112	0xb88ea4f3	-6.801812e-05
113	0x387346bd	5.8001595e-05
114	0x3877c990	5.907711e-05
115	0x37468ecb	1.1834966e-05
116	0x36b01bca	5.248444e-06
117	0xb8ff4a89	-0.00012173231
118	0x36c776ee	5.9445074e-06
119	0xb80e617a	-3.394622e-05
120	0x36e18366	6.7208193e-06
121	0x37339125	1.07030255e-05
122	0x398ec426	0.00027230493
123	0x38a51972	7.872553e-05
124	0x3698d168	4.554331e-06
125	0x38eddb4e	0.00011341889
126	0x36af0314	5.2157648e-06
127	0xb96b9f7d	-0.0002247076

exp_avg_sq f4 [128]
0	0x35bf9da1	1.4276485e-06
1	0x3510a5c0	5.388538e-07
2	0x3350ba9d	4.8598498e-08
3	0x34a43132	3.0583175e-07
4	0x34666391	2.1456641e-07
5	0x34e3dcf1	4.24428e-07
6	0x353e3d93	7.087012e-07
7	0x35236755	6.08726e-07
8	0x349d0857	2.9249597e-07
9	0x346f0885	2.2261709e-07
10	0x35d52945	1.5881748e-06
11	0x35d1bd7c	1.5626861e-06
12	0x32bd34bd	2.2026478e-08
13	0x33161b49	3.4949412e-08
14	0x32b334b3	2.0862307e-08
15	0x328d2355	1.6430628e-08
16	0x3517f67a	5.6610554e-07
17	0x343bbff0	1.7485559e-07
18	0x3474d9c9	2.28035e-07
19	0x346f5135	2.2288152e-07
20	0x343cc023	1.7578763e-07
21	0x349cace5	2.9183062e-07
22	0x34b07510	3.286773e-07
23	0x32e8fa4e	2.712218e-08
24	0x316c8dcc	3.4423122e-09
25	0x33b85cc1	8.5850395e-08
26	0x354ffb96	7.7479615e-07
27	0x3496e695	2.8107448e-07
28	0x3304aa48	3.0888515e-08
29	0x363bec8b	2.8002858e-06
30	0x3418eb86	1.4241786e-07
31	0x321dcefa	9.185664e-09
32	0x35948cac	1.10678e-06
33	0x37601e84	1.3358545e-05
34	0x313f1594	2.7806424e-09
35	0x35138806	5.495971e-07
36	0x371dc09a	9.402773e-06
37	0x36645542	3.4024274e-06
38	0x3292f707	1.7108972e-08
39	0x33d7aceb	1.0043171e-07
40	0x32ebe0f3	2.7459896e-08
41	0x35ef97a5	1.7851022e-06
42	0x3481c04a	2.416803e-07
43	0x32fccdd7	2.9430266e-08
44	0x31d2a85e	6.1309455e-09
45	0x355d1dbb	8.237218e-07
46	0x36c71da3	5.9341123e-06
47	0x3566bb7c	8.59545e-07
48	0x360b99ff	2.0802252e-06
49	0x360184ae	1.9299728e-06
50	0x32b8d88a	2.151889e-08
51	0x35477146	7.429811e-07
52	0x36323f72	2.6560997e-06
53	0x3599720b	1.1432579e-06
54	0x36894a1a	4.0915447e-06
55	0x3488c97a	2.5478568e-07
56	0x3584c473	9.891941e-07
57	0x348572ab	2.4856612e-07
58	0x37065390	8.006478e-06
59	0x313d6069	2.7557923e-09
60	0x33a8271c	7.8302236e-08
61	0x322b0820	9.955357e-09
62	0x364bf1e3	3.0390154e-06
63	0x3380ce3d	5.997979e-08
64	0x3494c26f	2.7708617e-07
65	0x3520826c	5.9794434e-07
66	0x353a1541	6.932133e-07
67	0x34983e4b	2.835753e-07
68	0x33d28086	9.802265e-08
69	0x345e0530	2.0677248e-07
70	0x378ba3c1	1.6646345e-05
71	0x34bd5633	3.5266712e-07
72	0x3344751e	4.5741324e-08
73	0x359335d1	1.0968016e-06
74	0x37134e16	8.780064e-06
75	0x33bb00f0	8.7080366e-08
76	0x3113c52c	2.1503395e-09
77	0x36cd52fd	6.119137e-06
78	0x32d46c17	2.4729202e-08
79	0x34d040ca	3.879016e-07
80	0x351b0e52	5.776284e-07
81	0x3089646b	9.996602e-10
82	0x3498e593	2.8479243e-07
83	0x33faf06f	1.1685267e-07
84	0x34ff038a	4.7500026e-07
85	0x32fbc6ab	2.931059e-08
86	0x31fef762	7.420497e-09
87	0x32a4b343	1.9173632e-08
88	0x302da1a5	6.3166744e-10
89	0x36ccaf52	6.1000837e-06
90	0x37a24433	1.9343663e-05
91	0x341636fa	1.3989839e-07
92	0x31f43c8a	7.108217e-09
93	0x360362c7	1.9578017e-06
94	0x32a5c26b	1.929694e-08
95	0x32a34d82	1.9010944e-08
96	0x33889966	6.3608965e-08
97	0x34e62df1	4.2874265e-07
98	0x35d79e3e	1.6064803e-06
99	0x3340449a	4.4765876e-08
100	0x35a424a7	1.2229619e-06
101	0x33b1d07b	8.280127e-08
102	0x3674f44d	3.6501035e-06
103	0x3178456c	3.6128212e-09
104	0x3433d6d9	1.6748835e-07
105	0x315093b2	3.0351939e-09
106	0x31cfdec6	6.0498193e-09
107	0x35e202f7	1.6839175e-06
108	0x368c9061	4.189133e-06
109	0x34835e0a	2.4469074e-07
110	0x3117f9d3	2.21154e-09
111	0x35d5b1f5	1.5921529e-06
112	0x3527f3b2	6.256697e-07
113	0x3501ab4f	4.830553e-07
114	0x358be84b	1.0423913e-06
115	0x318179d9	3.7682466e-09
116	0x3229fa9d	9.894078e-09
117	0x3412cad4	1.3671098e-07
118	0x34bd78f0	3.5291987e-07
119	0x354a8dd5	7.5457257e-07
120	0x312bc0d3	2.4993383e-09
121	0x31731640	3.5373802e-09
122	0x374ffe7f	1.2397416e-05
123	0x35abb380	1.2792734e-06
124	0x31fca673	7.3530884e-09
125	0x35d340c1	1.5739571e-06
126	0x3247c200	1.1627435e-08
127	0x3574d99f	9.1213764e-07
