results/hideandseek_22/Hide/checkpoint.pt (torch, 967147 bytes, 36 tensors)

network_body._body_endoder.seq_layers.0.weight f4 [128, 177]
000000 ae 2c 61 bc 84 16 17 3d 22 4a 02 3d 17 54 0b 3d
       -0.013743563 0.036886707 0.03180898 0.03401574
000010 25 d5 69 3d cb 4c bd bc 83 4a 3d 3d 2f c8 7a bd
       0.057088036 -0.023107907 0.046213638 -0.061226066
000020 c8 9b 1f bd 06 77 cc bc c1 c0 ad 3c 6a 43 3b 3d
       -0.038966924 -0.024959099 0.021210076 0.045718588
000030 d6 5a c5 bd 0f cf 0f be bc a1 8d 3d db cb 33 ba
       -0.09636466 -0.1404383 0.06915614 -0.0006858685
000040 21 f1 1b be 93 42 aa bc 65 6e 13 3e cc b9 a0 bd
       -0.15228702 -0.020783698 0.14397581 -0.07847938
000050 af b7 3f bd 55 36 c8 3d e2 b7 49 3d d8 20 e5 bd
       -0.046806034 0.09775988 0.04924763 -0.11187905
000060 b5 75 99 bd d2 bc 18 bd 70 cf 66 3d 62 77 f0 bd
       -0.07493154 -0.037289448 0.05635017 -0.117415205
000070 95 c5 a8 3c 2f 7e bc 3d 6c b3 10 3d a4 7b 33 3b
       0.020602027 0.09203755 0.03532736 0.0027386928
000080 51 52 3f 3d 40 b9 9c bd 7d 4f 57 bd 7b b5 a2 bd
       0.046709362 -0.07652521 -0.05256604 -0.07944771
000090 b6 ae 3a 3c c7 9a c5 bc 09 2a cd 3d 63 ac 81 3a
       0.011394193 -0.024121655 0.10017783 0.0009893294
0000a0 05 14 bf 3c de 27 a9 3d 8d 47 0e bc ba 5f 87 bc
       0.023324976 0.08259557 -0.008684051 -0.016525138
0000b0 39 1b 01 bd 11 b8 c9 3d 28 ac c7 bd 44 99 cb 3d
       -0.031520102 0.09849561 -0.09749633 0.099413425
0000c0 59 d7 51 bd ea ad 94 3d 75 0d 33 bb 04 a1 dd bb
       -0.051230762 0.07259734 -0.0027321253 -0.0067635793
0000d0 97 02 a8 bd d0 36 42 3c a6 3c 9c bc c6 e3 7c 3d
       -0.08203619 0.011853889 -0.019071888 0.06174066
0000e0 69 80 a5 3d 21 f9 c3 bd e4 88 bc bd bf bc 07 be
       0.08081133 -0.09569002 -0.09205797 -0.13255595
0000f0 38 c3 e2 bc 71 6c c8 3c 29 14 a1 bc 57 9d ad bd
       -0.027680978 0.024465771 -0.019662933 -0.08477276
000100 e6 e8 f1 bd f1 34 dc 3c c9 b2 14 bc 28 c1 7c bd
       -0.11812 0.026880713 -0.009075829 -0.061707646
000110 a8 3e 6d 3b 63 6c 61 3d cb 6f 9f bd 56 ec 7a 3d
       0.0036200676 0.055035006 -0.07784995 0.061260544
000120 e3 4f ab 3d 64 c8 80 3d fc 55 90 bd 60 c1 2f 3e
       0.083648466 0.062882215 -0.0704765 0.1716361
000130 8e f2 7e 3c b5 12 7b bd 70 ac 23 3e 13 c9 7f bd
       0.015560759 -0.061297137 0.15983748 -0.06244762
000140 91 39 b2 3d cb 04 be 3d 72 25 22 be 41 69 56 bc
       0.08702386 0.09278258 -0.15834597 -0.013086618
000150 26 ab a7 bd 0f 99 8b 3d 0a 2b ed 3c ca 2b 2c be
       -0.08186941 0.06816303 0.028951187 -0.16813579
000160 e9 31 08 3c c2 52 4c bd b8 bc 98 3d 4e fc 94 bd
       0.008312681 -0.04988361 0.0745787 -0.07274686
000170 59 14 5f 3d ad db 55 bc 64 48 04 bd e3 f1 aa bd
       0.054462764 -0.013052863 -0.0322956 -0.083469175
000180 a5 74 96 3b a8 a3 30 bd 2c 44 29 3c 49 f3 51 bd
       0.004591542 -0.043124825 0.010331195 -0.051257405
000190 d1 3b e6 bc fe 6d 6b bd 5e 9a bf bd 8d f8 c8 bc
       -0.028104695 -0.057477944 -0.09355615 -0.02453258
0001a0 56 9d 25 3e 8f 0b 30 bd 87 15 bf 3d 81 1f c6 3d
       0.161733 -0.042979773 0.09330278 0.09673978
0001b0 aa a3 25 3e ad cc 9a bd 60 1f c0 3c 54 0d ed bd
       0.16175714 -0.0755857 0.02345246 -0.11574808
0001c0 40 1c 09 3d 26 d3 8a 3d 36 18 77 3c 4b c6 17 bb
       0.033474207 0.067785546 0.015081456 -0.0023158963
0001d0 2d cf 0b bd fd 16 aa 3d da aa ff 3b 03 8e 09 3d
       -0.034133125 0.08305166 0.0078023495 0.0335827
0001e0 a3 9d a2 bd 54 04 1d bc 1b e9 05 be 06 81 b9 3d
       -0.07940223 -0.009583551 -0.13077204 0.090578124
0001f0 bc ec 3c bd 09 01 b7 bd 78 76 a2 3c 1d 15 88 3d
       -0.046124205 -0.08935744 0.01983188 0.06644652
000200 34 82 63 bc b5 b9 b0 bd 26 02 83 bd a4 97 99 3c
       -0.013886023 -0.08629171 -0.06396894 0.018749066
000210 7d 78 94 bd 5f e6 91 bd b5 b3 d4 bd c6 b3 b1 bd
       -0.07249544 -0.07124018 -0.10385839 -0.08676867
000220 9d a7 8b 3c 50 aa e9 bd ab 1d 1c be 05 f3 58 bd
       0.017047698 -0.11409438 -0.15245692 -0.052966136
000230 17 2c 90 bc ff b0 ff bc 23 55 16 bc c7 b6 df 3c
       -0.017599149 -0.031212328 -0.009175572 0.027308835
000240 b0 cf 2d bd 1e b8 2d bd 1c 48 f6 3c b2 28 94 bd
       -0.042434394 -0.042411916 0.030063681 -0.072343245
000250 e8 84 64 3d a9 85 a6 bd 01 86 c9 bd 06 df 96 3b
       0.05579081 -0.081309624 -0.09840012 0.004604223
000260 ff e1 eb 3d 98 53 74 3d 5b 76 7f 3e d1 69 fe 3b
       0.11517715 0.059650034 0.24947493 0.007764079
000270 cc ef 0b 3b a1 0a 1a be 63 a1 fd bb 1f 58 ce bd
       0.0021352647 -0.15043117 -0.007740186 -0.100754015
000280 f2 c7 8d 3d 9e 97 8c 3c ef f9 72 bd 8d 79 97 bc
       0.06922902 0.01716214 -0.059320386 -0.018490577
000290 d2 80 8b 3b d2 a6 33 bc f2 de ac 3d cc 62 fc 3c
       0.0042573 -0.010965066 0.08440961 0.030808829
0002a0 27 6f 20 3d bd 8c 95 bd e1 12 b8 3b ba 22 8d bc
       0.039168503 -0.07302234 0.005617485 -0.017228473
0002b0 26 c5 c0 bd 49 a1 24 3d 9b 78 16 3c fd c6 50 3d
       -0.09412603 0.040192876 0.009184028 0.05097102
0002c0 02 19 8d bd fb e8 f7 b9 47 79 76 bc d5 e4 2b 3d
       -0.068895355 -0.00047285095 -0.015043563 0.041966278
0002d0 d7 40 53 3c e7 ef c8 3d eb 43 24 bd 83 e3 66 3d
       0.012893877 0.09811383 -0.040103834 0.056369316
0002e0 35 0c c3 3d 49 38 d2 3c 08 49 05 bd c5 3a 3d bd
       0.09523813 0.025661604 -0.03254035 -0.046198625
0002f0 3c 5d 40 be 40 a9 aa bd a6 f2 58 bd 03 96 09 bd
       -0.18785566 -0.08333063 -0.052965783 -0.033590328
000300 43 12 98 bd b7 18 13 3c 92 1c 28 3d 2c 07 07 3b
       -0.07425358 0.00897806 0.04104287 0.002060364
000310 26 a6 ae bd f9 2c c7 3d 32 6f f0 3d 0a 65 6d 3d
       -0.08527784 0.09725375 0.11739959 0.057957686
000320 02 a0 c3 bc 41 3f db 3d a3 1b d8 3b 37 7d e8 3d
       -0.023880009 0.10705424 0.0065950914 0.11352008
000330 44 38 09 3c 0c 0d fe 3d ce 73 e9 bd 1c c7 9a bd
       0.008375231 0.12404832 -0.11399041 -0.07557508
000340 55 3c 93 3d 51 c2 19 3e df 10 32 bd 69 10 fd 3b
       0.07189242 0.15015532 -0.04347312 0.0077229035
000350 7c 63 3d 3d 6e d0 91 3d 48 63 82 3d 7f 00 84 3d
       0.046237454 0.07119833 0.06366593 0.06445407
000360 3f 99 29 3c c7 14 b9 bd 6d 18 75 bd 0a ef 07 3e
       0.010351478 -0.09037166 -0.059837747 0.1327478
000370 0c 52 c5 bc 52 db a8 3c f2 2a a0 3d af 31 95 bc
       -0.024086975 0.020612393 0.07820691 -0.018212168
000380 62 c3 c0 bd 7e d8 9e bb 6b bf 33 3d 6c a9 0a be
       -0.09412266 -0.004847585 0.043883722 -0.13541192
000390 3a 08 6b bd 7e 87 44 bd 30 18 40 be b3 a6 81 bd
       -0.057380892 -0.047980778 -0.18759227 -0.063306235
0003a0 0c ba e9 3c 56 86 a6 bd b5 ea db 3d 1c a4 93 bc
       0.028531097 -0.08131091 0.10738126 -0.01802259
0003b0 de 21 15 bd 6d aa 15 bc 1a a7 44 3b 8a 8a e1 3c
       -0.03640925 -0.009134871 0.0030006827 0.02753188
0003c0 65 c1 6d bd 6e 57 0c 3d 13 ed 0b 3e 09 6e 1b bd
       -0.058045764 0.034263067 0.13664655 -0.037946735
0003d0 11 4f 5d bd d4 4a f5 bd 68 e6 a9 bc 7f ef 9a bc
       -0.05403048 -0.11977163 -0.02073975 -0.018913029
0003e0 3a 93 58 bd e5 97 d8 3d 92 bc 5d 3d a0 57 95 bc
       -0.05287478 0.105758466 0.054134913 -0.01823026
0003f0 75 fc aa 3d b0 bf ef bd 31 8e c2 3c 7c 33 b1 3d
       0.083489336 -0.11706483 0.023749443 0.08652398

network_body._body_endoder.seq_layers.0.bias f4 [128]
000000 8f 71 4c bb f7 ea d0 39 2b 4e 0c ba 71 9d 4e b9
       -0.0031195616 0.00039847914 -0.0005352224 -0.00019704342
000010 f2 4b 8a ba 57 1f 52 3b a0 ee 7f 3a 22 df d8 39
       -0.0010551198 0.0032062137 0.0009763036 0.00041364977
000020 4a 31 2b 3b 63 e8 9a bb 25 61 93 ba b6 21 3d 3a
       0.0026121908 -0.0047274097 -0.0011244161 0.0007214801
000030 d3 0d a0 3a 07 aa f8 39 4f ea 58 3a 3e 6d 38 3a
       0.0012211151 0.00047428926 0.0008274661 0.00070353213
000040 0a 06 89 3a c6 00 d1 b9 b8 9a 75 ba 96 70 8d 39
       0.001045407 -0.00039864163 -0.0009369063 0.000269775
000050 39 7d 4b ba c8 27 a6 ba 88 49 d5 37 00 fc bb 3a
       -0.0007762495 -0.0012676651 2.542582e-05 0.001434207
000060 70 e1 5f b8 8f bb 35 3a 66 0d 47 bb 5f f1 23 3a
       -5.3377298e-05 0.00069325505 -0.0030372976 0.00062539236
000070 37 1d 05 3a 86 17 0e bb 61 6f 9e b7 89 4a 57 3a
       0.0005077901 -0.0021681502 -1.8886933e-05 0.0008212706
000080 73 5e 99 ba 03 bd 45 bb fa cf 12 3b ca d3 00 bb
       -0.0011701122 -0.0030172474 0.0022401796 -0.0019657486
000090 c4 86 5a ba 63 99 4b b9 e7 28 0e 3b 72 c2 35 b9
       -0.00083361217 -0.0001941673 0.002169186 -0.00017333942
0000a0 b7 43 d5 3a 5d 31 fa 3a f4 88 8d 3a df 87 d9 ba
       0.0016270791 0.0019088198 0.0010798262 -0.0016596279
0000b0 e5 ca 14 3b a4 aa 4d ba 04 57 de 3a e3 cd e9 3a
       0.0022703942 -0.0007845557 0.0016963189 0.0017837848
0000c0 02 f2 d3 3a a4 3d 4a ba d6 0e 05 bb 7b e2 ec 39
       0.0016170146 -0.00077148736 -0.0020303032 0.0004518217
0000d0 a4 41 26 3b de 91 34 bb 58 fa 66 3a 2f c5 48 b9
       0.0025368715 -0.0027552764 0.0008811108 -0.00019146943
0000e0 10 65 74 36 29 a0 ab ba 75 03 2a 3a 9c 44 a6 3a
       3.641766e-06 -0.0013093996 0.00064855005 0.0012685242
0000f0 55 22 3d 3a aa 85 86 b8 de 83 95 ba a6 b2 96 ba
       0.00072148937 -6.414515e-05 -0.0011407097 -0.0011497333
000100 3e c0 bb ba 4a f2 79 3a 54 6b b9 ba 63 f1 81 3b
       -0.001432426 0.00095347 -0.0014146366 0.003965543
000110 a0 eb 00 bb 1a 1d ed b9 47 42 98 38 14 86 e6 ba
       -0.0019671693 -0.00045225845 7.26027e-05 -0.0017587566
000120 3f 4e 21 3b d7 df 8a bb 89 6f cc ba b0 94 e2 39
       0.0024613289 -0.0042381096 -0.0015597205 0.0004321686
000130 8a f7 c1 ba c5 ff e5 39 f5 3c a8 ba b0 df 16 3b
       -0.0014798504 0.00043868847 -0.001283555 0.0023021512
000140 1b 74 ca 38 c3 08 3c 3a 1f 0d f6 b9 63 7a a5 3a
       9.653737e-05 0.00071729365 -0.00046930552 0.0012624975
000150 af bf 9e 3a b2 a6 42 3b 0c bb 4a b7 09 9c c4 39
       0.001211157 0.002970141 -1.20836885e-05 0.00037500288
000160 a5 c8 93 b9 be f6 22 ba 6e 9a 1e bb 9b aa 81 ba
       -0.00028187517 -0.0006216577 -0.0024200934 -0.0009892763
000170 b4 8f 07 3a 28 02 0c 3b bd 9a b6 3a 8f 5e ee 38
       0.0005171255 0.002136359 0.0013931614 0.00011366337
000180 7a b0 52 3a b4 60 ae b9 f0 a9 88 3a 92 42 19 39
       0.00080371613 -0.00033259916 0.0010426622 0.00014616016
000190 2f 7d 61 ba aa 55 4e 3a c2 6a 82 ba ae c7 43 3b
       -0.00086017227 0.00078710413 -0.0009950029 0.0029873657
0001a0 ba 5b 11 3a 3e cc a3 3a 5f 7a ce 3a fd 5f 28 bb
       0.00055449794 0.0012496782 0.0015753022 -0.002569198
0001b0 e3 d0 ad ba e8 c0 a2 39 94 12 0f ba e0 f8 17 3b
       -0.0013261106 0.00031042774 -0.00054577854 0.0023189113
0001c0 5a 94 98 3a e7 9b 7d ba a8 a9 a5 39 74 52 95 3a
       0.0011640892 -0.00096744153 0.00031597656 0.0011392371
0001d0 25 c2 84 ba c8 cd f6 ba d7 74 4c 3a fe b3 06 b9
       -0.001012866 -0.0018829638 0.0007799393 -0.00012846288
0001e0 a1 df 72 3a 8f 05 4f 3a e2 14 b4 39 96 1a 93 ba
       0.00092648907 0.00078972516 0.00034347834 -0.0011223133
0001f0 00 cc d3 36 85 fc 06 3b e1 87 0e ba 75 c8 c4 38
       6.3120387e-06 0.002059729 -0.00054371177 9.383346e-05

network_body._body_endoder.seq_layers.2.weight f4 [128, 128]
000000 38 cc 53 bd 16 ab 83 bd 34 4c 21 be 9d c4 f6 bc
       -0.05170843 -0.064291164 -0.15751725 -0.03012305
000010 27 2d 9d 3c 06 c2 a3 bd 6f cb 27 bc 92 96 8a bd
       0.01918657 -0.079959914 -0.010241373 -0.06767
000020 34 33 4c 3e 5c ff 4a 3c 22 5e ce bd 92 3b c7 bc
       0.19941407 0.012389984 -0.10076548 -0.024320398
000030 7f b0 48 be 80 1f 98 3d 09 07 db bb 67 0e f5 bc
       -0.19598578 0.07427883 -0.0066841883 -0.029914094
000040 5a 9b 66 be 11 7d a3 3c 80 a9 f4 bb 2b 53 28 be
       -0.225202 0.019957097 -0.007466495 -0.16437976
000050 b9 b4 b2 bd f5 2b e7 3d fa 45 10 3d 31 60 6a bd
       -0.08725876 0.11287681 0.035222985 -0.05722064
000060 9f 0e 06 3e c7 6b a2 3b 4f 30 d0 3d a4 9d f1 bd
       0.13091515 0.0049566957 0.10165464 -0.11797646
000070 0b 21 b2 bc 98 c4 e2 3c 8f a6 cd bd c1 80 eb 3b
       -0.021744272 0.027681634 -0.10041534 0.0071869795
000080 7e 19 24 3b 42 32 aa bd e1 5e d3 bd df c4 9a 3c
       0.0025039609 -0.08310367 -0.10320831 0.018892704
000090 6f 54 c1 3c d7 e3 93 bd 15 c7 81 bd db 43 11 be
       0.023599831 -0.072211914 -0.063368 -0.14186041
0000a0 90 0e 8a 3d 69 86 78 3d 73 0b e9 3d af 34 dd bb
       0.06741059 0.06067506 0.11379137 -0.006750665
0000b0 8d 50 bf 3c f4 cb 90 bd 22 9a 89 3c 1d 94 55 bd
       0.02335384 -0.07070151 0.016797129 -0.052143205
0000c0 0d 53 69 bd 36 c4 78 3e 1d 96 0f 3d fe ba 12 be
       -0.05696397 0.24293599 0.03505527 -0.14329144
0000d0 e1 a5 52 3d 2f 34 02 bd bf e8 84 3d 63 dd 0f 3d
       0.051427726 -0.031788047 0.06489705 0.03512324
0000e0 c6 1a 8a bb f4 eb 59 3d 21 9c d5 3d 67 06 68 bd
       -0.0042146174 0.053203538 0.1043017 -0.05664673
0000f0 9d ea 82 3c f4 c9 1c bc 3d d8 2c bd f0 13 97 bc
       0.015981013 -0.009569634 -0.04219841 -0.018442124
000100 02 1c 96 3d 0a 70 5c bd c9 d2 4a 3d aa c0 97 3d
       0.07329561 -0.053817786 0.049517427 0.07409795
000110 68 e0 4e bd ea 21 d7 3b c5 48 c3 3d 3e 1a 0b be
       -0.05050698 0.006565322 0.09535364 -0.1358423
000120 f5 3e 44 be 51 4c 3f 3d f5 1a 41 bd bd 3a ac 3d
       -0.19164641 0.04670364 -0.04714485 0.08409641
000130 51 3a f4 bd f7 7d 2a 3e f0 40 71 bc e5 47 d6 bd
       -0.119251855 0.16649614 -0.014724955 -0.104629315
000140 6d 53 e2 bd 97 24 92 3d 29 37 4f bc 43 96 aa 3c
       -0.110510685 0.07135885 -0.012647429 0.020823603
000150 38 a0 89 3d 92 a2 8f bd cb 51 c8 3c 8d 23 33 3e
       0.067200124 -0.0701343 0.024453064 0.1749403
000160 ae e2 b0 bd 42 eb 6e 3d ad 79 8e bd 0a ff 5c 3d
       -0.08636986 0.058329828 -0.069568016 0.05395416
000170 13 75 a9 bd be 0b 16 bd 19 48 e2 bd 96 7d a6 3d
       -0.08274283 -0.036632292 -0.11048908 0.08129422
000180 b8 2d d2 3c 20 a8 87 3d 26 85 d4 bd 80 08 1e be
       0.025656566 0.06623864 -0.103769585 -0.1543293
000190 de 36 94 3c f0 a7 0f 3d 22 6e c5 bc 6f b6 6e 3d
       0.018092569 0.035072267 -0.024100367 0.05827945
0001a0 9f 39 83 3c cf 9c c8 bc 8a 5e 0f 3e 1c f7 ed bd
       0.016018687 -0.024488835 0.14000908 -0.11619398
0001b0 8c 7b db 3d 69 2a 06 3e e4 93 30 3d 8a 13 fa 3d
       0.10716924 0.13102116 0.04310979 0.12210758
0001c0 71 cf 90 3d 33 8c 9f 3c a1 5e 33 3d 62 c8 ca bd
       0.07070816 0.019476032 0.043791417 -0.09901501
0001d0 35 32 9d bc 99 9a 92 3c 81 67 5a bd 79 ae 96 bd
       -0.01918898 0.017895984 -0.053321365 -0.07357497
0001e0 3b 92 e3 bc a3 a6 18 be 69 8d 1a bd d2 37 4b be
       -0.027779689 -0.14907317 -0.037732515 -0.19845513
0001f0 56 79 5e bd 85 7e 9d 3d e9 11 df bd 9e 06 b9 3d
       -0.054314934 0.07690147 -0.10892088 0.09034465
000200 97 d1 bb 3b 41 9b a3 bd b8 06 d3 3a 0b 29 6e 3d
       0.005731772 -0.07988597 0.0016100025 0.05814461
000210 4c 8e 5c 3d 41 d8 be bd f5 7c 90 3c 4e b7 78 3d
       0.053846642 -0.09318591 0.01763771 0.060721688
000220 3a 41 4d bd af 63 84 3d 3d d0 b9 bc a3 2d 04 be
       -0.050111033 0.06464326 -0.022682304 -0.12908034
000230 fe 7b f2 3c e7 f0 60 be 95 97 c0 bd 88 ea 8f 3e
       0.02960014 -0.21966897 -0.09403912 0.2810862
000240 cc 79 53 3c e0 61 bb bd 48 c3 d4 bd 8c 49 08 be
       0.012907457 -0.091495275 -0.103888094 -0.13309306
000250 2b 29 94 3d a8 33 0e 3d 96 93 57 3d 5a 93 08 bd
       0.07234415 0.034717232 0.052630983 -0.03334365
000260 bf b4 08 be 3f b6 cb bd 39 ff 5e bd c7 1b dc bc
       -0.13350199 -0.0994687 -0.054442618 -0.026868714
000270 ad 62 fb 3d cc 44 38 3d b0 f5 6a 3a 7b 68 49 3d
       0.1227468 0.044987485 0.0008963002 0.049171906
000280 1f e7 15 bd e2 9b 51 bd fa 6d d6 bc 4e a4 7e bd
       -0.036597367 -0.051174052 -0.026175488 -0.062168412
000290 1a 45 78 3d 82 98 a6 bd f3 cd 54 3d f9 bc 2e bc
       0.060612775 -0.08134557 0.05195422 -0.010665172
0002a0 17 54 da 3d b8 7c 24 be 3b 77 49 be b2 17 5b bd
       0.1066057 -0.16063201 -0.19674389 -0.053489394
0002b0 ca d9 00 3e 81 7b fa 3d 4a 9f 85 bc cd 89 be 3d
       0.1258308 0.12230588 -0.016311307 0.09303627
0002c0 ac 76 38 bd 30 be 21 3e 1e 5b 69 3c a3 72 2e bd
       -0.04503505 0.15795207 0.014242915 -0.042589795
0002d0 a6 1d 1f 3d 0a 8e 14 bd d6 c8 73 be ad 47 2a bc
       0.038846634 -0.03626827 -0.23807082 -0.010393065
0002e0 27 5a 32 3d d5 27 95 bd 50 0e c7 bc 53 8c 32 bc
       0.043543007 -0.07282988 -0.024298817 -0.010897714
0002f0 1c f0 28 3b ed 6a 5b 3e 4a 8d a8 3c a3 f8 7f ba
       0.0025777882 0.21427508 0.020575184 -0.0009764528
000300 1b ef 87 3d 16 91 2e bd 88 98 c8 bd 68 68 b7 3c
       0.066374026 -0.042618833 -0.09794718 0.022388652
000310 7d 54 6a bb b3 23 d1 bd 2b 7e 1d be 43 be df bc
       -0.0035755925 -0.10211887 -0.1538016 -0.027312404
000320 b3 3c 99 3d 61 ea 13 3e b1 58 aa bc d5 a3 b4 bd
       0.074822806 0.14444877 -0.020794244 -0.08820311
000330 f9 23 95 3d 83 41 03 bd 9f 79 98 bc a0 5d 09 be
       0.07282252 -0.0320449 -0.018612681 -0.13414621
000340 82 22 14 bd 69 cd ba 3d 93 1e ef bd 6f 21 64 3c
       -0.03616572 0.0912121 -0.116757534 0.013923987
000350 c1 0d 08 be ff 11 d6 bc bc b1 e9 3c 29 2f dc 3d
       -0.13286497 -0.026131628 0.028527133 0.107511826
000360 7a 49 96 bd 06 dc 1d 3e 77 8b 15 3e 0c 91 49 bc
       -0.07338233 0.15415964 0.14603983 -0.012302648
000370 2d c7 5e 3e 59 2f bf bd 62 06 eb bd 3c 6c 75 3d
       0.21755667 -0.09335203 -0.11475827 0.059917673
000380 63 fc 40 3c a5 bd 00 bd 8e 70 95 3d bc 9f ff bd
       0.011778924 -0.03143086 0.07296859 -0.12481639
000390 1f a0 2c bc e8 a0 6f bd b3 8b 56 bc fc 0f 28 3e
       -0.010536223 -0.05850306 -0.01309483 0.16412348
0003a0 7a 1e 1b 3e 9d 43 9b bd 73 73 4a 3d c3 bd b0 3d
       0.15148345 -0.075812556 0.049426507 0.08629944
0003b0 a7 21 b2 3d 2d cd 38 3d 58 e4 82 bd 4e ed 10 3e
       0.08697825 0.045117546 -0.06391209 0.14153025
0003c0 e0 17 b7 39 f7 e4 24 3e 28 fe 8a 3b e3 d9 37 3d
       0.00034922268 0.16102968 0.0042417236 0.044885527
0003d0 9c 0c 47 3d 8c fd f3 ba 91 3d f0 bd d2 9f 44 3d
       0.04859601 -0.0018614992 -0.11730493 0.04800398
0003e0 8a ba c1 bc 8e fb 47 be 44 cf bd bd af d2 f8 3d
       -0.02364852 -0.19529554 -0.092680484 0.1214956
0003f0 06 d9 33 3d 5e fd 41 3c 25 4a 97 3d c8 ab d7 3d
       0.04390814 0.011840193 0.07387189 0.105308115

network_body._body_endoder.seq_layers.2.bias f4 [128]
000000 87 31 76 39 bd ce b9 ba a6 7f 0d ba ce a3 24 3b
       0.00023478839 -0.0014175993 -0.0005397744 0.002512205
000010 50 e8 9e 3b ea a1 4c 3b ab 5c 77 3b 50 0d 16 bb
       0.004849471 0.0031224438 0.0037744443 -0.0022896118
000020 c1 f2 cf 3a 0b bf db b9 f6 94 e6 39 3f 60 ca ba
       0.0015865193 -0.00041913273 0.00043980003 -0.001544006
000030 06 5e 97 3a d0 1b 55 ba fe 06 a7 ba bf 4e 35 bb
       0.0011548407 -0.00081294496 -0.0012743173 -0.0027665345
000040 16 d2 11 bb 35 2a c4 b8 91 04 8c 3a d8 2e 19 bb
       -0.0022250465 -9.35387e-05 0.0010682513 -0.0023373868
000050 80 2a 4d 3a 35 51 ab ba 22 db 9d b9 f3 c4 1d 3a
       0.00078264624 -0.0013070466 -0.0003010864 0.00060184224
000060 82 35 94 38 63 20 d8 39 f7 0b d4 b8 ec f9 c4 39
       7.0671565e-05 0.0004122286 -0.000101111764 0.0003757024
000070 03 ea ea ba b5 0c 8b ba 68 cc ba 3a 0e 87 3e 3a
       -0.0017922524 -0.0010608645 0.0014251592 0.00072680495
000080 52 a4 20 bb 0a d0 91 3a d9 4e 30 b9 ad 77 fc b9
       -0.0024512005 0.0011124623 -0.00016814041 -0.0004815435
000090 96 86 a0 b9 ec 03 44 3b e8 f1 61 b7 90 2c 23 ba
       -0.00030617852 0.0029909564 -1.3467368e-05 -0.0006224597
0000a0 05 9e 94 bb 95 f2 8d 38 d6 89 a5 ba a8 a8 80 b9
       -0.004535439 6.768588e-05 -0.0012629579 -0.0002453972
0000b0 e8 ad ae b9 ce 89 87 3a a3 40 73 ba 3a 18 a0 bb
       -0.00033317436 0.0010340752 -0.0009279346 -0.0048857005
0000c0 88 11 91 bb 1c f0 8d ba d8 56 97 3a a1 cb 7b ba
       -0.0044271387 -0.0010829004 0.0011546267 -0.0009605233
0000d0 3a 40 98 ba 12 d9 d4 ba a0 81 c6 3a 60 be 10 3b
       -0.0011615821 -0.0016239008 0.0015144832 0.0022086129
0000e0 96 e3 28 bb 2a 09 5a 3b d4 49 dc ba 6c e1 ea ba
       -0.0025770417 0.0033269622 -0.001680667 -0.0017919964
0000f0 fe f9 b4 3a 93 27 8d 3a 56 5c 25 ba 1a cf 86 b8
       0.0013807414 0.001076924 -0.00063080096 -6.4281936e-05
000100 cd 3e 74 ba a7 d2 de 39 3a 5f 59 3a 28 26 10 b9
       -0.00093172194 0.00042500088 0.0008292083 -0.00013747124
000110 00 5b a8 3a ed a2 9e ba 33 47 1b 3b b2 ea 24 ba
       0.0012844503 -0.0012102999 0.002369356 -0.0006291076
000120 e0 39 9c ba cd 03 1b ba 82 c8 2b 38 5e 35 23 ba
       -0.0011919104 -0.0005913347 4.0956314e-05 -0.0006225909
000130 62 bd a2 bb 0d d7 c3 39 0f c4 b4 ba 0c f8 08 ba
       -0.004966424 0.00037353524 -0.001379134 -0.000522495
000140 b0 b8 24 ba 06 29 90 3a 99 43 92 39 0e a5 cf 39
       -0.0006283624 0.0010998554 0.00027897654 0.00039605092
000150 8f 4d 00 3b fe 3c 07 3b 74 64 16 bb 84 21 3e 3a
       0.0019577479 0.002063572 -0.0022948058 0.0007252919
000160 95 5e 91 ba b0 8e 03 bb 55 18 f5 b9 46 e2 29 ba
       -0.001109081 -0.0020074062 -0.0004674817 -0.0006480556
000170 ed 6f f6 b7 92 54 09 b7 21 96 bc 37 43 28 04 ba
       -2.9377605e-05 -8.185527e-06 2.2481256e-05 -0.00050414
000180 df 91 d6 39 ac ce e9 39 a9 cc 30 ba 12 5f ba 3a
       0.00040925943 0.00044595206 -0.0006744364 0.0014219007
000190 37 96 82 b9 f9 57 b9 ba dc 25 ae b9 54 9d a6 ba
       -0.0002490745 -0.0014140598 -0.00033216074 -0.0012711682
0001a0 a7 8b 0c bb 90 94 c0 ba 5f ac 5c 3b c2 24 cf 3a
       -0.0021445544 -0.0014692713 0.0033672077 0.0015803801
0001b0 98 64 d7 38 e3 5d 9a bb 3f 78 47 ba 5c a3 4d 3a
       0.00010270736 -0.004710899 -0.00076091656 0.0007844472
0001c0 15 ab ad 3a 8e d0 bf 3a ee a6 1c bb a6 42 1a ba
       0.0013249839 0.0014634298 -0.0023903209 -0.0005884565
0001d0 e9 8b ee 3a a8 13 58 b9 98 11 2c ba 88 97 1e 3a
       0.0018199655 -0.00020606688 -0.0006563901 0.00060498016
0001e0 05 cb 7b ba 17 fe f3 b9 7a fa df 3a 16 31 2e 3b
       -0.00096051424 -0.00046537883 0.0017088198 0.002657955
0001f0 04 83 30 3b 2d 95 38 3b 92 29 6e 3a 04 4c dc b9
       0.002693356 0.0028165088 0.0009085174 -0.00042018306

action_model._continuous_distribution.log_sigma f4 [1, 2]
000000 7b 38 2e 3b 95 38 06 3a
       0.0026583958 0.0005120126

action_model._continuous_distribution.mu.weight f4 [2, 128]
000000 70 bf d8 3c 54 75 cd ba 2a 19 24 3c 65 f2 fd bb
       0.026458472 -0.0015675225 0.010015765 -0.007749843
000010 42 7a 4e bc d8 37 42 3b bd 48 6a bb 05 e5 03 3c
       -0.012602391 0.0029635336 -0.0035748922 0.008050208
000020 d2 f3 53 bd 36 4d 04 3c 52 88 a0 3c 13 f8 90 bc
       -0.051746197 0.008075049 0.019596253 -0.017696416
000030 59 71 12 3d dc 5b 31 3c c8 47 05 bc b1 91 b7 3b
       0.035752628 0.010825124 -0.00813479 0.0056020846
000040 ca 3d 3f bc 26 23 5a bc aa af 84 bc 87 6d 13 3d
       -0.0116724465 -0.013314044 -0.016197044 0.035993125
000050 d2 91 bf 3c 06 7d 99 bc 6f 2d 8d 3c 6e 4e 83 bb
       0.023384962 -0.018736374 0.017233578 -0.0040071523
000060 54 a4 27 bd 6c 9e 3f bc dc 99 8f bc 0f dc 4c 3c
       -0.0409282 -0.011695486 -0.01752942 0.012503638
000070 62 70 fb 3a 38 cd c0 bb 66 29 37 bc 0c a6 37 3c
       0.0019183273 -0.005883839 -0.011179304 0.011209022
000080 1c d6 d8 ba 9b 78 ea bb c7 8d a0 3c 62 93 fb 3c
       -0.0016543302 -0.0071554906 0.019598855 0.030709926
000090 12 2d 06 bc 1a f5 46 bc 36 70 3c bb 0c 1b b3 3c
       -0.008189457 -0.012143398 -0.0028753406 0.021863483
0000a0 20 2e 40 3b e0 a9 01 bc 30 70 86 3b 5a 4a 2d bb
       0.0029324368 -0.0079140365 0.0041027293 -0.0026442022
0000b0 43 01 3d bc c6 a0 10 bd 3f 0d d4 bc 9c fe 4a 3d
       -0.011535945 -0.035309575 -0.025885222 0.04955922
0000c0 ec 1c a1 bc 2d fd 9a bc c1 9b b5 3b 42 ec e9 bc
       -0.019667111 -0.018919552 0.005542249 -0.02855504
0000d0 d2 c9 9b 3c 68 02 04 bc 4d 92 16 bd 5f 83 8e 3a
       0.019017134 -0.008057214 -0.036760617 0.0010872892
0000e0 7a 3d 13 3c 26 bc 0c bd 27 d8 48 ba d7 cd 97 3b
       0.008986825 -0.03435912 -0.0007661604 0.0046326923
0000f0 33 ba 13 bb df 45 11 3c 24 60 96 bc 91 73 ce bc
       -0.0022541403 0.008866756 -0.01835639 -0.02520159
000100 3a 30 f1 bb ee 93 31 3b 0c ef 9b bb 8e de bf 3c
       -0.0073604854 0.002709623 -0.004758721 0.023421552
000110 c8 97 0b bb 67 f1 a5 3b 82 11 39 bd 61 08 fd bb
       -0.0021300185 0.005064178 -0.045182712 -0.007721946
000120 46 3e 46 bd 18 35 21 bc 7a 1f 8e bc ca cb cf 3c
       -0.048399232 -0.009839319 -0.017348994 0.025365729
000130 c2 c5 31 bc d0 07 23 bd ec d0 9b 3a 51 77 8b 3c
       -0.010850372 -0.039802372 0.0011887825 0.017024668
000140 9d 2d af bc 01 06 91 3b 4b 6a d9 3b e8 4a ad 3a
       -0.021384055 0.0044257645 0.0066349856 0.0013221176
000150 3b 0c 0c 3c 72 34 01 3c 25 0c e5 bc 0a 65 ab bc
       0.008547838 0.007886039 -0.027959893 -0.020922203
000160 dd b5 c0 bc e3 39 4f bc ae fb 97 3c 85 14 db 3c
       -0.02352422 -0.012648079 0.018552627 0.026743183
000170 d4 5a 40 3d 30 63 43 bc f9 cc 24 bd 35 19 2b bc
       0.04696162 -0.011925504 -0.04023454 -0.010443022
000180 85 70 c0 3b 9d 1f 74 3c bb 28 8f bc be 6c 5f 3c
       0.0058727884 0.014900115 -0.017475476 0.013636766
000190 af 77 89 3c 1c ca 36 3b 6a 4d a7 3c ec 69 b6 3b
       0.016780702 0.0027891463 0.020422656 0.005566826
0001a0 cc 16 64 bc 56 7e 0f bd b9 17 34 3b 08 dd 92 3c
       -0.013921451 -0.035032593 0.002747996 0.017927662
0001b0 0c af be bc 3f 81 bf 3b 66 fc 40 3c 1c 99 a6 bc
       -0.023276828 0.0058442648 0.0117789265 -0.02033668
0001c0 f8 83 3a 3c e6 11 3a 3c 6f bc 0f 3b fd 75 ca 3c
       0.011384003 0.011356806 0.0021932384 0.024714464
0001d0 ac ec 1c 3c 43 9b 84 bc 4c 6b ca bb 3a f9 34 bc
       0.009577911 -0.016187316 -0.0061773416 -0.011045748
0001e0 a3 e0 1b 3c 23 93 81 3c a6 83 84 bc 16 4b c5 bc
       0.009514007 0.01581723 -0.016176056 -0.024083655
0001f0 0b 78 09 bc 5e d5 53 bb 63 3e 11 bd fc e9 05 3b
       -0.008390437 -0.0032323222 -0.035459887 0.0020433655
000200 92 e0 e4 3c 0b 0f 03 3c 22 79 ad 3b 74 29 6e 3c
       0.027939115 0.007999192 0.005293981 0.01453625
000210 12 ca b1 bb cb 9c 03 bd fa 63 ee 3c e9 62 18 3d
       -0.0054257 -0.03213195 0.029100407 0.037203703
000220 46 2b aa 3c 47 9c 50 3c 19 bc 15 bc ce 84 bd 3c
       0.020772588 0.012732572 -0.009139084 0.023134615
000230 db 3c 0c bc 56 dd c5 3c ff 73 24 3c ab 58 b3 3c
       -0.008559431 0.024153393 0.010037421 0.021892866
000240 9d 26 f4 b9 8f f9 21 3c 21 68 3a bd c8 7a 92 3c
       -0.00046568076 0.00988616 -0.04550946 0.017880812
000250 01 5a af bc fb 0a 2e 3c 06 cc 2a bc 4b f5 1c bc
       -0.021405222 0.010622735 -0.01042462 -0.009579967
000260 94 8f e3 bb 23 19 15 bc a3 48 5d bb 6c e1 cc 3c
       -0.006944606 -0.009100231 -0.0033765219 0.025009833
000270 47 b9 0a 3b 50 40 85 3b 65 a3 39 3c eb 03 61 bb
       0.0021167563 0.0040665045 0.01133046 -0.003433461
000280 af 23 bc 3b f0 6d 00 bd 30 5a 80 bc e9 67 cd 3c
       0.0057415585 -0.031354845 -0.015668005 0.025073962
000290 4e 99 28 bb 48 1c af 3c ac b2 45 bc 98 a8 10 ba
       -0.0025726142 0.02137579 -0.0120665245 -0.00055182865
0002a0 5d 4a 84 bb 8f cd f4 bc de 4a 2e 3c 88 54 cc bc
       -0.004037185 -0.029883174 0.010637967 -0.024942651
0002b0 83 48 41 bd 43 ad 98 bc 77 8e 13 3c ed 9f f9 bc
       -0.047188293 -0.018637305 0.009006134 -0.030471766
0002c0 2b e9 0b 3c 04 9c ac 3c a0 7f 07 bd c7 0a f5 3b
       0.008539478 0.021070488 -0.033080697 0.0074780914
0002d0 e6 8c aa 3c a9 0e 2d 3c 27 09 cd 3a d9 c5 df 3c
       0.020819139 0.010562577 0.0015642986 0.02731602
0002e0 b7 61 2c 3c 12 09 87 3c f2 4a 58 3b 73 41 2a 3c
       0.010521344 0.016483817 0.0033003655 0.010391581
0002f0 be da b2 bc 54 1b a7 bb 92 a1 5b 3b a0 34 57 bc
       -0.02183282 -0.0050996933 0.0033513051 -0.013135105
000300 ff 38 d2 bc 2a 26 ec bc 96 a1 20 bc 07 ed ae 3a
       -0.025661943 -0.028826792 -0.00980415 0.0013345786
000310 59 2c 87 bc 21 4f 66 3c c7 c1 10 3c 59 a1 bb 3c
       -0.016500639 0.014056952 0.008835263 0.022904085
000320 d8 d6 9c bc a6 fb 4f 3c 4b f4 83 bb d8 dd 69 bb
       -0.019145414 0.012694275 -0.0040269247 -0.0035685208
000330 e4 1e 5f bc 4f d0 4b bc f9 bc 79 3c 45 a3 28 3c
       -0.013618205 -0.012439801 0.0152428085 0.010292833
000340 e1 bc b8 bb 84 36 9f bb 91 04 5a bc 54 ca 07 bc
       -0.0056377505 -0.0048587937 -0.013306753 -0.008287985
000350 ab 1c fe bc 83 d0 06 bc 9b d6 55 3c 8d 2b 0e bd
       -0.03101953 -0.008228424 0.013051654 -0.034709502
000360 ec cb 58 bc d7 2f 91 3c 27 f5 29 ba 40 e9 37 3c
       -0.0132322125 0.017723007 -0.0006483369 0.011225045
000370 5e 2a 12 3b 6e 8e a9 3a 25 96 01 bb cd de 64 bc
       0.0022303085 0.0012936124 -0.001977333 -0.0139691355
000380 1c 7f fd bc fc 33 8c bc 78 e8 d3 3b ad f4 9a bc
       -0.0309444 -0.017114632 0.0064669214 -0.018915499
000390 83 40 05 3c 64 2a 55 3c 85 8d 5b 3c 49 f5 34 3c
       0.008133057 0.013010595 0.01340044 0.011044809
0003a0 00 3f ed bb d7 f5 14 3c f2 00 58 bc 8f bd e4 bc
       -0.007240176 0.009091816 -0.013183819 -0.02792242
0003b0 8b f7 a7 bc 18 a1 73 b9 90 43 a0 3c 70 10 00 3d
       -0.02050378 -0.00023234298 0.019563466 0.031265676
0003c0 4d 69 16 bd cb 4e 11 bc 6c 39 00 3c 15 97 e2 bc
       -0.036721516 -0.008868883 0.00782619 -0.027659932
0003d0 d8 3f 0e bd 60 c4 84 bc 42 76 ca 3a a9 26 0e 3d
       -0.034728855 -0.01620692 0.001544662 0.034704838
0003e0 33 d7 af 3c 3e ea ff 3a 2a f1 ff 3c 94 8a 5d bb
       0.02146492 0.0019524766 0.031242926 -0.0033804523
0003f0 4c a5 35 3c a8 47 91 bb d1 df 81 bb 3c 18 fb 3c
       0.011086773 -0.004433591 -0.0039634486 0.030651204

action_model._continuous_distribution.mu.bias f4 [2]
000000 eb 65 17 38 21 8e ab ba
       3.6096124e-05 -0.0013088622

exp_avg f4 [128, 177]
000000 00 00 00 00 51 6f 5e b6 00 00 00 00 34 ef c9 b1
       0.0 -3.3145373e-06 0.0 -5.877064e-09
000010 d8 a1 c2 b4 92 a4 5b b4 00 00 00 00 ef 1b 4f b6
       -3.6253073e-07 -2.0455835e-07 0.0 -3.0861663e-06
000020 00 00 00 00 42 e3 18 34 48 66 71 34 8b 3b 49 34
       0.0 1.4238779e-07 2.2482084e-07 1.8741245e-07
000030 00 00 00 00 05 c2 64 b6 30 aa 8e ab ab 78 b5 b1
       0.0 -3.4087582e-06 -1.0136943e-12 -5.2815117e-09
000040 27 87 87 32 c9 04 62 34 00 00 00 00 06 5d 4f b6
       1.5777529e-08 2.1049631e-07 0.0 -3.089955e-06
000050 00 00 00 00 a8 d7 2d b2 d7 96 1a 34 f6 c8 d2 33
       0.0 -1.011896e-08 1.4397243e-07 9.8154416e-08
000060 00 00 00 00 f6 66 6e b6 39 1e 12 ae 14 60 59 b1
       0.0 -3.5524695e-06 -3.32234e-11 -3.163227e-09
000070 57 60 df b0 2b 22 5a 34 00 00 00 00 be 89 6d b6
       -1.6252767e-09 2.0315262e-07 0.0 -3.5395929e-06
000080 00 00 00 00 1d 1d 88 b2 26 8a f1 34 86 5f 68 b4
       0.0 -1.5845723e-08 4.4990264e-07 -2.1641435e-07
000090 00 00 00 00 ce de 51 b6 00 00 00 00 64 91 24 b1
       0.0 -3.1273116e-06 0.0 -2.3947786e-09
0000a0 b5 0c 02 af b2 dc 46 34 00 00 00 00 2c 6d 45 b6
       -1.1827946e-10 1.8520475e-07 0.0 -2.9418834e-06
0000b0 00 00 00 00 82 08 da b0 00 00 00 00 af da 2a 34
       0.0 -1.5864006e-09 0.0 1.591204e-07
0000c0 00 00 00 00 fd c2 44 b6 eb b8 a2 2e ed 9e a3 30
       0.0 -2.9319774e-06 7.399755e-11 1.190498e-09
0000d0 00 00 00 00 1e fb 2d 34 00 00 00 00 06 2a 44 b6
       0.0 1.6203236e-07 0.0 -2.9230737e-06
0000e0 00 00 00 00 4d 60 00 31 00 00 00 00 8c d7 31 34
       0.0 1.8681192e-09 0.0 1.6562825e-07
0000f0 00 00 00 00 7a f5 44 b6 00 00 00 00 d2 b8 4a 30
       0.0 -2.9349162e-06 0.0 7.374982e-10
000100 00 00 00 00 b5 65 40 34 00 00 00 00 1b 14 44 b6
       0.0 1.7918394e-07 0.0 -2.9217979e-06
000110 00 00 00 00 27 6e 39 30 00 00 00 00 6a 4e 45 34
       0.0 6.7459144e-10 0.0 1.8375582e-07
000120 00 00 00 00 02 1f 45 b6 00 00 00 00 17 be 5b 30
       0.0 -2.9373336e-06 0.0 7.994187e-10
000130 00 00 00 00 82 2a 4d 34 00 00 00 00 41 e4 44 b6
       0.0 1.9107577e-07 0.0 -2.9339137e-06
000140 00 00 00 00 81 27 fa b0 00 00 00 00 5a 3f 6c 34
       0.0 -1.8201122e-09 0.0 2.200226e-07
000150 00 00 00 00 e0 61 4d 32 00 00 00 00 98 02 6b 30
       0.0 1.1954825e-08 0.0 8.549619e-10
000160 a0 ce 44 b6 2a 1a 52 b6 00 00 00 00 87 7b 57 b6
       -2.9326548e-06 -3.1307668e-06 0.0 -3.21094e-06
000170 00 00 00 00 50 22 6b 33 ee 65 f1 33 fc 06 34 b4
       0.0 5.474641e-08 1.1240978e-07 -1.6766347e-07
000180 00 00 00 00 9e 0c 42 34 00 00 00 00 8c 8b d4 b2
       0.0 1.8072248e-07 0.0 -2.4743507e-08
000190 d0 d0 1e b6 1f 15 2d b6 00 00 00 00 15 65 5f b6
       -2.366538e-06 -2.5791303e-06 0.0 -3.3288427e-06
0001a0 00 00 00 00 99 bc 37 b3 88 34 b1 33 40 e7 e6 33
       0.0 -4.2779536e-08 8.25176e-08 1.0752274e-07
0001b0 00 00 00 00 14 43 62 33 00 00 00 00 ad 68 1e 33
       0.0 5.2680733e-08 0.0 3.6882444e-08
0001c0 fb c5 04 b6 7e 47 22 b6 00 00 00 00 76 04 59 b6
       -1.9784773e-06 -2.4181495e-06 0.0 -3.2338116e-06
0001d0 90 d0 da ab b4 d2 6f 31 5b 05 85 b1 a9 01 c0 33
       -1.5547719e-12 3.4898848e-09 -3.8714183e-09 8.940999e-08
0001e0 00 00 00 00 40 c7 81 35 00 00 00 00 28 10 21 b4
       0.0 9.669238e-07 0.0 -1.5000171e-07
0001f0 e8 f2 6c b6 18 df 50 b6 00 00 00 00 d3 d8 a7 34
       -3.530813e-06 -3.1124273e-06 0.0 3.1263934e-07
000200 00 00 00 00 23 f6 35 b2 00 00 00 00 76 7e ba b5
       0.0 -1.0591552e-08 0.0 -1.3894885e-06
000210 00 00 00 00 80 48 0f b6 00 00 00 00 4a 96 da b3
       0.0 -2.135086e-06 0.0 -1.01787535e-07
000220 00 00 00 00 80 dd fd b5 00 00 00 00 56 f3 15 b6
       0.0 -1.8914434e-06 0.0 -2.234437e-06
000230 cf f2 eb 2d 6e 20 b6 32 00 00 00 00 d8 c8 74 b5
       2.6824236e-11 2.1202336e-08 0.0 -9.118935e-07
000240 00 00 00 00 2e d4 03 b6 00 00 00 00 56 b6 2c b4
       0.0 -1.9644026e-06 0.0 -1.6085082e-07
000250 00 00 00 00 da 2d 07 b6 00 00 00 00 44 36 18 b6
       0.0 -2.0143257e-06 0.0 -2.2681352e-06
000260 00 00 00 00 f1 36 8f b0 00 00 00 00 bb 74 39 b5
       0.0 -1.0420235e-09 0.0 -6.9087736e-07
000270 00 00 00 00 0f 3c b5 34 00 00 00 00 c3 80 8a 34
       0.0 3.3757576e-07 0.0 2.579819e-07
000280 ac e8 37 b6 c0 e1 44 b6 00 00 00 00 b3 2c 1b b6
       -2.7404558e-06 -2.933768e-06 0.0 -2.3122818e-06
000290 00 00 00 00 cd ec 8d 32 8f 69 36 b4 22 42 0f b5
       0.0 1.6522245e-08 -1.6988473e-07 -5.336789e-07
0002a0 fc 49 89 b8 55 dd 60 b7 00 00 00 00 cd cf 8e b8
       -6.54645e-05 -1.3402973e-05 0.0 -6.8097936e-05
0002b0 a2 46 2f b8 00 00 00 00 27 cd 10 b9 66 4f 2f b8
       -4.1789033e-05 0.0 -0.00013809335 -4.1797197e-05
0002c0 00 00 00 00 00 00 00 00 0e da c3 b6 00 00 00 00
       0.0 0.0 -5.8368378e-06 0.0
0002d0 db c2 88 33 65 c9 9c b5 3a 57 a4 b5 00 00 00 00
       6.3684375e-08 -1.1681519e-06 -1.2244338e-06 0.0
0002e0 cb 78 bc b6 00 00 00 00 a4 8f ac 35 d0 7a 5e b6
       -5.6168988e-06 0.0 1.2856804e-06 -3.3152064e-06
0002f0 39 88 f7 b5 00 00 00 00 60 b4 d2 34 90 a7 c8 31
       -1.844258e-06 0.0 3.9246788e-07 5.8398157e-09
000300 1c 66 05 b3 b6 1a fa b4 32 6c 84 b5 00 00 00 00
       -3.1059344e-08 -4.6585563e-07 -9.866255e-07 0.0
000310 51 92 7b b6 00 00 00 00 1e c7 91 34 06 cd c2 35
       -3.7487082e-06 0.0 2.7153231e-07 1.4513796e-06
000320 92 83 7d b5 00 00 00 00 20 bc c5 b6 ee db ac 26
       -9.4441305e-07 0.0 -5.892958e-06 1.199451e-15
000330 c4 86 3e 33 32 87 12 b3 18 91 a8 b5 00 00 00 00
       4.436039e-08 -3.4116233e-08 -1.2559203e-06 0.0
000340 26 9c 9f b6 00 00 00 00 10 3e 94 34 08 ab 57 32
       -4.7567473e-06 0.0 2.7612305e-07 1.2553535e-08
000350 96 e4 3e b5 00 00 00 00 dc 8a 25 36 00 00 00 00
       -7.111315e-07 0.0 2.4667743e-06 0.0
000360 2c e5 af b3 f9 83 2b b2 ff a7 8f b5 00 00 00 00
       -8.190759e-08 -9.983517e-09 -1.0703224e-06 0.0
000370 10 09 47 b7 00 00 00 00 ca 3c 70 33 00 00 00 00
       -1.1863434e-05 0.0 5.5934642e-08 0.0
000380 76 cd 48 b5 00 00 00 00 ac 21 46 b7 00 0d 73 a8
       -7.480479e-07 0.0 -1.18095595e-05 -1.3492029e-14
000390 07 9d 36 ab 00 00 00 00 a6 f8 48 b5 00 00 00 00
       -6.487731e-13 0.0 -7.4867637e-07 0.0
0003a0 24 76 46 b7 00 00 00 00 e6 d3 bb 32 00 00 00 00
       -1.1829226e-05 0.0 2.1866025e-08 0.0
0003b0 21 cb 49 b5 00 00 00 00 80 f6 45 b7 00 00 00 00
       -7.5173926e-07 0.0 -1.1799508e-05 0.0
0003c0 f1 9f 64 30 00 00 00 00 34 b7 5c b5 00 00 00 00
       8.3173207e-10 0.0 -8.222298e-07 0.0
0003d0 21 b5 45 b7 00 00 00 00 51 b1 d2 b2 00 00 00 00
       -1.1784287e-05 0.0 -2.4527852e-08 0.0
0003e0 18 ed 58 b5 00 00 00 00 55 bb 45 b7 00 00 00 00
       -8.081129e-07 0.0 -1.1785732e-05 0.0
0003f0 0a ec b2 b2 00 00 00 00 03 d1 83 b5 00 00 00 00
       -2.0829265e-08 0.0 -9.821091e-07 0.0

exp_avg_sq f4 [128, 177]
000000 00 00 00 00 4f fd 89 2d 00 00 00 00 84 02 92 27
       0.0 1.5687588e-11 0.0 4.0525868e-15
000010 1b 7c c6 29 22 80 d0 2b 00 00 00 00 f1 15 84 2d
       8.814495e-14 1.4814853e-12 0.0 1.5016407e-11
000020 00 00 00 00 6e 07 d5 29 68 5e b5 29 a5 0c e0 2b
       0.0 9.460389e-14 8.0543916e-14 1.5919667e-12
000030 00 00 00 00 22 f4 89 2d 16 a8 25 1d 10 c4 83 27
       0.0 1.5683514e-11 2.1924467e-21 3.6572375e-15
000040 2f 14 52 27 9b af 2a 2b 00 00 00 00 e6 09 86 2d
       2.9154296e-15 6.0639834e-13 0.0 1.5238432e-11
000050 00 00 00 00 b4 39 33 28 81 29 73 2a 3a 03 05 2c
       0.0 9.9490084e-15 2.1597135e-13 1.8902228e-12
000060 00 00 00 00 a5 f1 8a 2d 8b 81 87 1c 03 66 7d 27
       0.0 1.5796095e-11 8.967037e-22 3.5166104e-15
000070 46 ae af 26 b1 26 e5 2a 00 00 00 00 a9 14 91 2d
       1.2190301e-15 4.070542e-13 0.0 1.6493766e-11
000080 00 00 00 00 45 ac 72 27 c9 2e 38 2b 9b c9 14 2c
       0.0 3.3677634e-15 6.543486e-13 2.1143978e-12
000090 00 00 00 00 48 27 99 2d 00 00 00 00 78 c0 4f 27
       0.0 1.741153e-11 0.0 2.8831358e-15
0000a0 ec 1a cd 20 fa 79 89 2a 00 00 00 00 b8 f7 9f 2d
       3.4746166e-19 2.4420727e-13 0.0 1.8186216e-11
0000b0 00 00 00 00 e6 1d bd 25 00 00 00 00 92 ec ae 29
       0.0 3.2806534e-16 0.0 7.7681907e-14
0000c0 00 00 00 00 f4 e3 9f 2d 15 63 81 21 ab 25 5a 25
       0.0 1.8177439e-11 8.767607e-19 1.8921248e-16
0000d0 00 00 00 00 9c 6f bb 29 00 00 00 00 69 ba 9f 2d
       0.0 8.3238294e-14 0.0 1.815899e-11
0000e0 00 00 00 00 a9 81 9b 25 00 00 00 00 7b 47 bb 29
       0.0 2.6976075e-16 0.0 8.316868e-14
0000f0 00 00 00 00 34 11 9f 2d 00 00 00 00 86 f8 00 26
       0.0 1.8083847e-11 0.0 4.4745733e-16
000100 00 00 00 00 1a 29 ea 29 00 00 00 00 cf 90 9f 2d
       0.0 1.03988175e-13 0.0 1.8140515e-11
000110 00 00 00 00 de a3 3e 26 00 00 00 00 4c 25 e6 29
       0.0 6.6141574e-16 0.0 1.0220522e-13
000120 00 00 00 00 5f c0 9e 2d 00 00 00 00 13 3e 8a 26
       0.0 1.804795e-11 0.0 9.592499e-16
000130 00 00 00 00 ea 8c 27 2a 00 00 00 00 98 4b 9f 2d
       0.0 1.4881469e-13 0.0 1.8109778e-11
000140 00 00 00 00 5d 2e 82 26 00 00 00 00 5f 51 25 2a
       0.0 9.033129e-16 0.0 1.4683175e-13
000150 00 00 00 00 e5 14 fe 2b 00 00 00 00 e5 46 6c 27
       0.0 1.8053585e-12 0.0 3.2790011e-15
000160 c6 a8 58 2d 1f a8 80 2d 00 00 00 00 50 43 97 2d
       1.2315654e-11 1.4626576e-11 0.0 1.7196605e-11
000170 00 00 00 00 ca 20 9c 26 8b ec bc 27 9a ce 5d 2b
       0.0 1.0833562e-15 5.2436943e-15 7.880169e-13
000180 00 00 00 00 7e 5a 03 2c 00 00 00 00 ae e6 81 28
       0.0 1.8666453e-12 0.0 1.4421918e-14
000190 ca 61 59 2d 54 ea 81 2d 00 00 00 00 49 f0 96 2d
       1.2356735e-11 1.4769665e-11 0.0 1.7159734e-11
0001a0 00 00 00 00 33 3f d8 26 23 2c 7c 28 8b da f8 2a
       0.0 1.5005141e-15 1.3998381e-14 4.4205294e-13
0001b0 00 00 00 00 3e 84 f5 2b 00 00 00 00 33 2c be 2a
       0.0 1.7445002e-12 0.0 3.378145e-13
0001c0 52 d4 47 2d ab 12 71 2d 00 00 00 00 79 6d 92 2d
       1.1358985e-11 1.3703409e-11 0.0 1.6646894e-11
0001d0 71 5e 00 1f b7 0f 04 26 09 1e 07 27 73 c0 91 2a
       2.7183174e-20 4.5817997e-16 1.8751296e-15 2.5890713e-13
0001e0 00 00 00 00 0f d4 bf 2b 00 00 00 00 64 43 a0 2b
       0.0 1.3630224e-12 0.0 1.1387388e-12
0001f0 70 06 28 2d 14 55 58 2d 00 00 00 00 aa 9c 0c 2d
       9.551124e-12 1.229707e-11 0.0 7.992865e-12
000200 00 00 00 00 0f 39 50 27 00 00 00 00 f1 44 e0 2c
       0.0 2.889673e-15 0.0 6.374117e-12
000210 00 00 00 00 41 05 92 2d 00 00 00 00 e5 45 f0 27
       0.0 1.6600612e-11 0.0 6.668916e-15
000220 00 00 00 00 9f 8d 17 2d 00 00 00 00 96 60 9a 2d
       0.0 8.6148024e-12 0.0 1.7550666e-11
000230 10 7d b1 1f ad 12 02 29 00 00 00 00 51 ef 4e 2c
       7.5169314e-20 2.8881997e-14 0.0 2.9407208e-12
000240 00 00 00 00 0b 22 93 2d 00 00 00 00 73 fa b5 28
       0.0 1.6727083e-11 0.0 2.0203652e-14
000250 00 00 00 00 f1 53 3a 2d 00 00 00 00 fb 31 96 2d
       0.0 1.0591515e-11 0.0 1.7075221e-11
000260 00 00 00 00 31 34 0b 27 00 00 00 00 ae 04 16 2c
       0.0 1.9318418e-15 0.0 2.131888e-12
000270 00 00 00 00 a8 aa 12 2c 00 00 00 00 1f 5b 91 2a
       0.0 2.0842581e-12 0.0 2.5820402e-13
000280 25 08 5c 2d 05 2a 84 2d 00 00 00 00 f9 ea 92 2d
       1.2507361e-11 1.5025323e-11 0.0 1.6702627e-11
000290 00 00 00 00 99 27 b4 26 54 77 52 2b 40 46 1e 2c
       0.0 1.2500742e-15 7.477259e-13 2.2492147e-12
0002a0 6a bb 0a 32 b9 c0 07 31 00 00 00 00 ee 5f 1b 32
       8.07527e-09 1.9754636e-09 0.0 9.043999e-09
0002b0 36 04 29 31 00 00 00 00 6f 07 d9 32 93 dd 8a 31
       2.459513e-09 0.0 2.5265505e-08 4.0415187e-09
0002c0 00 00 00 00 00 00 00 00 84 1a 6f 30 00 00 00 00
       0.0 0.0 8.6985374e-10 0.0
0002d0 21 58 dc 2a 88 85 97 2d f1 4f 6a 2f 00 00 00 00
       3.9141002e-13 1.7226012e-11 2.1310577e-10 0.0
0002e0 e6 86 86 30 00 00 00 00 a6 93 d7 2c e2 72 2b 2e
       9.788124e-10 0.0 6.12706e-12 3.8982935e-11
0002f0 67 25 87 2f 00 00 00 00 2a f9 a6 30 58 75 61 27
       2.4582933e-10 0.0 1.2148906e-09 3.1288635e-15
000300 dd 05 18 2a 8a 61 0e 2b ca 77 3d 2d 00 00 00 00
       1.3502346e-13 5.0583897e-13 1.0770005e-11 0.0
000310 c8 3f 85 30 00 00 00 00 ef 5e f9 2d 30 c3 5a 2e
       9.695151e-10 0.0 2.8350182e-11 4.9740823e-11
000320 e1 e7 99 2f 00 00 00 00 13 45 d0 30 92 ba a1 0d
       2.7995298e-10 0.0 1.5153624e-09 9.967306e-31
000330 38 7f 22 2a 6d a0 01 2a e6 e3 a9 2c 00 00 00 00
       1.4432628e-13 1.151316e-13 4.8285707e-12 0.0
000340 d0 45 27 30 00 00 00 00 02 8a 3a 2c 2d ac 72 2f
       6.0853456e-10 0.0 2.65088e-12 2.2070941e-10
000350 71 6f c1 2f 00 00 00 00 58 0e d5 30 00 00 00 00
       3.518568e-10 0.0 1.5501866e-09 0.0
000360 8a de 51 2a fe 09 6c 28 0f c0 46 2c 00 00 00 00
       1.8640138e-13 1.3102798e-14 2.8244106e-12 0.0
000370 36 1f e3 30 00 00 00 00 20 2f c9 2a 00 00 00 00
       1.6525294e-09 0.0 3.5737472e-13 0.0
000380 37 6e 00 2b 00 00 00 00 bf 49 e2 30 4d 12 f6 14
       4.562769e-13 0.0 1.6464624e-09 2.484687e-26
000390 32 bb cf 1b 00 00 00 00 97 2d 01 2b 00 00 00 00
       3.436625e-22 0.0 4.5893275e-13 0.0
0003a0 d1 39 e3 30 00 00 00 00 08 58 80 2a 00 00 00 00
       1.6532856e-09 0.0 2.2798451e-13 0.0
0003b0 8e 81 08 2b 00 00 00 00 dc a9 e2 30 00 00 00 00
       4.84967e-13 0.0 1.6491941e-09 0.0
0003c0 bf ad 0e 26 00 00 00 00 44 ec 1a 2b 00 00 00 00
       4.9501617e-16 0.0 5.5039675e-13 0.0
0003d0 05 f5 e1 30 00 00 00 00 19 2a c3 2a 00 00 00 00
       1.6440543e-09 0.0 3.466817e-13 0.0
0003e0 66 8c 21 2b 00 00 00 00 4d 6e e1 30 00 00 00 00
       5.739353e-13 0.0 1.6402254e-09 0.0
0003f0 02 99 d6 29 00 00 00 00 ad be 51 2b 00 00 00 00
       9.530052e-14 0.0 7.451633e-13 0.0

exp_avg f4 [128]
000000 05 b8 46 b6 74 1e 46 b7 f4 25 33 35 b4 42 2a b8
       -2.9611413e-06 -1.180881e-05 6.6737925e-07 -4.059328e-05
000010 42 b1 25 b7 b5 2f 73 b7 d2 f8 a9 36 0c 1f 75 b7
       -9.876037e-06 -1.4495036e-05 5.065559e-06 -1.4610367e-05
000020 08 5d 2c 37 da eb 9e 36 6c bd da b7 0c 21 a5 b7
       1.0273659e-05 4.7362237e-06 -2.6075832e-05 -1.9684921e-05
000030 52 ff 78 b8 b3 50 9f 38 88 3d 48 b8 bf ce c0 b7
       -5.9365593e-05 7.596742e-05 -4.774102e-05 -2.2984457e-05
000040 d8 1d 51 b5 3a cb c6 37 e3 b7 87 37 7c 66 a4 b8
       -7.7901996e-07 2.3698074e-05 1.6178883e-05 -7.8392186e-05
000050 fb 3b a6 b6 41 67 79 36 5e 22 a2 b6 00 03 09 37
       -4.954168e-06 3.7163993e-06 -4.831977e-06 8.166535e-06
000060 14 8a ad b7 57 28 d1 b7 ac 83 99 34 e1 36 0f b6
       -2.0687505e-05 -2.4933526e-05 2.8594275e-07 -2.1340604e-06
000070 a1 97 28 b8 0d 41 02 38 9d d9 12 b8 b9 44 96 b7
       -4.0195537e-05 3.1055e-05 -3.501178e-05 -1.7913395e-05
000080 ab 21 9c 38 ad f9 12 38 dc 73 f4 b6 5f 0b 49 b7
       7.444931e-05 3.504164e-05 -7.2852545e-06 -1.1983181e-05
000090 a1 75 ec b6 54 4e fa 36 92 ed fa b7 8a 76 69 36
       -7.047042e-06 7.459699e-06 -2.991295e-05 3.4788704e-06
0000a0 f6 df 27 b8 d8 6c d7 b7 df 9b fa b7 75 88 27 b6
       -4.0024483e-05 -2.5680682e-05 -2.9874906e-05 -2.4964368e-06
0000b0 f2 37 3e b7 5e 1c 7b 37 46 db e5 36 82 05 89 36
       -1.1337908e-05 1.4967371e-05 6.8502586e-06 4.0835594e-06
0000c0 05 81 d5 36 1b 35 90 b7 5e a8 44 37 68 01 d7 b8
       6.3629145e-06 -1.7190867e-05 1.1721711e-05 -0.00010252261
0000d0 2d 93 30 b5 8a e4 f1 34 4c 52 55 b5 7b 9a c6 b6
       -6.577928e-07 4.5056032e-07 -7.946844e-07 -5.9188437e-06
0000e0 ed dc 12 38 59 7f 3c 37 b8 68 ce b5 e2 61 5c b6
       3.5014866e-05 1.1235324e-05 -1.5378673e-06 -3.283953e-06
0000f0 e6 99 ac b7 29 5d da 35 d7 a7 bc b7 4e 86 92 38
       -2.0575662e-05 1.6269379e-06 -2.2489503e-05 6.986839e-05
000100 56 81 df 34 75 dd a2 37 81 6b bb 37 bf 93 6d b7
       4.163109e-07 1.9415029e-05 2.2342198e-05 -1.4160701e-05
000110 d0 9e e7 34 0e fe 0e b8 5b d4 a5 38 af d8 c7 37
       4.3142654e-07 -3.4092045e-05 7.9073674e-05 2.382355e-05
000120 4a ab 6e b6 74 59 e8 b5 70 de 9c 37 17 85 8b b7
       -3.5564467e-06 -1.7311381e-06 1.870023e-05 -1.6632066e-05
000130 64 cd 04 38 17 8c 29 b8 49 ff 77 38 3e 0c 05 b8
       3.1662537e-05 -4.042321e-05 5.9127142e-05 -3.1721072e-05
000140 e6 33 f4 b7 a4 68 c2 b6 dc 65 d2 37 14 f5 35 36
       -2.9111234e-05 -5.7938323e-06 2.5081383e-05 2.7113756e-06
000150 02 c0 db 37 fb 00 25 b6 c8 ed 95 b7 5c 74 53 b8
       2.6196245e-05 -2.4587487e-06 -1.787291e-05 -5.041469e-05
000160 1c 60 79 b7 43 0e 54 38 8a 6c a4 37 1c e8 85 b7
       -1.4863934e-05 5.055802e-05 1.9600866e-05 -1.596292e-05
000170 be d8 54 b7 be 84 0e b8 2a 3e 42 b8 58 e8 8c b7
       -1.2686649e-05 -3.3979064e-05 -4.63111e-05 -1.6797494e-05
000180 83 d4 52 b8 b4 e8 97 34 44 94 a1 b8 0c 34 8c b8
       -5.026582e-05 2.8295256e-07 -7.704695e-05 -6.685415e-05
000190 ac 80 b6 b6 9a 87 89 b8 a4 9f 2b 36 3f 96 14 b6
       -5.439002e-06 -6.557927e-05 2.5573909e-06 -2.2141173e-06
0001a0 9a f3 ff b6 3a a3 17 b8 55 13 1c 37 55 5b 78 38
       -7.627951e-06 -3.6153222e-05 9.302826e-06 5.9212867e-05
0001b0 cd cc 93 b6 59 cd e1 37 57 a9 9a 37 a4 1e ff b6
       -4.4047833e-06 2.6917713e-05 1.8437086e-05 -7.6031592e-06
0001c0 5e 82 9c 36 34 04 b7 37 da 0b 03 38 b0 be b6 36
       4.664339e-06 2.1817257e-05 3.124387e-05 5.4462216e-06
0001d0 25 dc 98 b6 26 40 11 38 99 7c 8f b6 23 92 03 38
       -4.555581e-06 3.4630437e-05 -4.276237e-06 3.1368934e-05
0001e0 30 66 d9 b4 fb e0 8e b4 0a f4 31 b8 b0 b1 aa 37
       -4.049375e-07 -2.6613256e-07 -4.2427368e-05 2.0348321e-05
0001f0 14 ba 15 35 1e de 64 b8 a0 3f f7 33 ec 7f 01 b8
       5.5777605e-07 -5.45663e-05 1.1513407e-07 -3.0875133e-05

exp_avg_sq f4 [128]
000000 e6 d2 9f 2d c2 51 e2 30 01 fa a6 2e fe 20 f4 30
       1.8169865e-11 1.6466901e-09 7.5932156e-11 1.7762714e-09
000010 dc 8f 5c 30 08 62 52 30 2d 17 09 2f 4b 35 b9 2f
       8.023997e-10 7.6536866e-10 1.2468311e-10 3.368917e-10
000020 40 1f b2 2f 1b 1a 75 2d e3 5a 23 31 1e 30 0f 31
       3.2400216e-10 1.3932434e-11 2.3771285e-09 2.083659e-09
000030 70 17 43 32 8d 92 91 32 e1 82 6a 31 12 a9 18 31
       1.1355823e-08 1.6946865e-08 3.4125878e-09 2.2215016e-09
000040 72 35 2b 2e e0 06 62 30 ef c9 5a 31 23 8f 1b 32
       3.8928367e-11 8.222809e-10 3.1837961e-09 9.054733e-09
000050 91 1b 2f 32 9c 31 71 2f ca e5 9d 2f 72 3e a3 30
       1.01926085e-08 2.1936447e-10 2.8721409e-10 1.1877559e-09
000060 57 85 d2 31 97 b9 58 31 98 d1 dd 2d 4a 3e 92 2f
       6.1269634e-09 3.1537633e-09 2.521787e-11 2.6601504e-10
000070 9e af d7 31 da 81 5d 31 a9 da 05 32 a6 ce e8 2f
       6.277289e-09 3.2233545e-09 7.7913365e-09 4.2347387e-10
000080 e3 10 30 31 2e dc d9 30 d4 72 80 2e 3b f0 9a 30
       2.562097e-09 1.5851407e-09 5.841164e-11 1.1273252e-09
000090 d8 23 12 30 5b a5 78 30 9e 7d 72 30 21 c9 81 2f
       5.316543e-10 9.045686e-10 8.82176e-10 2.3607874e-10
0000a0 ae 5a 26 31 72 8b 07 30 1c db 2e 31 2c 84 8b 2f
       2.4207725e-09 4.931088e-10 2.5444882e-09 2.5377866e-10
0000b0 74 2f 12 31 62 a2 1b 31 6b 04 ad 30 d8 48 b3 30
       2.127277e-09 2.2647773e-09 1.2588662e-09 1.3044668e-09
0000c0 5f 0a 26 2e bd 06 c3 31 c0 b9 2e 30 7b aa 43 32
       3.775324e-11 5.676013e-09 6.35648e-10 1.1389257e-08
0000d0 5e 53 b5 2e 1a c4 99 2f 09 4d 88 30 7b 6c 80 30
       8.245736e-11 2.7969876e-10 9.917197e-10 9.344058e-10
0000e0 80 b0 2e 31 3b 53 6c 31 ab 71 2f 30 eb 12 c4 30
       2.5420661e-09 3.438983e-09 6.382616e-10 1.4266254e-09
0000f0 df ea 01 32 e3 86 8e 2e 03 8e 56 31 ce c1 8a 31
       7.562192e-09 6.481373e-11 3.1221823e-09 4.0383616e-09
000100 27 d2 40 2c bb d2 4a 30 4c 9c 41 31 53 b7 05 31
       2.74015e-12 7.378664e-10 2.817404e-09 1.9458255e-09
000110 b4 30 32 30 bf b4 8d 31 93 2b 39 32 84 8e b7 30
       6.4825234e-10 4.1241885e-09 1.0778325e-08 1.3355508e-09
000120 2a 40 3a 2d 44 53 1c 30 bd f8 a0 30 4e 28 0f 32
       1.0587123e-11 5.6870797e-10 1.1712228e-09 8.33286e-09
000130 7b 77 13 31 0a c5 48 32 5a 17 fc 31 31 a4 ac 30
       2.1459232e-09 1.1686334e-08 7.33682e-09 1.2561313e-09
000140 97 5f 96 31 2d 8c e6 2f 65 5e a7 31 77 0e bc 32
       4.376442e-09 4.1936357e-10 4.871071e-09 2.1892658e-08
000150 2b 0c 1a 31 a6 d7 fe 2e 4f 64 03 32 27 24 d5 31
       2.2416866e-09 1.15888896e-10 7.648011e-09 6.203226e-09
000160 ac 91 ec 31 d8 17 54 31 f9 45 ee 30 4a ca ef 2f
       6.885065e-09 3.0863614e-09 1.7336667e-09 4.3617582e-10
000170 2f 64 19 2f a8 0e 9a 30 29 75 d8 30 55 49 d2 30
       1.3950861e-10 1.120914e-09 1.5749367e-09 1.5300353e-09
000180 62 b5 b0 30 dc f3 65 2e 2c 7b f2 31 09 c8 60 32
       1.2857237e-09 5.2285162e-11 7.05713e-09 1.3083999e-08
000190 ec 5e e1 30 a4 c9 18 32 b4 fa 8c 2f ff 4d 13 2f
       1.6397883e-09 8.893412e-09 2.5643987e-10 1.3397282e-10
0001a0 55 d4 fc 30 33 be 90 31 24 10 e4 30 d6 c7 45 31
       1.8395762e-09 4.2125747e-09 1.6593771e-09 2.8780867e-09
0001b0 1c c3 9c 30 bf 29 0c 31 84 18 13 31 6a 4c 80 2f
       1.1405947e-09 2.0396411e-09 2.140525e-09 2.333736e-10
0001c0 90 19 64 31 d5 63 b8 31 98 5a b0 31 11 f6 7c 31
       3.3192897e-09 5.3664544e-09 5.1325735e-09 3.68107e-09
0001d0 78 0b 82 30 fb 18 c6 30 db f6 1c 31 c5 79 92 31
       9.462005e-10 1.4413496e-09 2.2841309e-09 4.263003e-09
0001e0 ca 89 27 32 b8 ab 86 2e 69 c2 b5 30 c7 04 ad 30
       9.752009e-09 6.124118e-11 1.3224738e-09 1.2588764e-09
0001f0 3f 65 8e 2f 81 bc ce 31 1d fc 7a 31 e8 0c 39 30
       2.590159e-10 6.0168195e-09 3.6523098e-09 6.732095e-10
