results/hideandseek_06/Hide/Hide-500557.pt (torch, 881192 bytes, 36 tensors)

network_body._body_endoder.seq_layers.0.weight f4 [128, 149]
0	0xbd0f2168	-0.034943968
1	0xbda37afb	-0.07982441
2	0xbced6a8a	-0.028981466
3	0xbe337d6d	-0.17528315
4	0xbe23e8ae	-0.16006729
5	0xbd8ecbd8	-0.06972474
6	0xbe7f948b	-0.24959008
7	0xbdf6cc02	-0.1205063
8	0x3d8cb615	0.06870667
9	0xbe03b66d	-0.12862559
10	0x3e866e17	0.26255867
11	0xbedfd499	-0.43716887
12	0x3dd2bd87	0.10290056
13	0x3d8227f6	0.06355278
14	0xbd7f18af	-0.0622794
15	0xbdb60034	-0.088867575
16	0xbeb365c7	-0.35038587
17	0xbb97e85c	-0.0046358537
18	0x3c644ee2	0.013934823
19	0xbe50bb30	-0.20383906
20	0x3da56b2e	0.080770835
21	0xbeb39d49	-0.35080937
22	0x3d7655b4	0.060140327
23	0xbc5f8d2b	-0.013644497
24	0xbd973b28	-0.0738433
25	0xbd05c219	-0.03265581
26	0xbec1a952	-0.37824494
27	0xbd402ca6	-0.04691758
28	0xbd08e330	-0.033419788
29	0xbe44205c	-0.19152969
30	0x3d884f0e	0.066557035
31	0xbee8a7e7	-0.454406
32	0xbd9a2b9a	-0.075278476
33	0x3d048160	0.032349944
34	0xbeaec1e5	-0.34132305
35	0x3e27aab2	0.16373709
36	0xbe25f258	-0.16205728
37	0x3c9d2395	0.019182006
38	0x3d96d42f	0.073646896
39	0xbea3653f	-0.31913182
40	0xbe2ca113	-0.1685832
41	0xbe90ddf1	-0.28294328
42	0x3d76b3fa	0.060230233
43	0x3cba05ae	0.022707786
44	0xbe74ba78	-0.23899257
45	0x3e3121c5	0.17298038
46	0xbe8dee0d	-0.2772068
47	0xbda67c49	-0.08129174
48	0x3d721b6b	0.05910818
49	0xbeb29d14	-0.34885466
50	0x3c09cdf1	0.008410917
51	0xbe4e8ea6	-0.20171604
52	0x3e0e47ba	0.13894549
53	0xbe19a200	-0.15003204
54	0xbf009446	-0.5022625
55	0x3e20e5b9	0.15712632
56	0xbea321a4	-0.31861603
57	0x3de89ec9	0.11358411
58	0xbe111345	-0.14167507
59	0xbe892b59	-0.26790884
60	0x3d2abaf2	0.04168219
61	0xbea12fad	-0.31481686
62	0x3d745dff	0.059659954
63	0x3cc56b8d	0.024099136
64	0xbedaffcf	-0.4277329
65	0xbc8813cf	-0.016611008
66	0xbeb2c248	-0.3491385
67	0x3ce64812	0.028110538
68	0xbc817826	-0.015804362
69	0xbe54f7dc	-0.20797676
70	0xbe0e3dd0	-0.13890767
71	0xbe1557d8	-0.14584291
72	0x3e09f30e	0.13471624
73	0xbea6193d	-0.3244113
74	0xbee05db8	-0.43821502
75	0xbd95a338	-0.07306522
76	0xbe92e8d8	-0.2869327
77	0x3de500d6	0.111818
78	0xbe2daad4	-0.16959697
79	0xbe8b61ff	-0.27223203
80	0xbd08b5d1	-0.03337652
81	0xbe7763e0	-0.24159193
82	0xbe1e118c	-0.15436381
83	0x3e3681bf	0.17822932
84	0xbd8a77c6	-0.06761126
85	0x3b0453cf	0.0020191555
86	0xbebc4945	-0.3677465
87	0xbd94eb0c	-0.07271394
88	0x381ac8d3	3.6903493e-05
89	0xbe795c10	-0.24351525
90	0x3d0956fe	0.033530228
91	0xbe41349a	-0.18867722
92	0xbe11be39	-0.1423272
93	0xbe1cebfa	-0.15324393
94	0xbe4ba4ef	-0.19887136
95	0xbd392b31	-0.045207206
96	0xbe0e65f0	-0.13906074
97	0xbe214b8d	-0.15751477
98	0x3dfdb423	0.12387874
99	0xbf131ef7	-0.57469124
100	0xbd9bc7cc	-0.076064676
101	0xbe10fd9a	-0.14159241
102	0xbde453d1	-0.11148799
103	0x3ad9fd01	0.0016631187
104	0xbf049101	-0.5178376
105	0x3e132b8c	0.1437208
106	0xbea74070	-0.3266635
107	0xbd2c2d5d	-0.04203545
108	0x3d8084dd	0.06275342
109	0x3cd8d8cb	0.026470562
110	0xbd53fc8e	-0.051754527
111	0xbe885d2f	-0.26633593
112	0xbdc6634d	-0.09686909
113	0x3d22678b	0.039649528
114	0xbecf8863	-0.40533742
115	0x3d5ee98d	0.05442195
116	0xbe69ef46	-0.22845182
117	0xbaee22b7	-0.0018168305
118	0xbb843c6c	-0.004035523
119	0xbe5e370b	-0.21700685
120	0xbd75e70a	-0.06003479
121	0xbe8e4817	-0.27789375
122	0x3ddf1c8f	0.10894119
123	0x3e01886d	0.12649699
124	0xbeaede17	-0.34153816
125	0xbe0704d5	-0.13185437
126	0xbe8817c3	-0.2658063
127	0xbc62c991	-0.0138420025
128	0x3d64c44a	0.05585126
129	0xbddb1615	-0.10697571
130	0xbba3405b	-0.004982037
131	0xbe56c354	-0.2097295
132	0xbd77e65c	-0.060522422
133	0xbb9e8b1c	-0.0048383605
134	0xbed93f9a	-0.42431337
135	0xbe4bb252	-0.19892243
136	0xbe8a191e	-0.26972288
137	0xbd3b7fb5	-0.045776088
138	0xbb67657c	-0.0035308292
139	0xbdd261e1	-0.10272575
140	0xbb835e23	-0.0040090247
141	0xbe238176	-0.15967354
142	0xbced3306	-0.028954994
143	0x3b952a55	0.0045521655
144	0x3dc5e26c	0.09662327
145	0x3c9d47b2	0.019199226
146	0x3d9d8ab9	0.07692475
147	0xbe05832b	-0.13038318
148	0x3c36fb30	0.011168286
149	0x3cfac688	0.030612245
150	0xbe624f0c	-0.22100466
151	0x3d643d29	0.05572239
152	0xbe172cd1	-0.1476319
153	0xbdd37c94	-0.10326496
154	0xbe14cade	-0.14530513
155	0x3d23646f	0.039890703
156	0x3e05262f	0.13002847
157	0xbeeada95	-0.4586989
158	0xbe141dd9	-0.14464511
159	0x3d4c81c7	0.049928453
160	0xbdef9136	-0.11697619
161	0x3de54737	0.11195224
162	0x3ddb9873	0.10722437
163	0xbd135ee6	-0.035979174
164	0xbbb79d9a	-0.0056035044
165	0xbe3235fe	-0.17403409
166	0xbca8c965	-0.020603845
167	0xbe1bf13f	-0.15228747
168	0xbe3ba55a	-0.18324795
169	0x3d346adb	0.044047218
170	0xbe852faa	-0.26012927
171	0xbd9aedb6	-0.07564871
172	0x3df06c25	0.11739377
173	0x3d857d02	0.06517984
174	0xbcfd6c1e	-0.030935343
175	0xbcb06a08	-0.021534935
176	0xbd834b99	-0.064109035
177	0x3e187cbd	0.14891334
178	0x3da1ab05	0.078939475
179	0x3dfb5bfb	0.12273403
180	0xbdc751ad	-0.09732375
181	0xbd907cec	-0.07055077
182	0x3dd19d6a	0.102351025
183	0x3ce800d3	0.028320706
184	0xbddb1909	-0.106981345
185	0xbdced310	-0.10098851
186	0xbca4161c	-0.020030074
187	0x3d2a69e9	0.04160491
188	0xbe572e7b	-0.21013825
189	0xbddcaf0a	-0.107755736
190	0xbe2e9064	-0.17047268
191	0xbd3435e1	-0.043996695
192	0xbcfadf5c	-0.030624084
193	0xbe9d0c1c	-0.306733
194	0x3c7320bb	0.0148393465
195	0xbe48915b	-0.19586699
196	0x3c9275d6	0.017878454
197	0x3ddaed7c	0.10689828
198	0xbe302f77	-0.17205606
199	0xbea617a5	-0.32439914
200	0x3c95d28e	0.018288877
201	0x3a21e09f	0.0006175134
202	0x3b14adaf	0.0022686531
203	0xbdff2fbf	-0.12460279
204	0xbde7475c	-0.112929076
205	0xbe4d2337	-0.20032965
206	0xbe08e181	-0.13367273
207	0x3b6cdafe	0.0036141272
208	0xbe610973	-0.21976261
209	0x3be594f8	0.007006284
210	0xbdda0f24	-0.10647419
211	0x3d01e236	0.031709872
212	0xbd78be67	-0.060728457
213	0xbd5bbefc	-0.053648934
214	0xbdc4c050	-0.09606993
215	0xbdfe5c5e	-0.124199614
216	0x3c246461	0.010033698
217	0xbdc5c0a2	-0.096558824
218	0xbe745008	-0.23858654
219	0xbde7c86c	-0.11317524
220	0xbe371451	-0.17878844
221	0xbd009008	-0.03138736
222	0xbe1c8a36	-0.15287098
223	0xbcf960ff	-0.03044176
224	0x3e4ea399	0.20179595
225	0xbdd89742	-0.10575725
226	0xbd452e86	-0.04814007
227	0xbd9144fc	-0.07093236
228	0xbd343daf	-0.04400414
229	0xbe34d275	-0.17658408
230	0xbd8e8a48	-0.06959969
231	0x3d8adac8	0.067800105
232	0xbe37ac5b	-0.17936842
233	0xbe119fd4	-0.14221126
234	0xbdea581f	-0.11442589
235	0xbe376fcd	-0.17913742
236	0x3d31e5f9	0.04343221
237	0xbd21892d	-0.03943746
238	0xbde4c212	-0.111698285
239	0x3c95749a	0.018244077
240	0x3c5d0750	0.013490513
241	0xbc4d771b	-0.012540604
242	0xbe4d6c37	-0.20060812
243	0xbe477d78	-0.19481456
244	0x3dfb1174	0.12259188
245	0xbde2027e	-0.110356316
246	0xbdef920a	-0.116977766
247	0x3cad4d6a	0.021155078
248	0xbe855dd6	-0.26048154
249	0xbcaeb46b	-0.021326264
250	0xbd88c388	-0.066779196
251	0x3d7e934b	0.06215219
252	0xbbcd65dd	-0.0062682466
253	0xbd735352	-0.059405632
254	0x3da99e49	0.082821436
255	0xbdd9bad8	-0.10631341

network_body._body_endoder.seq_layers.0.bias f4 [128]
0	0xbe96e5b1	-0.29472116
1	0xbe059673	-0.13045673
2	0xbe38e6ad	-0.18056746
3	0xbea9bd99	-0.33152464
4	0xbe0a7f7a	-0.13525191
5	0xbdd5885f	-0.10426401
6	0xbeaaba73	-0.33345374
7	0x3d24ff86	0.04028275
8	0xbe3a39e8	-0.18186152
9	0xbe94c667	-0.2905762
10	0xbdc2cda5	-0.0951188
11	0xbe53f8b1	-0.20700337
12	0x3b963a33	0.0045845746
13	0xbec0ba09	-0.37641934
14	0xbde5ba71	-0.112172015
15	0xbdac5ab8	-0.08415741
16	0xbddffb08	-0.10936552
17	0xbe272538	-0.16322792
18	0xbe301042	-0.17193702
19	0xbd7f5438	-0.062336177
20	0xbe438fe1	-0.19097854
21	0xbeb13130	-0.3460784
22	0xbe12847f	-0.14308356
23	0xbe13a165	-0.14417036
24	0xbe3624cc	-0.17787474
25	0xbe0b9b90	-0.13633561
26	0xbe3439a5	-0.17600115
27	0xbea30c1f	-0.31845185
28	0xbe599f13	-0.21252088
29	0x3ca8c830	0.02060327
30	0xbd6ee611	-0.058324877
31	0xbde135ec	-0.10996613
32	0xbdf38c1b	-0.11891957
33	0xbe2cc65d	-0.16872545
34	0xbc582f94	-0.013194937
35	0xbd9b0a33	-0.07570305
36	0xbe891b68	-0.26778722
37	0xbe3eebf0	-0.1864469
38	0xbe0729f2	-0.13199595
39	0xbdb451a5	-0.08804635
40	0xbdf77cdd	-0.12084363
41	0xbe31b4f5	-0.17354186
42	0xbeb6a20e	-0.35670513
43	0xbd90868f	-0.07056915
44	0xbe1fe565	-0.15614851
45	0xbde92dab	-0.113856636
46	0xbb7992dd	-0.0038081922
47	0xbdd0965e	-0.1018493
48	0xbdebe9e2	-0.11519219
49	0xbd5ccc47	-0.05390575
50	0xbdc52591	-0.09626306
51	0xbe174968	-0.14774096
52	0xbe3062d6	-0.17225203
53	0xbd325d54	-0.043546036
54	0xbe01c0c4	-0.1267119
55	0xbe6fb2a3	-0.23407988
56	0xbe0d74fb	-0.13814156
57	0xbdb46280	-0.0880785
58	0xbe3e6f1e	-0.18597075
59	0xbe144b98	-0.14481962
60	0x3ca71788	0.020396963
61	0xbe368f91	-0.17828204
62	0xbea90d3d	-0.33017913
63	0xbe5f8a6d	-0.21830149
64	0xbcc8c2f2	-0.02450702
65	0xbe171df0	-0.14757514
66	0xbdefadd8	-0.1170308
67	0xbd704ff6	-0.058670007
68	0xbdd2fa1d	-0.103016116
69	0xbe25dd1a	-0.16197625
70	0xbda04b9e	-0.07826923
71	0xbe055896	-0.13022074
72	0x3d030ab6	0.031992637
73	0x3cd64d2c	0.026159845
74	0x3d01ec73	0.031719636
75	0xbe18bd9e	-0.14916083
76	0xbe720fe0	-0.23638868
77	0xbde440e8	-0.111451924
78	0xbdf39825	-0.11894254
79	0xbde91d33	-0.113825224
80	0xbdb2bfe9	-0.0872801
81	0xbea41170	-0.32044554
82	0xbcdc2390	-0.026872426
83	0xbd603326	-0.05473628
84	0xbdb608cf	-0.08888399
85	0xbd6d60a9	-0.05795351
86	0xbe94a942	-0.29035383
87	0xbd8fdc3e	-0.0702443
88	0x3d98dea8	0.07464343
89	0xbde0f4e4	-0.10984209
90	0xbb95c253	-0.0045702844
91	0x3d83576f	0.06413161
92	0xbdc46ba2	-0.09590842
93	0xbce36776	-0.027759295
94	0xbd0eee54	-0.034895256
95	0xbe4dbf5c	-0.20092529
96	0xbde53c3b	-0.11193129
97	0xbdeedc7e	-0.11663149
98	0xbdc1cc8a	-0.09462841
99	0x3c97bba0	0.018522084
100	0xbe15fb4c	-0.14646643
101	0xbe9d987e	-0.30780405
102	0xbdf2605f	-0.118347876
103	0xbe897581	-0.2684746
104	0xbea9e755	-0.33184305
105	0xbe8e08db	-0.2774113
106	0xbe5056d1	-0.20345618
107	0xbeb467ef	-0.35235545
108	0xbe61e255	-0.22058995
109	0xbdf41eb4	-0.11919919
110	0xbe8011c4	-0.25013554
111	0xbe09adab	-0.13445155
112	0xbd0b6d04	-0.034039512
113	0xbdd35f82	-0.10320951
114	0xbd9b9386	-0.07596497
115	0xbdfd3e5a	-0.12365408
116	0xbd9ba1b9	-0.075992055
117	0xbe1e9584	-0.15486723
118	0xbe9d144e	-0.30679554
119	0xbde8ec9e	-0.11373256
120	0xbea4c39c	-0.32180488
121	0xbda4a800	-0.08039856
122	0xbe0cbc78	-0.1374377
123	0xbcc33566	-0.023829173
124	0xbe001465	-0.1250778
125	0xbd446cc8	-0.047955304
126	0xbe26b0ae	-0.16278335
127	0xbd75c96e	-0.06000655

network_body._body_endoder.seq_layers.2.weight f4 [128, 128]
0	0xbdf3a174	-0.11896029
1	0xbde1d04d	-0.11026058
2	0xbd2cfd80	-0.042233944
3	0xbaf1a6f3	-0.0018436596
4	0xbd77d399	-0.06050453
5	0xbdebc9e9	-0.11513121
6	0x3e0432b4	0.12909967
7	0xbadf5dd8	-0.0017041517
8	0xbd0e241a	-0.034702398
9	0xbd86b42e	-0.06577335
10	0xbdffc1ca	-0.12488134
11	0xbe79061b	-0.24318735
12	0x3d2c7f60	0.04211366
13	0xbe5f3b90	-0.21800065
14	0x3db961c5	0.09051851
15	0xbc2de9c8	-0.01061482
16	0x3d94e4c6	0.072701976
17	0xbd843d12	-0.06456961
18	0x3b3bc7e4	0.002865308
19	0xbcd5aea0	-0.026084244
20	0xbd037a00	-0.03209877
21	0xbd8d32f5	-0.06894485
22	0x3dcf392e	0.10118328
23	0xbdabfa17	-0.0839731
24	0x3d004b1a	0.031321622
25	0xbccc837d	-0.024965042
26	0xbd18d463	-0.037311923
27	0xbd3250bf	-0.043534037
28	0x3e013f12	0.12621716
29	0xbbadb972	-0.005301648
30	0x3e2ea6c1	0.17055799
31	0xbdd2f138	-0.10299915
32	0xbe204d5c	-0.1565451
33	0x3ddfa6b4	0.10920468
34	0x3d892d80	0.066981316
35	0xbcd8f61f	-0.026484547
36	0xbdbebe23	-0.093136095
37	0x3d4d4d23	0.05012239
38	0xbe449733	-0.19198303
39	0xbdb65b55	-0.08904139
40	0x3e036cd1	0.12834479
41	0xbdd93f02	-0.10607721
42	0x3e464992	0.19364002
43	0xbc422d9d	-0.011851695
44	0xbd47bbe0	-0.048763156
45	0xbdff5d66	-0.12468986
46	0x3d01dfeb	0.031707685
47	0x3d26e981	0.04075003
48	0xbe689002	-0.22711185
49	0xbd167501	-0.036732677
50	0x3e0556a1	0.13021328
51	0x3d12f2f9	0.035876248
52	0xbe6d60f8	-0.23181522
53	0x3caefce7	0.021360828
54	0xbd837a99	-0.06419868
55	0xbe01d7f9	-0.12680043
56	0xbded52eb	-0.11588081
57	0xbe0ac91f	-0.13553284
58	0x3d589510	0.052876532
59	0x3e2834b3	0.16426353
60	0xbedfc9d7	-0.4370868
61	0x3df5c0a5	0.11999635
62	0xbc883d96	-0.016630929
63	0x3dfffbf3	0.124992274
64	0xbd505c6e	-0.050869398
65	0x3d23ed22	0.04002107
66	0x3db84c80	0.08998966
67	0x3cf106cd	0.029422188
68	0xbc61e205	-0.013786797
69	0x3c89e3c2	0.016832236
70	0x3eaa7bc3	0.33297548
71	0xbdfc27e4	-0.12312296
72	0xbe4abc2f	-0.19798349
73	0xbded13d3	-0.11576047
74	0xbe3a06f7	-0.1816672
75	0xbd262618	-0.040563673
76	0x3e23f304	0.16010672
77	0xbc981854	-0.018566288
78	0x3bcb0bc8	0.006196473
79	0x3e311ee0	0.17296934
80	0xb82e7b58	-4.1599706e-05
81	0xbd8cc7cd	-0.068740465
82	0xbe0c9659	-0.13729228
83	0xbc97bd09	-0.018522756
84	0xbdbcd1c0	-0.09219694
85	0xbe117ceb	-0.14207809
86	0x3d5660c7	0.052338388
87	0xbdfdb215	-0.12387482
88	0xbe752ab2	-0.23942068
89	0xbd552c76	-0.052044354
90	0xbda5698d	-0.08076773
91	0xbe2905ab	-0.16506068
92	0xbd63e67c	-0.05563973
93	0xbde1803d	-0.11010788
94	0x3d6f2cdd	0.058392394
95	0xbde30f64	-0.1108692
96	0x3cce4f1c	0.025184207
97	0x3ad2016e	0.0016022155
98	0xbe9e5d97	-0.30930778
99	0x3d100f2a	0.03517071
100	0x3df3d956	0.11906688
101	0xbded13c0	-0.11576033
102	0xbda74ff2	-0.08169545
103	0x3d5faea5	0.054609913
104	0xbe1a025f	-0.15039967
105	0x3d37cdd7	0.04487404
106	0x3dec4e5d	0.11538384
107	0xbdb714d5	-0.0893952
108	0x3e241d17	0.16026722
109	0x3dd8b016	0.10580461
110	0x3b019701	0.0019773843
111	0x3c7712b9	0.015080147
112	0xbe08357f	-0.13301657
113	0xbdedede8	-0.11617643
114	0x3e19aed8	0.15008104
115	0xbd4dc0ca	-0.050232686
116	0xbd01a17f	-0.031648155
117	0x3e02a5fd	0.12758632
118	0x3da17776	0.078841135
119	0xbdd3d044	-0.10342458
120	0xbcc8ba98	-0.024503037
121	0x3d360650	0.044439614
122	0xbd813a78	-0.0630998
123	0xbe3cf07d	-0.18451114
124	0xbd2d4f63	-0.042312037
125	0xbe2a361a	-0.166222
126	0xbc7d1758	-0.01544746
127	0xbe997aa0	-0.29976368
128	0x3dedfdaa	0.11620648
129	0xbc21c49e	-0.009873537
130	0xbe12bb19	-0.14329185
131	0xbc10de19	-0.008842015
132	0x3c2e448e	0.010636462
133	0xbd97c8e7	-0.07411366
134	0x3dbb1098	0.091340244
135	0xbebba6b7	-0.3665063
136	0xbc04824a	-0.008087704
137	0x3d2a7e08	0.0416241
138	0x3d94e3e9	0.07270033
139	0xbdab2a14	-0.08357635
140	0x3cfe32fe	0.031030174
141	0x3e31b3a3	0.17353682
142	0x3e06d8ce	0.13168642
143	0x3c0bb6ab	0.008527438
144	0xbdb19790	-0.086714864
145	0xbd25baf5	-0.0404615
146	0x3e08167f	0.13289832
147	0xbda2563e	-0.07926606
148	0x3e61f558	0.22066247
149	0x3d282235	0.041048247
150	0xbe0cd63e	-0.13753602
151	0x3dbd0841	0.0923009
152	0xbdaaf238	-0.08346981
153	0xbccf97de	-0.02534097
154	0x3c171afa	0.00922274
155	0xbd07914d	-0.033097554
156	0x3d852343	0.06500866
157	0xbdaf93ff	-0.0857315
158	0xbdb92938	-0.09041065
159	0xbd5462a2	-0.051851876
160	0x3cea6e88	0.028617159
161	0x3d5e6ae4	0.054301158
162	0xbe063a1e	-0.13108107
163	0xbdc618bd	-0.09672687
164	0xbca12620	-0.0196715
165	0x3e59992c	0.21249837
166	0x3cb80c6d	0.022466863
167	0xbe555f3d	-0.20837112
168	0xbe203c43	-0.15647988
169	0xbd945565	-0.0724285
170	0x3da3e13c	0.080019444
171	0x3e138ac5	0.14408405
172	0xbdba805d	-0.091065146
173	0xbe5c715a	-0.21527615
174	0x3e95bb07	0.29244253
175	0xbdf147b9	-0.11781258
176	0xbdd515d7	-0.10404556
177	0xbd9dd8c1	-0.07707358
178	0x3d458276	0.04822012
179	0xb9d00cec	-0.0003968248
180	0x3dcfebcb	0.10152396
181	0xbe2049ae	-0.15653107
182	0xbdb1191f	-0.086473696
183	0x3e2a215c	0.16614288
184	0x3e150a28	0.14554656
185	0xbe00d76e	-0.1258218
186	0x3d720630	0.059087932
187	0x3d6b8d53	0.057507824
188	0xbd97b2f4	-0.074071795
189	0x3d454b4f	0.048167523
190	0xbd80c9f3	-0.06288519
191	0x3e1f467e	0.15554234
192	0xbeb5f5be	-0.3553905
193	0xbe181059	-0.14849986
194	0xbdfe94b6	-0.12430708
195	0x3d2c30f4	0.042038873
196	0xbe0c6d84	-0.13713652
197	0x3d4d0997	0.050057974
198	0x3de71ae9	0.112844296
199	0xbc3e5fd7	-0.01161953
200	0x3ea35650	0.3190179
201	0xbd94696b	-0.072466694
202	0xbdb2e431	-0.0873493
203	0x3d241264	0.0400566
204	0x3d586fdc	0.052841052
205	0xbcfff8a6	-0.031246495
206	0xbd95718a	-0.072970465
207	0x3e293d95	0.16527398
208	0xbc1c33f2	-0.009533869
209	0xbe06b420	-0.1315465
210	0xbd8c588d	-0.06852827
211	0xbe83c43b	-0.2573565
212	0xbe885b2f	-0.26632068
213	0xbdc8cdda	-0.09804888
214	0x3dc264b1	0.094918616
215	0xbde48b1c	-0.111593455
216	0xbe594a7c	-0.2121982
217	0x3e3eda32	0.18637922
218	0xbd471797	-0.04860648
219	0xbd711584	-0.05885841
220	0xbd6d1fb1	-0.05789155
221	0x3da791bb	0.08182093
222	0x3d79c84e	0.06098204
223	0xbe3b6902	-0.18301776
224	0x3ddb9f67	0.10723763
225	0xbe5f3aef	-0.21799825
226	0xbd9ca7b3	-0.076491736
227	0xbe46d5ec	-0.19417542
228	0xbe56e76f	-0.20986722
229	0x3e04eaa7	0.12980138
230	0xbe297062	-0.16546777
231	0x3d908496	0.07056539
232	0x3e88aab5	0.2669274
233	0x3e3bdb25	0.18345316
234	0x3e4b7cd8	0.19871843
235	0x3e593844	0.2121287
236	0xbd2a3696	-0.041555963
237	0x3bcb4e2c	0.006204387
238	0x3dfb1da9	0.122615166
239	0xbde806af	-0.113294
240	0xbe30f586	-0.1728116
241	0xbd065252	-0.03279335
242	0x3d115466	0.03548088
243	0xbd827fb6	-0.06372015
244	0xbe4a80d9	-0.19775714
245	0x3dbaddb7	0.0912432
246	0xbb37643a	-0.0027983324
247	0xbd804ac0	-0.062642574
248	0x3e131eac	0.14367169
249	0xbc0ad938	-0.008474641
250	0x3d9841fe	0.07434462
251	0xbcdaaf69	-0.02669497
252	0x3d31b82f	0.04338854
253	0xbcab2b7d	-0.02089476
254	0x3c0485e0	0.008088559
255	0xbe1186d7	-0.14211594

network_body._body_endoder.seq_layers.2.bias f4 [128]
0	0xbd7eef52	-0.062239952
1	0xbd82299c	-0.063555926
2	0xbd29d0c2	-0.041458853
3	0xbd983a69	-0.07433016
4	0xbe0b19da	-0.1358408
5	0xbe1b0172	-0.1513727
6	0xbdb283f1	-0.08716572
7	0xbd65349e	-0.055958383
8	0xbd59ee65	-0.053205866
9	0x3b8752e3	0.004129754
10	0x3dba4a83	0.09096243
11	0xbd5d54fb	-0.05403612
12	0x3d02bcb6	0.03191825
13	0x3d0078fd	0.031365383
14	0xbd8c82c7	-0.06860881
15	0x3cdd7346	0.027032506
16	0x3c65a190	0.01401557
17	0x3c094934	0.008379269
18	0xbe1000f5	-0.14062865
19	0xbc87a580	-0.016558409
20	0xbd9990c1	-0.07498313
21	0x3d5df7f6	0.054191552
22	0xbe098977	-0.13431345
23	0x3d105ca2	0.03524459
24	0xbd80340c	-0.06259927
25	0xbb9ccdb0	-0.004785262
26	0xbdf90e8b	-0.12160977
27	0xbcf6cb05	-0.030126104
28	0xbdc9c2b4	-0.0985159
29	0xbdbb5912	-0.09147848
30	0xbd8086c1	-0.06275702
31	0xbde63d7d	-0.11242197
32	0xbd71df88	-0.059051067
33	0x3b98fcf0	0.0046688244
34	0xbe414c9d	-0.18876882
35	0xbe1b6c17	-0.15177952
36	0xbd5c1844	-0.05373408
37	0x3cb12447	0.021623744
38	0xbd3fcc06	-0.04682543
39	0xbdcc319a	-0.09970398
40	0xbd1c7a32	-0.038202472
41	0xbd993b6a	-0.074820355
42	0xbdd547eb	-0.10414108
43	0xbd52e31f	-0.05148613
44	0x3d99f085	0.075165786
45	0x3db94e44	0.09048131
46	0xbc0bd45b	-0.008534516
47	0xbe0181e0	-0.126472
48	0x3d761533	0.06007881
49	0xbe6ceba7	-0.23136769
50	0xbdd2028b	-0.10254391
51	0x3d608f66	0.054824255
52	0x3d80d927	0.062914185
53	0xbe0bc917	-0.13650928
54	0xbd98f7c6	-0.07469134
55	0x3d04958a	0.032369174
56	0xbbc766f3	-0.0060852706
57	0x3dc3f065	0.09567336
58	0xbbbb607e	-0.00571829
59	0x3d685b2b	0.05672757
60	0xbe13a3a5	-0.14417894
61	0xbd69e37c	-0.05710171
62	0xbd6b3966	-0.057427786
63	0xbe317839	-0.17331018
64	0xbe008369	-0.12550129
65	0xbe59eaf9	-0.21281041
66	0xbac33e89	-0.0014895956
67	0x3c389272	0.011265384
68	0xbda9175e	-0.0825641
69	0xbc5eedfc	-0.013606545
70	0xbe684177	-0.22681223
71	0xbdbf7613	-0.09348693
72	0xbd188497	-0.037235823
73	0xbe6ff0d6	-0.23431715
74	0x3c21d266	0.009876823
75	0xbdd9ead1	-0.10640491
76	0x3d771bf3	0.06032939
77	0xbd5930b2	-0.053024955
78	0xbd41f242	-0.047350176
79	0xbe042ad2	-0.1290696
80	0xbdad78d9	-0.084703155
81	0xbda3ed26	-0.08004217
82	0xbe0171db	-0.12641089
83	0xbdb57b31	-0.088613875
84	0xbdad7066	-0.08468704
85	0xbe119352	-0.14216354
86	0xbe33153c	-0.17488569
87	0xbd648d83	-0.05579902
88	0xbe0d8fcc	-0.13824385
89	0xbe2871fb	-0.1644973
90	0x3cde7fb9	0.027160512
91	0xbdb0c082	-0.08630468
92	0xbd517293	-0.051134657
93	0x3d36dc91	0.044643942
94	0xbd2b8a56	-0.041879974
95	0xbd740365	-0.05957355
96	0xbe213d68	-0.15746081
97	0x3d8864ab	0.06659826
98	0xbd7f8d9e	-0.062390916
99	0x3db6a350	0.08917868
100	0xbcb79f3f	-0.022414802
101	0xbc8d2047	-0.017227305
102	0xbe0cb10c	-0.13739413
103	0xbe6539a9	-0.22385277
104	0x3d3de3ec	0.04635994
105	0x3c9a2bba	0.018819679
106	0xbda17070	-0.07882774
107	0xbd53827b	-0.051638108
108	0x3ce89d01	0.028395178
109	0xbe43bb5d	-0.19114442
110	0xbdb8a493	-0.09015765
111	0xbd44c588	-0.048039943
112	0xbdda2338	-0.10651249
113	0x3cfd7fef	0.030944793
114	0xbdbcaea0	-0.092129946
115	0x3d9f84e8	0.07789022
116	0x3cc03f91	0.02346781
117	0xbbfd54fd	-0.0077310787
118	0xbd81dd6d	-0.06341062
119	0xbd1c27b9	-0.03812382
120	0x3d03b813	0.03215797
121	0x3b294a33	0.002583158
122	0x3d3b0900	0.04566288
123	0xbd2d0efd	-0.042250622
124	0xbdcd887f	-0.100358
125	0xbd262da3	-0.040570866
126	0xbca1b49b	-0.01973944
127	0xbd784bea	-0.060619272

action_model._continuous_distribution.log_sigma f4 [1, 2]
0	0x3d717efb	0.05895899
1	0xbdf8e8cf	-0.1215378

action_model._continuous_distribution.mu.weight f4 [2, 128]
0	0x3dab682f	0.08369481
1	0x3d322b2e	0.04349821
2	0x3da384dd	0.07984326
3	0x3d555ca3	0.0520903
4	0xbc683e07	-0.014174945
5	0x3bc4ecdc	0.006009681
6	0xbb1d2ecf	-0.00239842
7	0x3d168a95	0.036753256
8	0x3e0cbe9f	0.13744591
9	0xbc503874	-0.012708772
10	0x3c71e786	0.014764672
11	0x3c82d392	0.015970025
12	0xbd8ff587	-0.070292525
13	0x3d261d94	0.04055555
14	0x3c211746	0.009832209
15	0xbdbddb43	-0.092703365
16	0x3d8a17d7	0.06742828
17	0x3d0fc1d1	0.035096947
18	0x3d991843	0.07475331
19	0xbca992ec	-0.02069994
20	0x3d9941b6	0.074832365
21	0x3d42111b	0.047379594
22	0x3d27b60b	0.040945094
23	0xbd2a8f83	-0.04164077
24	0x3d34774c	0.044059083
25	0x3c3d4e31	0.011554287
26	0xbc6baf5b	-0.01438507
27	0x3dd53dc6	0.10412173
28	0x3dc6ba34	0.09703484
29	0x3ce4621a	0.02787881
30	0x3c4ac60a	0.012376318
31	0x3dcaa3c4	0.09894517
32	0x3d47f983	0.048821937
33	0x3cc89c2a	0.024488527
34	0x3cbf8b39	0.023381816
35	0x3d10d76c	0.035361692
36	0x3cc8826f	0.024476258
37	0x3cc02efd	0.023459906
38	0xbd561192	-0.05226285
39	0x3d012666	0.03153076
40	0x3ccd6d76	0.02507661
41	0xbcfc668b	-0.030810615
42	0x3d153a34	0.03643246
43	0x3df06d0b	0.11739548
44	0xbda7c525	-0.08191899
45	0xbdc55eb4	-0.09637204
46	0x3ce90698	0.028445527
47	0x3d575176	0.05256792
48	0x3d9f171a	0.07768078
49	0x3d78fde4	0.060789004
50	0xbca6f9aa	-0.020382721
51	0xbe00d021	-0.12579395
52	0xbd2e3a2c	-0.042535946
53	0x3dba124e	0.090855226
54	0x3da3baa6	0.07994585
55	0x3c4f8f88	0.012668498
56	0x38e05c4f	0.00010698346
57	0x3dcedb55	0.10100428
58	0x3d902004	0.070373565
59	0x3dc5a273	0.09650125
60	0xbc6e9fe7	-0.014564491
61	0x3d8bb70f	0.06822025
62	0x3d4658e2	0.04842461
63	0x3d67f2a9	0.056627903
64	0xbd04e9c9	-0.032449517
65	0x3d82ad7f	0.06380748
66	0x3d1da752	0.038489647
67	0x3d8e81ca	0.06958349
68	0xba9a60f8	-0.0011778167
69	0x3ca38bcd	0.019964123
70	0x3cf47fb8	0.029846057
71	0xbce905a4	-0.028445072
72	0xbd84cdb8	-0.0648455
73	0xbcda13ed	-0.02662083
74	0x3d77abe4	0.060466662
75	0x3d9faa25	0.07796124
76	0x3da2171f	0.07914566
77	0x3b82180e	0.0039701527
78	0x3d4c60e7	0.0498971
79	0xbcf2d244	-0.029641278
80	0x3d018039	0.031616423
81	0xbbe160fc	-0.0068780165
82	0x3d9ba590	0.07599938
83	0x3cb52805	0.02211381
84	0x3c1291b2	0.008945869
85	0x3dac9326	0.08426504
86	0x3e0df2fc	0.13862222
87	0x3d540526	0.051762722
88	0x3c2d5a95	0.0105806785
89	0x3d1b2aad	0.037882496
90	0x3c8c653a	0.017138112
91	0x3dbfd22f	0.09366261
92	0x3d933600	0.07188034
93	0x3de29322	0.110632196
94	0x3af0cb8f	0.0018371212
95	0x3d8147d6	0.0631253
96	0x3d2c01a3	0.04199375
97	0x3d92a20d	0.07159815
98	0xbd8f7069	-0.070038624
99	0xbd39ac32	-0.045330234
100	0xbcb0f64d	-0.02160182
101	0x3e0beb7b	0.13664047
102	0x3cb5300b	0.022117635
103	0xb9a580c1	-0.00031567182
104	0x3cd63986	0.026150476
105	0x3c9029ed	0.017598117
106	0x3dc24adc	0.094869345
107	0x3d4ea0d9	0.050446365
108	0xbd9d429f	-0.076787226
109	0x3d11e3da	0.035617687
110	0xbcf42367	-0.029802037
111	0x3d26f42f	0.040760215
112	0xbca066c3	-0.01958025
113	0x3de94a48	0.11391121
114	0x3e006dc9	0.1254188
115	0x3dfbb018	0.122894466
116	0x3d8dd4cd	0.06925354
117	0xbc66ffe5	-0.014099096
118	0x3d4f2e95	0.050581533
119	0x3df24789	0.118300505
120	0x3d81e9a9	0.06343395
121	0x3d1bb24d	0.038011838
122	0x3d8bf2f5	0.0683345
123	0x3d477c30	0.04870242
124	0x3de8a66a	0.11359866
125	0x3d20f7b6	0.039298736
126	0x3d8244e0	0.06360793
127	0x3e278fed	0.16363497
128	0xbe144d60	-0.14482641
129	0xbd60686f	-0.054787096
130	0xbd82fc8f	-0.06395828
131	0xbda1fbc8	-0.079093516
132	0xbd3787ad	-0.044807125
133	0xbdb4842b	-0.088142715
134	0x3c0a963d	0.008458671
135	0x3b252c93	0.002520357
136	0xbd8d413c	-0.06897208
137	0xbd615d9f	-0.055020925
138	0xbd6db9b6	-0.058038436
139	0xbda07be6	-0.07836132
140	0xbc7b69ac	-0.015345018
141	0xbdc49311	-0.09598363
142	0xbd512aac	-0.051066086
143	0xbcdca6e3	-0.026935047
144	0xbdddd1be	-0.10831021
145	0xbd9f16de	-0.077680334
146	0x3bb038a5	0.0053778463
147	0xbe1af3c4	-0.15132052
148	0xbd333af5	-0.043757398
149	0xbcf85599	-0.030314254
150	0xbda54dd6	-0.08071487
151	0xbd42a682	-0.047522075
152	0xbdf57d46	-0.11986785
153	0xbd8318fa	-0.06401248
154	0xbd82d99c	-0.06389162
155	0xbd6ff693	-0.05858476
156	0xbd37764e	-0.04479056
157	0xbd770eb3	-0.060316753
158	0xbdadadf1	-0.08480442
159	0xbd6a42d9	-0.057192657
160	0x3cb32849	0.021869795
161	0xbdd5fe01	-0.10448838
162	0xbd9515fa	-0.07279582
163	0x3d33563c	0.04378341
164	0xbd8b883c	-0.06813094
165	0xbdb97ec5	-0.090573825
166	0xbcf39a93	-0.029736793
167	0xbd86e5f3	-0.06586828
168	0xbb874ba4	-0.00412889
169	0xbd1fa40e	-0.038974814
170	0xbda406fb	-0.08009144
171	0xbd71e5e7	-0.059057143
172	0xbd81e893	-0.06343188
173	0xbd2d9f7d	-0.042388428
174	0xbd30c655	-0.043157894
175	0xbdb84012	-0.089965954
176	0xbd9db0db	-0.07699748
177	0xbd846131	-0.0646385
178	0xbce85e65	-0.028365323
179	0xbcc709a4	-0.02429659
180	0xbd130a58	-0.035898536
181	0xbd65b8bd	-0.056084383
182	0xbd579d1b	-0.05264006
183	0x3d9acaa6	0.07558183
184	0xbdd1e13c	-0.10248038
185	0xbdd6e5e7	-0.10493069
186	0x3aa76493	0.0012771062
187	0xbd3eaf8d	-0.046554137
188	0xbdc754d5	-0.09732977
189	0xbdc11bf5	-0.094291605
190	0xbd88a0e6	-0.06671314
191	0xbcf0d8bf	-0.029400228
192	0xbcec9799	-0.028880881
193	0xbda78e45	-0.08181433
194	0xbd720deb	-0.059095304
195	0xbd6cdb18	-0.05782613
196	0xbd589d65	-0.052884478
197	0xbd347b27	-0.04406276
198	0xbd5abebc	-0.053404555
199	0xbd307aa7	-0.04308572
200	0xbbdb804f	-0.006698645
201	0xbd2a0557	-0.041509
202	0xbe102df7	-0.14080034
203	0xbd9cb41f	-0.07651543
204	0xbd8307e8	-0.06397992
205	0xbd207b3b	-0.03918002
206	0xbdb35180	-0.08755779
207	0xbd6285d5	-0.055303413
208	0xbd9ac597	-0.075572185
209	0xbcfefd25	-0.031126568
210	0xbd8b2d47	-0.06795745
211	0xbd2141c2	-0.039369352
212	0xbd8cd06a	-0.06875689
213	0xba7d779a	-0.0009669006
214	0xbc0dad6d	-0.008647305
215	0xbd66bb15	-0.05633076
216	0xbd35ac1f	-0.0443536
217	0xbd717c25	-0.058956284
218	0xbd580ca0	-0.052746415
219	0xbcaedc79	-0.021345364
220	0xbd8b4b06	-0.06801419
221	0xbc5d959d	-0.01352444
222	0xbdb6e30b	-0.08930024
223	0xbd8ff9b4	-0.07030049
224	0xbd4d7a69	-0.050165568
225	0xbb901416	-0.0043969257
226	0xbd44d62c	-0.048055813
227	0xbe0b9e89	-0.13634695
228	0xbdd731e9	-0.105075665
229	0xbd79f47b	-0.06102417
230	0xbc0625eb	-0.008187751
231	0xbdb54a74	-0.088520914
232	0xbc84b9ec	-0.016201936
233	0xbd4eb274	-0.050463155
234	0xbce5465a	-0.027987648
235	0x3d83527c	0.06412217
236	0xbd794cbf	-0.060864206
237	0xbd6f840c	-0.05847554
238	0xbd2df86e	-0.04247325
239	0xbdbe27fc	-0.0928497
240	0xbd5d3ba7	-0.054011967
241	0xbe1c6bb3	-0.15275459
242	0xbd47d483	-0.04878665
243	0x3d6bc298	0.057558626
244	0xbdf7d520	-0.12101197
245	0x3c96f256	0.018426102
246	0xbd69112f	-0.056901153
247	0xbd9387c2	-0.07203628
248	0x3ce8db27	0.028424812
249	0x3d99ca0e	0.07509242
250	0xbd162172	-0.03665299
251	0xbd984f8e	-0.07437049
252	0xbdb0b546	-0.08628325
253	0x3c96ed0a	0.018423576
254	0xbdd66fec	-0.10470566
255	0xbd7717ea	-0.06032554

action_model._continuous_distribution.mu.bias f4 [2]
0	0x3dbb7e55	0.09154955
1	0xbd27ae55	-0.04093774

exp_avg f4 [128, 149]
0	0x00000004	6e-45
1	0xb4e284e8	-4.2192482e-07
2	0x00000004	6e-45
3	0x2b8988bf	9.77239e-13
4	0xb39385a0	-6.869527e-08
5	0x00000004	6e-45
6	0xb3b116d8	-8.24636e-08
7	0x00000004	6e-45
8	0x2b84f88b	9.448149e-13
9	0x33aaa861	7.94687e-08
10	0x00000004	6e-45
11	0xb3b4e30c	-8.423203e-08
12	0x00000000	0.0
13	0xa9a05ce4	-7.121541e-14
14	0xb3a2dd88	-7.584009e-08
15	0x00000004	6e-45
16	0xb3b1163f	-8.246251e-08
17	0x80000004	-6e-45
18	0x00000000	0.0
19	0xb185794c	-3.8845993e-09
20	0x80000004	-6e-45
21	0xb3b1163f	-8.246251e-08
22	0x00000000	0.0
23	0x00000000	0.0
24	0xb3ab17f6	-7.9671665e-08
25	0x80000004	-6e-45
26	0xb3b1163f	-8.246251e-08
27	0x80000004	-6e-45
28	0x00000000	0.0
29	0x337c5f35	5.8759912e-08
30	0x80000004	-6e-45
31	0xb3b11626	-8.2462336e-08
32	0x00000000	0.0
33	0x00000000	0.0
34	0xb3848a2b	-6.1718616e-08
35	0x00000004	6e-45
36	0xb3b1163f	-8.246251e-08
37	0x00000000	0.0
38	0x00000000	0.0
39	0xb32bc176	-3.998999e-08
40	0x00000004	6e-45
41	0xb3b1145d	-8.245909e-08
42	0x00000000	0.0
43	0x00000000	0.0
44	0xb33145fc	-4.1274674e-08
45	0x80000004	-6e-45
46	0xb3b1163f	-8.246251e-08
47	0x00000000	0.0
48	0x00000000	0.0
49	0xb331454e	-4.1274056e-08
50	0x80000004	-6e-45
51	0xb3b1163f	-8.246251e-08
52	0x00000000	0.0
53	0x00000000	0.0
54	0xb343c0c0	-4.557728e-08
55	0x00000004	6e-45
56	0xb3b1163f	-8.246251e-08
57	0x00000000	0.0
58	0x00000000	0.0
59	0xb3439178	-4.553428e-08
60	0x80000004	-6e-45
61	0xb3b11643	-8.246254e-08
62	0x00000000	0.0
63	0x00000000	0.0
64	0xb36ad9a9	-5.468033e-08
65	0x00000004	6e-45
66	0xb3b1163f	-8.246251e-08
67	0x00000000	0.0
68	0x00000000	0.0
69	0xb36a3c92	-5.453746e-08
70	0x80000004	-6e-45
71	0xb3b1163f	-8.246251e-08
72	0x80000004	-6e-45
73	0x80000004	-6e-45
74	0xb177ef60	-3.60793e-09
75	0x80000004	-6e-45
76	0xb3b1163f	-8.246251e-08
77	0x00000000	0.0
78	0x00000004	6e-45
79	0xb3a5f1b5	-7.7273775e-08
80	0x00000004	6e-45
81	0xb3b1163f	-8.246251e-08
82	0x80000004	-6e-45
83	0x80000004	-6e-45
84	0x347fe087	2.3830408e-07
85	0x80000004	-6e-45
86	0xb3b1163f	-8.246251e-08
87	0x00000000	0.0
88	0x00000000	0.0
89	0xb389af04	-6.411395e-08
90	0x80000004	-6e-45
91	0xb3b1163f	-8.246251e-08
92	0x00000000	0.0
93	0x00000000	0.0
94	0x3241f36a	1.12894245e-08
95	0x80000004	-6e-45
96	0xb3b1163f	-8.246251e-08
97	0x00000000	0.0
98	0x00000000	0.0
99	0xb38399ea	-6.12816e-08
100	0x80000004	-6e-45
101	0xb3b1163f	-8.246251e-08
102	0x00000000	0.0
103	0x00000000	0.0
104	0x329e488d	1.8426613e-08
105	0x00000004	6e-45
106	0xb3b1163f	-8.246251e-08
107	0x00000000	0.0
108	0x00000000	0.0
109	0x32e06789	2.6124114e-08
110	0x80000004	-6e-45
111	0xb3b1163f	-8.246251e-08
112	0x00000000	0.0
113	0x00000000	0.0
114	0x32f5f957	2.863514e-08
115	0x00000004	6e-45
116	0xb3b1163f	-8.246251e-08
117	0x00000000	0.0
118	0x00000000	0.0
119	0x32e79d40	2.6963448e-08
120	0x80000004	-6e-45
121	0xb3b1163f	-8.246251e-08
122	0x00000000	0.0
123	0x00000000	0.0
124	0x3460c0dd	2.0931789e-07
125	0x00000000	0.0
126	0xb3b1163f	-8.246251e-08
127	0x00000000	0.0
128	0x00000000	0.0
129	0x3303bc16	3.0671877e-08
130	0x00000000	0.0
131	0xb3b1163f	-8.246251e-08
132	0x00000000	0.0
133	0x00000000	0.0
134	0xb2a40347	-1.9093603e-08
135	0x00000000	0.0
136	0xb3b1163f	-8.246251e-08
137	0x00000000	0.0
138	0x00000000	0.0
139	0x33c8782a	9.3350835e-08
140	0xb310a278	-3.3675377e-08
141	0xb5380536	-6.8552924e-07
142	0x00000000	0.0
143	0x3564d534	8.524687e-07
144	0xb4c0f9a7	-3.5944433e-07
145	0x00000000	0.0
146	0x35629d56	8.4420515e-07
147	0xb4449d04	-1.8311044e-07
148	0x00000000	0.0
149	0x00000004	6e-45
150	0x368f3d26	4.2688507e-06
151	0x80000004	-6e-45
152	0xad2a7cd2	-9.691097e-12
153	0xb7b4c981	-2.1551505e-05
154	0x00000004	6e-45
155	0xb8096ef3	-3.2766675e-05
156	0x80000004	-6e-45
157	0x2fa4d853	2.9985134e-10
158	0x37266293	9.917322e-06
159	0x00000004	6e-45
160	0xb7c43ae0	-2.3392437e-05
161	0x00000000	0.0
162	0x2a68419f	2.0628506e-13
163	0xb74d9596	-1.225378e-05
164	0x00000004	6e-45
165	0xb8096ea0	-3.2766373e-05
166	0x00000004	6e-45
167	0x00000000	0.0
168	0xb76020a2	-1.3359038e-05
169	0x00000004	6e-45
170	0xb8096ea0	-3.2766373e-05
171	0x00000000	0.0
172	0x00000000	0.0
173	0xb7822057	-1.5512267e-05
174	0x80000004	-6e-45
175	0xb8096ea0	-3.2766373e-05
176	0x00000004	6e-45
177	0x00000000	0.0
178	0xb7928761	-1.7467597e-05
179	0x00000004	6e-45
180	0xb8096ea0	-3.2766373e-05
181	0x00000000	0.0
182	0x00000000	0.0
183	0x35ad2767	1.2900972e-06
184	0x00000004	6e-45
185	0xb8096ea0	-3.2766373e-05
186	0x00000000	0.0
187	0x00000000	0.0
188	0x35e63c74	1.715393e-06
189	0x00000004	6e-45
190	0xb8096eaa	-3.276641e-05
191	0x00000000	0.0
192	0x00000000	0.0
193	0x35eda207	1.7705032e-06
194	0x80000004	-6e-45
195	0xb8096ea0	-3.2766373e-05
196	0x00000000	0.0
197	0x00000000	0.0
198	0x35eda1d1	1.7704971e-06
199	0x80000004	-6e-45
200	0xb8096ea0	-3.2766373e-05
201	0x00000000	0.0
202	0x00000000	0.0
203	0x3603334d	1.9550382e-06
204	0x00000004	6e-45
205	0xb8096ea0	-3.2766373e-05
206	0x00000000	0.0
207	0x00000000	0.0
208	0x360332cd	1.955009e-06
209	0x80000004	-6e-45
210	0xb8096ea0	-3.2766373e-05
211	0x00000000	0.0
212	0x00000000	0.0
213	0x361d67b2	2.3455182e-06
214	0x00000004	6e-45
215	0xb8096ea0	-3.2766373e-05
216	0x00000000	0.0
217	0x00000000	0.0
218	0x361d6787	2.3455084e-06
219	0x80000004	-6e-45
220	0xb8096ea0	-3.2766373e-05
221	0x00000004	6e-45
222	0x00000004	6e-45
223	0xb7edb3f6	-2.8336402e-05
224	0x80000004	-6e-45
225	0xb8096ea0	-3.2766373e-05
226	0x00000000	0.0
227	0x80000004	-6e-45
228	0xb707391d	-8.059925e-06
229	0x00000004	6e-45
230	0xb8096ea0	-3.2766373e-05
231	0x80000004	-6e-45
232	0x80000004	-6e-45
233	0xb7ad3bcc	-2.0651052e-05
234	0x80000004	-6e-45
235	0xb8096ea0	-3.2766373e-05
236	0x00000000	0.0
237	0x00000000	0.0
238	0x37525f14	1.25391125e-05
239	0x80000004	-6e-45
240	0xb8096ea0	-3.2766373e-05
241	0x00000000	0.0
242	0x00000000	0.0
243	0xb66e0b24	-3.5471248e-06
244	0x80000004	-6e-45
245	0xb8096ea0	-3.2766373e-05
246	0x00000000	0.0
247	0x00000000	0.0
248	0x35ad2b35	1.2902079e-06
249	0x80000004	-6e-45
250	0xb8096ea0	-3.2766373e-05
251	0x00000000	0.0
252	0x00000000	0.0
253	0xb78bc3cf	-1.6661272e-05
254	0x00000004	6e-45
255	0xb8096ea0	-3.2766373e-05

exp_avg_sq f4 [128, 149]
0	0x000001f4	7e-43
1	0x2bd2dd03	1.498274e-12
2	0x000001f4	7e-43
3	0x2ca4de26	4.6858238e-12
4	0x2cb48a78	5.131281e-12
5	0x000001f4	7e-43
6	0x2cd97b95	6.1812313e-12
7	0x000001f4	7e-43
8	0x2b26e1fe	5.9288674e-13
9	0x2c05861d	1.8974885e-12
10	0x000001f4	7e-43
11	0x2ceeb40d	6.7843565e-12
12	0x00000000	0.0
13	0x25d715b0	3.731125e-16
14	0x2b2ff34f	6.251015e-13
15	0x000001f4	7e-43
16	0x2ceec495	6.786192e-12
17	0x000001f4	7e-43
18	0x00000000	0.0
19	0x2b52e595	7.4925596e-13
20	0x000001f4	7e-43
21	0x2ceec456	6.7861645e-12
22	0x00000000	0.0
23	0x00000000	0.0
24	0x2a4ced37	1.820114e-13
25	0x000001f4	7e-43
26	0x2ceec495	6.786192e-12
27	0x000001f4	7e-43
28	0x00000000	0.0
29	0x2b46e8fc	7.066706e-13
30	0x000001f4	7e-43
31	0x2ceecccc	6.787104e-12
32	0x00000000	0.0
33	0x00000000	0.0
34	0x29cbbf00	9.048144e-14
35	0x000001f4	7e-43
36	0x2ceec495	6.786192e-12
37	0x00000000	0.0
38	0x00000000	0.0
39	0x28c31cfc	2.1661919e-14
40	0x000001f4	7e-43
41	0x2ceec1b5	6.7858726e-12
42	0x00000000	0.0
43	0x00000000	0.0
44	0x28cfd8c7	2.3075629e-14
45	0x000001f4	7e-43
46	0x2ceec495	6.786192e-12
47	0x00000000	0.0
48	0x00000000	0.0
49	0x28c49ae3	2.1827543e-14
50	0x000001f4	7e-43
51	0x2ceed588	6.7880736e-12
52	0x00000000	0.0
53	0x00000000	0.0
54	0x28fd65da	2.8132814e-14
55	0x000001f4	7e-43
56	0x2ceec495	6.786192e-12
57	0x00000000	0.0
58	0x00000000	0.0
59	0x28869a82	1.4943996e-14
60	0x000001f4	7e-43
61	0x2ceec7fb	6.786569e-12
62	0x00000000	0.0
63	0x00000000	0.0
64	0x29365b89	4.0491512e-14
65	0x000001f4	7e-43
66	0x2ceec495	6.786192e-12
67	0x00000000	0.0
68	0x00000000	0.0
69	0x287f4b36	1.4171652e-14
70	0x000001f4	7e-43
71	0x2ceec495	6.786192e-12
72	0x000001f4	7e-43
73	0x0afdce7d	2.4440686e-32
74	0x2ae86965	4.128461e-13
75	0x000001f4	7e-43
76	0x2ceec495	6.786192e-12
77	0x00000000	0.0
78	0x000001f4	7e-43
79	0x29e4dfd1	1.016406e-13
80	0x000001f4	7e-43
81	0x2ceec495	6.786192e-12
82	0x000001f4	7e-43
83	0x0e56c539	2.6472496e-30
84	0x2a4b5c7d	1.806211e-13
85	0x000001f4	7e-43
86	0x2ceec495	6.786192e-12
87	0x00000000	0.0
88	0x00000000	0.0
89	0x291b3c26	3.4469084e-14
90	0x000001f4	7e-43
91	0x2ceec495	6.786192e-12
92	0x00000000	0.0
93	0x00000000	0.0
94	0x297e0be3	5.640964e-14
95	0x000001f4	7e-43
96	0x2ceec495	6.786192e-12
97	0x00000000	0.0
98	0x00000000	0.0
99	0x289fb291	1.7729987e-14
100	0x000001f4	7e-43
101	0x2ceec495	6.786192e-12
102	0x00000000	0.0
103	0x00000000	0.0
104	0x29119560	3.232603e-14
105	0x000001f4	7e-43
106	0x2ceec495	6.786192e-12
107	0x00000000	0.0
108	0x00000000	0.0
109	0x2991dc52	6.477513e-14
110	0x000001f4	7e-43
111	0x2ceec495	6.786192e-12
112	0x00000000	0.0
113	0x00000000	0.0
114	0x2982546c	5.7878046e-14
115	0x000001f4	7e-43
116	0x2ceed64b	6.788158e-12
117	0x00000000	0.0
118	0x00000000	0.0
119	0x298c3f3e	6.22822e-14
120	0x000001f4	7e-43
121	0x2ceec495	6.786192e-12
122	0x00000000	0.0
123	0x00000000	0.0
124	0x29ef0941	1.06153374e-13
125	0x00000000	0.0
126	0x2ceec495	6.786192e-12
127	0x00000000	0.0
128	0x00000000	0.0
129	0x2a2de269	1.5444038e-13
130	0x00000000	0.0
131	0x2ceec495	6.786192e-12
132	0x00000000	0.0
133	0x00000000	0.0
134	0x29728dd1	5.38578e-14
135	0x00000000	0.0
136	0x2ceec495	6.786192e-12
137	0x00000000	0.0
138	0x00000000	0.0
139	0x29a1f3b1	7.19211e-14
140	0x325d9732	1.2898271e-08
141	0x2f200b66	1.4555965e-10
142	0x00000000	0.0
143	0x3137ad2e	2.6728446e-09
144	0x2f1fa44d	1.4519337e-10
145	0x00000000	0.0
146	0x31ed5171	6.9068666e-09
147	0x302e35d6	6.3377337e-10
148	0x00000000	0.0
149	0x000001f4	7e-43
150	0x32979336	1.7645657e-08
151	0x000001f4	7e-43
152	0x31e60f55	6.695624e-09
153	0x32732978	1.41538905e-08
154	0x000001f4	7e-43
155	0x330f82b4	3.3413656e-08
156	0x000001f4	7e-43
157	0x31321c1c	2.5918387e-09
158	0x31f5dbf2	7.1554433e-09
159	0x000001f4	7e-43
160	0x3319cd2f	3.5809702e-08
161	0x00000000	0.0
162	0x27aa7b76	4.7318335e-15
163	0x316b2051	3.421537e-09
164	0x000001f4	7e-43
165	0x3319f42a	3.5845154e-08
166	0x000001f4	7e-43
167	0x00000000	0.0
168	0x3123afc5	2.3819535e-09
169	0x000001f4	7e-43
170	0x3319f419	3.5845094e-08
171	0x00000000	0.0
172	0x00000000	0.0
173	0x30a4379f	1.1948379e-09
174	0x000001f4	7e-43
175	0x3319f42a	3.5845154e-08
176	0x000001f4	7e-43
177	0x00000000	0.0
178	0x30fe4716	1.8501136e-09
179	0x000001f4	7e-43
180	0x3319f3cc	3.584482e-08
181	0x00000000	0.0
182	0x00000000	0.0
183	0x3030cfba	6.4323624e-10
184	0x000001f4	7e-43
185	0x3319f42a	3.5845154e-08
186	0x00000000	0.0
187	0x00000000	0.0
188	0x2f447d9a	1.7870719e-10
189	0x000001f4	7e-43
190	0x3319f426	3.584514e-08
191	0x00000000	0.0
192	0x00000000	0.0
193	0x2f51543e	1.9038368e-10
194	0x000001f4	7e-43
195	0x3319f42a	3.5845154e-08
196	0x00000000	0.0
197	0x00000000	0.0
198	0x2f4baaa5	1.8523368e-10
199	0x000001f4	7e-43
200	0x3319f3c0	3.5844778e-08
201	0x00000000	0.0
202	0x00000000	0.0
203	0x2f7f4cf9	2.3219461e-10
204	0x000001f4	7e-43
205	0x3319f42a	3.5845154e-08
206	0x00000000	0.0
207	0x00000000	0.0
208	0x2f2eb7e1	1.5890535e-10
209	0x000001f4	7e-43
210	0x3319f3ce	3.5844828e-08
211	0x00000000	0.0
212	0x00000000	0.0
213	0x2fbfa186	3.4857467e-10
214	0x000001f4	7e-43
215	0x3319f42a	3.5845154e-08
216	0x00000000	0.0
217	0x00000000	0.0
218	0x2f6522da	2.083981e-10
219	0x000001f4	7e-43
220	0x3319f42a	3.5845154e-08
221	0x000001f4	7e-43
222	0x0e6f5797	2.9501197e-30
223	0x320856b0	7.935952e-09
224	0x000001f4	7e-43
225	0x3319f42a	3.5845154e-08
226	0x00000000	0.0
227	0x000001f4	7e-43
228	0x311766d3	2.203184e-09
229	0x000001f4	7e-43
230	0x3319f42a	3.5845154e-08
231	0x000001f4	7e-43
232	0x144ec2f1	1.04387876e-26
233	0x3146e3df	2.8942322e-09
234	0x000001f4	7e-43
235	0x3319f42a	3.5845154e-08
236	0x00000000	0.0
237	0x00000000	0.0
238	0x3036cba8	6.650063e-10
239	0x000001f4	7e-43
240	0x3319f42a	3.5845154e-08
241	0x00000000	0.0
242	0x00000000	0.0
243	0x3089291d	9.979747e-10
244	0x000001f4	7e-43
245	0x3319f42a	3.5845154e-08
246	0x00000000	0.0
247	0x00000000	0.0
248	0x2fcd334b	3.732573e-10
249	0x000001f4	7e-43
250	0x3319f42a	3.5845154e-08
251	0x00000000	0.0
252	0x00000000	0.0
253	0x30288cae	6.131796e-10
254	0x000001f4	7e-43
255	0x3319f429	3.584515e-08

exp_avg f4 [128]
0	0xb3b1163f	-8.246251e-08
1	0xb8096ea0	-3.2766373e-05
2	0x35a3827b	1.2182421e-06
3	0xb257b96f	-1.255681e-08
4	0x381b0330	3.695785e-05
5	0xb793efc2	-1.7635411e-05
6	0x32d31a43	2.4575575e-08
7	0xb97e01c9	-0.00024223993
8	0x37a2dbf9	1.9414338e-05
9	0xb4c32e04	-3.635506e-07
10	0x3a0a1bfa	0.0005268451
11	0x352e94ac	6.50364e-07
12	0xbb114e58	-0.002217194
13	0x31649b8b	3.3266783e-09
14	0x399c114c	0.00029767526
15	0x382e8ff9	4.1618918e-05
16	0xb6a216ed	-4.830645e-06
17	0xb751bcfa	-1.250137e-05
18	0xb65bf108	-3.2773842e-06
19	0x39b667d1	0.00034791094
20	0x35116094	5.415725e-07
21	0xb2998a5d	-1.7874465e-08
22	0x35076228	5.0434255e-07
23	0x360308fc	1.952575e-06
24	0xb51d05b2	-5.8495345e-07
25	0x36caac18	6.0401035e-06
26	0x35b18c92	1.3228439e-06
27	0xb472627b	-2.2573833e-07
28	0xb6151e3a	-2.2220324e-06
29	0xb7fa36f6	-2.9827916e-05
30	0x3a115936	0.00055446045
31	0x37f6b454	2.9409457e-05
32	0x360daaab	2.110998e-06
33	0x3585a9a0	9.95864e-07
34	0xbb348b02	-0.0027548675
35	0xb87434c0	-5.822326e-05
36	0xb540115e	-7.1550846e-07
37	0xb64b0a24	-3.025526e-06
38	0x37943f4c	1.767245e-05
39	0xb78607d6	-1.5977694e-05
40	0x37212320	9.604526e-06
41	0xb828a456	-4.020737e-05
42	0xb2025449	-7.58616e-09
43	0xb9cecfba	-0.0003944615
44	0xb6ecbb0f	-7.0551246e-06
45	0x394a762c	0.00019308244
46	0xbacef0c8	-0.0015788311
47	0xb85c0f69	-5.246644e-05
48	0x39e3c502	0.00043443596
49	0x3a1d9470	0.00060111936
50	0x37daa98d	2.6066578e-05
51	0x3767e168	1.3821154e-05
52	0xb66a5c36	-3.492239e-06
53	0xb9136558	-0.00014056766
54	0x37fc1514	3.0050556e-05
55	0xb5a26436	-1.2099106e-06
56	0xb6537591	-3.1509883e-06
57	0x39a7a933	0.00031978785
58	0x351bfeb9	5.811267e-07
59	0x37029f26	7.785658e-06
60	0xbb87b495	-0.0041414
61	0xb69521b3	-4.444469e-06
62	0xb3bb0e0c	-8.710421e-08
63	0x33d14bdc	9.7461196e-08
64	0xba094d87	-0.0005237688
65	0x3690100d	4.293403e-06
66	0xb8da1968	-0.00010399782
67	0xb8354db7	-4.322614e-05
68	0xb8609276	-5.3542164e-05
69	0x369361d8	4.392332e-06
70	0xb7d08112	-2.4855635e-05
71	0x375203cf	1.2517862e-05
72	0xb9825499	-0.00024858562
73	0xbb083de7	-0.002078885
74	0xbb0cb4ce	-0.0021470073
75	0x36ca208c	6.023858e-06
76	0xb3d15488	-9.747697e-08
77	0x37c995e6	2.403087e-05
78	0x34d207f0	3.9121323e-07
79	0xb7f0fbc8	-2.8727474e-05
80	0xb8162080	-3.5793055e-05
81	0xb2ba279c	-2.1671262e-08
82	0xba57a957	-0.0008226833
83	0x3977fad6	0.000236492
84	0xb711f096	-8.698689e-06
85	0xb8103446	-3.438096e-05
86	0xb46001c8	-2.0862274e-07
87	0xb7ae461e	-2.0775067e-05
88	0x3ac46d08	0.0014986107
89	0x3816dbf2	3.5967627e-05
90	0xbb438fb7	-0.00298403
91	0xbb167900	-0.0022960305
92	0xb867e4db	-5.528783e-05
93	0xb9ed8e1a	-0.00045310037
94	0x3a36f244	0.00069788494
95	0x34449268	1.8307185e-07
96	0xb8313fa8	-4.2259373e-05
97	0xb80cf251	-3.3604276e-05
98	0x3990029d	0.00027467767
99	0x39fd9c3c	0.00048372324
100	0xb91a7146	-0.00014728782
101	0xb394fbce	-6.93759e-08
102	0xb892cf28	-7.0004084e-05
103	0x33bb1364	8.711393e-08
104	0xb395bf8d	-6.973196e-08
105	0xb3bd14e3	-8.8047976e-08
106	0xb4aaf1ca	-3.1840892e-07
107	0xb2fd01c2	-2.9453876e-08
108	0xb43adc68	-1.7402783e-07
109	0xb79c60d7	-1.8641744e-05
110	0xb48d7484	-2.6348073e-07
111	0x3688ef28	4.0809573e-06
112	0x38cecd10	9.861041e-05
113	0x3a4f597c	0.00079097576
114	0x38255250	3.9415725e-05
115	0xba2cf99e	-0.0006598475
116	0x39976277	0.00028874326
117	0xb6d7098e	-6.4086116e-06
118	0x33f912f2	1.1598412e-07
119	0x38a3a020	7.802271e-05
120	0xb38a0e2e	-6.428705e-08
121	0xb6efa730	-7.1422182e-06
122	0xb7f0906a	-2.8677478e-05
123	0xb91f2428	-0.00015176891
124	0x38178bd8	3.6131445e-05
125	0xba4ae276	-0.0007739434
126	0xb52b2710	-6.375931e-07
127	0x3a9ff27e	0.0012203006

exp_avg_sq f4 [128]
0	0x2ceec495	6.786192e-12
1	0x3319f42a	3.5845154e-08
2	0x2f8b4aa9	2.5337002e-10
3	0x2afcd134	4.4909356e-13
4	0x342b9267	1.5978877e-07
5	0x345074dd	1.9414024e-07
6	0x297f1d91	5.664702e-14
7	0x36946d24	4.4234494e-06
8	0x328665ed	1.5646004e-08
9	0x2cc45014	5.5795455e-12
10	0x37c39b4f	2.3318133e-05
11	0x309e4c9d	1.1517788e-09
12	0x3906ea1b	0.00012866447
13	0x273b7384	2.6014084e-15
14	0x3670d8c0	3.5888952e-06
15	0x359d04f2	1.1698851e-06
16	0x33d076cc	9.707364e-08
17	0x32b588ca	2.1133378e-08
18	0x323cfe66	1.1000884e-08
19	0x35a9787d	1.2626548e-06
20	0x2ee86e7e	1.0569766e-10
21	0x2895e6b6	1.6642378e-14
22	0x3537010c	6.8174336e-07
23	0x31b69ea2	5.3149316e-09
24	0x2f2cbcb2	1.5710347e-10
25	0x347b2e91	2.3393137e-07
26	0x34bab61b	3.47777e-07
27	0x2df347cd	2.7657788e-11
28	0x307095fd	8.752464e-10
29	0x36e389f3	6.7811866e-06
30	0x38d8ae36	0.00010332132
31	0x34c85e05	3.732131e-07
32	0x33f7fd0b	1.1547862e-07
33	0x339d118f	7.314076e-08
34	0x399d0ed4	0.0002995642
35	0x339f7993	7.426129e-08
36	0x2d9ccc73	1.782594e-11
37	0x2fa62179	3.0219008e-10
38	0x31e318ce	6.6093895e-09
39	0x3787a1f0	1.6168662e-05
40	0x36843f50	3.941277e-06
41	0x367da39b	3.7795169e-06
42	0x26a4cac0	1.1434742e-15
43	0x36bb5626	5.5830633e-06
44	0x32d7fe82	2.5145031e-08
45	0x369e1790	4.71151e-06
46	0x384d6718	4.8971822e-05
47	0x33676306	5.387394e-08
48	0x36f58ebe	7.3181864e-06
49	0x36aa1f04	5.0700055e-06
50	0x33c262cf	9.051802e-08
51	0x3507a289	5.052794e-07
52	0x3066cee9	8.396755e-10
53	0x3553fe1e	7.8973414e-07
54	0x34c6afc7	3.700827e-07
55	0x2eba4e7f	8.4722444e-11
56	0x303b217a	6.8077777e-10
57	0x37b0f1fb	2.1093516e-05
58	0x301621fc	5.4617977e-10
59	0x3196c356	4.3877817e-09
60	0x39aa12f9	0.00032439062
61	0x2fb38d7a	3.2660435e-10
62	0x2a8094dd	2.2840662e-13
63	0x2b3138c0	6.296179e-13
64	0x36712f1e	3.5939224e-06
65	0x3448663e	1.8663647e-07
66	0x37c24d4f	2.3162602e-05
67	0x34b39316	3.3448367e-07
68	0x3809d00c	3.2857104e-05
69	0x3301970f	3.017254e-08
70	0x348858ac	2.539649e-07
71	0x34a702c0	3.1108175e-07
72	0x37035cee	7.829845e-06
73	0x39043859	0.00012609492
74	0x38f35350	0.00011602661
75	0x34cb9343	3.7918844e-07
76	0x2d8c45c9	1.5947148e-11
77	0x330193e6	3.0169666e-08
78	0x35e38fb0	1.6954637e-06
79	0x32be48b9	2.2151982e-08
80	0x3504867e	4.9369544e-07
81	0x293ad2b1	4.1483042e-14
82	0x36793f18	3.7140617e-06
83	0x3699e1a5	4.586024e-06
84	0x34f66853	4.5896977e-07
85	0x34568c8b	1.9981432e-07
86	0x2beda467	1.6885494e-12
87	0x343bc8f9	1.7488846e-07
88	0x38418eac	4.614766e-05
89	0x347c27c9	2.3483803e-07
90	0x39922a19	0.00027878655
91	0x3943cb19	0.00018672309
92	0x364aad95	3.0201384e-06
93	0x3695b6ec	4.461841e-06
94	0x38447bbd	4.684528e-05
95	0x2e44a0d0	4.470807e-11
96	0x3755e6ad	1.2749498e-05
97	0x3368c0f1	5.419219e-08
98	0x37668b32	1.3741477e-05
99	0x35fb6070	1.8729024e-06
100	0x3636463c	2.7160995e-06
101	0x2a2f1408	1.5550072e-13
102	0x361e8ab8	2.362458e-06
103	0x2ab930ca	3.2896456e-13
104	0x2a7099f4	2.1369695e-13
105	0x2d1bdb40	8.859413e-12
106	0x3089dd60	1.003098e-09
107	0x28450886	1.0937545e-14
108	0x2d3960e7	1.0537549e-11
109	0x33eac706	1.0932676e-07
110	0x2df3e415	2.772719e-11
111	0x33f9753d	1.16162916e-07
112	0x37b8c33a	2.2025419e-05
113	0x3686a813	4.0130776e-06
114	0x32c011bd	2.2359808e-08
115	0x36551071	3.1749044e-06
116	0x372ba3d9	1.0230543e-05
117	0x30878eb8	9.863106e-10
118	0x2a778d6e	2.1987075e-13
119	0x3409c5d1	1.2831084e-07
120	0x2bd25766	1.4945655e-12
121	0x33e6417b	1.07221204e-07
122	0x357a0756	9.314293e-07
123	0x383ee261	4.551036e-05
124	0x336ec058	5.558863e-08
125	0x387f3d04	6.0853563e-05
126	0x2f9cf4a9	2.8550076e-10
127	0x3704b468	7.909817e-06
