results/hideandseek_09/Hide/Hide-436110.onnx (onnx, 153038 bytes, 7 tensors)

network_body._body_endoder.seq_layers.0.weight f4 [128, 158]
000000 a7 b1 2e bd e6 d4 db bc 8e 27 7a 3d 96 a1 5c 3e
       -0.04264989 -0.026834916 0.06107288 0.21546015
000010 bc 0b a8 3d 12 d5 b3 3d 21 0c f4 3d fc ab 3f bd
       0.08205363 0.08780874 0.11916376 -0.046794876
000020 2e 8f ce bd 86 3b 03 3e 69 e1 12 bd 5f ac 10 3d
       -0.10085903 0.12815675 -0.0358595 0.035320636
000030 fd cc 60 3d 25 3e 16 be 59 92 f8 b9 57 dc 4f bd
       0.054882992 -0.14672144 -0.00047411284 -0.05074724
000040 9f ce e1 bc 13 49 43 3c 26 9c 35 3d 87 0c 45 3d
       -0.027564345 0.011919278 0.044338368 0.04810765
000050 ea f4 ac bc 6a c1 78 bd 98 f2 2e 3d 5f a9 09 bd
       -0.021112878 -0.06073133 0.042711824 -0.03360879
000060 d7 31 dc bd 61 ba 25 3c 35 5c 0e bd a2 62 21 bb
       -0.10751694 0.010115237 -0.034755904 -0.002462544
000070 3b a9 d3 bd 89 e8 9d 3d 9a 3c d7 bd 99 6f 19 bd
       -0.103350125 0.07710368 -0.10509606 -0.037459943
000080 19 46 da bb e4 8f ce 3d c8 e8 81 bd 1f 41 67 3c
       -0.0066611883 0.10086039 -0.063432276 0.014114647
000090 75 83 72 bd 1e e9 92 3d f6 6e 0d bd ff a5 d6 bd
       -0.0592074 0.0717337 -0.03452965 -0.1048088
0000a0 13 0d e9 3d 71 19 45 bd 1b bc f5 bc 25 eb 0a 3d
       0.11379447 -0.048119966 -0.029996922 0.033915658
0000b0 e8 96 2e bd 2a 48 54 bc 69 c3 5d bc d4 65 b6 3c
       -0.042624384 -0.012956658 -0.013535359 0.022265352
0000c0 aa e6 0e be 98 21 46 be bc 94 89 bd 1a b8 d4 3d
       -0.13955179 -0.19348752 -0.06717822 0.10386677
0000d0 55 32 1e bd e7 d3 00 3e 5d c0 f5 3b 4f 9e 0c 3d
       -0.03862222 0.12580834 0.007499738 0.034330662
0000e0 a0 51 b8 bd 07 e9 5f bd 51 b5 12 bd a8 dc dd 3c
       -0.08999944 -0.05466559 -0.035817448 0.027082756
0000f0 41 dc 53 bc 8a e2 a7 3d 7a 7f 19 3d a0 3e bc 3c
       -0.012930931 0.08197506 0.037475087 0.02297908
000100 46 1d cb bd c2 49 71 bd fc 9f 1d 3e 70 8a 13 bb
       -0.09917693 -0.05890823 0.1539306 -0.0022512935
000110 45 c7 c9 3d db 85 c2 bd 62 5f 14 bd cb 46 1c bc
       0.09852461 -0.09498187 -0.036223777 -0.009538363
000120 d8 66 38 be 10 e1 2b 3e 8b 19 c7 bb 76 4f 26 be
       -0.18007982 0.16785073 -0.006076043 -0.1624125
000130 9d 73 f4 bd bb 40 8f 3d fb df 79 3c ef 0e ef 3c
       -0.11936114 0.06994768 0.015251155 0.029181926
000140 2f 59 36 3d 73 2a e1 bd cd 3f d7 3c 3f b9 a2 be
       0.044518646 -0.10994425 0.02627554 -0.31781957
000150 e9 44 c1 bd f7 e4 61 bd 79 8f a3 3c 44 2d 93 3d
       -0.09436972 -0.05515 0.019965874 0.07186368
000160 53 58 f6 3d b4 76 29 3d f3 57 17 3e a4 ad 1b 3e
       0.12028565 0.04137297 0.14779644 0.15202957
000170 a2 f5 d9 3c f5 6a d6 bc 5c 98 c1 bd f7 82 02 bc
       0.026606385 -0.026174048 -0.09452888 -0.007965795
000180 c4 b9 e0 bd ae f2 06 bc 61 0a 47 3d af cc d3 bd
       -0.10972932 -0.00823657 0.048593882 -0.10341775
000190 9b 4f b4 bd 33 b0 2b bb 0b 3b 17 bd ef 84 85 bd
       -0.08804246 -0.0026197552 -0.036921542 -0.06519496
0001a0 52 6c 17 3c 53 80 58 bc cf 51 47 3d 6f 76 cc 3d
       0.009242134 -0.013214189 0.048662003 0.09983527
0001b0 a3 34 d4 3c fd ad ce bd d7 4f ab 3d 90 6e f2 bd
       0.025904005 -0.100917794 0.083648376 -0.118374944
0001c0 13 53 a7 bd 95 de d7 bc 4b ce d8 bc 9a b5 13 be
       -0.08170142 -0.026351253 -0.026465556 -0.14424744
0001d0 44 b2 a3 3d 55 fd 6c 3d 84 33 47 bd 96 42 55 3d
       0.07992986 0.057858784 -0.048633114 0.052065454
0001e0 ba 7a 7d bd 5a c8 0a 3e 59 50 8d 3d 5f 51 c2 3b
       -0.06188462 0.1355299 0.06900091 0.0059301103
0001f0 41 e7 8d bc ed 14 8c bd 2e a7 c0 bd 4d 79 af bd
       -0.017322185 -0.06839929 -0.09406887 -0.08568058
000200 2c da 0d 3d 0b c8 68 3d 0d 9b ca 3d 1a 47 b8 3d
       0.034631893 0.0568314 0.09892855 0.089979365
000210 8b e2 20 3e 4f bd d3 bb a3 a0 95 3d c7 5f f1 3c
       0.1571142 -0.0064617763 0.0730603 0.029464616
000220 c5 2b 05 ba fe 36 fe 3d 3b fe 76 3d 91 c9 3d 3e
       -0.00050800695 0.12412833 0.060301047 0.18533923
000230 7a bb d4 bd 18 62 03 bd 06 d8 b4 bd 88 e0 07 3d
       -0.10387321 -0.03207597 -0.08830266 0.033173114
000240 57 6c f0 bd e9 24 c7 ba 5c f9 71 bc 25 62 2f 3d
       -0.11739414 -0.0015193495 -0.014768925 0.042818207
000250 c6 88 e9 bc 5d dd d7 3c 6c 8d 9d be 4e 71 25 ba
       -0.028507601 0.026350671 -0.3077196 -0.0006311134
000260 78 cb c4 bc c8 2f 3c 3d cb 27 0c be a4 11 60 3e
       -0.024022803 0.045944005 -0.13687055 0.2188173
000270 f1 8f 45 bd ed 0d 19 bd 42 a1 d3 3d 07 04 13 be
       -0.048232976 -0.037366796 0.10333492 -0.14357005
000280 0c 6c 8f 3a 4d 8f c8 bb ee 98 ff 3d e7 22 e5 bd
       0.0010942235 -0.0061205984 0.12480341 -0.11188298
000290 15 ee 83 3c df cc 60 3d 9c 9d 1f bc d8 2d 09 be
       0.016104737 0.05488288 -0.009742167 -0.13396394
0002a0 25 85 2c 3e 7f 49 5a 3e d8 f3 b8 3c 9d 1b 09 3e
       0.16847666 0.21317099 0.022577211 0.1338944
0002b0 8c b1 72 bd ec 2d 8f 3d f8 9a 84 3b 40 9d 34 3c
       -0.059251353 0.06991181 0.004046794 0.011023819
0002c0 e7 b4 9d 3d e5 46 0a 3c fc 91 10 3c 45 39 1b bd
       0.0770052 0.008439754 0.008823868 -0.037896413
0002d0 fc cc 9b bd c2 d1 b6 3b 8c 0b 0d 3e e0 f6 2d be
       -0.07607457 0.0055792043 0.13773936 -0.16988707
0002e0 25 a0 c0 bd af b6 e3 bd 79 2e 13 3d 7f a7 cf 3b
       -0.09405545 -0.111188285 0.03593299 0.0063371058
0002f0 61 94 bb bd b9 68 cf bd 23 a8 69 3c 8f f1 87 3c
       -0.091591604 -0.10127396 0.014261278 0.016594676
000300 79 45 8a bd 72 dd 39 bd da 8a ed bb 83 0a 5b bd
       -0.06751532 -0.045377202 -0.0072492184 -0.05347682
000310 e2 b2 95 3c 3f f0 0b be 58 9c 06 bd 41 d1 3f 3d
       0.018273775 -0.13665865 -0.032863945 0.04683042
000320 ef d3 23 bd 85 6b 32 bd cf 68 05 be 00 f5 99 bd
       -0.039997038 -0.04355957 -0.13028263 -0.07517433
000330 4e ab de bd 79 34 a1 b9 c1 5f 2f bd a1 a1 0a bd
       -0.108725175 -0.00030747408 -0.042815927 -0.033845548
000340 0f 6c 30 bd 29 67 0b bd c2 11 84 3a 5a fe 5d 3d
       -0.043071803 -0.034033928 0.0010076093 0.054197647
000350 4f 3b 88 be 76 17 91 bd ee 1b 8d bd 8f 66 8f bd
       -0.2660775 -0.07084553 -0.06890093 -0.070019834
000360 15 79 7b bc 8b 5f 02 be e3 2b 4f 3d c3 05 d3 3c
       -0.015348692 -0.12731759 0.050578963 0.025759583
000370 e8 d0 05 bd c8 0c ef bd b3 5a 29 be fa 2a b7 3c
       -0.03266993 -0.1167236 -0.16538505 0.02235936
000380 0c ec 80 3b fe cc 0d 3d be 9c 39 bd 91 45 3a bd
       0.003934389 0.034619324 -0.045315497 -0.0454765
000390 4a 76 d9 3d aa b3 48 3d 43 44 85 3d 67 7a 02 be
       0.10618265 0.048999466 0.065071605 -0.12742005
0003a0 68 ea 7c bd d8 1b bf 3d f5 c3 c3 3b d1 a6 ff bc
       -0.061746985 0.09331483 0.0059742876 -0.031207474
0003b0 82 53 f8 bd 3e f7 28 bd 63 36 0d bd 12 da a1 3d
       -0.12125303 -0.041251414 -0.034475695 0.07902922
0003c0 d9 30 84 3d 17 68 8c 3c 6b ca 55 be 0f 6a 05 3d
       0.064546295 0.017139478 -0.20877998 0.03257185
0003d0 16 45 c6 3d 22 82 4f 3d fa 8f 3a be 71 2f 42 bd
       0.09681146 0.050661214 -0.18218985 -0.047408525
0003e0 00 ba 89 3d 86 e5 e4 bd 64 1e 77 3e b7 5c fb 3c
       0.0672493 -0.111765906 0.24132687 0.030683858
0003f0 c0 70 a9 3d 0d a8 b6 bd 2f b2 35 bd bf 9d 1c 3e
       0.082734585 -0.08918772 -0.044359382 0.1529455

network_body._body_endoder.seq_layers.0.bias f4 [128]
000000 87 72 b7 3c bb c5 b5 bc 7f ac 13 bd 84 ce 22 be
       0.022393478 -0.022189012 -0.036053177 -0.15899092
000010 a4 68 94 bc 96 8d 89 bd f7 f8 0f be 96 c0 70 bd
       -0.018116303 -0.067164585 -0.14059816 -0.058777414
000020 97 eb dc bd 5e 05 7c bb af c2 b4 bd 49 65 0a be
       -0.10787123 -0.0038455348 -0.088261954 -0.135152
000030 ad 65 8f bc 60 06 95 3c 56 b9 26 bd 01 67 25 be
       -0.017504537 0.018191516 -0.040704094 -0.16152574
000040 28 7f 9c bd 2a b4 26 bc f6 12 3b bd 54 17 ad bc
       -0.07641441 -0.01017479 -0.04567238 -0.021129288
000050 75 f5 ca bc ea ba 05 be 9b b5 63 bc 84 16 83 bc
       -0.024775246 -0.13059583 -0.013898279 -0.016001947
000060 8f 3b be bc d6 c6 5a bc 45 19 d6 bc 54 80 23 be
       -0.02322176 -0.01335307 -0.026135096 -0.15966922
000070 d5 a3 7e be 6b 73 46 bc d6 e8 69 bc a3 84 92 bc
       -0.24867184 -0.012112479 -0.014276704 -0.017885512
000080 15 d9 b4 bb 51 82 49 bd 78 15 34 be 8f 69 b5 bc
       -0.0055190423 -0.049196545 -0.17586315 -0.02214506
000090 28 f0 80 bd b0 01 17 3d 9d 2d 11 bc 66 68 dd bc
       -0.06295806 0.036866844 -0.008860973 -0.02702732
0000a0 69 2a ed bc 4b 0f f1 ba 30 67 03 be 71 75 1a be
       -0.028950887 -0.0018391398 -0.12832332 -0.15083863
0000b0 60 29 88 bd 74 87 98 bd 23 48 4f 3c 7a 03 a5 bc
       -0.06648517 -0.07447711 0.012651476 -0.02014326
0000c0 1c f5 8a bd f1 37 87 bd f9 f4 ff 3c 05 d4 52 bd
       -0.06785032 -0.06602467 0.031244742 -0.05147173
0000d0 40 be fb bd ac 77 af bc 2f 0a 93 bd 47 7d c4 39
       -0.12292147 -0.021419369 -0.07179677 0.00037477372
0000e0 93 fc cc bc 69 fa a2 bd 3a fb 2f be bc cc 62 bd
       -0.02502278 -0.07957918 -0.17185679 -0.05537103
0000f0 45 d3 2c 3b 9e cd 9d bd a5 dd 4f bd c3 57 69 bb
       0.0026371044 -0.07705234 -0.050748486 -0.0035605289
000100 8d 38 ae bd 66 78 5a bd 70 3e bb bd fb 2e 5d bd
       -0.0850688 -0.053337477 -0.091427684 -0.053999882
000110 15 ee 8b bd df 40 9a bc 91 37 21 bc 72 84 1a bd
       -0.0683252 -0.018829761 -0.009839908 -0.037723966
000120 70 1e 42 bd cf 30 e3 bd cb d5 91 bd e5 e3 9b 3a
       -0.04739231 -0.11093294 -0.07120856 0.0011893479
000130 43 d5 8d bd eb 17 59 bd 1a 9a 28 bd e8 d5 21 be
       -0.06925442 -0.053001326 -0.041162588 -0.15804255
000140 9b 33 18 be 3c 60 93 3c e8 5a ed bc 4a 7d aa bc
       -0.14863436 0.017990224 -0.028974012 -0.020811696
000150 b9 3f 89 bc 6f a4 8d 3c 41 6c 92 bc db 7b 6e bd
       -0.016754018 0.017290322 -0.017873885 -0.058223587
000160 46 12 e1 bd c4 d1 eb bc a3 0d 03 be 60 e7 ee bd
       -0.109898135 -0.028786547 -0.12798171 -0.11665225
000170 45 72 1b be c1 52 c5 bd 2f 59 e3 bd aa 8b 8d bd
       -0.15180309 -0.09634925 -0.11100995 -0.069114044
000180 ca b5 22 be e9 1b 3a bd 6c e1 55 bd 88 c9 c8 bd
       -0.1588966 -0.045436773 -0.052216932 -0.09804064
000190 36 51 dc bd 34 79 aa bd 92 23 29 be 2b 71 6b bc
       -0.10757677 -0.08323899 -0.16517475 -0.014370243
0001a0 8e 28 85 bc 7e 2f 6c ba 0e 99 b4 3b 2d 01 b8 bd
       -0.01625469 -0.00090097624 0.0055114096 -0.08984599
0001b0 b0 5d 0c be 80 5c 00 bd d2 f7 03 bd 66 03 df bd
       -0.13707614 -0.031338215 -0.03221876 -0.1088932
0001c0 23 36 c1 bd 6c 7b c2 bd 03 c6 82 bc f7 b7 21 3c
       -0.09434154 -0.09496197 -0.01596356 0.009870521
0001d0 69 71 59 be c2 77 9a bd 3b ac 29 bd 46 26 04 bd
       -0.21234669 -0.07542373 -0.041424017 -0.032263063
0001e0 d4 97 04 bd 19 ca 19 3b f0 66 2d be f3 b5 9c bc
       -0.032371357 0.0023466407 -0.16933799 -0.019129729
0001f0 41 26 e5 bc 89 d8 dc bc 74 be e0 bd 42 f4 c0 bd
       -0.027972342 -0.02695872 -0.10973826 -0.094215885

network_body._body_endoder.seq_layers.2.weight f4 [128, 128]
000000 ed 88 ce bc d1 86 50 3c 54 05 ef bc 7e 4b 32 b9
       -0.025211776 0.012727455 -0.029177345 -0.00017003526
000010 a2 4a 6a bd 75 c8 a2 3b 3c 54 cb 3d d5 3a 1f bd
       -0.05720008 0.004967744 0.09928176 -0.038874466
000020 aa 21 7f be 73 61 3f be c1 a9 83 3c 14 49 b0 bd
       -0.24915186 -0.18689518 0.016072156 -0.086076885
000030 95 1d 0a bd 5f 80 0c be 5d 9f 77 bd ef e2 8c 3d
       -0.033719618 -0.13720845 -0.060454715 0.06879222
000040 e2 31 99 bd 1f 11 ff 3d ae b1 21 bd f3 c4 06 3e
       -0.074802175 0.124544375 -0.03947609 0.13161068
000050 4e f4 9a bd 08 30 85 3b cd 99 91 3d f0 21 c2 bd
       -0.07566129 0.0040645637 0.07109413 -0.09479129
000060 45 3b 09 3d 84 e7 86 3d 4e b3 17 3d c4 f9 40 3d
       0.03350379 0.06587127 0.037036233 0.047113195
000070 11 cd 93 bd 85 71 ce bd 01 78 b6 bd db 5c 47 3c
       -0.07216848 -0.10080246 -0.08909608 0.012168135
000080 5e 75 21 bd 18 ca 47 bd 73 88 f8 bd d9 6c 31 3e
       -0.03941857 -0.048776716 -0.121354006 0.17326678
000090 81 7f b1 3d 99 90 ff 3d e4 3d 3b bd f4 cf 90 3d
       0.086668976 0.12478752 -0.04571332 0.07070914
0000a0 96 62 82 3d de 5f 23 3e a4 3e e7 3d 45 6b 84 bd
       0.0636646 0.15954539 0.112912446 -0.064657725
0000b0 27 02 d9 bd 30 75 86 3c e9 38 af 3d f1 21 8e bc
       -0.10596114 0.016413301 0.085557766 -0.017350169
0000c0 1c b8 4e bd f4 d8 a0 bd 67 fa 82 3d 3d b6 62 3d
       -0.05046855 -0.078538805 0.06395417 0.055349577
0000d0 3a 3a 03 3d 98 ba 7d bd d3 21 8b bd 05 5f bb bb
       0.03203795 -0.061945528 -0.06793561 -0.0057181143
0000e0 09 5e f0 3d 10 48 b9 bd 18 fb a7 bd 5a 9e 98 bd
       0.11736686 -0.09046948 -0.08202189 -0.07452078
0000f0 a0 b8 11 be b8 e7 f9 bc 5f 29 17 bd d7 f6 e5 bd
       -0.14230585 -0.030506 -0.03690469 -0.112287216
000100 c0 fb c8 bd 02 64 aa 3c 5d 22 91 3d ad e8 57 be
       -0.098136425 0.02079964 0.070866324 -0.21084853
000110 6c 64 dd bd 8d f1 a6 3d 20 c4 18 bd c5 a1 64 bc
       -0.108101696 0.08151541 -0.037296414 -0.0139545845
000120 33 b0 db 3c 27 97 28 be 5f 56 7f bd 05 cb b6 bc
       0.026817417 -0.1646391 -0.06233823 -0.022313604
000130 52 c5 95 3d 08 0b 51 be 24 63 a9 bd 2f 12 a1 3d
       0.073130265 -0.20414364 -0.08270863 0.07864796
000140 e9 ef eb bd 9a bb 01 be 55 3a 00 3d 62 57 e8 bc
       -0.115203686 -0.1266922 0.03130563 -0.02836198
000150 0f b3 e0 bc b2 5c 38 bc 89 66 07 3d c1 7c 62 bd
       -0.027429132 -0.011252569 0.03305677 -0.055294756
000160 16 38 9f bd e5 c2 e6 3d 1a 3e 35 be 1e 3c 5a 3d
       -0.077743694 0.11267642 -0.17699471 0.05327999
000170 58 94 32 bd 95 43 a2 bd 3f c5 be bd ef d6 f1 bd
       -0.043598503 -0.079230465 -0.093149655 -0.118085735
000180 a0 9a 27 3d 19 76 a8 bd 09 6a 58 3d b6 c8 ce bd
       0.040918946 -0.0822565 0.052835498 -0.10096876
000190 d0 93 17 3d ea 7d 46 bc 40 ed 2a be 95 f8 bb 3d
       0.0370062 -0.012114981 -0.16692066 0.09178273
0001a0 6e 73 14 be 39 4c 91 bd 4d a8 fa bc 32 79 03 be
       -0.14497158 -0.070946164 -0.03059783 -0.12839201
0001b0 65 ea 4a be 7e 3c bf 3d 90 8a ec bc 0c d8 7e 3d
       -0.19815977 0.0933771 -0.028874665 0.062217757
0001c0 0a 05 4a 3d c3 fc 2f bb 04 6d 9e bc 2e e7 da bd
       0.049321212 -0.0026853539 -0.019339092 -0.10688625
0001d0 c8 65 02 3e 2d 4a 8f 3d db 84 85 bd e0 c2 56 bc
       0.12734139 0.0699657 -0.06519481 -0.013107985
0001e0 30 ac 87 3d e5 bb 26 bd 37 18 52 bd 4d 48 36 be
       0.06624639 -0.040706534 -0.051292624 -0.17801018
0001f0 a8 04 98 bd 62 46 45 bd aa 6d 86 be 3a 93 43 3d
       -0.07422763 -0.048162825 -0.26255542 0.047747828
000200 b6 f4 0d bc 10 6d 07 bd 75 42 b9 bd 10 91 b3 3b
       -0.008664301 -0.033062994 -0.09045879 0.0054799393
000210 88 e1 da 3d 27 c9 24 be dc f2 ed 3c be 43 36 be
       0.10687548 -0.16092359 0.029046468 -0.17799279
000220 de 8c eb 3b c2 7c e6 bc e3 f8 5a 3a f3 88 b0 bc
       0.0071884235 -0.028135661 0.0008353127 -0.021549677
000230 d4 de 6a bc 11 69 24 bd 3b 9d 5b ba 42 55 2e be
       -0.014335353 -0.04013926 -0.0008377616 -0.17024711
000240 ee ce 34 bd 7c b5 e7 3d fb fc c5 bd b4 66 6e bd
       -0.044142656 0.11313912 -0.09667393 -0.058203414
000250 ee 27 01 bd 42 c2 7b 3d 07 ee 3b bd ec 17 61 bd
       -0.03153222 0.061464556 -0.045881297 -0.054954454
000260 f5 71 36 bd d4 34 71 bd cb a2 f2 3d c7 87 03 bc
       -0.04454227 -0.05888827 0.118474565 -0.008027977
000270 05 f1 eb bd a0 a3 45 bd cb c3 5a 3c 31 cf ab 3d
       -0.1152058 -0.048251748 0.013352345 0.08389128
000280 56 1a d6 3b 1f bf f5 bd fb 5c e4 bd 0f 6d a9 3e
       0.006533901 -0.11999344 -0.11150547 0.33091018
000290 e8 b5 eb bc d5 d7 c9 3c 94 f9 8a 3e dc eb ba 3c
       -0.028773263 0.02463905 0.27143538 0.022817545
0002a0 6a 54 44 bd 4b 1f ed bd 74 87 56 bc 95 31 81 bd
       -0.047932066 -0.11578234 -0.013093818 -0.06308285
0002b0 1f 01 6b 39 51 69 42 3d 26 93 e0 3b f7 48 8c 3c
       0.00022411764 0.04746372 0.006853479 0.017124636
0002c0 5a 7a ae bd 29 e3 94 bd a1 e5 21 bc a5 99 c0 3d
       -0.085194305 -0.0726989 -0.009881408 0.09404305
0002d0 2f 47 6b be f4 37 de bd 09 2d 27 3d 62 36 b7 3c
       -0.22976373 -0.10850516 0.040814433 0.022364799
0002e0 8f a3 3b 3e f8 b9 1b be ee 47 be bd b4 1c ef bd
       0.18324111 -0.1520766 -0.09291063 -0.116753966
0002f0 66 cd 66 be e6 f8 11 be 62 49 6f 3c 58 de 8e 3d
       -0.22539291 -0.14255103 0.014604898 0.069760025
000300 fa 9b 82 3c c3 f9 5f bd 35 45 00 be b3 89 d7 bd
       0.015943516 -0.05468155 -0.125264 -0.10524311
000310 6c 69 3d be fc db bc 3c 32 2f 42 3e f6 f3 aa 3d
       -0.18497247 0.023054115 0.18963316 0.08347313
000320 48 59 5f 3d 31 ec 9a 3c 97 8f 11 3d bd 1b 04 bd
       0.054528505 0.018911453 0.03553733 -0.032253016
000330 01 eb f4 bd f0 ca 3c be 6a 04 09 3e f6 82 a1 bd
       -0.11958886 -0.1843679 0.1338059 -0.07886307
000340 4e 9d 0c 3e dd 5d 91 bd 44 51 86 bd 4f 0a af bd
       0.13731882 -0.07097981 -0.06558469 -0.08546888
000350 21 8a 33 bd 0b a7 26 be 43 69 09 be c5 3b d1 3c
       -0.043832902 -0.1627466 -0.1341906 0.025541196
000360 99 1c ec ba bf 69 10 3d ce 36 9f bd 7f 2d 49 bc
       -0.0018013894 0.035257097 -0.07774125 -0.0122789135
000370 a0 66 1f 3e 44 59 43 3d b6 11 06 3e 37 58 a7 bd
       0.15566492 0.047692552 0.13092694 -0.081711225
000380 00 77 a1 be e9 a1 d4 3d a0 19 ee 3d 24 da a4 3b
       -0.31536102 0.103824444 0.11625981 0.005030887
000390 cf 9d 16 3e b8 3c 33 be 6e 63 96 bd 8c a5 91 bd
       0.14708637 -0.17503631 -0.073431835 -0.07111654
0003a0 25 e8 bc bd c6 47 0a 3e 3f 42 fe bd 24 a8 89 3d
       -0.092239656 0.13503942 -0.12414979 0.067215234
0003b0 f2 0d cb bc fe ec 84 3e e5 8d 9e 3e 02 f3 99 bd
       -0.024786923 0.2596206 0.30967632 -0.07517053
0003c0 95 34 48 bd 67 5f fc 3c f3 c7 d7 bc 58 7f d3 3c
       -0.04887827 0.03080721 -0.02634046 0.025817558
0003d0 c5 6e 14 3d 07 19 f2 bd ec e0 22 bc 79 da 34 be
       0.03623845 -0.1182118 -0.009941321 -0.17661466
0003e0 7e 5e 11 3d 80 cc 96 3d ea f2 21 bc 8a 92 33 be
       0.035490505 0.07363224 -0.009884575 -0.17536369
0003f0 70 cb 67 bd e3 24 56 3d 47 f7 19 3d 84 c7 65 bd
       -0.056590497 0.05228127 0.037589338 -0.056098476

network_body._body_endoder.seq_layers.2.bias f4 [128]
000000 87 2a 8c bd 2b ad bb 3c ff 42 fd bc bb a5 15 be
       -0.06844049 0.022909721 -0.030915735 -0.14614002
000010 53 08 67 bd e2 f3 a7 bd 0b 59 bf 3a 8c c8 80 bb
       -0.056404423 -0.08200814 0.001459868 -0.003930157
000020 4c 71 9b bd fe 0e a4 bc b5 66 10 bd 37 fa d2 3c
       -0.07589969 -0.02002668 -0.0352542 0.025754077
000030 99 db 06 3d 2e a9 70 bd 92 08 0e bd c4 dc 23 3c
       0.03292427 -0.058755092 -0.034676142 0.010001365
000040 94 64 b3 bb 61 02 e8 bc 87 04 61 bd ca 78 90 bd
       -0.0054746363 -0.028321447 -0.05493596 -0.07054289
000050 d5 95 ba bd 42 01 4c bc 0d c8 94 bd df 00 69 bd
       -0.091106094 -0.012451472 -0.07264719 -0.056885596
000060 57 6a aa bc 6a 7a 6c bc 48 da c7 bd cd cb 6d bd
       -0.02080266 -0.014433483 -0.09758431 -0.058055688
000070 a0 15 09 bd ca 6e 93 bd e0 49 e8 bc d5 0b 3f 3d
       -0.03346789 -0.07198866 -0.028355539 0.046642143
000080 9f fc 1b bd 8d 30 78 bd 4a 18 0a bb e6 e1 10 bd
       -0.038082715 -0.060593177 -0.0021071606 -0.035371684
000090 9b 35 82 3d e1 8a 5d bd 36 1c c6 bd 65 05 31 bd
       0.06357881 -0.054087523 -0.096733496 -0.043218035
0000a0 f3 68 08 bd 0f 52 07 bd c5 b5 f5 ba ff 05 60 bd
       -0.033303212 -0.03303724 -0.0018746188 -0.05469322
0000b0 17 36 e6 bc 39 91 be 3b a9 e0 5e bc d9 33 d2 3c
       -0.028101964 0.0058156517 -0.013603368 0.025659489
0000c0 23 56 dc bd 02 90 4e bd a0 18 68 bc db bf 88 bd
       -0.10758617 -0.050430305 -0.014166027 -0.066772185
0000d0 6f 5a 56 bc 3e ab a7 bd 72 09 b4 bd 1d 29 42 bd
       -0.0130830845 -0.08186959 -0.08790864 -0.04740249
0000e0 9d 2b 09 be fa 31 2e 3d ae 49 78 bd 08 1e 29 bd
       -0.13395543 0.04252813 -0.06061714 -0.041288406
0000f0 cf ac 6e bd e4 32 80 bd 6d 10 bb bc 92 88 31 bd
       -0.058270272 -0.062597066 -0.02283498 -0.043343134
000100 6d 17 88 bc b8 cc ba 3b d3 68 5b bd aa 2e 08 bd
       -0.016612733 0.005700674 -0.053566765 -0.033247627
000110 35 d5 6d bd ae 18 76 3c aa 5d 8a bd ff 8b 7e bd
       -0.05806466 0.0150205325 -0.06756146 -0.06214523
000120 1d d5 89 bd e9 0f 18 bc 41 f9 90 bd e2 3b c3 bd
       -0.06730101 -0.009281137 -0.070787914 -0.09532906
000130 bb 37 f6 bc c8 7a 5e bd dc f1 03 bd 5a 7e 20 bc
       -0.030055871 -0.054316312 -0.032213077 -0.00979575
000140 44 d6 80 bc 13 48 40 bd eb 26 28 bd a4 d5 6e bd
       -0.01572717 -0.046943735 -0.04105274 -0.058309212
000150 db 2f dd bc 64 38 f9 bc 81 0b 6d bd 99 d4 d7 bd
       -0.027000358 -0.030422397 -0.0578723 -0.10538597
000160 d6 24 27 bd 91 d3 db 3b 4d ef f4 bc 40 22 67 bd
       -0.040806614 0.0067085703 -0.029899264 -0.056429148
000170 60 2d 8b bd 0f 04 25 bd 28 0d a6 bd 4c 02 c4 bc
       -0.06795764 -0.040287074 -0.08107978 -0.023926876
000180 2e b9 22 be e3 0e 14 bd 8a 06 57 bd 5c 96 5b bd
       -0.15890953 -0.03614701 -0.05249647 -0.05361019
000190 52 4d ac bc a4 79 27 bd 0e ac 16 3c 08 96 80 bd
       -0.021032963 -0.04088749 0.0091962945 -0.06278616
0001a0 13 08 84 bd 04 f7 89 bc 6a 53 dc 3c e6 0c e1 bd
       -0.064468525 -0.016841419 0.026895244 -0.10988788
0001b0 ce d8 b7 3c 26 7c 63 bd 0b b3 4e bd e7 38 aa bc
       0.022442248 -0.05553832 -0.050463717 -0.020779086
0001c0 ca c2 00 bd c4 c4 0f 3b b0 82 a2 bd 29 8f 34 bc
       -0.031435765 0.002193735 -0.07935083 -0.01102046
0001d0 45 23 cb 3b e4 66 9b bd 95 b6 89 bc a9 ca cd bd
       0.006199273 -0.07587984 -0.016810695 -0.1004842
0001e0 6f 0e 5d bc 21 e0 8b bd 7e 48 66 bd 44 3a 4a bc
       -0.013492211 -0.068298586 -0.056221478 -0.012342993
0001f0 74 ce cb bd 33 4d 37 bd 98 a2 8b bd 13 dc bb bd
       -0.09951487 -0.044751357 -0.06818122 -0.09172835

action_model._continuous_distribution.log_sigma f4 [1, 2]
000000 35 91 7f be a9 bb 16 be
       -0.24957736 -0.14720024

action_model._continuous_distribution.mu.weight f4 [2, 128]
000000 97 d0 82 3d 24 a6 5e 3d 53 c2 31 3d 4a fe ba 3c
       0.063874416 0.054357663 0.043398213 0.022826333
000010 24 bb 6f 3d 29 f0 2a ba a1 1f 06 bc 28 9a a0 3d
       0.05852808 -0.0006520772 -0.008186252 0.07841903
000020 45 2f 85 3c 21 dd 80 3d 9c 72 0a 3d 5a bd 03 3d
       0.016257891 0.06292177 0.033800706 0.032163
000030 5e 15 db bc 7c 71 fd 3c 79 ee 88 3d 68 e2 71 3d
       -0.026743587 0.030937903 0.0668611 0.05905381
000040 b8 eb ae 3d 1a 68 40 3d 4f a9 54 3d f8 f2 ce 3c
       0.085410535 0.04697428 0.051919278 0.02526234
000050 72 e7 76 bb bd ef a7 3d 39 c5 56 3d 21 37 b8 bb
       -0.0037674573 0.08200023 0.05243418 -0.0056218063
000060 7b 29 9b 3d 9d c4 18 3d ed 26 77 3d e1 d3 0d 3c
       0.07576271 0.03729688 0.060339857 0.008656473
000070 af 62 1d 3d ed 96 d4 3c 51 a0 8c 3d 28 0c 80 3d
       0.03842419 0.025950873 0.068665154 0.062523186
000080 88 c8 bf 3c 09 31 37 3d 52 cf 1f bc 0c 07 11 3d
       0.02341105 0.044724498 -0.009754019 0.03540711
000090 46 b4 6e 3c cb 2f 58 3c d7 8a d4 3c 38 ce 2f 3d
       0.014569348 0.0131949885 0.02594511 0.042921275
0000a0 fb 11 e1 3c 3e b7 1f 3c b0 8f ac 3d 01 23 29 3d
       0.027474394 0.009748278 0.08425844 0.041293148
0000b0 3e 5f db b9 39 d3 bb 3d 2a 97 61 3d a7 cc 88 3c
       -0.00041841896 0.09171147 0.055075802 0.016699148
0000c0 7e 08 6e 3c ca 7c 95 3c 5e 78 1a ba c7 1a c7 3c
       0.014528392 0.01824798 -0.000589257 0.02430476
0000d0 79 1c 0a 3d fc 50 fd 3c 6c a6 6d 3d 6e 05 b7 3c
       0.03371856 0.030922405 0.05802004 0.022341456
0000e0 73 df b9 3c df 26 10 bd f5 53 57 3d 52 82 29 3d
       0.022689557 -0.03519332 0.052570302 0.04138405
0000f0 72 10 36 3d 3c ec b0 bb 39 6d 8f 3d 73 87 8a 3c
       0.044449277 -0.005399255 0.070032544 0.01691029
000100 fb ea f8 3c ed 8d 69 3d f3 c2 27 3d ac cf 10 3d
       0.030385485 0.057020117 0.040957402 0.0353543
000110 4b 6d 02 3d 01 09 cb 3c 90 b3 d8 3a 7a bd 54 3d
       0.03184251 0.024784567 0.0016533006 0.05193851
000120 f6 45 3e 3c aa 81 6d 3d 97 2c a7 3b 6b 45 81 3c
       0.01161336 0.057984985 0.005101751 0.015780171
000130 2b 61 91 3d b9 ba 46 3d c8 8f 01 3d 66 f9 b6 3d
       0.070986114 0.048517916 0.03163126 0.08934288
000140 e8 c3 76 3d 24 7d a3 3c 02 1a 49 3d 68 99 74 3d
       0.060245425 0.019957133 0.04909707 0.059716612
000150 0c ca 34 3d b2 93 83 3d 36 83 d2 bc e3 ba 54 3c
       0.044138 0.06424655 -0.025697332 0.01298401
000160 14 a1 88 3d 95 57 4a 3d b2 c3 6e 3d f0 5b a0 3c
       0.06671348 0.04939993 0.0582921 0.01957509
000170 25 72 f1 3c 00 7c a2 bc 2b 5c 89 3c 36 60 25 3d
       0.029473374 -0.019834518 0.016767582 0.040374957
000180 81 d6 28 3d 81 b6 36 bc 2a 47 c7 3c da e4 87 3d
       0.041220192 -0.011151911 0.024325926 0.06635447
000190 e3 0b 38 3d a9 0d 8c 3d 86 58 aa 3d c8 39 4a 3d
       0.04493321 0.06838543 0.08317666 0.04937151
0001a0 f4 57 52 3d 73 8c b2 3d 06 9f c7 bc 73 6d 2d 3d
       0.05135341 0.08718195 -0.02436782 0.042340707
0001b0 60 64 7d 3d 91 63 2e 3d 2c dc 13 3d 0c 60 8b 3d
       0.061863303 0.042575423 0.036098644 0.06805429
0001c0 5d 23 8b 3d ed 2b 23 3d 9e 1b e2 3c 11 52 09 3d
       0.067938544 0.039836813 0.02760106 0.03352553
0001d0 1b 75 29 3d 26 73 9c bb c5 7a a1 3c 9b 5e 08 3d
       0.041371446 -0.004774469 0.019711861 0.033293348
0001e0 22 a3 2b 3d 86 58 69 3d 1e 63 6a 3d d0 2f dd bc
       0.041903622 0.05696919 0.05722343 -0.027000338
0001f0 f6 cb 06 3c 6f e8 86 3d 4d f1 22 3d f5 0a 3b 3c
       0.008227339 0.06587302 0.039780904 0.011416187
000200 75 52 86 3d a2 61 ab 3d b8 de 92 3d 2e d9 51 3d
       0.06558696 0.08368231 0.071713865 0.05123251
000210 eb 91 c2 3a 55 c7 3e 3d e9 c9 88 3d 21 8e db 3b
       0.0014844512 0.046576817 0.06679136 0.0067002927
000220 d2 8c 8b 3d 7a c6 b3 3d ee de 9e 3d ac d5 b5 3b
       0.06813969 0.08778091 0.07757364 0.0055491533
000230 c2 01 ea 3a 91 4d 74 3d df 69 07 3d 63 c9 f9 3c
       0.0017853307 0.059644286 0.03305995 0.030491536
000240 8b 48 d2 3d c6 ca c4 bc 39 e6 48 3d 2a f2 65 3d
       0.10267743 -0.024022471 0.049047682 0.05613915
000250 18 ee 58 3c 01 8d c3 bc e8 7b 88 3d 72 4a 1f bd
       0.01324036 -0.023870947 0.06664258 -0.038889356
000260 91 37 e3 3d b6 c5 6a 3d 61 d0 6a 3d 2d 54 a4 3d
       0.11094583 0.057317458 0.05732763 0.08023868
000270 3e a2 ab 3d 8b 8e 61 3d 13 98 db 3c 36 c0 95 3d
       0.083805546 0.05506758 0.026805913 0.07312052
000280 b3 c6 60 3c 15 d7 26 3d a9 4e 7d 3d 8e c7 82 3d
       0.013719249 0.040732462 0.061842594 0.06385718
000290 c8 ab a1 bd cc 9d 40 3d 2a a0 63 3d 8a 85 40 3d
       -0.07894093 0.047025487 0.055572666 0.047002353
0002a0 b0 8d 61 3d 68 73 b3 3d 07 f0 75 bd d7 de 91 3d
       0.055066764 0.08762246 -0.06004336 0.071225815
0002b0 bd dc 37 bd 0f 3c 6c 3d 0e 2f dd 3c b6 2e e0 bc
       -0.044888247 0.057674464 0.026999976 -0.027366024
0002c0 d4 ac 77 3d 38 fa 69 3d 4b 18 4c 3d 57 53 79 3d
       0.060467556 0.057123393 0.049827855 0.060870495
0002d0 00 80 6e 3d 76 b4 4d 3d de 7b 7f bd c8 2a b0 3c
       0.05822754 0.05022093 -0.06237399 0.021504775
0002e0 aa f5 16 3d cf d7 d5 3b cd 28 a9 3d b5 df d8 bc
       0.036855377 0.0065259705 0.08259735 -0.02647386
0002f0 a1 84 32 3d 65 e5 64 3d 8b fd 12 bd 7f 0d aa 3c
       0.043583516 0.05588283 -0.03588633 0.020758389
000300 fa 02 bc 3c 76 3b 08 bd f8 e0 3e bd 8d 20 8d bd
       0.022950638 -0.03325983 -0.046601266 -0.06890974
000310 bb 02 da 3c 49 1c 69 3c 3f 49 66 3d 77 8c 54 3d
       0.02661263 0.014227935 0.056222197 0.05189177
000320 b2 3a 82 3d de 0e 6e 3d 81 4d 80 3d 31 de 43 3d
       0.063588515 0.058119647 0.06264783 0.04781932
000330 3a bc 5e 3d c9 a5 62 3d 54 c6 3c bd e9 8b 73 3d
       0.054378726 0.055333886 -0.046087578 0.0594596
000340 b6 6a 14 3d 49 2a 59 3d 53 e9 7e bd c4 03 d3 3d
       0.03623458 0.053018842 -0.062234234 0.103034526
000350 ef de e6 bb 3e b4 55 3d 0d 6a 4a 3d 08 a0 35 3d
       -0.0070456187 0.052173845 0.049417544 0.04434207
000360 fd f2 cd 3d 12 93 a6 3d 9d 07 4b 3d 82 05 22 bc
       0.10056112 0.0813352 0.049567807 -0.0098890085
000370 d2 c6 11 3d 1e 01 2a 3d d6 a9 71 bc 48 9e 3f 3c
       0.03559 0.04150497 -0.014749965 0.011695452
000380 db c7 66 3d 1b ef 8f 3d 5a d9 79 3d 34 34 94 3d
       0.05634294 0.070280276 0.0609983 0.072365195
000390 22 5a c2 bc fb a4 5d 3d 82 86 cf 3c 36 f1 25 3d
       -0.02372462 0.054112416 0.025332693 0.04051324
0003a0 5c 0a 88 3d 90 bd ce bc dc c6 5b bd e7 df 56 bb
       0.06642601 -0.025236875 -0.053656444 -0.0032787265
0003b0 ce d1 22 3c f6 ac 33 3d b9 1e 35 3c 78 ba aa 3c
       0.009937717 0.04386612 0.011054688 0.020840868
0003c0 7e 0b 8b 3c b3 b9 d5 3b bd ff 3f 3d 5e ca 2e bc
       0.016973253 0.006522381 0.04687475 -0.010668365
0003d0 c7 c5 50 3d 19 74 0c 3d e8 c9 aa b9 81 11 95 3d
       0.050969865 0.034290407 -0.0003257536 0.07278729
0003e0 cc d4 4f 3d 0a f0 8e 3d 35 ff a0 3d c7 4d 9b 3d
       0.05074005 0.069793776 0.07861177 0.07583194
0003f0 3d 1d 57 3d d9 86 39 3d b3 57 f6 3c e0 9e 66 3d
       0.05251812 0.045294616 0.030071115 0.05630386

action_model._continuous_distribution.mu.bias f4 [2]
000000 09 3f b3 bd cd d8 60 3d
       -0.087522574 0.054894257
