results/hideandseek_24/Seek/Seek-499994.onnx (onnx, 148430 bytes, 7 tensors)

network_body._body_endoder.seq_layers.0.weight f4 [128, 149]
0.13614772 0.050558157 -0.08987421 -0.060812272 -0.047752067 -0.010984309 0.13403542 0.021516468
-0.0271749 -0.114983276 -0.10286413 -0.067491196 0.05671766 0.05358423 0.0073668775 0.01556019
0.037113525 0.014175824 -0.04886206 0.07913512 0.016190303 0.10290136 0.120724425 0.116906494
-0.24644282 -0.077551186 -0.036145583 -0.10053158 -0.09644432 -0.1084521 -0.06957244 -0.013781687
-0.09757048 0.13815789 -0.0016101155 -0.080109164 -0.009504033 0.023069479 0.0666875 -0.033428688
-0.009744642 0.24336998 -0.19971547 -0.0057479455 -0.012214856 -0.12061381 -0.14497127 0.04363072
-0.08375534 0.05414924 0.07488082 -0.0805064 0.21428293 -0.022339301 0.019984534 0.032779485
-0.107163206 0.063716054 0.027461689 0.048831653 0.08737063 0.06700485 -0.0027749445 0.13346854
0.04406084 -0.0721894 0.03684029 0.019456504 0.15963948 0.037320144 0.06771322 -0.08782716
0.012966692 -0.0043405937 -0.06621283 0.01173694 0.17024454 0.028505513 -0.105749846 0.0355916
-0.013847668 -0.044120993 -0.08308038 -0.14090891 -0.114793435 -0.0116992155 0.04845937 0.03654084
0.09381394 -0.06436285 -0.009192617 -0.063156575 0.09258914 0.047254838 -0.06141942 -0.133442
-0.18270738 0.14100559 0.1321389 0.005436911 0.039223377 -0.008274281 0.0059302207 -0.090248495
0.05464412 0.015084613 0.0649575 0.08219409 -0.029010434 0.016175056 -0.04494171 -0.10588537
0.015492188 -0.040377848 -0.07786646 -0.11687417 0.12853651 0.049698725 -0.04429428 0.05751238
0.07407237 0.030614873 -0.08632364 -0.036314726 -0.086838536 -0.009200911 0.076098 -0.17067166
-0.12926324 -0.022812271 -0.091570534 -0.0662756 0.015484252 0.017022949 0.0365123 -0.007199428
0.020667568 -0.040587716 0.08918719 -0.05733453 0.0037997593 0.079214744 -0.09808058 -0.064987674
0.029825736 -0.023957565 0.11098876 0.011425432 -0.057347957 -0.06879434 -0.00029752566 -0.19184008
-0.05299023 -0.029375007 -0.003934257 -0.090747565 0.060520522 -0.08765152 0.034032818 0.114280805
-0.01754403 -0.06972584 0.0281445 -0.1131455 -0.13253832 0.072638065 0.0883593 0.23020846
-0.14323859 0.089526094 -0.12652545 0.030025743 -0.056672227 -0.0068976516 0.12558872 -0.020151598
-0.020023325 0.0047050845 -0.005170435 0.011815384 -0.063442804 -0.09403037 -0.07238539 0.070891716
-0.053113677 0.112318225 -0.004481123 0.082047254 -0.0536035 -0.13818891 -0.12999766 0.0230811
-0.0083648795 -0.044251174 -0.12148037 -0.14222556 0.03127061 -0.00037403085 -0.0062752333 0.030511195
0.07171958 -0.18130091 -0.12930468 0.13825436 -0.09592895 0.15450521 -0.06262776 0.09698848
-0.10248732 -0.10345547 0.095498905 0.04673265 0.01925752 -0.018016482 -0.00030086123 0.025247782
0.04760045 -0.0003627589 -0.03579698 0.016418627 -0.047331523 0.0013369578 -0.035310734 0.0671579
-0.04242071 -0.16830583 0.06710249 -0.023427188 -0.04387564 0.0016469208 0.022911575 0.105839536
-0.066998355 0.01641101 -0.16707973 0.03920643 0.043256618 -6.3843676e-05 0.09979532 0.017359104
-0.036122736 0.0020754773 0.049314577 -0.1439681 -0.058253087 -0.068111844 0.056488056 0.06330983
0.059230402 0.045243725 0.0041722017 0.1098699 0.080719456 0.032857977 0.056885123 0.0404616
00000000: 4f6a 0b3e 1216 4f3d f80f b8bd 4a16 79bd
00000010: ac97 43bd 88f7 33bc 9540 093e 4e43 b03c
00000020: e59d debc 5a7c ebbd 6eaa d2bd d338 8abd
00000030: c750 683d 237b 5b3d d965 f13b 2bf0 7e3c
00000040: 5a04 183d b741 683c 9523 48bd 9811 a23d
00000050: 87a1 843c f3bd d23d 5e3e f73d ac6c ef3d
00000060: 825b 7cbe 28d3 9ebd 640d 14bd 80e3 cdbd
00000070: 9a84 c5bd 221c debd ff7b 8ebd 96cc 61bc
00000080: 08d3 c7bd 4379 0d3e 830a d3ba 4610 a4bd
00000090: ceb6 1bbc 34fc bc3c 7593 883d 85ec 08bd
000000a0: fea7 1fbc fb35 793e 3682 4cbe 4359 bcbb
000000b0: d220 48bc 6004 f7bd 5973 14be 20b6 323d
000000c0: eb87 abbd 98cb 5d3d 1e5b 993d 8ae0 a4bd
000000d0: fc6c 5b3e e900 b7bc 9bb6 a33c c843 063d
000000e0: 6278 dbbd 907d 823d 56f7 e03c b303 483d
000000f0: 5fef b23d d739 893d d8db 35bb faab 083e
00000100: 2479 343d 09d8 93bd d8e5 163d 3f63 9f3c
00000110: 8878 233e 02dd 183d 3bad 8a3d bade b3bd
00000120: 4072 543c 8a3b 8ebb 989a 87bd 4b4c 403c
00000130: 9654 2e3e 6584 e93c 6093 d8bd 7fc8 113d
00000140: 54e1 62bc 37b8 34bd 0c26 aabd 6d4a 10be
00000150: d218 ebbd 11ae 3fbc 557d 463d d9ab 153d
00000160: 8621 c03d abd0 83bd a19c 16bc 3c58 81bd
00000170: 609f bd3d 4a8e 413d ee92 7bbd 05a5 08be
00000180: a517 3bbe c563 103e 6b4f 073e 1d28 b23b
00000190: b1a8 203d da90 07bc 4c52 c23b 34d4 b8bd
000001a0: 83d2 5f3d 7425 773c 7008 853d 6055 a83d
000001b0: 4aa7 edbc 8d81 843c cc14 38bd 6eda d8bd
000001c0: f2d2 7d3c 3e63 25bd 7378 9fbd ba5b efbd
000001d0: 139f 033e e490 4b3d eb6d 35bd 1a92 6b3d
000001e0: 41b3 973d 0bcc fa3c 73ca b0bd c0be 14bd
000001f0: 67d8 b1bd 6bbf 16bc 45d9 9b3d 8dc4 2ebe
00000200: 955d 04be cde0 babc 5589 bbbd 80bb 87bd
00000210: a9b1 7d3c b673 8b3c ec8d 153d 2ee9 ebbb
00000220: 084f a93c 4e3f 26bd c6a7 b63d 9dd7 6abd
00000230: 6205 793b 573b a23d 79de c8bd 4218 85bd
00000240: 1a55 f43c a842 c4bc 134e e33d bc31 3b3c
00000250: b1e5 6abd 0ce4 8cbd 38fd 9bb9 ba71 44be
00000260: 490c 59bd dba3 f0bc f1ea 80bb dcd9 b9bd
00000270: 5ee4 773d a482 b3bd ff65 0b3d 0e0c ea3d
00000280: 7fb8 8fbc 6ccc 8ebd 4b8f e63c d4b8 e7bd
00000290: 20b8 07be 44c3 943d b8f5 b43d c4bb 6b3e
000002a0: 23ad 12be 7559 b73d e38f 01be 8cf8 f53c
000002b0: 2321 68bd b205 e2bb 549a 003e f714 a5bc
000002c0: f507 a4bc 1c2d 9a3b c16c a9bb 5095 413c
000002d0: 4dee 81bd ff92 c0bd cb3e 94bd ad2f 913d
000002e0: ba8d 59bd 1907 e63d 62d6 92bb 6408 a83d
000002f0: 588f 5bbd 6581 0dbe 1b1e 05be 9314 bd3c
00000300: d90c 09bc b840 35bd b3ca f8bd 94a3 11be
00000310: 9c15 003d 9219 c4b9 79a0 cdbb 9df2 f93c
00000320: b7e1 923d f2a6 39be 7268 04be 8d92 0d3e
00000330: 6676 c4bd 9d36 1e3e fc42 80bd e5a1 c63d
00000340: dfe4 d1bd 76e0 d3bd ee94 c33d bc6a 3f3d
00000350: f2c1 9d3c 4d97 93bc e9bc 9db9 70d4 ce3c
00000360: b1f8 423d ad30 beb9 db9f 12bd 5b80 863c
00000370: b3de 41bd dc3c af3a fda1 10bd 158a 893d
00000380: 57c1 2dbd 5d58 2cbe 086d 893d 60ea bfbc
00000390: f1b6 33bd 7edd d73a 0eb1 bb3c 66c2 d83d
000003a0: 6f36 89bd 6270 863c f316 2bbe ec96 203d
000003b0: da2d 313d d0e3 85b8 7d61 cc3d ae34 8e3c
000003c0: 6ff5 13bd bb04 083b 15fe 493d 606c 13be
000003d0: ca9a 6ebd 397e 8bbd 0560 673d 96a8 813d
000003e0: 949b 723d 7c51 393d f7b6 883b 7803 e13d
000003f0: 3e50 a53d 1696 063d 6000 693d 10bb 253d

network_body._body_endoder.seq_layers.0.bias f4 [128]
-0.007293699 0.009786413 0.0026284405 -0.005441889 5.754218e-05 0.0049912552 0.0089659365 -0.0061242105
-0.008864409 0.0016962353 -0.0041995756 0.0034093217 0.0073618684 -0.006649512 -0.0076276963 0.0027449955
-0.010229395 -0.003676366 0.008674379 -0.0021561398 2.8925924e-05 -0.00016006247 0.001224539 -0.002261477
-6.324848e-05 -0.0037676317 -0.009236643 0.030417817 0.0049673636 0.0010607583 0.014169405 -0.0068481653
0.0039765905 -0.0063953325 -0.00808702 -0.007848391 0.0044356002 0.0043231286 0.0040614163 0.011792008
0.0004021735 0.0005072518 0.001397574 0.0142609095 -0.006539676 -0.0019221931 -0.0034116788 0.0056550642
-0.0021099632 0.00750981 0.0019885306 -0.0018109976 -0.009568066 -0.0020527255 -0.0046598734 0.017352182
-0.005546955 -0.0023110688 -0.003969507 -0.006560486 0.016580692 -0.0143881785 -0.0016939492 -0.0031898892
0.0012720108 -0.008310327 -0.0030252931 0.011452636 -0.0031074397 -0.0060834987 0.0070158774 0.005143406
-0.005086561 0.015800184 -0.0033701896 0.0038837374 -0.0020729306 0.0083730575 -0.00071772194 -0.012162605
-0.0039643566 -0.012596994 0.0041483487 0.0017534845 -0.004839766 -0.0065760673 -0.0013628228 0.003196619
-0.009478476 -0.0005307001 -0.010688864 0.011727138 0.0015482168 -0.001983159 0.00031687767 -0.010557525
0.0027083296 -0.003299937 -0.006429401 -0.0054220683 0.0008196622 0.012929383 0.0056724013 -0.0053954064
0.0087225605 0.0006104495 -0.012738571 0.008093122 0.0023265535 -0.010523261 0.0054952838 -0.0026263748
0.021786382 0.0027183227 0.0015506244 -0.00089094334 -0.0021825912 -0.0014833647 -0.00013392148 0.0051126583
-0.00730807 -0.0005153592 -0.00029960764 0.0022074955 0.011316177 -0.00620438 -0.005393654 -0.009503484
00000000: fbff eebb 3157 203c ea41 2c3b e051 b2bb
00000010: 7259 7138 af8d a33b dde5 123c 9aad c8bb
00000020: 073c 11bc 3654 de3a 989c 89bb ed6e 5f3b
00000030: d43b f13b 26e4 d9bb c1f1 f9bb 62e5 333b
00000040: 3199 27bc 30ef 70bb fc1e 0e3c 064e 0dbb
00000050: f3a5 f237 71d6 27b9 b680 a03a 4a35 14bb
00000060: 45a4 84b8 5fea 76bb 4a55 17bc c92e f93c
00000070: 44c5 a23b 2409 8b3a cb26 683c 9366 e0bb
00000080: 0f4e 823b f08f d1bb 6c7f 04bc 8a96 00bc
00000090: 8358 913b 08a9 8d3b a115 853b 4433 413c
000000a0: d0da d239 18f9 043a cd2e b73a 97a6 693c
000000b0: c74a d6bb 19f2 fbba 7996 5fbb 1e4e b93b
000000c0: 4f47 0abb da14 f63b 0252 023b ff5e edba
000000d0: 61c3 1cbc 0587 06bb dab1 98bb 2a26 8e3c
000000e0: 3bc3 b5bb 4d75 17bb a312 82bb 58f9 d6bb
000000f0: 3bd4 873c 65bc 6bbc 8107 deba 760d 51bb
00000100: 9ab9 a63a 0a28 08bc ff43 46bb d6a3 3b3c
00000110: 30a6 4bbb 1658 c7bb 72e5 e53b 048a a83b
00000120: 2bad a6bb 636f 813c 66de 5cbb 4d86 7e3b
00000130: 01da 07bb 262f 093c 8125 3cba aa45 47bc
00000140: 6fe7 81bb 9f63 4ebc dfee 873b 2dd5 e53a
00000150: e696 9ebb 0d7c d7bb bfa0 b2ba 5e7e 513b
00000160: 9c4b 1bbc ae1e 0bba 5820 2fbc 2f23 403c
00000170: 89ed ca3a e3f7 01bb 9a22 a639 78f9 2cbc
00000180: 3b7e 313b c143 58bb baad d2bb 9bab b1bb
00000190: 99de 563a c3d5 533c 8ddf b93b f3cb b0bb
000001a0: 12e9 0e3c 9306 203a 70b5 50bc 0499 043c
000001b0: 1779 183b c169 2cbc c811 b43b 421f 2cbb
000001c0: 5b79 b23c e325 323b 523e cb3a 328e 69ba
000001d0: ce09 0fbb 766d c2ba 466d 0cb9 1688 a73b
000001e0: 8978 efbb 2c19 07ba a814 9db9 a1ab 103b
000001f0: 7d67 393c 1d4e cbbb 40bd b0bb 80b4 1bbc

network_body._body_endoder.seq_layers.2.weight f4 [128, 128]
0.04382971 0.055183094 -0.025913265 0.009249744 -0.010319474 -0.16857736 0.05006961 0.041218676
-0.14863639 0.09915202 0.0406046 0.12459799 -0.074990354 0.04812444 0.0756551 -0.010388966
-0.13927875 -0.08480602 -0.1222128 0.12789263 -0.07724692 -0.07732537 -0.07131593 -0.021717915
-0.03369166 -0.004624878 -0.14478843 0.088316746 0.0914243 -0.017872494 -0.09195651 -0.0683642
-0.080323845 0.112025075 0.054858804 -0.04405194 -0.061458126 -0.0204884 0.27429587 0.006602207
-0.13501282 -0.07744761 -0.034666117 -0.103330955 0.09560035 -0.05090695 -0.11117541 -0.07107479
0.22930376 0.026936106 0.007858016 0.02468185 -0.06866209 -0.08613217 0.043074254 0.04659779
-0.11543328 0.039843656 0.023148157 -0.017138898 -0.046442773 -0.08610078 0.027117278 0.013810584
-0.02110466 -0.0450399 0.027204549 0.1714387 -0.18725222 0.04085455 0.045359567 -0.028026924
-0.11617144 -0.052559547 -0.012313214 0.066595644 -0.09095308 0.020768847 0.02294283 0.036445614
0.03739132 -0.02489251 -0.04190188 -0.1558153 -0.009399879 -0.08609908 0.071616925 -0.032280374
-0.04646933 0.06636056 -0.13623905 0.007726075 0.034471482 -0.11430474 0.043386493 -0.06984415
-0.083412 0.19873212 -0.024968369 0.044640273 -0.05386947 -0.07359312 -0.07028087 -0.003320307
-0.021391992 0.0256428 -0.10899036 -0.005792746 -0.00067822856 0.06379078 -0.07791171 0.059648734
0.014138946 -0.12703818 0.050759476 0.20799561 -0.09331898 0.13621981 0.04051933 0.038095947
0.039364688 0.17976955 -0.011514641 0.04039304 0.11233649 0.19819742 -0.024657868 -0.18333164
0.10716595 -0.20270543 0.13437776 -0.059538014 0.09657641 0.06894991 0.09329646 0.07759787
-0.00046130957 -0.114472486 -0.12968354 0.02139533 0.07027991 -0.052143175 0.043124054 -0.117595725
-0.014483128 0.0066588377 0.072174706 0.011023035 -0.06124338 -0.043688845 -0.034891598 0.05094593
-0.045178268 -0.09254501 0.22366835 0.05088632 -0.052875914 0.014375427 -0.00026448205 -0.10481081
-0.11655753 0.08394713 -0.07884277 0.06574639 -0.03862813 -0.0895686 -0.12578112 -0.048474032
-0.15954977 0.08176195 -0.11403995 -0.026515352 0.16278824 0.04590019 -0.014200762 -0.04127894
-0.09558641 -0.0047382535 0.062999934 -0.014389105 0.07830899 -0.024261177 0.19011636 -0.039716225
-0.04535568 0.0019932205 -0.055547945 -0.27587387 -0.13266611 -0.19391166 0.085201055 -0.07567026
-0.03929816 -0.08164421 -0.13642012 0.115449384 0.10550424 0.08540577 0.06988082 -0.08937891
0.06826587 0.11140976 -0.019947207 0.08786647 -0.034272235 0.06990243 -0.071813405 -0.030889573
-0.04409761 -0.05195272 0.07329729 0.012217518 0.12156046 0.03220903 0.010908011 0.13838035
-0.2311822 -0.002592132 0.25131738 -0.00221964 -0.0073469337 -0.12895282 -0.034337055 0.093865916
0.13737531 0.09130663 0.05649654 -0.053095996 0.08368415 -0.13551797 -0.017768513 -0.23820657
-0.055580292 0.07128351 -0.02838989 -0.07286862 0.009569508 0.22555114 -0.029340193 0.043437194
0.07262836 -0.081829645 0.008769381 0.13353999 0.15236858 0.06371031 -0.11256034 -0.107324734
-0.056083344 -0.0065009175 -0.050281804 -0.11259922 -0.02582115 -0.0807967 -0.078378335 -0.18788318
00000000: c886 333d ab07 623d 0e48 d4bc 3d8c 173c
00000010: 0313 29bc 8b9f 2cbe cb15 4d3d ead4 283d
00000020: 2334 18be 3710 cb3d 0251 263d 3b2d ff3d
00000030: 8b94 99bd 221e 453d 10f1 9a3d 7b36 2abc
00000040: 179f 0ebe c7ae adbd b44a fabd 49f6 023e
00000050: a233 9ebd c35c 9ebd 160e 92bd c5e9 b1bc
00000060: 4400 0abd 4a8c 97bb 6b43 14be 69df b43d
00000070: aa3c bb3d 5669 92bc b253 bcbd 8802 8cbd
00000080: d480 a4bd 676d e53d a0b3 603d cf6f 34bd
00000090: 84bb 7bbd 4ad7 a7bc 8270 8c3e 5457 d83b
000000a0: cd40 0abe da9c 9ebd 0ffe 0dbd 2e9f d3bd
000000b0: 1eca c33d ce83 50bd efaf e3bd a98f 91bd
000000c0: 9bce 6a3e 1ca9 dc3c e8be 003c 9731 ca3c
000000d0: b69e 8cbd 1066 b0bd a16e 303d 53dd 3e3d
000000e0: 4968 ecbd 1a33 233d 34a1 bd3c e066 8cbc
000000f0: c73a 3ebd 9b55 b0bd 0e25 de3c ca45 623c
00000100: aee3 acbc c27b 38bd 13dc de3c a08d 2f3e
00000110: 0cbf 3fbe 1a57 273d f4ca 393d b898 e5bc
00000120: 4beb edbd ae48 57bd 5dbd 49bc 4c63 883d
00000130: 9c45 babd 6e23 aa3c 9af2 bb3c ff47 153d
00000140: a427 193d 61eb cbbc 4ea1 2bbd 0c8e 1fbe
00000150: f301 1abc b754 b0bd e5ab 923d 6d38 04bd
00000160: a056 3ebd 0ce8 873d 4082 0bbe 042b fd3b
00000170: f831 0d3d 9b18 eabd 09b6 313d 730a 8fbd
00000180: e9d3 aabd 6f80 4b3e 778a ccbc b8d8 363d
00000190: 3ca6 5cbd fdb7 96bd 6bef 8fbd 8299 59bb
000001a0: 423e afbc d910 d23c 5636 dfbd 13d1 bdbb
000001b0: 26cb 31ba bea4 823d 2d90 9fbd 3b52 743d
000001c0: 0aa7 673c 4c16 02be 2be9 4f3d cdfc 543e
000001d0: 051e bfbd 357d 0b3e 99f7 253d 7f0a 1c3d
000001e0: de3c 213d 8215 383e e8a7 3cbc 2c73 253d
000001f0: ac10 e63d 44f4 4a3e 4cff c9bc 4abb 3bbe
00000200: d279 db3d 0392 4fbe 539a 093e 22de 73bd
00000210: dac9 c53d 9c35 8d3d 3712 bf3d a2eb 9e3d
00000220: ecdb f1b9 8d70 eabd c3cb 04be 4245 af3c
00000230: eaee 8f3d 1594 55bd d9a2 303d 07d6 f0bd
00000240: a44a 6dbc 6132 da3b 55d0 933d f699 343c
00000250: 57da 7abd 13f3 32bd 7eea 0ebd aeac 503d
00000260: d90c 39bd 3d88 bdbd 5109 653e 2d6e 503d
00000270: 6a94 58bd e986 6b3c 2eaa 8ab9 0da7 d6bd
00000280: b7b5 eebd 79ec ab3d 5178 a1bd 0ba6 863d
00000290: 8838 1ebd be6f b7bd c4cc 00be b58c 46bd
000002a0: 0461 23be cf72 a73d c78d e9bd b936 d9bc
000002b0: f6b1 263e d601 3c3d 50aa 68bc 1b14 29bd
000002c0: cfc2 c3bd 5a43 9bbb 1c06 813d 48c0 6bbc
000002d0: 7760 a03d 60bf c6bc ddad 423e 7bad 22bd
000002e0: e1c6 39bd b1a0 023b 3e86 63bd 573f 8dbe
000002f0: a0d9 07be c790 46be e47d ae3d 02f9 9abd
00000300: 1bf7 20bd 1435 a7bd b7b1 0bbe ba70 ec3d
00000310: 9b12 d83d 38e9 ae3d ad1d 8f3d 4a0c b7bd
00000320: face 8b3d cd2a e43d 5368 a3bc 56f3 b33d
00000330: 0b61 0cbd 0129 8f3d e812 93bd 210c fdbc
00000340: b29f 34bd 60cc 54bd e41c 963d fc2b 483c
00000350: b1f4 f83d 9eed 033d 84b7 323c 94b3 0d3e
00000360: 07bb 6cbe c2e0 29bb acac 803e 6177 11bb
00000370: 8cbe f0bb 350c 04be 03a5 0cbd c63c c03d
00000380: 1dac 0c3e f8fe ba3d ea68 673d 307b 59bd
00000390: 9862 ab3d 39c5 0abe 468f 91bc 6cec 73be
000003a0: 29a8 63bd 17fd 913d ea91 e8bc 253c 95bd
000003b0: 6dc9 1c3c e1f6 663e d85a f0bc 33eb 313d
000003c0: 2dbe 943d 4d96 a7bd 73ad 0f3c b5be 083e
000003d0: 8206 1c3e 8d7a 823d 0986 e6bd 12cd dbbd
000003e0: a6b7 65bd a605 d5bb 4bf4 4dbd 6b9a e6bd
000003f0: e086 d3bc be78 a5bd d284 a0bd 7364 40be

network_body._body_endoder.seq_layers.2.bias f4 [128]
-0.0060727093 0.0033561043 -0.0011279644 -0.0071367165 -0.0035092197 -0.0026090383 0.0054811593 0.0060884375
0.0017341669 -0.0051243175 0.0016043191 -0.008551794 -0.0022051118 0.0041378587 -0.001726919 -0.0009978022
-0.0044328924 -0.0063325907 -0.001121818 -0.0015920843 0.004288856 -0.0006939095 0.003359292 0.010363505
-0.008932497 0.0062748976 -0.0007947978 -0.0016215044 0.0010125282 0.00086087413 -0.012529618 -0.0023849953
-0.0018269619 0.0020184806 -0.0010793641 -0.006689659 -0.003467862 0.0037673328 -0.0052027716 -0.00291443
0.0029961965 0.0072359694 -0.020347605 -0.0040967627 -0.0038271917 -0.0060719023 0.0069194525 -0.010956865
0.0014309349 -0.004904296 -0.0076368763 0.007683938 -0.0076905265 -0.007622759 -0.002753708 -0.0063329968
0.01617279 0.0010884166 -0.0113987 -0.0036193894 -0.0076884525 -0.0044682026 0.00029861732 -0.007812875
-0.005391166 0.0028543253 -0.00759959 0.011959539 0.012646345 0.002431668 -0.004400581 -0.0019770965
-0.006919742 0.011923907 -0.016448757 -0.007351312 -0.0025813838 -0.0017233406 -0.004774975 0.003426615
-0.008991652 0.006449811 0.0029784946 -0.008756655 -0.005410689 0.0020111683 -0.0039992593 0.0026275227
0.0059252335 0.009786492 0.002702751 -0.0018842927 -0.010229321 -0.0054317005 0.0055133067 -0.010945062
0.004215693 -0.0038736986 0.003955609 -0.0053054416 -0.0077164117 -0.0029254863 0.022599412 -0.013590299
0.0032994042 -0.007661013 -0.023646928 0.007814209 -0.0053898734 -0.0077057495 -0.0019254076 -0.0013159475
0.003780497 -0.006232965 -0.002720111 -0.009811616 -0.018166864 -0.0021102983 -0.0010854143 -0.0038529213
-0.014219845 -0.009631635 0.0022475745 -0.007220711 -0.0062666447 0.017031586 -0.0043167653 -0.006199344
00000000: 94fd c6bb 16f2 5b3b 34d8 93ba 1edb e9bb
00000010: f0fa 65bb 66fc 2abb 4c9b b33b 8481 c73b
00000020: fc4c e33a e4e9 a7bb 0448 d23a d31c 0cbc
00000030: a383 10bb e096 873b c959 e2ba b0c8 82ba
00000040: cc41 91bb 9f81 cfbb f709 93ba 7cad d0ba
00000050: 8889 8c3b 7ae7 35ba 9127 5c3b b1cb 293c
00000060: 9c59 12bc a89d cd3b fa59 50ba a988 d4ba
00000070: cfb6 843a 49ac 613a 0749 4dbc 954d 1cbb
00000080: ab76 efba 7c48 043b 7379 8dba ed34 dbbb
00000090: 1245 63bb 5be5 763b 037c aabb 0600 3fbb
000000a0: d65b 443b b61b ed3b 05b0 a6bc 233e 86bb
000000b0: 9fd1 7abb cff6 c6bb 93bc e23b 6c84 33bc
000000c0: 358e bb3a 37b4 a0bb c33e fabb 8bc9 fb3b
000000d0: d000 fcbb 56c8 f9bb 8e77 34bb 0785 cfbb
000000e0: cd7c 843c 33a9 8e3a 9dc1 3abc 4733 6dbb
000000f0: 6aef fbbb 006a 92bb bd8f 9c39 9301 00bc
00000100: 61a8 b0bb a20f 3b3b fb05 f9bb f1f1 433c
00000110: 9e32 4f3c 9f5c 1f3b c032 90bb 2d92 01bb
00000120: 01bf e2bb 7e5c 433c 8bbf 86bc 46e3 f0bb
00000130: 6f2c 29bb b7e1 e1ba 6577 9cbb 0f91 603b
00000140: b951 13bc f058 d33b d932 433b 1378 0fbc
00000150: 264c b1bb cecd 033b 380c 83bb 8432 2c3b
00000160: 7628 c23b 8657 203c a320 313b 5ffa f6ba
00000170: e298 27bc 68fc b1bb f8a8 b43b eb52 33bc
00000180: cc23 8a3b e1dd 7dbb 0e9e 813b 45d9 adbb
00000190: f4d9 fcbb 84b9 3fbb 6722 b93c d8a9 5ebc
000001a0: d13a 583b 3c09 fbbb 34b7 c1bc 2b07 003c
000001b0: 899d b0bb 8380 fcbb f55d fcba df7b acba
000001c0: 37c2 773b e63d ccbb e443 32bb e6c0 20bc
000001d0: add2 94bc ee4c 0abb 7644 8eba 4b81 7cbb
000001e0: 5afa 68bc 01ce 1dbc 0b4c 133b b79b ecbb
000001f0: 6d58 cdbb d385 8b3c a773 8dbb de23 cbbb

action_model._continuous_distribution.log_sigma f4 [1, 2]
-0.014928853 -0.021439748
00000000: 2698 74bc 69a2 afbc

action_model._continuous_distribution.mu.weight f4 [2, 128]
0.03736948 0.0051626125 -0.03819294 -0.0027634557 0.005773325 -0.0023557441 0.019010147 -0.015267207
0.014383842 0.01720618 -0.013036857 0.017452385 0.0012877614 -0.0065423837 0.019925367 -0.008887463
0.028272834 0.02654371 -0.020122541 -0.005449562 -0.008369194 -0.008235818 -0.0164988 -0.029555785
0.006251902 -0.027593806 0.004234066 -0.04013648 0.030815326 0.0077788676 0.040257424 0.009398162
0.017395673 0.0053735706 -0.0013901349 0.0109446375 -0.0037328326 -0.018848043 0.028832788 0.003481483
0.0138845965 0.03947342 0.006180114 -0.007504386 0.028792461 0.0012567432 0.011938592 0.018724184
-0.028215008 0.011699347 0.019174332 -0.017710235 0.017762404 0.0063730665 0.025760746 0.018129727
-0.034528315 -0.009631674 0.011002655 0.028001305 0.016724516 0.00089188607 -0.0068957023 -0.0028091595
0.0315893 -0.03657349 -0.004283226 0.02731754 -0.02677071 -0.008129341 0.003937056 0.012617841
0.008108013 -0.026966674 -0.010540708 0.017803626 -0.01093695 0.0054313513 0.030603316 -0.021394357
0.0024415255 -0.0068469876 0.034125846 0.0013875725 0.0069874306 0.019052831 0.0005494313 0.039735552
-0.023548847 -0.035877626 0.018916631 -0.018119399 0.01491506 0.04534764 -0.00676338 -0.027292987
-0.009098485 -0.0004051657 0.044030603 0.030939221 0.0052584023 0.0039893454 -0.031213265 0.012068579
-0.018393582 0.00085873256 -0.0048050717 -0.022109065 0.015134583 0.030900514 -0.04999015 -0.0066336016
0.043177042 0.0067822565 0.034336437 0.0086159175 0.0014730697 -0.003739152 0.007290788 -0.002241738
-0.0025592567 0.03432277 0.020817487 0.012524135 0.0006286067 -0.00061385834 -0.013078952 -0.0074837646
-0.027884757 0.0026214786 -0.01220466 0.0098053105 -0.0033141095 -0.025712157 -0.007184667 -0.00012293784
-0.008893693 0.010528657 -0.009805472 -0.004887134 -0.027177943 -0.0026437386 0.034935784 -0.012970637
0.03244136 -0.014880635 -0.038667213 -0.0061499034 -0.004508813 -0.02857425 0.0098000495 0.03239142
-0.0035401317 -0.0057585863 -0.016209874 0.0014693742 0.0028730494 0.016852785 -0.015535225 -0.012497288
0.030861318 0.018650668 0.014509788 -0.0014754011 -0.018491674 0.031961333 0.014240438 -0.030387368
0.019702137 0.036255043 0.0017954225 5.8876674e-05 0.019798819 -0.0059557245 -0.026975999 -0.015422057
-0.009187101 -0.001084948 -0.01076824 0.008379076 -0.01381521 -0.011108172 -0.0063247476 0.004163723
0.02812387 0.009234752 -0.0027131862 -0.0069581266 -0.010670349 0.0026123552 -0.006812349 -0.01049646
0.006693034 0.0101722665 -0.012606352 0.03406899 0.022704877 -0.004267108 -0.0017170826 0.0027502314
-0.0018898014 0.0048021134 -0.040609542 -0.012256508 -0.026379202 -0.038560875 -0.0073470166 -0.007961896
-0.0034291705 -0.0009777984 -0.0073294435 -0.0008833387 0.005774004 -0.0059134313 -0.038879752 -0.010864909
0.0071114097 0.002193301 -0.0097675575 -0.0045125815 -0.0026202295 -0.051500216 -0.0015824023 -0.018780619
-0.002506259 -0.006593581 -0.019654265 0.015563776 -0.0011323355 0.008884017 0.017637774 0.0026117542
0.00014842133 0.0016631845 -0.019268887 -0.0028874755 -0.00960445 -0.003093924 0.029536543 0.0038299127
0.004274748 -0.013578953 0.039775245 -0.019698929 -0.0033736327 -0.012144777 -0.043952025 -0.00981619
-0.017904928 -0.00013909239 -0.0038890406 -0.0005931033 -0.007889051 0.031788606 -0.022129541 -0.01990758
00000000: bd10 193d 222b a93b 3370 1cbd 181b 35bb
00000010: 292e bd3b d462 1abb 2bbb 9b3c 4f23 7abc
00000020: 35aa 6b3c faf3 8c3c 8b98 55bc 4ef8 8e3c
00000030: 1aca a83a 7e61 d6bb 863a a33c b99c 11bc
00000040: 6e9c e73c 3272 d93c 07d8 a4bc 3d92 b2bb
00000050: f21e 09bc 86ef 06bc 7e28 87bc f91e f2bc
00000060: c1dc cc3b 680c e2bc ebbd 8a3b 2666 24bd
00000070: 6c70 fc3c dfe5 fe3b f8e4 243d c0fa 193c
00000080: 5f81 8e3c c714 b03b 3035 b6ba 2351 333c
00000090: 8aa2 74bb 3667 9abc bd32 ec3c 9829 643b
000000a0: 387c 633c e1ae 213d 8e82 ca3b 5ae7 f5bb
000000b0: 2bde eb3c 4eb9 a43a 169a 433c 7663 993c
000000c0: 2923 e7bc 9eae 3f3c 7d13 9d3c 0e15 91bc
000000d0: 7682 913c 28d5 d03b 3308 d33c cb84 943c
000000e0: 906d 0dbd 2bce 1dbc 7b44 343c fe62 e53c
000000f0: da01 893c 76cd 693a 58f5 e1bb e019 38bb
00000100: c863 013d 15ce 15bd 4e5a 8cbb 09c9 df3c
00000110: 3f4e dbbc ed30 05bc 6b02 813b 10bb 4e3c
00000120: 79d7 043c 37e9 dcbc efb2 2cbc e9d8 913c
00000130: e530 33bc 7af9 b13b ceb3 fa3c 3843 afbc
00000140: 0002 203b b25c e0bb 8bc7 0b3d 35df b53a
00000150: d1f6 e43b af14 9c3c b607 103a bfc1 223d
00000160: 83e9 c0bc 6bf4 12bd 0df7 9a3c 226f 94bc
00000170: 4c5e 743c 72be 393d 589f ddbb 8b95 dfbc
00000180: d011 15bc 6b6c d4b9 6f59 343d 4074 fd3c
00000190: ad4e ac3b 0eb9 823b f6b2 ffbc 4abb 453c
000001a0: 23ae 96bc 911c 613a dd73 9dbb 121e b5bc
000001b0: 0bf7 773c 1323 fd3c 79c2 4cbd af5e d9bb
000001c0: 69da 303d b13d de3b 5da4 0c3d c729 0d3c
000001d0: 0414 c13a 900c 75bb 90e7 ee3b 1fea 12bb
000001e0: 34b9 27bb 0896 0c3d 6f89 aa3c 0832 4d3c
000001f0: 15c9 243a 56eb 20ba 1a49 56bc 5e3a f5bb
00000200: 936e e4bc 1dcd 2b3b 0ef6 47bc 74a6 203c
00000210: 8831 59bb 4da2 d2bc 5b6d ebbb e0e8 00b9
00000220: dab6 11bc 6380 2c3c 21a7 20bc 4024 a0bb
00000230: 47a4 debc 9342 2dbb d318 0f3d cb82 54bc
00000240: 3be1 043d e8cd 73bc 8361 1ebd 2185 c9bb
00000250: aabe 93bb 8c14 eabc 6390 203c deac 043d
00000260: 8e01 68bb 86b2 bcbb 92ca 84bc 0498 c03a
00000270: c549 3c3b da0e 8a3c 7587 7ebc 6dc1 4cbc
00000280: e0d0 fc3c 49c9 983c 76ba 6d3c 3f62 c1ba
00000290: da7b 97bc e3e9 023d ba50 693c eeee f8bc
000002a0: 6066 a13c 2b80 143d 6254 eb3a 59f2 7638
000002b0: 2231 a23c 3d28 c3bb c5fc dcbc ccac 7cbc
000002c0: 7f85 16bc d034 8eba 466d 30bc 6448 093c
000002d0: 3159 62bc 0dff 35bc d43f cfbb d76f 883b
000002e0: 0864 e63c 5b4d 173c b6cf 31bb ff00 e4bb
000002f0: b0d2 2ebc 0c34 2b3b 203a dfbb 58f9 2bbc
00000300: 3d51 db3b 94a9 263c df8a 4ebc ed8b 0b3d
00000310: 94ff b93c 19d3 8bbb bb0f e1ba 3a3d 343b
00000320: 36b3 f7ba 0c5b 9d3b 3156 26bd 85cf 48bc
00000330: 3219 d8bc 02f2 1dbd 3ebf f0bb 9d72 02bc
00000340: efbb 60bb 7829 80ba d42b f0bb db8f 67ba
00000350: db33 bd3b 75c5 c1bb 6040 1fbd bb02 32bc
00000360: d406 e93b 7cbd 0f3b 1b08 20bc 47de 93bb
00000370: 28b8 2bbb e4f1 52bd 9c68 cfba d0d9 99bc
00000380: 0c40 24bb f70e d8bb fb01 a1bc 35ff 7e3c
00000390: e06a 94ba 458e 113c 187d 903c f729 2b3b
000003a0: 8ca1 1b39 36ff d93a c9d9 9dbc cd3b 3dbb
000003b0: fc5b 1dbc 6ec3 4abb 9ff6 f13c 46ff 7a3b
000003c0: 2f13 8c3b 427a 5ebc 5eeb 223d a65f a1bc
000003d0: 2a18 5dbb e3fa 46bc 0a07 34bd 16d4 20bc
000003e0: 5bad 92bc 54d9 11b9 46df 7ebb 7d7a 1bba
000003f0: 1441 01bc c534 023d 0349 b5bc 3915 a3bc

action_model._continuous_distribution.mu.bias f4 [2]
-0.0068016434 0.00395773
00000000: 52e0 debb d8af 813b
