results/hideandseek_24/Hide/Hide-0.onnx (onnx, 162313 bytes, 6 tensors)

network_body._body_endoder.seq_layers.0.weight f4 [128, 177]
000000 30 1f b3 bd b0 85 ce bd 5c cf 89 bd 71 78 74 bd
       -0.08746183 -0.100840926 -0.06729004 -0.059685174
000010 04 b7 3b 3b ef 69 02 3e ca c9 43 3d 4a a0 0c bd
       0.0028643021 0.12735723 0.047799863 -0.03433255
000020 89 08 ef 3d 2f 14 bf bc 34 b1 9e bc 9f 7c 90 3c
       0.1167155 -0.023325054 -0.019371606 0.017637549
000030 c5 f6 fa 3d e0 a5 81 bd ad 9a 95 3b 74 a1 95 3c
       0.12254099 -0.06330466 0.004565558 0.018265463
000040 01 9e 26 3d cd b4 8d bb 63 76 73 bd 67 58 af bc
       0.040678028 -0.0043245316 -0.059439074 -0.021404458
000050 54 09 93 3d 0e c5 ee bd 65 7c 28 3c 31 b2 e5 3c
       0.071795136 -0.11658679 0.010283564 0.02803907
000060 1f 06 c1 3c f1 a5 e8 3c 54 c4 e3 3c fd 04 24 be
       0.02356249 0.02839944 0.027803577 -0.16017528
000070 6b bf 4c bc 7c 61 74 bc fd b3 6e bd 1d 4f 8c 3d
       -0.0124968095 -0.01491582 -0.05827712 0.06851027
000080 b2 94 36 3d 5e f0 5f 3d 58 9e c3 bc 8a 4d b8 3d
       0.0445754 0.05467259 -0.023879215 0.089991644
000090 bb 26 09 be 5e 45 48 3e 33 24 10 be 9c 62 26 bd
       -0.13393681 0.19557711 -0.14076309 -0.040621385
0000a0 1e 9a bd bd d7 af 91 3d 90 3f 1d 3d 70 ad 14 be
       -0.09257911 0.07113617 0.038390696 -0.14519286
0000b0 6e 72 fe bc ca aa ff 3d 10 9e 34 be e2 be ce bd
       -0.031060424 0.12483747 -0.17638421 -0.10095002
0000c0 64 18 33 3d 9b 85 75 bd 9d d5 8c bc b2 af 78 3d
       0.043724433 -0.05994187 -0.017191702 0.06071443
0000d0 94 ee 0a be 31 e7 9b 3c 9e ce 68 3d 79 fa d1 3c
       -0.13567573 0.01903114 0.05683767 0.02563213
0000e0 24 7a 8f 3c 94 bc ba 3c bf 02 14 3e bc 4e 58 3d
       0.017514296 0.022795 0.14454173 0.052809462
0000f0 34 da e1 3d cd 45 a0 bd 33 21 35 bd 0d 51 bf 3d
       0.11027947 -0.078258134 -0.044221114 0.09341631
000100 44 52 80 bc 88 30 aa bd 79 8c 29 3c e5 e4 72 3c
       -0.015664227 -0.08310038 0.010348433 0.0148250805
000110 6c 62 58 3d 09 ea b7 3d b4 67 b7 ba ee ac 2f 3d
       0.052828237 0.089801855 -0.0013992698 0.042889528
000120 5b 39 4c bd 3c 81 be bb 00 b9 0d 3e 8c 56 0c 3e
       -0.049859386 -0.005813746 0.13840103 0.1370489
000130 fe e0 08 bd ba 45 2e 3d 67 3b c6 bd b0 ab 37 3d
       -0.033417694 0.042546965 -0.09679299 0.04484147
000140 b3 94 8f bd fa fc 90 3c 5d 0e e3 bd 75 ce 1c be
       -0.07010784 0.017698754 -0.11086724 -0.15313132
000150 c0 d6 2f bd 30 24 83 3c 02 d5 23 3e 64 7a 95 3d
       -0.04292941 0.016008466 0.15999225 0.07298735
000160 76 99 f1 3c d0 73 c7 bb 33 ca f1 bc c2 0d 57 3d
       0.029492121 -0.006086804 -0.029515361 0.052503355
000170 5d 55 22 be fe be 1e 3d 87 60 63 3d 2d 6f 49 bc
       -0.15852876 0.038756363 0.055511978 -0.012294573
000180 fe 87 06 bc 0e 55 b6 3c 4a 34 8d bd 33 30 b4 3c
       -0.008211134 0.022257354 -0.06894739 0.02199564
000190 98 fb 1b 3d 5c 71 c7 3d ea bb 4b 3d 26 37 93 bd
       0.038081735 0.097384185 0.049739756 -0.07188253
0001a0 f3 31 33 3d e5 7d 01 3d 2e a2 84 bc a3 65 70 3d
       0.043748807 0.031614203 -0.016190615 0.05869068
0001b0 95 d5 3c bd ab 5e a6 ba 11 ae db bd 6b 9e 87 ba
       -0.046102125 -0.0012693008 -0.1072656 -0.0010346895
0001c0 b9 7e 5f bd f3 36 87 bc 9f 24 9a bd ca 7b e6 bb
       -0.05456421 -0.016505694 -0.07526516 -0.0070338
0001d0 18 bf 82 3d b5 cc 29 be d5 b6 b4 3d 43 64 38 be
       0.063841045 -0.16581996 0.08823935 -0.18006997
0001e0 bf f0 06 3d b1 37 22 bc cd a3 75 3d a5 da c9 bd
       0.032944437 -0.009900973 0.059970666 -0.09856156
0001f0 eb 30 4e 3d ad 00 75 3d c7 cc 03 3d ee fd c7 3d
       0.05033962 0.059815098 0.032177713 0.0976523
000200 1f 59 0e be 97 f8 ca 3c aa c8 d3 bd 0f bb 71 3c
       -0.13901184 0.02477674 -0.10341008 0.014754071
000210 7a 4c f4 3d 4e bd 13 3d 98 4f bd bc 74 9c 86 3c
       0.11928649 0.036069207 -0.023109242 0.016432025
000220 ba 85 8d bd 9d 17 84 3d b4 29 89 3d d2 38 05 bc
       -0.06910272 0.064498164 0.06697407 -0.008131223
000230 ce 15 80 bc 72 25 fa 3d d4 65 44 bd fd 48 cf 3c
       -0.015635397 0.122141734 -0.047948673 0.025303358
000240 d8 0b a8 bd 68 e7 6b 3c f7 70 d9 3d 32 33 b4 bc
       -0.08205384 0.014398433 0.106172495 -0.021997068
000250 25 03 6a 3d 1e 85 f5 bd bc d7 a2 bd fe ea c2 bd
       0.057131905 -0.11988281 -0.07951304 -0.095174775
000260 7d dc 39 be da 64 03 bd bb b9 53 3e 1d e9 ec 3c
       -0.18150516 -0.0320786 0.2067632 0.02891975
000270 2c 41 99 bc b4 d3 7e bd 81 0f 4f 3d ef a4 83 bc
       -0.018707834 -0.062213615 0.050551895 -0.016069857
000280 c3 bf ed bc 52 a6 30 bd f9 cc a5 3d 7b 58 26 3e
       -0.029022103 -0.043127365 0.08095736 0.1624469
000290 55 61 9b 3d f6 68 9d 3d b6 4e 87 bd 5a 7e 31 bd
       0.07586924 0.07686035 -0.0660681 -0.04333339
0002a0 de 75 52 be 0b ec ae 3d 20 36 e9 bc cf 93 f2 3c
       -0.20552775 0.085411154 -0.028468192 0.029611496
0002b0 ae 1e c2 bc 72 b1 60 bc 37 ec 5e 3d 2b 0a 86 3c
       -0.02369627 -0.013714181 0.05442449 0.01636227
0002c0 cc 9e fa ba 39 95 30 be e5 2c c8 bd 4a af 33 bd
       -0.0019120811 -0.17244424 -0.09774188 -0.04386834
0002d0 c1 3f d1 bc 90 32 c9 3d 9b 46 8c 3c 68 b8 15 be
       -0.025543096 0.09824097 0.017123511 -0.14621127
0002e0 1c 54 56 bd 85 a0 e8 bb 34 15 7c bc 4d 22 b5 bd
       -0.052326307 -0.0070992135 -0.015385915 -0.08844433
0002f0 5d 52 a2 bb 37 26 1a be 8e d7 f5 ba d4 29 11 3e
       -0.004953666 -0.1505364 -0.0018756257 0.14176112
000300 05 e0 5e bd 63 d7 61 bd 52 34 1f bc 53 c9 87 3c
       -0.05441286 -0.05513705 -0.009717064 0.016575491
000310 b6 cd e6 bd 8b 0f 63 be 88 dc 43 be 8d 7f d6 3c
       -0.11269705 -0.22173898 -0.19127095 0.026183868
000320 60 39 49 bd ba d4 85 3b 24 66 df bc 55 dc e2 3b
       -0.049126983 0.004084197 -0.027270384 0.0069232383
000330 b8 43 7b 3d e8 5c 17 be 4e bb c0 3c 3d 7c 49 3c
       0.06134388 -0.14781535 0.023526814 0.012297687
000340 ab 9b 9d 3d c6 a3 00 3d a7 c3 90 3c 66 ff a2 bc
       0.07695707 0.031406187 0.01767142 -0.019897174
000350 b2 a9 0b 3e 3f e9 71 bd 3e 56 21 3d f3 9a fe bc
       0.13638952 -0.05906033 0.039388888 -0.031079745
000360 01 b1 09 3c 5e 48 41 bd da 18 4d bc 75 8b 03 be
       0.008404017 -0.047188155 -0.012518132 -0.12846167
000370 42 da 9d bc 24 e9 1a 3d 12 6e b7 3d ee 5c 48 bc
       -0.019269112 0.037819996 0.08956541 -0.012229187
000380 c5 51 e9 bb 68 e1 16 bd 27 96 b4 bc 80 fe 3b 3c
       -0.0071203434 -0.036836058 -0.022044254 0.011474252
000390 1a c2 0b be a0 87 b3 bd 05 18 36 3d 62 d0 62 3c
       -0.13648263 -0.08766103 0.0444565 0.013843628
0003a0 50 79 1e bd bb f8 26 bd 6e c1 a6 bc 38 07 72 bd
       -0.03868991 -0.04076455 -0.020355906 -0.059088916
0003b0 5d 76 34 bd 12 53 b2 3c 95 f6 60 bc 40 d4 a8 bc
       -0.044058193 0.021768127 -0.013730665 -0.020609021
0003c0 9c 75 46 be 06 0b e3 3d 35 fa 28 be 18 5a 0f 3c
       -0.19380802 0.11086087 -0.16501696 0.008749507
0003d0 a5 b6 ff bc ad 47 80 3d 0f f7 1d be 08 68 3c bd
       -0.031215021 0.06263671 -0.15426277 -0.04599765
0003e0 70 55 f9 bd 0c eb cf bc 48 47 a1 3d 86 8d 40 3d
       -0.12174499 -0.025380634 0.07874924 0.047009967
0003f0 dd c1 ec bd 2a c3 5f bc 3e 6d a1 ba 51 2d 81 bd
       -0.11560414 -0.013657371 -0.0012315882 -0.063074715

network_body._body_endoder.seq_layers.0.bias f4 [128]
000000 00 00 00 00 00 00 00 00 00 00 00 00 00 00 00 00
       0.0 0.0 0.0 0.0
000010 00 00 00 00 00 00 00 00 00 00 00 00 00 00 00 00
       0.0 0.0 0.0 0.0
000020 00 00 00 00 00 00 00 00 00 00 00 00 00 00 00 00
       0.0 0.0 0.0 0.0
000030 00 00 00 00 00 00 00 00 00 00 00 00 00 00 00 00
       0.0 0.0 0.0 0.0
000040 00 00 00 00 00 00 00 00 00 00 00 00 00 00 00 00
       0.0 0.0 0.0 0.0
000050 00 00 00 00 00 00 00 00 00 00 00 00 00 00 00 00
       0.0 0.0 0.0 0.0
000060 00 00 00 00 00 00 00 00 00 00 00 00 00 00 00 00
       0.0 0.0 0.0 0.0
000070 00 00 00 00 00 00 00 00 00 00 00 00 00 00 00 00
       0.0 0.0 0.0 0.0
000080 00 00 00 00 00 00 00 00 00 00 00 00 00 00 00 00
       0.0 0.0 0.0 0.0
000090 00 00 00 00 00 00 00 00 00 00 00 00 00 00 00 00
       0.0 0.0 0.0 0.0
0000a0 00 00 00 00 00 00 00 00 00 00 00 00 00 00 00 00
       0.0 0.0 0.0 0.0
0000b0 00 00 00 00 00 00 00 00 00 00 00 00 00 00 00 00
       0.0 0.0 0.0 0.0
0000c0 00 00 00 00 00 00 00 00 00 00 00 00 00 00 00 00
       0.0 0.0 0.0 0.0
0000d0 00 00 00 00 00 00 00 00 00 00 00 00 00 00 00 00
       0.0 0.0 0.0 0.0
0000e0 00 00 00 00 00 00 00 00 00 00 00 00 00 00 00 00
       0.0 0.0 0.0 0.0
0000f0 00 00 00 00 00 00 00 00 00 00 00 00 00 00 00 00
       0.0 0.0 0.0 0.0
000100 00 00 00 00 00 00 00 00 00 00 00 00 00 00 00 00
       0.0 0.0 0.0 0.0
000110 00 00 00 00 00 00 00 00 00 00 00 00 00 00 00 00
       0.0 0.0 0.0 0.0
000120 00 00 00 00 00 00 00 00 00 00 00 00 00 00 00 00
       0.0 0.0 0.0 0.0
000130 00 00 00 00 00 00 00 00 00 00 00 00 00 00 00 00
       0.0 0.0 0.0 0.0
000140 00 00 00 00 00 00 00 00 00 00 00 00 00 00 00 00
       0.0 0.0 0.0 0.0
000150 00 00 00 00 00 00 00 00 00 00 00 00 00 00 00 00
       0.0 0.0 0.0 0.0
000160 00 00 00 00 00 00 00 00 00 00 00 00 00 00 00 00
       0.0 0.0 0.0 0.0
000170 00 00 00 00 00 00 00 00 00 00 00 00 00 00 00 00
       0.0 0.0 0.0 0.0
000180 00 00 00 00 00 00 00 00 00 00 00 00 00 00 00 00
       0.0 0.0 0.0 0.0
000190 00 00 00 00 00 00 00 00 00 00 00 00 00 00 00 00
       0.0 0.0 0.0 0.0
0001a0 00 00 00 00 00 00 00 00 00 00 00 00 00 00 00 00
       0.0 0.0 0.0 0.0
0001b0 00 00 00 00 00 00 00 00 00 00 00 00 00 00 00 00
       0.0 0.0 0.0 0.0
0001c0 00 00 00 00 00 00 00 00 00 00 00 00 00 00 00 00
       0.0 0.0 0.0 0.0
0001d0 00 00 00 00 00 00 00 00 00 00 00 00 00 00 00 00
       0.0 0.0 0.0 0.0
0001e0 00 00 00 00 00 00 00 00 00 00 00 00 00 00 00 00
       0.0 0.0 0.0 0.0
0001f0 00 00 00 00 00 00 00 00 00 00 00 00 00 00 00 00
       0.0 0.0 0.0 0.0

network_body._body_endoder.seq_layers.2.weight f4 [128, 128]
000000 cd 56 d9 bd c2 fc b1 bd 06 44 dc 3d 76 24 0a 3d
       -0.10612259 -0.08690788 0.10755162 0.033726178
000010 bc 45 f4 bd fb 46 cc bc 5e c6 57 bd 13 f5 04 3c
       -0.11927363 -0.02493619 -0.052679412 0.008115071
000020 85 2a 35 3d 97 ca fc bc 8f f3 f1 bd cb c5 b7 3d
       0.044230003 -0.030858321 -0.11814033 0.08973273
000030 42 fd 9a bd 2e 80 13 bd 96 3d d5 3c 4d cf 92 bc
       -0.07567836 -0.036010914 0.026030343 -0.017921114
000040 66 35 e6 3c 39 39 c2 bd c8 01 00 be 6e 42 c8 3c
       0.028101634 -0.094835706 -0.1250068 0.024445739
000050 2b 1f 3b 3d 0d 5f 9e bd eb 7e 51 bd ab bd 0f be
       0.04568402 -0.07732973 -0.05114643 -0.14037196
000060 37 07 46 3d e0 ab 4c 3d ae c2 5c bd 64 4c 15 3c
       0.048346724 0.0499686 -0.0538966 0.009112451
000070 47 97 f1 3d d1 6c f7 3c c9 92 0f 3d 1d e0 ea bb
       0.11796432 0.030203255 0.035052095 -0.0071678297
000080 83 76 28 be f7 6a 1d 3b c3 6d f1 bd 03 35 82 3d
       -0.16451459 0.0024020055 -0.117885135 0.063577674
000090 9a fc 1f be 19 8c b2 3d db 1d 84 3d 62 ec 85 3d
       -0.15623704 0.08718128 0.06451007 0.06539227
0000a0 f9 00 02 3e 5d bd c1 bd f8 3d 64 3c 05 1b bc 3d
       0.12695684 -0.09459946 0.01393079 0.09184841
0000b0 7a f5 ba bd df b1 e4 3c bb 24 39 3d af b4 f8 bd
       -0.09128852 0.027916847 0.045201045 -0.12143838
0000c0 78 68 03 be ec 95 a1 bd b3 a5 82 bc 2e fd 20 3e
       -0.1283282 -0.078899235 -0.015948152 0.1572158
0000d0 14 53 58 3d a8 c2 8a bb 71 eb be 3d 63 2c 88 3d
       0.052813604 -0.0042346306 0.09322251 0.06649091
0000e0 70 e9 b5 3d a3 56 d8 3c f4 54 dd bd cc 1a 40 bd
       0.08882415 0.0264085 -0.10807219 -0.046900555
0000f0 3b 03 83 3d 32 1c b3 bd 0f bb ab bd 57 d5 18 bd
       0.063971005 -0.08745612 -0.08385288 -0.03731283
000100 d9 9b 19 be 4b 00 a7 3d 59 e7 7b 3d 3d 32 61 3d
       -0.15000857 0.08154353 0.061499927 0.05497955
000110 e0 1a 92 3b b5 83 32 bd b1 74 fd bd be e6 5e 3d
       0.00445877 -0.043582637 -0.12375773 0.05441927
000120 54 4c 6c 3d 6f 14 d6 bc 66 fb 92 3c ab 02 0a be
       0.05768998 -0.02613279 0.017942142 -0.1347758
000130 b9 41 b2 bd c8 1f fa 3d 18 72 87 bd 05 41 80 bd
       -0.08703942 0.12213093 -0.066135585 -0.062624015
000140 9f 7b cd bd 0c c8 58 bd f3 fa 81 3b e4 dd 15 bb
       -0.100333445 -0.052925155 0.003966683 -0.0022867853
000150 01 b3 f4 bc a2 2e 30 3e 65 4d 0c 3e d0 0a ea bd
       -0.029870512 0.17205289 0.13701399 -0.114278436
000160 7b aa 0e bd e8 28 70 bc 87 ce 3f 3e 7d 9e 05 3d
       -0.03483055 -0.01465819 0.18731128 0.03262185
000170 1a a9 14 3e 99 c2 ee bb 4e ec c3 bc c5 c6 61 3d
       0.14517632 -0.0072863814 -0.02391639 0.055121202
000180 bb d5 68 be 2c e3 86 bd 76 4d 29 be 1f 46 cf bd
       -0.22737782 -0.06586298 -0.16533455 -0.101207964
000190 cc 8e 20 be df 28 0c 3d ec e0 50 bc 3a 66 9d 3d
       -0.15679473 0.034218665 -0.012748938 0.07685514
0001a0 3e fc ed 3d c2 b3 02 bd 61 f9 10 3d 3e b5 be bc
       0.11620377 -0.03190971 0.035394076 -0.023279782
0001b0 1a 13 ab 3d 4e 8e 4d 3c cf 37 c4 3d 68 76 3a 3e
       0.08353253 0.012546135 0.09580957 0.18209231
0001c0 9d b2 1f 3e 1c 03 aa bd 78 21 cf bd 1d f0 1f 3c
       0.1559548 -0.08301374 -0.101138055 0.009761837
0001d0 e4 1d f6 3c d3 32 aa 3d 3a 52 1d 3a e8 27 c1 bc
       0.03004355 0.08310475 0.00060013274 -0.0235786
0001e0 73 ab 98 3d ce e9 f8 bc 40 2d a5 bc 01 7b a1 bc
       0.07454576 -0.030384924 -0.020163178 -0.019711973
0001f0 04 f2 8b 3c b4 11 c3 bd 03 a5 4e 3e 52 36 8a 3d
       0.017083175 -0.09524861 0.20180134 0.06748642
000200 4f 4f 56 3e 94 18 c0 3d 99 32 20 3e 22 ef a2 bb
       0.20928691 0.09379688 0.15644301 -0.0049723545
000210 82 98 cf bd 0a b1 c5 3d b2 60 d8 3d d7 45 51 3b
       -0.101365104 0.09652908 0.10565318 0.0031932497
000220 7c af af bd d3 98 0e 3d ec 10 ba bd d5 02 36 bd
       -0.08578393 0.034813713 -0.09085259 -0.044436295
000230 bd c5 6c bb 3f 33 8d bd dd 9c 19 bd de 8a 19 3d
       -0.0036128603 -0.0689454 -0.037503112 0.03748595
000240 62 39 bb bd f6 f7 89 bd e3 e9 7a 39 9e f0 fa 3c
       -0.09141804 -0.06736748 0.00023928988 0.030632313
000250 4a b1 4b bd d4 54 94 3e bf f7 20 3c 7d 10 99 bd
       -0.049729623 0.2897097 0.009824692 -0.07473848
000260 79 58 53 bd f1 f9 2b bd 21 f2 9d 3d cd a1 9d 3d
       -0.051598046 -0.04198641 0.07712198 0.07696877
000270 bd e0 dd bc 6b 46 99 bc 3c 55 a1 bd f2 22 57 3e
       -0.027084703 -0.018710336 -0.07877585 0.21009424
000280 f7 3c 0b 3d 17 17 fc bd c8 97 82 3d 7e 71 55 3e
       0.033993687 -0.123090915 0.06376606 0.20844075
000290 d3 b2 4b bd 36 fa 1b 3e c9 bd d5 bd 2d f5 79 3d
       -0.049731087 0.15232167 -0.10436589 0.061024833
0002a0 03 aa 92 bc f9 0f b1 bc 71 bb ed bd 42 a2 d8 bc
       -0.017903334 -0.021614062 -0.11608017 -0.026444558
0002b0 42 15 68 bd 3e c5 1d be 50 0f 2d bc f7 b2 50 be
       -0.056660898 -0.15407273 -0.010562733 -0.2038077
0002c0 a0 32 ba 3d 8e 15 da bd 7c 43 dd 3d 46 a1 96 bd
       0.09091687 -0.106486425 0.10803887 -0.07354979
0002d0 f5 57 9c bc 84 66 1c 3d 4f 0c e6 3d 33 65 cf 3d
       -0.01908491 0.038183704 0.112328164 0.10126724
0002e0 49 36 d5 bd 22 d6 fb bc 1f 48 b0 bd da 98 cc bc
       -0.10410745 -0.030741755 -0.08607506 -0.024975229
0002f0 80 bf 64 bd f7 1b fb 3d 37 7a 1b bc ed a5 49 3d
       -0.05584669 0.12261193 -0.0094895875 0.049230505
000300 a7 3c bd 3d 4a 9c 3f 3e 76 45 5e 3d 7b 73 84 3d
       0.09240084 0.18711963 0.05426546 0.06467339
000310 eb d8 26 3d 49 81 00 3c 26 ea fe 3d ad fd 7c 3d
       0.040734213 0.007843324 0.12447004 0.06176536
000320 26 05 87 3d 1e 87 c1 bc ea 6f ee 3d f9 65 83 bd
       0.06592779 -0.023624 0.1164244 -0.06415934
000330 31 26 27 bd 49 06 2e bb 97 99 99 3c 00 ce b2 bd
       -0.040807907 -0.002655404 0.018749995 -0.08730698
000340 1a 78 38 3d 3a 38 16 3e 7f c2 97 3d f4 a6 60 bd
       0.045036413 0.14669886 0.07410144 -0.05484672
000350 c0 bb 62 3d 32 5c e4 bc 4d 42 00 bd c7 e5 55 bd
       0.055354834 -0.027875993 -0.03131323 -0.052221086
000360 c4 85 e8 3d 1e ae fc bd d1 cf c4 3c bb 5b 8a bd
       0.11353639 -0.12337898 0.024024876 -0.067557774
000370 df 40 f1 3c 40 ee b9 3d bc 9f 0a 3e 93 a1 ad 3b
       0.029449878 0.09078646 0.13537496 0.005298802
000380 83 a1 38 3d 9c ab 01 bc 4f ae 33 3e 13 52 ee 3c
       0.045075905 -0.00791445 0.17546962 0.02909187
000390 10 60 8f bd 1d b7 9c bd 8f 90 cc bc 2d 03 05 bc
       -0.07000744 -0.076521136 -0.024971275 -0.008118433
0003a0 da bc aa bd 94 c7 52 3c 28 1e 78 3d 83 90 b3 3d
       -0.08336802 0.012864966 0.060575634 0.08767798
0003b0 85 58 ef bd 2b 90 ae bc 55 7d 01 3d 20 5c d2 3d
       -0.11686806 -0.021308979 0.031613667 0.10271478
0003c0 4f b6 a7 3c ce b8 8d 3d 7a 15 c1 bd 37 ac 9e 3c
       0.020472674 0.06920014 -0.094279245 0.019369228
0003d0 45 d6 61 bd 02 36 a7 3a 54 ef 94 3b fd c2 80 3d
       -0.055135984 0.0012757184 0.0045451317 0.06287191
0003e0 06 0a 21 3b 23 e6 79 3d dc 9f a0 3d af c7 a8 3d
       0.0024572625 0.06101049 0.07842991 0.082412116
0003f0 bc 4c 7a 3d 11 e8 fb bd a5 bf 17 bd 53 40 9f 3d
       0.061108336 -0.123001225 -0.037048 0.07775941

action_model._continuous_distribution.log_sigma f4 [1, 2]
000000 00 00 00 00 00 00 00 00
       0.0 0.0

action_model._continuous_distribution.mu.weight f4 [2, 128]
000000 38 0d 74 bc 0b 2c 17 bb 7d cc 64 3c b1 5b 23 3b
       -0.01489573 -0.0023067023 0.013964769 0.0024926479
000010 21 16 90 bc ff 2a be 3c e8 5b b5 bc 7f c5 39 3b
       -0.017588677 0.023213862 -0.02213855 0.0028346477
000020 1b 21 1b 3c b4 f6 b0 3c a0 57 8f bb ae 1a 00 3b
       0.009468342 0.021602012 -0.0043744594 0.0019547152
000030 94 7c c6 3c 74 0f 4b 3b 93 b4 39 bc 6c f6 b9 bc
       0.024229325 0.0030984553 -0.011334556 -0.02270051
000040 5b c7 a6 3b 0b a1 b5 3c cd 99 ba bc bf 7e 12 bc
       0.005089683 0.022171518 -0.022778416 -0.008941351
000050 1d 61 70 bc eb 66 53 bb fa b1 a3 bc f2 41 1f bc
       -0.014671591 -0.0032257389 -0.019982327 -0.009720312
000060 7f db 42 3a 12 66 64 3c 27 6c 84 bc 85 5c fa 3c
       0.000743322 0.013940351 -0.016164852 0.030561695
000070 ef 4a 2e 3c 7f cd 2c bc 94 d7 82 3c 97 46 d2 3c
       0.010637983 -0.010547041 0.015971936 0.025668425
000080 f9 44 9e 3c 55 49 5d bb cd 3c d8 bc 7b b3 47 3c
       0.019319998 -0.0033765633 -0.02639618 0.012188788
000090 4a eb d1 3c 0b b8 e5 bc 83 aa 78 bc 8c e7 80 bc
       0.02562489 -0.02804186 -0.015177372 -0.01573541
0000a0 4d 77 22 3c 25 a3 be 3c 61 58 c2 3b 0f 0a e9 bb
       0.009916139 0.023271153 0.0059309457 -0.007111795
0000b0 79 e7 19 3d e0 5a cb 3c 58 05 d9 bc 3b 0c 8f 3c
       0.037574265 0.024823606 -0.026491806 0.017461887
0000c0 d0 32 6d 3b 21 a2 02 bd 9f b5 01 bd 52 a3 35 bb
       0.0036193617 -0.0318929 -0.031667348 -0.0027715755
0000d0 57 ce af bc 83 26 22 bb f5 5a c4 3c 6e 35 3b ba
       -0.021460695 -0.0024742193 0.023969153 -0.00071414455
0000e0 cc b4 02 bd 9d d0 51 bd 55 5f 30 3c e2 5c d5 3b
       -0.031910703 -0.05122434 0.010764916 0.0065113166
0000f0 a3 ea 4a bc 98 c2 6c bc 87 7f cb 3b 53 19 75 3b
       -0.012385043 -0.014450692 0.006210271 0.0037399128
000100 a1 9e 04 bc e8 aa 18 bc d0 2a a9 3c 15 69 c3 3b
       -0.008094461 -0.009318091 0.020650297 0.0059634545
000110 fc 9e 26 3c ea 90 9a 3a a3 05 f3 3c 82 bb 05 3d
       0.010169741 0.0011792455 0.029665774 0.032649525
000120 93 23 f2 3b e0 b5 c7 bc d7 be 86 bc 0f 38 21 3c
       0.0073894947 -0.024378717 -0.016448421 0.009840026
000130 e3 17 01 3c eb 55 88 3c db 76 89 bc 04 4c 8d 3c
       0.00787923 0.016642531 -0.016780308 0.017248161
000140 e2 1e 42 3b 47 73 36 3c c2 6e b8 bb eb 58 33 bc
       0.0029620458 0.011135883 -0.0056284377 -0.010946493
000150 52 0c 49 bc cf 7d f9 bc d5 38 19 3c fd ae 1d 3b
       -0.012271004 -0.030455498 0.009351929 0.00240606
000160 b8 44 6e 3c 6b 93 8e 3c b2 d2 26 3c 47 46 b2 bb
       0.014542751 0.017404279 0.01018207 -0.0054405066
000170 78 f8 cb bc 7f e8 31 3b ca f6 86 3c eb 76 f1 3c
       -0.024898753 0.0027146635 0.0164751 0.02947565
000180 61 47 b0 3c a6 5e 15 bc 1d ef 58 bc 17 ab bf 3c
       0.021518411 -0.009116804 -0.013240603 0.023397012
000190 6e b2 80 bb 63 05 c9 bc 6c 06 1b bc db 8d 13 3d
       -0.0039275205 -0.024538701 -0.00946198 0.036023956
0001a0 9b 0e 91 bc b8 c3 aa bb 09 fa 97 3b 8f 5f eb 3c
       -0.01770716 -0.00521132 0.004637961 0.02873209
0001b0 72 db 4c 3c b7 3d db bc 23 3a 6d 3b 0e fc 8d bc
       0.012503492 -0.026762826 0.0036197982 -0.017332103
0001c0 83 c1 02 bc e8 ad 65 bc fb 2b 07 3d e2 e1 50 3c
       -0.007980707 -0.014018513 0.033000927 0.012749167
0001d0 d7 aa 82 3b e4 21 87 bc 63 ef 18 3d 4e 11 12 bc
       0.003987651 -0.016495652 0.037337672 -0.008915259
0001e0 88 1a c8 bb f1 aa 2d 3d ab aa 07 bc ff 78 5d 38
       -0.0061066784 0.04239935 -0.0082804365 5.2803192e-05
0001f0 e4 e2 28 bd b1 59 9a 3b 3e f0 bc bc 0d 2b 6e 3c
       -0.041232005 0.004710399 -0.023063775 0.014536631
000200 83 5c 42 3b fb 40 af bc 0c 19 8c bc 68 f0 79 bc
       0.0029657192 -0.02139329 -0.017101787 -0.015255071
000210 5f 30 70 bc e7 f1 11 bc 64 fb 45 bc ab 95 ae 3a
       -0.01465997 -0.008907772 -0.012083862 0.0013319751
000220 4d 51 ab 3a 83 89 5e 3c dc 9e b2 3c 4e 70 c2 3c
       0.0013070494 0.01358259 0.021804266 0.023735192
000230 6d c6 bc 3c cd 48 5b bb e2 e8 65 3b 53 bf 1a bc
       0.023043836 -0.003346014 0.0035081436 -0.009445029
000240 66 f7 17 bc 95 2f 1c 3c e0 10 42 3d 58 af 05 bc
       -0.009275293 0.009532829 0.047379375 -0.008159481
000250 f8 45 f6 3c 72 9e d4 3c c5 6b c3 ba 68 3c c4 bc
       0.03006266 0.025954459 -0.0014909437 -0.023954585
000260 06 08 20 bd 29 f6 b6 bc 97 8d d4 36 8d 17 6a bb
       -0.03907015 -0.022334175 6.3345756e-06 -0.0035719604
000270 d4 5b 2d 3b 2a 47 66 3b 18 1a d4 b9 ed 65 3e 3b
       0.002645244 0.0035137632 -0.00040455232 0.0029052452
000280 89 c0 ab 3c 6a 90 3f bb 24 57 ab bc ff fe 03 bc
       0.020965831 -0.0029230365 -0.020915575 -0.008056401
000290 8a 1a 1f bd 10 d2 cb 3c 5a 3b 16 bc 15 a5 7f 3c
       -0.03884367 0.024880439 -0.009169424 0.0156033235
0002a0 d8 00 2f bc 2b db 66 bc 63 55 de 3c b0 d9 6a bc
       -0.0106813535 -0.01409034 0.027140325 -0.014334127
0002b0 57 1d 56 3c 62 04 12 3d df 7f 15 3c 9b e1 da bc
       0.013068519 0.03564871 0.009124725 -0.026718905
0002c0 5b d7 f4 bc 13 76 f0 3b d0 e2 44 bc 7e ce b6 bc
       -0.029887846 0.0073382943 -0.012016967 -0.02231526
0002d0 22 65 e9 3c d2 ac 5b 3c b3 4d c7 3c 51 97 b9 b9
       0.028490607 0.013407903 0.024329042 -0.0003539869
0002e0 d5 a2 1c 3b 72 3f 35 bc 45 84 fc 3c 1a b8 88 bc
       0.0023900766 -0.01106249 0.03082479 -0.016689349
0002f0 c2 02 11 3c 15 43 e9 bc a5 93 70 bc c6 56 37 3b
       0.008850755 -0.02847437 -0.014683639 0.0027975305
000300 97 51 c0 bb f4 8a b6 3c e8 af 6b bc a5 ec c7 ba
       -0.0058691013 0.022283055 -0.014385201 -0.0015253021
000310 4a cf 69 bc 6a 73 b6 bb 8b e3 2d 3c 63 4c b2 3c
       -0.014270613 -0.0055679576 0.0106133325 0.02176494
000320 b5 79 0e bb 6d 04 64 bc 4b 57 3c 3c 5d 0e 94 bb
       -0.0021740024 -0.013917071 0.011495422 -0.004518314
000330 0a 4a 4e bc 35 76 0b 3c 73 b9 9b bb ef d7 8d bc
       -0.0125908945 0.0085120695 -0.004752332 -0.01731488
000340 ae 57 14 3c 50 71 f0 bc e4 32 4c 3c 9e 36 83 3c
       0.009054108 -0.029350907 0.012463305 0.016017254
000350 73 7b 98 3c f5 49 51 bc d6 d6 0c bc 40 ba 7e bc
       0.018613553 -0.01277398 -0.008596143 -0.015547335
000360 f3 d3 66 bc 80 cf 57 bc 49 4c a4 3c c2 d7 9d 3c
       -0.014088619 -0.01317203 0.020055907 0.01926792
000370 fa 4d 4e bc cf 14 13 bd f3 51 90 bb 1c 7b 1e 3b
       -0.012591833 -0.035908516 -0.0044043004 0.0024182266
000380 48 34 0f bd 82 4f e1 bb f9 4e 2c bb cb a5 00 3c
       -0.03496197 -0.006875933 -0.0026292189 0.007852028
000390 43 b5 1e bd ae f2 17 bb 48 90 24 bb c5 a3 ab bc
       -0.038747083 -0.002318542 -0.0025110412 -0.020952115
0003a0 fd 6a 7f bc 3f 43 e3 3c aa f2 ad 3c 8a 26 51 3b
       -0.015589473 0.027742026 0.021233875 0.003191384
0003b0 58 15 59 3c 9f 14 d4 3b f5 61 f8 3b 3f 0b 1d bc
       0.013249718 0.006472185 0.0075800368 -0.009585201
0003c0 7c f2 99 bc b9 73 2c 3b 15 d4 83 bc 43 7d dd 3c
       -0.018792383 0.0026314093 -0.01609234 0.027037269
0003d0 b1 e7 38 ba 6a af dd 3b 7f d1 57 bc f5 6a 19 3d
       -0.00070535677 0.0067652958 -0.013172506 0.037455518
0003e0 df 52 5b 3c 3b c4 21 3b 61 3b c7 bc 4a 35 ce 3b
       0.013386457 0.0024683613 -0.024320306 0.0062929736
0003f0 57 70 4c bb 34 09 93 3b 14 f1 1f 3a 8d a0 e8 bc
       -0.003119489 0.004487181 0.0006101292 -0.02839687

action_model._continuous_distribution.mu.bias f4 [2]
000000 00 00 00 00 00 00 00 00
       0.0 0.0
