results/hideandseek_21/Seek/Seek-499988.onnx (onnx, 215419 bytes, 9 tensors)

network_body._body_endoder.seq_layers.0.weight f4 [128, 149]
0	0x3d7c6412	0.061618872
1	0x3f7d0cfe	0.9884795
2	0xbed2bb64	-0.41158593
3	0xbd1ec786	-0.0387645
4	0x3f4db000	0.8034668
5	0x3e24ba75	0.16086753
6	0x3f2a738f	0.6658258
7	0x3ebfa982	0.37434012
8	0xbefa77cf	-0.48919532
9	0x3f3e020f	0.7422189
10	0x3dd56cb7	0.10421126
11	0x3f581eaf	0.8442182
12	0xbec87f68	-0.39159703
13	0xbcda7a7d	-0.026669735
14	0x3f1a32e4	0.602339
15	0xbc2be1f7	-0.010490886
16	0x3e039416	0.12849459
17	0x3ecf2db8	0.40464568
18	0xbf958d58	-1.168376
19	0x3f5e268d	0.86777574
20	0x3e181ccf	0.1485474
21	0x3f3d5425	0.7395652
22	0xbedcd809	-0.43133572
23	0xbdf69453	-0.12040009
24	0x3e9748e1	0.2954779
25	0x39d8d703	0.00041358927
26	0x3e2ec76e	0.17068264
27	0x3f91e43c	1.1397777
28	0xbdf76bb9	-0.12081093
29	0x3f8fc951	1.1233312
30	0xbdb2dd94	-0.08733669
31	0x3f392e6c	0.7233646
32	0xbea1985f	-0.31561562
33	0xbe31fa4a	-0.17380634
34	0x3e9460ec	0.28980196
35	0x3dacccd8	0.08437508
36	0x3ec0ed2a	0.37680942
37	0x3f1abc60	0.6044369
38	0xbdb38622	-0.08765818
39	0x3bee62cd	0.0072749616
40	0xbcb6033c	-0.02221834
41	0x3eb85193	0.35999736
42	0x3f83875c	1.0275683
43	0xbe0b0afe	-0.13578412
44	0xbf0e812e	-0.5566586
45	0xbc9fe0cd	-0.019516373
46	0x3efe1488	0.4962504
47	0x3e91d316	0.28481358
48	0x3da7744c	0.08176479
49	0x3ea39004	0.31945813
50	0xbcb1e4a3	-0.021715468
51	0x3eb5c0e7	0.35498735
52	0x3ee3223f	0.44362065
53	0xbb68618f	-0.003545854
54	0xbeff846b	-0.49905714
55	0x3e05b6ab	0.13057964
56	0x3e867943	0.2626439
57	0xbd7463ba	-0.05966542
58	0xbda76435	-0.0817341
59	0x3ee3a42d	0.44461194
60	0x3c82d453	0.015970385
61	0x3f42fa02	0.7616273
62	0xbf019406	-0.5061649
63	0x3d557a8c	0.052118823
64	0xbe17b906	-0.14816675
65	0x3d2e48a7	0.042549755
66	0x3ecf6054	0.4050318
67	0x3e329fb6	0.17443737
68	0xbd527538	-0.05138132
69	0x3f0a3702	0.53990185
70	0x3dc08455	0.0940024
71	0xbed19635	-0.4093491
72	0x3e1fe98b	0.15616433
73	0x3d154711	0.036444727
74	0x3e8deeb8	0.2772119
75	0xbdf93683	-0.121686004
76	0x3e301237	0.17194448
77	0xbe232830	-0.15933299
78	0xbea2e66c	-0.31816423
79	0x3f1341c7	0.57522243
80	0x3d179c45	0.037014265
81	0x3f6b8696	0.92002237
82	0xbed2114e	-0.41028827
83	0xbf21b563	-0.631674
84	0xbe5991de	-0.2124705
85	0xbd4e069d	-0.050299276
86	0x3d7f4595	0.062322218
87	0xbed2c88c	-0.4116863
88	0x3daf6824	0.08564785
89	0x3ece59d0	0.40302896
90	0xbc4b3379	-0.012402409
91	0x3ed541e7	0.41651842
92	0x3f11163a	0.5667454
93	0xbf81398b	-1.0095686
94	0xbea9eac2	-0.33186918
95	0xbd1752e7	-0.036944296
96	0xbe296095	-0.1654075
97	0x3f1269ad	0.571925
98	0x3f688f3a	0.90843546
99	0x3f5a0964	0.8517058
100	0xbda5ad2a	-0.08089669
101	0x3e8796cf	0.26482245
102	0xbe7132b2	-0.23554495
103	0x3d0e2751	0.034705464
104	0xbe82f52f	-0.25577685
105	0x3c74d3c2	0.014943065
106	0x3f1ae92f	0.6051206
107	0x3f44410c	0.76661754
108	0x3be2ac7d	0.006917535
109	0x3e13626c	0.14393014
110	0xbc8c3a92	-0.017117772
111	0x3f46d97c	0.77675605
112	0x3ef775ac	0.48331964
113	0x3db9bdfd	0.090694405
114	0xbdc42555	-0.09577433
115	0xbde2b2be	-0.110692486
116	0x3f41eca0	0.75751686
117	0xbe901725	-0.28142658
118	0xbdce8269	-0.100834675
119	0x3f230642	0.63681424
120	0xbdd2204f	-0.102600686
121	0xbb92c3d9	-0.0044789133
122	0x3f75f9e1	0.9608441
123	0xbd411d92	-0.04714734
124	0xbd059d7a	-0.032620884
125	0x3db829b0	0.08992326
126	0x3eb40899	0.3516281
127	0x3f5d0601	0.86337286
128	0xbdca7cde	-0.09887098
129	0x3f1e8fb8	0.6193805
130	0xbcb5e892	-0.022205625
131	0x3f690713	0.9102642
132	0x3ef1a0c7	0.47192976
133	0x3d0d7a38	0.034540385
134	0xbe6d694b	-0.23184697
135	0x3cd5fddb	0.026122024
136	0xbdcb0b52	-0.099142686
137	0x3f7fdaf6	0.9994348
138	0xbce35f13	-0.027755296
139	0x3f3e7deb	0.74410886
140	0x3f89e79c	1.0773807
141	0x3df8890d	0.12135515
142	0xbd50eb8c	-0.051005885
143	0x3f82c8b3	1.0217499
144	0x3ed09bc3	0.40743837
145	0x3d805268	0.06265718
146	0x3f3b7668	0.7322755
147	0x3df50a31	0.119648345
148	0x39e95ecf	0.0004451186
149	0x3d455537	0.04817697
150	0x3ced3c40	0.028959394
151	0xbedaf85b	-0.42767605
152	0xbce42a4d	-0.027852202
153	0xbf563f85	-0.83690673
154	0x3db5ead8	0.088826835
155	0xbeb03c96	-0.34421223
156	0xbf3867cb	-0.72033376
157	0x3e93a6d7	0.28838226
158	0xbf19a6ce	-0.6002015
159	0x3bd7d87d	0.0065870867
160	0xbda215de	-0.07914327
161	0xbe0766c6	-0.13222799
162	0xbde59064	-0.11209181
163	0xbf4655f3	-0.774749
164	0xbc083c9e	-0.0083152335
165	0xbe2cee49	-0.16887774
166	0xbf02c2e1	-0.5107861
167	0x3d9d0b3f	0.07668161
168	0xbf3a3773	-0.7274086
169	0x3df73f6d	0.120726444
170	0xbe2e6dd1	-0.17034079
171	0x3e39a9b4	0.18131143
172	0x3e35b94a	0.17746463
173	0xbf193de0	-0.5986004
174	0xbd6273d6	-0.05528625
175	0xbe7692eb	-0.24079482
176	0xbf02a6d4	-0.5103581
177	0xbd8e6b3b	-0.06954046
178	0xbf31aa46	-0.6940044
179	0x3d76895e	0.060189597
180	0xbdfc2736	-0.123121664
181	0x3f0d96df	0.55308336
182	0xbe80dced	-0.25168553
183	0xbf0bffdb	-0.5468728
184	0xbcf96826	-0.03044517
185	0xbe147c4f	-0.14500545
186	0x3e246a86	0.1605626
187	0xbdc89f51	-0.09796012
188	0xbf16498a	-0.5870596
189	0xbe0836fb	-0.13302223
190	0xbeb898d3	-0.36054096
191	0x3f1111b9	0.5666767
192	0x3d6588c1	0.05603862
193	0xbf2b200e	-0.66845787
194	0xbd071a17	-0.032983866
195	0xbe8a49a4	-0.27009308
196	0xbca754d8	-0.020426199
197	0xbda38928	-0.07985145
198	0xbe4ed279	-0.20197476
199	0xbcd6e754	-0.026233353
200	0xbedba507	-0.42899343
201	0x3f698153	0.9121296
202	0xbcaa92d9	-0.020821976
203	0xbead1a9f	-0.33809373
204	0x3da5b4f5	0.080911554
205	0xbe95a108	-0.2922442
206	0x3f119cc8	0.56879854
207	0xbd020557	-0.031743374
208	0xbf068797	-0.52550644
209	0x3d162927	0.03666034
210	0xbdca171b	-0.09867688
211	0x3f404a42	0.7511331
212	0xbe1e6059	-0.15466441
213	0xbeeed666	-0.46647948
214	0x3d7ba7a4	0.06143917
215	0xbeb7b67d	-0.35881415
216	0xbeded170	-0.43519163
217	0xbd031264	-0.03199996
218	0xbef43a7d	-0.47700873
219	0xbd4e6d64	-0.05039729
220	0xbf6bcfd3	-0.9211399
221	0x3e2c8bcc	0.16850203
222	0xbe1cf592	-0.15328053
223	0xbe71515f	-0.23566197
224	0xbc9d75e9	-0.019221263
225	0xbf703d4a	-0.9384352
226	0xbf188af7	-0.59587044
227	0x3c2225c3	0.009896698
228	0xbec02447	-0.37527677
229	0x3decc74e	0.11561452
230	0xbeeda42f	-0.46414325
231	0x3f23cb4a	0.6398207
232	0xbe518228	-0.20459807
233	0xbe89b1df	-0.26893517
234	0xbc9a8243	-0.018860942
235	0xbf2b897f	-0.6700668
236	0xbf0f85d4	-0.5606358
237	0x3d673db0	0.056455314
238	0xbec0dd6a	-0.37668926
239	0x3d3b1ef3	0.045683812
240	0xbf077ccb	-0.52924794
241	0x3f04e498	0.51911306
242	0xbeb88386	-0.36037844
243	0xbe55a2ec	-0.20862931
244	0xba794133	-0.00095083116
245	0xbf43f185	-0.76540405
246	0xbec80b78	-0.3907125
247	0x3e99928e	0.29994625
248	0xbf0b87f1	-0.54504305
249	0xbdc94ef8	-0.09829515
250	0xbf21a69a	-0.6314484
251	0x3e8f0e0e	0.2794041
252	0xbf010762	-0.5040189
253	0xbedab2b4	-0.42714465
254	0xbd5b9493	-0.05360849
255	0xbe92ad82	-0.28648

network_body._body_endoder.seq_layers.0.bias f4 [128]
0	0x3f0324f1	0.51228243
1	0xbea4cf0f	-0.32189223
2	0x3f3a2a72	0.72721016
3	0x3ea8a052	0.32934815
4	0xbf0e8cca	-0.5568358
5	0xbefdfe2c	-0.4960798
6	0xbe6becb3	-0.23039512
7	0xbf092512	-0.5357219
8	0xbdd1566b	-0.10221561
9	0xbeee2f3d	-0.46520415
10	0x3f9a2737	1.2043217
11	0xbf0cf476	-0.5506052
12	0xbf0bf1c5	-0.54665786
13	0xbe1e2c90	-0.15446687
14	0x3f0967ed	0.53674203
15	0xbf062c14	-0.5241101
16	0xbf1bbcf1	-0.60835177
17	0xbf2ad324	-0.66728425
18	0xbf29569f	-0.661478
19	0xbf167085	-0.5876544
20	0xbebb392c	-0.36567056
21	0xbea80d34	-0.32822573
22	0xbef901c1	-0.4863415
23	0xbf414278	-0.7549205
24	0xbf189cdd	-0.59614354
25	0xbee54b59	-0.44784048
26	0xbf1b1bd4	-0.6058934
27	0xbf0df283	-0.5544817
28	0xbf0842f6	-0.53227174
29	0xbf1f3db9	-0.62203556
30	0xbf0f7060	-0.56030846
31	0x3f550831	0.83215624
32	0xbea8409c	-0.32861793
33	0xbf32b948	-0.69813967
34	0xbefbda72	-0.49190098
35	0xbefb2db8	-0.49058318
36	0xbf1139e6	-0.5672897
37	0xbf1d77bf	-0.61510843
38	0xbf1b5fef	-0.6069326
39	0x3ea5496f	0.32282588
40	0xbeb2c63f	-0.34916875
41	0xbed20430	-0.4101882
42	0x3f7970fa	0.97438014
43	0xbdee95b3	-0.116496466
44	0xbf797fa3	-0.97460383
45	0xbf261f2a	-0.648913
46	0xbf29b409	-0.66290337
47	0xbe926623	-0.2859355
48	0xbef89f87	-0.4855921
49	0xbecf9041	-0.40539744
50	0xbf2d3248	-0.6765485
51	0xbf2d5528	-0.67708063
52	0xbf3ffd23	-0.7499563
53	0xbdbcf933	-0.092272185
54	0xbecec4b7	-0.40384457
55	0xbf11e414	-0.56988645
56	0x3f8eea45	1.1165243
57	0xbec2236a	-0.37917644
58	0xbeb37f45	-0.35058036
59	0xbf2b58f1	-0.6693259
60	0xbf2546b1	-0.6456099
61	0xbef0b063	-0.47009572
62	0xbecf8e4d	-0.40538254
63	0xbf1a6bc8	-0.6032071
64	0xbee22a31	-0.44172814
65	0xbf104a3d	-0.5636328
66	0xbf29a798	-0.6627135
67	0xbe842306	-0.2580797
68	0xbf11ede3	-0.5700361
69	0x3ee67915	0.45014253
70	0xbf2a05ef	-0.66415304
71	0xbedf9b98	-0.43673396
72	0xbeeb03d6	-0.45901364
73	0xbeeb67c6	-0.4597761
74	0xbee6bddc	-0.45066726
75	0x3f3da0fb	0.7407376
76	0x3fc7562b	1.5573171
77	0xbf0bcd6d	-0.5461033
78	0xbf060d83	-0.5236437
79	0xbebeff46	-0.37304133
80	0xbe453168	-0.19257128
81	0xbf0a515d	-0.540304
82	0xbf2e029f	-0.6797275
83	0x3d9f5934	0.07780686
84	0xbedd338d	-0.43203393
85	0xbe42e34c	-0.1903202
86	0x3f60cbca	0.8781096
87	0xbe465ac0	-0.19370556
88	0x3efe68d2	0.49689347
89	0xbf2e997b	-0.6820294
90	0xbf2bec6a	-0.67157614
91	0x3f84421a	1.0332673
92	0xbee446ee	-0.44585365
93	0xbf15806d	-0.5839909
94	0xbf133131	-0.57496935
95	0xbedb9be4	-0.42892373
96	0xbefe9c1a	-0.4972847
97	0xbf10373f	-0.563343
98	0xbeb304c7	-0.34964582
99	0xbf182482	-0.59430707
100	0xbef035c6	-0.46916026
101	0xbe831731	-0.2560363
102	0xbe14da22	-0.14536336
103	0xbf15ccad	-0.58515435
104	0xbf15a83b	-0.58459824
105	0xbed5aabc	-0.41731822
106	0xbeeed302	-0.4664536
107	0xbf08923c	-0.53348136
108	0xbeb8dfd5	-0.3610827
109	0xbee4220d	-0.4455723
110	0xbee69a31	-0.45039514
111	0xbf2b654d	-0.6695145
112	0xbe87b228	-0.2650311
113	0x3f8e826a	1.1133549
114	0xbef7c895	-0.4839522
115	0xbe025087	-0.12726031
116	0xbf12e88f	-0.57386106
117	0xbe9ecf40	-0.31017494
118	0xbefe13e9	-0.49624565
119	0xbf2bd088	-0.6711507
120	0xbf42c1e5	-0.7607711
121	0xbefe2acd	-0.4964203
122	0x3f146696	0.57969034
123	0xbf2ce316	-0.67534006
124	0xbf09c179	-0.5381084
125	0xbf081ee6	-0.5317215
126	0xbea6c8fe	-0.3257522
127	0x3f8c252e	1.0948846

network_body._body_endoder.seq_layers.2.weight f4 [128, 128]
0	0xbe727e31	-0.2368095
1	0xbc95231e	-0.018205222
2	0xbe5d101b	-0.21588175
3	0xbead44f2	-0.33841664
4	0x3e8182d4	0.25295126
5	0xbe700346	-0.23438749
6	0x3eccafa8	0.39977765
7	0xbd1d2d66	-0.038373373
8	0xbe9e6f3d	-0.30944243
9	0xbdcd23f5	-0.10016624
10	0xbec44f71	-0.3834186
11	0xbea0d407	-0.31411764
12	0xbe78eb7a	-0.24308577
13	0xbf1e9f85	-0.6196216
14	0x3e576371	0.21034028
15	0x3ed6bb35	0.41939703
16	0xbe1576e5	-0.14596136
17	0xbc24c477	-0.0100566065
18	0x3dbe4201	0.09289933
19	0xbf0ba9b6	-0.54555833
20	0xbe51623e	-0.20447633
21	0xbeb121cb	-0.34596094
22	0x3e206be5	0.15666158
23	0x3d3cbaf7	0.04607674
24	0xbe58986e	-0.21151897
25	0xbf17697d	-0.5914534
26	0x3dd9dc22	0.1063769
27	0x3d834a7c	0.06410691
28	0x3c1bd91a	0.00951221
29	0xbeace872	-0.33771092
30	0xbe865117	-0.26233742
31	0x3e377c79	0.17918576
32	0x3db7974e	0.08964406
33	0x3dfc53b7	0.12320655
34	0xbe68ffff	-0.22753905
35	0xbdbc1c49	-0.091850825
36	0xbeb3ed79	-0.35142115
37	0xbe420898	-0.18948591
38	0xbe06f39a	-0.13178864
39	0x3ead74dd	0.33878222
40	0x3e3e24a1	0.1856866
41	0xbea9c2dd	-0.3315648
42	0x3e8b0155	0.27149454
43	0x3e1e4ca5	0.15458925
44	0xbedc4897	-0.43024132
45	0xbdcb2ecc	-0.09921035
46	0x3e72dd5b	0.23717253
47	0xbb44b4cf	-0.0030014997
48	0xbd5cca24	-0.053903714
49	0x3c21737f	0.009854197
50	0xbe133031	-0.14373852
51	0xbe274da0	-0.16338205
52	0xbd96808d	-0.07348738
53	0x3f0ba3ad	0.54546624
54	0xbe02592b	-0.12729327
55	0x3f295961	0.66152006
56	0xbe1a50d9	-0.15069903
57	0x3e947caf	0.29001376
58	0x3e7589b8	0.23978317
59	0x3e174b35	0.14774783
60	0x3da23fc7	0.07922321
61	0x3f6e16e0	0.93003654
62	0x3de20bb3	0.11037388
63	0x3eec0ca9	0.4610341
64	0xbcde7e68	-0.027159885
65	0xbd6b3bf1	-0.05743021
66	0xbdd69b36	-0.10478823
67	0xbe41d10e	-0.18927404
68	0xbe905926	-0.28193015
69	0xbf063c73	-0.5243599
70	0xbf1024ab	-0.5630595
71	0x3ec9842a	0.39358646
72	0x3dcd558a	0.10026081
73	0xbdb20ceb	-0.0869387
74	0x3ea3710a	0.3192218
75	0xbeae1e32	-0.34007412
76	0xbd04d851	-0.032432858
77	0x3e243d63	0.16039042
78	0x3f372fe5	0.71557456
79	0x3e323da6	0.1740633
80	0xbec7d003	-0.39025888
81	0x3ddc9e99	0.107724376
82	0xbb2f2bec	-0.002672906
83	0x3ee2dbda	0.44308358
84	0x3ec85d11	0.39133504
85	0x3e144bf7	0.14482103
86	0xbf01bf44	-0.50682473
87	0x3bf30bc8	0.007417176
88	0x3f6e588a	0.9310385
89	0xbe9aa157	-0.30201218
90	0xbdb1c098	-0.086793125
91	0x3f76d162	0.9641324
92	0xbc3edc39	-0.011649185
93	0x3b16ea8a	0.002302798
94	0xbe86e890	-0.26349306
95	0xbe5a272b	-0.21304004
96	0x3eb44084	0.35205472
97	0x3eafc480	0.34329605
98	0x3e5503ea	0.20802274
99	0x3c96714b	0.01836457
100	0x3e8bce92	0.27306038
101	0xbe53a6ad	-0.2066905
102	0x3c8da06e	0.017288413
103	0x3da69420	0.08133721
104	0x3e4a4983	0.19754605
105	0xbd2e6d1f	-0.042584535
106	0x3efd4fe8	0.49475026
107	0xbe2307be	-0.15920922
108	0xbe938850	-0.28814936
109	0xbde0cd6b	-0.1097668
110	0x3c987174	0.018608786
111	0xbe0cce47	-0.13750564
112	0xbed6877b	-0.41900238
113	0xbedf08c0	-0.43561363
114	0xbe89af22	-0.26891428
115	0xbe6e0e9d	-0.23247762
116	0x3ee0d4a6	0.43912238
117	0xbe7a1e50	-0.24425626
118	0xbec274de	-0.37979788
119	0xbed02bb7	-0.40658352
120	0xbe41e0ae	-0.18933365
121	0x3dcba94a	0.09944399
122	0xbf28a45a	-0.6587578
123	0xbf29eb9c	-0.66375136
124	0xbe2bddd1	-0.16783835
125	0x3e429b11	0.19004466
126	0x3e6cd512	0.23128155
127	0x3f505dea	0.813933
128	0xbe7ee10a	-0.24890533
129	0xbe7e86c8	-0.24856102
130	0x3dfa1505	0.122110404
131	0x3ee5d8bf	0.44891927
132	0x3dbae90c	0.091264814
133	0xbea5865a	-0.32329065
134	0xbfb581a8	-1.4180193
135	0xbeb69cc3	-0.35666475
136	0xbf3d31f9	-0.7390438
137	0xbe307d34	-0.17235261
138	0xbf2c3997	-0.67275375
139	0xbe6e7213	-0.23285703
140	0xbf0c7711	-0.5486918
141	0x3e3f4578	0.18678844
142	0xbea62273	-0.32448158
143	0xbcb2cca7	-0.021826101
144	0xbb8e32b6	-0.0043395413
145	0xbde03f7e	-0.1094961
146	0xbee55de5	-0.44798198
147	0xbedf1ea5	-0.43578067
148	0xbedbc812	-0.4292608
149	0xbecc1010	-0.39856005
150	0xbd35aca3	-0.044354092
151	0x3dfb3f5e	0.12267946
152	0xbf0e2817	-0.5552992
153	0xbf6a737a	-0.91582453
154	0x3e0879d7	0.13327728
155	0x3e711b81	0.23545648
156	0xbdaf2d13	-0.08553519
157	0xbf99cbe6	-1.201535
158	0x3cb4301b	0.021995595
159	0xbf0504d9	-0.5196052
160	0x3d139eae	0.03604
161	0xbd109ec5	-0.035307664
162	0xbeb5d4d3	-0.35513934
163	0xbe95d091	-0.29260686
164	0x3c5a2dfe	0.013316629
165	0xbdfc9936	-0.1233391
166	0x39868015	0.000256539
167	0x3ecb0ac0	0.3965664
168	0x3e24aede	0.16082332
169	0xbe4f8733	-0.20266418
170	0x3f2b91c2	0.67019284
171	0x3d2dcf51	0.04243404
172	0xbe89da32	-0.26924282
173	0x3d7d31ba	0.061815
174	0xbe677a35	-0.22605212
175	0xbe517de2	-0.20458177
176	0xbebb40cd	-0.36572877
177	0x3efeb67b	0.49748597
178	0xbdcf4b25	-0.101217546
179	0xbd426049	-0.047455106
180	0x3cb63e54	0.022246517
181	0xbd39ee8d	-0.045393515
182	0xbe85fd14	-0.26169646
183	0x3e968dd8	0.29405093
184	0x3f68a3e9	0.9087511
185	0xbed0724e	-0.40712208
186	0xbf214ddf	-0.63009447
187	0x3c8007bc	0.015628688
188	0x3b85ef67	0.004087377
189	0xbe14eb7a	-0.14542952
190	0xbe839161	-0.25696853
191	0x3c0b59d5	0.008505304
192	0x3dfa1aa1	0.1221211
193	0xbea337a1	-0.3187838
194	0xbed8bc72	-0.42331272
195	0x3edefd00	0.435524
196	0xbcccafa9	-0.024986105
197	0x3eeac421	0.4585276
198	0x3e85bef1	0.2612224
199	0xbe5dfb98	-0.21678007
200	0xbde86e28	-0.11349136
201	0xbe1065c8	-0.14101326
202	0xbe5f3253	-0.21796541
203	0xbf7ae72f	-0.9800901
204	0x3f53e4f8	0.82771254
205	0xbf5bb2f1	-0.8581992
206	0xbedc8f8a	-0.43078262
207	0x3eb4a814	0.35284483
208	0x3e17376b	0.14767234
209	0x3d9927bd	0.074782826
210	0x3e24a54d	0.16078682
211	0xbf94cea6	-1.1625564
212	0x3df07d2f	0.11742627
213	0xbdfdfa6b	-0.12401279
214	0xbee47e3e	-0.44627565
215	0x3ec957de	0.3932485
216	0xbf7b3100	-0.98121643
217	0x3e3c6f46	0.18401822
218	0x3d93aab3	0.07210293
219	0x3e111239	0.14167108
220	0x3e8b06e4	0.27153695
221	0xbe30110a	-0.17194
222	0xbe3fd2b4	-0.1873272
223	0xbe24b0f3	-0.16083126
224	0xbee3e15d	-0.44507876
225	0xbe769d49	-0.24083437
226	0xbf70c18a	-0.9404532
227	0xbb98a8a6	-0.0046587763
228	0x3e8e3e85	0.27782074
229	0xbf05a4b1	-0.52204424
230	0xbf6bae03	-0.92062396
231	0xbea7d412	-0.32778984
232	0x3e22aa03	0.15885167
233	0xbede26e4	-0.43389046
234	0xbe8b6015	-0.27221742
235	0x3db94c04	0.09047702
236	0xbed5a13c	-0.41724575
237	0xbeb654ba	-0.35611516
238	0x3eac9512	0.33707482
239	0xbe7aad7e	-0.24480245
240	0xbe4dad08	-0.20085537
241	0x3f04aaf1	0.51823336
242	0xbe064bab	-0.13114803
243	0xbf9a6f4a	-1.2065213
244	0xbfa0941b	-1.2545198
245	0xbd944fe9	-0.07241804
246	0xbe8e564e	-0.2780022
247	0xbd14be04	-0.036314026
248	0xbf4a6ce5	-0.7907241
249	0xbf4402ff	-0.7656707
250	0xbf942211	-1.1572896
251	0x3e3b6102	0.18298724
252	0x3e53a6b3	0.2066906
253	0xbd88cbcf	-0.066794984
254	0x3e9b326d	0.3031191
255	0x3ec04d83	0.37559137

network_body._body_endoder.seq_layers.2.bias f4 [128]
0	0x3f24c9a0	0.64370155
1	0x3f0e4bde	0.55584514
2	0x3f4cf108	0.80055285
3	0x3f05da94	0.5228665
4	0xbed03aed	-0.40669957
5	0x3fa61eeb	1.2978185
6	0xbf1b23ef	-0.60601705
7	0xbe87dcd9	-0.2653568
8	0xbdc6d82b	-0.097091995
9	0xbef97ed2	-0.4872957
10	0xbf23dc12	-0.64007676
11	0xbebc7c66	-0.36813658
12	0xbf0a67ec	-0.5406482
13	0xbfbacf2c	-1.4594474
14	0xbef5cbb8	-0.48006988
15	0x3f236d70	0.63838863
16	0xbf3b76c3	-0.7322809
17	0x3f069a8e	0.5257958
18	0xbe07276b	-0.1319863
19	0x3d8bc6e9	0.068250485
20	0xbec175ce	-0.3778519
21	0xbf1fa4c9	-0.6236082
22	0xbf5079f6	-0.814361
23	0xbebd2d3f	-0.36948583
24	0xbf04d555	-0.5188802
25	0x3e501f62	0.20324472
26	0xbef6b8a2	-0.4818774
27	0x3fc4793d	1.5349499
28	0xbea26f4a	-0.31725532
29	0xbef11cb9	-0.47092226
30	0xbe6258d9	-0.22104205
31	0xbf0e8290	-0.5566797
32	0xbdaf647c	-0.08564088
33	0xbe928aa1	-0.2862139
34	0xbf016355	-0.50542194
35	0x3ea037fa	0.31292707
36	0xbe817b89	-0.25289562
37	0xbf3d0f43	-0.7385141
38	0xbf1bf0e1	-0.6091443
39	0x3de9c2eb	0.11414131
40	0x3da8ab9b	0.08235856
41	0xbe780a9b	-0.24222796
42	0xbea5489c	-0.3228196
43	0xbec278d3	-0.37982807
44	0xbd9d3f60	-0.076781034
45	0x3ea8f86b	0.33002028
46	0xbf1b6dce	-0.60714424
47	0xbf273249	-0.65311104
48	0x3fc650a4	1.549336
49	0x3f565b2a	0.83732855
50	0xbf09c6a3	-0.5381872
51	0xbf36226d	-0.7114628
52	0xbf28ca28	-0.65933466
53	0x3e82f0f0	0.25574446
54	0xbec9fc68	-0.39450383
55	0xbf379f5a	-0.71727526
56	0xbf681c7c	-0.90668464
57	0xbf0818a7	-0.53162616
58	0xbf535cb7	-0.82563347
59	0x3ea4f0f8	0.32215095
60	0xbf257e1d	-0.6464556
61	0xbea8b0f5	-0.32947508
62	0xbf1afac3	-0.6053888
63	0xbefffa79	-0.49995783
64	0xbe8e7802	-0.27825934
65	0xbeaf2096	-0.3420455
66	0xbeea5e51	-0.45775083
67	0xbe733cc6	-0.23753652
68	0xbf51ad4c	-0.81905055
69	0xbdc00ef3	-0.09377851
70	0x3f3f0c80	0.7462845
71	0xbf47eba2	-0.7809392
72	0xbf1bf522	-0.6092092
73	0xbe947ed9	-0.29003027
74	0xbe3194db	-0.1734194
75	0xbdf1812d	-0.117922164
76	0x3f6c9044	0.9240763
77	0x3f6c4132	0.9228698
78	0xbf245d4f	-0.6420488
79	0xbe2d1b14	-0.1690486
80	0xbe7b3f8b	-0.24535958
81	0x3f619df6	0.88131654
82	0xbf23f80a	-0.6405035
83	0xbf2186c2	-0.6309625
84	0xbd1833c8	-0.037158757
85	0xbec70667	-0.38872072
86	0xbebfee00	-0.37486267
87	0xbd9835d9	-0.074321456
88	0x3f1a87c0	0.6036339
89	0xbd8b132d	-0.06790767
90	0xbea87739	-0.3290346
91	0xbe168ec9	-0.14702906
92	0x3fb28b78	1.3948812
93	0xbe8e7410	-0.27822924
94	0xbf2d691f	-0.6773853
95	0xbe551443	-0.2080851
96	0x3f1386d5	0.5762761
97	0xbe18fc05	-0.14939888
98	0xbebf8546	-0.37406367
99	0x3f4302f3	0.76176375
100	0xbdd296ab	-0.10282644
101	0xbd9ab400	-0.075538635
102	0xbe7d0b5b	-0.24711363
103	0x3ee826c9	0.4534209
104	0xbf13f85a	-0.5780083
105	0xbea51584	-0.32242978
106	0xbd6b8ed7	-0.05750927
107	0x3ee28a57	0.4424617
108	0xbe8ba2c0	-0.27272606
109	0xbf5f1ce6	-0.8715347
110	0xbf6042ce	-0.87601936
111	0x3ee7faec	0.45308626
112	0xbed9b1ba	-0.42518407
113	0x3e42d9e5	0.19028433
114	0xbe2fa109	-0.17151274
115	0xbecd61e4	-0.40113747
116	0xbe9b4f0e	-0.3033375
117	0xbebdd968	-0.3707993
118	0x3f70cd9a	0.94063723
119	0x3efd257f	0.4944267
120	0xbc8631ee	-0.01638123
121	0xbf1de654	-0.6167958
122	0xbf150343	-0.582081
123	0xbe0f511b	-0.13995783
124	0xbea088e2	-0.31354433
125	0xbe682ecd	-0.22674103
126	0x3e9a798e	0.30170864
127	0x3eb2c9d4	0.34919608

network_body._body_endoder.seq_layers.4.weight f4 [128, 128]
0	0xbc60ebcd	-0.013728094
1	0xbd2a74d6	-0.04161533
2	0x3e43fcd5	0.19139417
3	0x3daff38a	0.08591373
4	0x3dff92f2	0.124791995
5	0xbb3e20ed	-0.0029011325
6	0x3d720b38	0.05909273
7	0xbe534d5b	-0.20634978
8	0xbda99139	-0.08279652
9	0xbd36d7e6	-0.04463949
10	0xbb7f90c5	-0.0038996201
11	0xbd55f1f3	-0.052232694
12	0xbd8bd07f	-0.06826877
13	0x3c9c325a	0.019066978
14	0x3d74137d	0.059588898
15	0xbd3f542a	-0.046711124
16	0x3da76a0b	0.08174523
17	0x3d883316	0.06650369
18	0xbdae7812	-0.08518995
19	0xbdb7df0e	-0.08978091
20	0x3d19adb1	0.03751916
21	0xbd693bf5	-0.056941945
22	0xbd21f213	-0.0395375
23	0x3dfbe1b4	0.12298909
24	0x3db7b85a	0.08970709
25	0x3c6e2d57	0.014537177
26	0x3d838c20	0.06423211
27	0x3c548724	0.012971673
28	0xbcd6fb97	-0.026243014
29	0xbe641d9a	-0.22276917
30	0x3de9926a	0.114048794
31	0x3e04233b	0.12904064
32	0xbbc29ecc	-0.00593934
33	0xbe06b417	-0.13154636
34	0xbe42c50a	-0.19020477
35	0xbd239e1c	-0.039945707
36	0xbd997d79	-0.07494635
37	0xbd903415	-0.07041184
38	0xbd45aec3	-0.04826237
39	0x3d6363dd	0.05551516
40	0x3a55354c	0.0008133247
41	0xbdf9930a	-0.121862486
42	0x3cccb960	0.024990737
43	0x3dc97c53	0.09838166
44	0x3d88520b	0.066562735
45	0x3d033862	0.032036193
46	0xbe27f771	-0.16402985
47	0x3da40fe4	0.080108434
48	0x3d03d3f2	0.03218455
49	0x3d3c1e0e	0.0459271
50	0xbca28547	-0.019838942
51	0x3dc56f4f	0.09640371
52	0xbd5fc0d0	-0.05462724
53	0xbd764f80	-0.06013441
54	0xbdba1b0a	-0.090871885
55	0x3c10d64e	0.008840157
56	0xbdb1f640	-0.086895466
57	0xbcd3ddec	-0.025862657
58	0x3d839871	0.0642556
59	0xbe03c7f1	-0.1286924
60	0x3cd121b3	0.025528764
61	0xbbc22a4c	-0.0059254523
62	0x3b32314f	0.0027190035
63	0xbd958dc6	-0.07302432
64	0x3c5d15bd	0.013493952
65	0x3db6cd44	0.0892587
66	0xbdc05e51	-0.093929894
67	0x3e2db991	0.16965319
68	0xbd894e42	-0.067043796
69	0x3bcd8688	0.006272141
70	0xbd101e32	-0.035185046
71	0x3dba00f0	0.0908221
72	0xbc34e33f	-0.011040508
73	0xbdc3e2a6	-0.09564714
74	0x3b47d2bf	0.0030490605
75	0xbe193ea5	-0.14965303
76	0x3d092534	0.033482745
77	0x3b41fc82	0.002959997
78	0xbdbcbc21	-0.0921557
79	0x3df9d102	0.12198068
80	0xbd2cdba6	-0.04220166
81	0x3dafadbd	0.0857806
82	0xbd127d83	-0.03576423
83	0xbe24f78a	-0.16110054
84	0x3d762657	0.060095157
85	0x3b903563	0.0044008954
86	0xbd41145f	-0.047138568
87	0xbe04f6ea	-0.12984815
88	0x3d864a4a	0.06557138
89	0x3e22ef5e	0.15911624
90	0x3dbbe889	0.09175212
91	0xbcf2be5c	-0.029631786
92	0xbdd06a38	-0.101765096
93	0x3d6869ea	0.056741633
94	0xbd64cce9	-0.05585948
95	0xbdf146af	-0.1178106
96	0xbc5837d3	-0.013196903
97	0x3d425378	0.047442883
98	0xbdcb61cd	-0.099307634
99	0xbdbf6917	-0.09346216
100	0x3d7e68ba	0.062111594
101	0x3c7b078b	0.015321623
102	0x3dee1743	0.116255306
103	0x3e0f86d8	0.14016283
104	0xbe0bdbc4	-0.13658053
105	0x3c9f2bb1	0.019430013
106	0x3def5a90	0.11687195
107	0x3dd2b234	0.10287896
108	0xbdf4758c	-0.11936483
109	0x3d7f51f0	0.062334
110	0x3da81d7f	0.08208751
111	0xbe3b45bd	-0.18288322
112	0xbcc01da7	-0.02345164
113	0xbdcf3136	-0.10116808
114	0x3cb5fa9c	0.022214226
115	0xbd3fae6e	-0.04679721
116	0xbca174a3	-0.019708937
117	0x3d958afb	0.07301899
118	0xbc4d1e7b	-0.012519474
119	0xbd868cb5	-0.065698065
120	0x3d178d32	0.03699989
121	0xbce48c24	-0.027898856
122	0x3d7c38f4	0.061577752
123	0x3d9b7533	0.07590713
124	0x3df0810a	0.11743362
125	0xbe605894	-0.2190879
126	0xbc5b38a2	-0.0133802015
127	0xbd9efa3b	-0.077625714
128	0xbd847bf6	-0.06468956
129	0xbd96bb11	-0.07359899
130	0x3e00468b	0.1252691
131	0xbd2bf62b	-0.04198281
132	0x3ccc7a71	0.024960728
133	0xbcbd0ed8	-0.023078367
134	0xbdafc772	-0.08582963
135	0xbe02a88b	-0.12759607
136	0x3e8fc784	0.28081906
137	0xbafcba83	-0.0019281659
138	0xbe46a198	-0.1939758
139	0x3d9cd215	0.076572575
140	0xbd3504a4	-0.04419388
141	0x3dbf7eb2	0.09350337
142	0x3ddf9d93	0.10918727
143	0x3d04ad39	0.03239176
144	0xbd9fa3cf	-0.07794916
145	0xbb8b6cd6	-0.0042549176
146	0x3d536038	0.051605433
147	0x3c54b34e	0.012982203
148	0xbbb0df24	-0.005397694
149	0xbe0903dc	-0.13380378
150	0xbe55b230	-0.20868754
151	0x3d118f0d	0.035536814
152	0x3d86b6bd	0.06577823
153	0x3d1237fe	0.03569793
154	0xbcff22b8	-0.031144485
155	0xbe4f9e69	-0.20275272
156	0x3e613bce	0.2199547
157	0x3c9a8e3d	0.018866653
158	0x3d346f1a	0.044051267
159	0xbdaad8c1	-0.08342124
160	0x3da851b0	0.08218706
161	0xbdce5dae	-0.10076462
162	0xbc784ad9	-0.015154564
163	0xbdbca26e	-0.092106685
164	0x3dffa3b8	0.12482399
165	0xbc7448ed	-0.014909965
166	0x3e11934b	0.14216344
167	0xbdae761a	-0.0851862
168	0x3dffe72b	0.12495264
169	0x3e181b7f	0.14854239
170	0xbb31a977	-0.0027109066
171	0xbd1deb0a	-0.03855423
172	0x3dbdab07	0.092611365
173	0xbe37f195	-0.1796325
174	0x3d195e77	0.037443604
175	0x3e4a10de	0.19732997
176	0xbdaf27a6	-0.08552484
177	0xbce6fb43	-0.028195983
178	0x3dadcbae	0.084861144
179	0x3e54b8ce	0.20773622
180	0xbe1a905d	-0.15094133
181	0xbdc6a1db	-0.0969884
182	0x3e23fe70	0.16015029
183	0x3d4e64f9	0.050389264
184	0xbd0d61e0	-0.03451717
185	0xbe9dc173	-0.30811653
186	0xbdcb6804	-0.09931949
187	0xbd494306	-0.049136184
188	0x3c0aa3d1	0.008461908
189	0x3e004b9f	0.12528847
190	0x3d96bc16	0.07360093
191	0x3e09acc6	0.13444814
192	0x3c0225c6	0.007943576
193	0xbdb685f1	-0.08912266
194	0xbd728e51	-0.059217755
195	0x3e050a6d	0.12992258
196	0x3d95ca25	0.07313947
197	0x3db0fd4f	0.08642065
198	0xbd969989	-0.07353503
199	0xbde47f3f	-0.11157083
200	0x3dd47322	0.10373522
201	0x3df3ee68	0.11910707
202	0x3da0624c	0.07831249
203	0xbe0c15e6	-0.13680229
204	0x3d188141	0.03723264
205	0xbd3e1ff1	-0.04641718
206	0x3c365c41	0.0111303935
207	0x3d8055b0	0.062663436
208	0x3d4ff11e	0.050767057
209	0x3d7f7fd0	0.06237775
210	0x3d289685	0.04115917
211	0x3c04ba4b	0.008101056
212	0x3c9cc827	0.019138409
213	0xbc04da23	-0.0081086485
214	0xbd34bf24	-0.0441276
215	0xbc6ee606	-0.014581209
216	0x3e2c2641	0.16811468
217	0x3e2fd456	0.17170843
218	0xbd1cafd0	-0.038253605
219	0xbdadd416	-0.08487718
220	0x3d382b51	0.044963185
221	0xbd216dba	-0.039411284
222	0x3df4cb92	0.119528905
223	0xbdb2faec	-0.08739266
224	0x3cd5b5fa	0.02608775
225	0xbd9a0c1a	-0.075218394
226	0x3cafcae2	0.021459047
227	0x3e1077e2	0.14108232
228	0x3e3be805	0.18350227
229	0xbd45c256	-0.048281036
230	0x3d9d3707	0.07676511
231	0xbd8c8f10	-0.068632245
232	0xbcabef89	-0.020988243
233	0xbd50e444	-0.05099894
234	0x3e25cd9a	0.16191712
235	0xbdc3c585	-0.09559158
236	0xbe06d4b3	-0.13167076
237	0x3e0ecd7f	0.13945578
238	0x3e36aa45	0.1783839
239	0xbdf5b6c0	-0.119977474
240	0xbe16260c	-0.14662951
241	0xbdf055e1	-0.1173513
242	0xbe10fa19	-0.14157905
243	0x3dcdbb80	0.100455284
244	0xbc0e5830	-0.008688018
245	0x3e0f2be3	0.13981585
246	0x3e09a8df	0.13443325
247	0xbdd18001	-0.10229493
248	0xbd61e453	-0.055149388
249	0x3cea319c	0.028588109
250	0x3cdbe954	0.026844658
251	0x3dbceabc	0.092244595
252	0xbd746a9d	-0.059671987
253	0x3d18b207	0.037279155
254	0xbdb01d07	-0.085992865
255	0x3d5c13d6	0.053729855

network_body._body_endoder.seq_layers.4.bias f4 [128]
0	0xbd83db29	-0.06438286
1	0xa0ab5717	-2.9026158e-19
2	0xbd55c5b4	-0.052190498
3	0xbb1059e3	-0.0022026233
4	0x3ccf0b41	0.025273921
5	0xb9da1bba	-0.00041600858
6	0x3e171eed	0.14757891
7	0x3e9c2742	0.304987
8	0x2c3a56b8	2.6480328e-12
9	0xbd0dc4c2	-0.03461147
10	0xbbc6f80b	-0.0060720495
11	0xb9080e8a	-0.00012975387
12	0xbbd45e77	-0.0064809876
13	0xbd753587	-0.0598655
14	0xbc1247aa	-0.008928219
15	0xbc0976a9	-0.008390107
16	0x3e034832	0.12820509
17	0xbcd55aa4	-0.026044197
18	0xbc40d819	-0.011770272
19	0xa554c926	-1.845622e-16
20	0xbd0c970c	-0.034323737
21	0x3dba2d03	0.090906166
22	0xbca6d2ed	-0.02036425
23	0xbd4ed02a	-0.05049149
24	0x3e536ad3	0.20646219
25	0xbce839c2	-0.028347854
26	0xbc829a9f	-0.01594287
27	0x3d3c2158	0.045930237
28	0x3e7d9d19	0.24766959
29	0xbc839492	-0.016062055
30	0xa71352a1	-2.0445141e-15
31	0x1610685c	1.1665157e-25
32	0xbccb2de9	-0.024802165
33	0x18f2e549	6.2787053e-24
34	0xbcf84fa7	-0.030311419
35	0xbd9455e9	-0.072429486
36	0x3eae4686	0.3403818
37	0x3d4a9040	0.049453974
38	0x9d0535ba	-1.763018e-21
39	0x3d91aba0	0.07112813
40	0xbc8750cd	-0.016518021
41	0xbc0ff69b	-0.008786823
42	0x3e30afd7	0.17254578
43	0xbcab33cf	-0.020898728
44	0xbd79da5d	-0.060999263
45	0xbd355848	-0.044273645
46	0x8b122bd2	-2.8151544e-32
47	0xbaba0ff7	-0.0014195432
48	0xbcd7faa0	-0.026364625
49	0x3df0bf78	0.1175527
50	0xbc8f0476	-0.017458182
51	0x3ab98591	0.0014154186
52	0xbbd10751	-0.006379046
53	0xbc2f2341	-0.0106895575
54	0xb7084fe8	-8.124836e-06
55	0xbbae72fd	-0.0053237663
56	0xbd9466d6	-0.07246177
57	0xbd4dddf7	-0.05026051
58	0x3dba7542	0.091043964
59	0xb2fea65b	-2.9645141e-08
60	0x3ec1f47b	0.37881836
61	0xacd2507c	-5.9774945e-12
62	0x3e964a82	0.2935372
63	0xbd44e602	-0.048070915
64	0x00000000	0.0
65	0x3ddc2bd1	0.10750545
66	0xbcbfcb8c	-0.023412488
67	0x3dc4d865	0.096115865
68	0xa025c470	-1.4041039e-19
69	0x23c7bd3d	2.1655769e-17
70	0xb051944f	-7.6244516e-10
71	0x96d91791	-3.5073113e-25
72	0xbcb09e21	-0.021559777
73	0xbc3a0a1c	-0.011354949
74	0x3e5451f1	0.20734383
75	0xbc13424c	-0.008987974
76	0xbc7775a9	-0.015103736
77	0xbb96b937	-0.004599716
78	0x3e79fa50	0.24411893
79	0x3ead9e2a	0.33909732
80	0x984972e1	-2.603664e-24
81	0x3e22fd9a	0.15917054
82	0xbd07ccf8	-0.033154458
83	0xbd492c36	-0.04911443
84	0xbb828e4a	-0.0039842473
85	0x9c62752f	-7.4928584e-22
86	0xb8ce3e7a	-9.8344826e-05
87	0x3e71d4d6	0.23616347
88	0x86a08f66	-6.0396016e-35
89	0xbd2eae9c	-0.04264699
90	0xbced6a6f	-0.028981416
91	0x3e54f002	0.2079468
92	0xbd223795	-0.03960379
93	0x2c35f513	2.585769e-12
94	0x3e70adcd	0.235038
95	0xbd6b13dc	-0.057391986
96	0xb8f9e104	-0.00011915158
97	0xa79b939c	-4.318118e-15
98	0xbbe27ff9	-0.006912228
99	0x3cac63f7	0.02104376
100	0xbd3d5ebd	-0.046232928
101	0xa391af36	-1.5795136e-17
102	0xb85b17c4	-5.2235802e-05
103	0xbdb8022f	-0.089847915
104	0x3cb341a0	0.021881878
105	0x3db8001d	0.089843966
106	0xbc33bd40	-0.010970414
107	0xbc46a792	-0.012124913
108	0xbd824ceb	-0.06362327
109	0x3e773267	0.2414032
110	0x3cb153b4	0.021646358
111	0xbd3fbba4	-0.046809807
112	0xbd1b3787	-0.037894752
113	0x3df8504e	0.12124692
114	0x3cb217ae	0.021739807
115	0x3dcad775	0.099043764
116	0x978a8aa2	-8.953037e-25
117	0x3defebec	0.117149204
118	0xbc244dcb	-0.010028313
119	0x2c88d922	3.889459e-12
120	0xbc845f8f	-0.016158847
121	0xbd07d0d1	-0.033158127
122	0xbdc836e4	-0.097760946
123	0x93f17e9e	-6.0961807e-27
124	0xba8849c2	-0.0010397958
125	0x3a11059c	0.0005532147
126	0xa77dc38a	-3.5216805e-15
127	0x3e47dd9c	0.19518131

action_model._continuous_distribution.log_sigma f4 [1, 2]
0	0x4134e418	11.305687
1	0x411adb05	9.678472

action_model._continuous_distribution.mu.weight f4 [2, 128]
0	0xbf5e1f7b	-0.86766785
1	0x3eace380	0.3376732
2	0xbfa63bf4	-1.2987046
3	0xbf2b77f5	-0.66979915
4	0x3ea53d67	0.3227341
5	0x400296ab	2.040446
6	0xbe41f52f	-0.18941186
7	0xbfa0a4fd	-1.255035
8	0xbef97dd2	-0.48728806
9	0xbf9b3a6b	-1.2127203
10	0xbeab1932	-0.3341766
11	0x3e9bd52a	0.3043607
12	0xbe45fe62	-0.1933532
13	0xbea6116d	-0.3243517
14	0x3dcc915d	0.09988663
15	0xbf80be92	-1.0058157
16	0xbda7b857	-0.08189457
17	0xbf90b769	-1.1305972
18	0x3e9dfc6c	0.30856645
19	0x3fef6aa1	1.8704416
20	0xbf03df30	-0.5151243
21	0xbdb53731	-0.088484176
22	0xbd01766d	-0.03160708
23	0xbed9fd48	-0.4257605
24	0xbe92c7d9	-0.28668097
25	0x3f74c79e	0.9561709
26	0xbf02dbae	-0.51116455
27	0x3fffa1a6	1.9971206
28	0xbf4544f1	-0.7705832
29	0xbef46b3d	-0.47738066
30	0x3f4026c2	0.7505914
31	0x3f54987b	0.83045167
32	0xbf642334	-0.89116216
33	0xbf2a15ee	-0.6643971
34	0xbe9004e4	-0.2812873
35	0x3f236a19	0.6383377
36	0xbee34cf8	-0.4439466
37	0x3e84b43a	0.25918752
38	0xbf1f8a02	-0.6231996
39	0x3f793621	0.9734822
40	0xbed92c7f	-0.4241676
41	0xbe2f2a6f	-0.17106031
42	0xbeb54b79	-0.35409144
43	0xbe691eab	-0.22765605
44	0x3f7f7e24	0.9980185
45	0xbf2ac7b7	-0.6671099
46	0x3d4daa63	0.05021132
47	0x3e7721d6	0.24134001
48	0x3ff6b2da	1.9273331
49	0x3e7c48ae	0.246371
50	0x3f007dd5	0.50192004
51	0x3b171200	0.00230515
52	0x3d233ed5	0.039854843
53	0xbfb1c302	-1.3887637
54	0xbf7e089d	-0.9923189
55	0x3e30069b	0.1719002
56	0xbe2f3793	-0.17111044
57	0x3ef71470	0.4825778
58	0x3ebb7787	0.3661463
59	0x3f9d06da	1.2267716
60	0xbf289167	-0.65846866
61	0xbef32d2b	-0.47495398
62	0xbecc6390	-0.3991971
63	0xbf9ecb87	-1.2405862
64	0x3f511117	0.816667
65	0xbdbd2898	-0.09236258
66	0xbe4c617c	-0.19959062
67	0x3ecad493	0.39615306
68	0xbe960c29	-0.29306152
69	0x3e15aa4d	0.14615746
70	0xbf259798	-0.6468444
71	0x3e8e9eea	0.27855617
72	0x3f12c08a	0.5732504
73	0xbe4bfba3	-0.1992021
74	0xbf569ae5	-0.838301
75	0x3edddc70	0.43332243
76	0x3fbbd730	1.4675045
77	0xbf9d331f	-1.2281226
78	0xbeaaaf33	-0.3333679
79	0xbf099182	-0.5373765
80	0xbe0c66fd	-0.13711162
81	0xbec2ac3a	-0.38022023
82	0xbed3ef35	-0.41393438
83	0xbc088240	-0.008331835
84	0x3f5d7601	0.86508185
85	0xbf376f91	-0.7165461
86	0x3e055af5	0.13022979
87	0xbf23996f	-0.63905996
88	0xbefcf3e4	-0.49404824
89	0xbf248247	-0.6426129
90	0xbe19eac4	-0.15030962
91	0xbec4a8e0	-0.3841009
92	0xbf959c2f	-1.1688288
93	0xbdf19eb1	-0.11797846
94	0xbea5e60f	-0.32402083
95	0x3eebcecc	0.4605621
96	0x3f88e628	1.0695238
97	0xbf08df94	-0.53466153
98	0x3dba8f4f	0.09109365
99	0x3fa89ccc	1.3172851
100	0x3c1d7884	0.009611253
101	0x3df2890e	0.11842547
102	0xbeac1a89	-0.33613995
103	0x3f28e729	0.6597772
104	0x3ec0dad9	0.37666968
105	0xbea4611a	-0.32105333
106	0x3f0b359d	0.5437868
107	0xbf5c213c	-0.8598821
108	0xbeba452d	-0.36380902
109	0xbf4dd1cb	-0.80398244
110	0x3e54798e	0.20749494
111	0xbf490b4e	-0.78532875
112	0xbe9819e5	-0.29707256
113	0x3dfa4dc3	0.12221863
114	0xbeb195b1	-0.34684518
115	0x3e03c4da	0.12868062
116	0x3e96aee6	0.29430312
117	0xbb4f6f7c	-0.0031652143
118	0x3fd11696	1.6335018
119	0xbf3da74f	-0.7408342
120	0xbfa236c9	-1.2672969
121	0x3c578d56	0.013156256
122	0xbe0a0423	-0.1347814
123	0x3e44df97	0.19225918
124	0xbed9614e	-0.4245705
125	0x3dc12192	0.09430231
126	0x3fa7e6f0	1.3117352
127	0xbf5af547	-0.85530514
128	0x3e946bb4	0.2898842
129	0x3f20b48b	0.62775487
130	0x3e6d0909	0.23147978
131	0x3f2acbf6	0.6671747
132	0x3e48368d	0.1955206
133	0x3e374b7e	0.17899892
134	0x3e23249b	0.15931933
135	0x3f01265b	0.5044915
136	0xbdac6d76	-0.084193155
137	0x3ed19538	0.40934157
138	0xbd379b64	-0.044825926
139	0x3e8f92a6	0.2804157
140	0x3eae514d	0.34046403
141	0x3d80bcb4	0.06285992
142	0xbc456955	-0.012049039
143	0x3d8017e4	0.06254557
144	0x3ea5057f	0.32230756
145	0x3edae59a	0.42753297
146	0x3ebd59ee	0.36982673
147	0x3d8922f6	0.066961214
148	0xbe01ba16	-0.12668642
149	0x3ddbb9ea	0.1072882
150	0xbc8cd3d3	-0.01719085
151	0xbe6659f2	-0.22495249
152	0x3dc3cafd	0.09560201
153	0x3cbe4cf1	0.023230048
154	0x3e7acc46	0.24491987
155	0x3f26f728	0.6522088
156	0x3eb5b036	0.35486
157	0xbd2668fd	-0.04062747
158	0x3e4452c1	0.19172193
159	0xbe2b3926	-0.16721019
160	0xbead3c31	-0.33834985
161	0xbdadf347	-0.08493667
162	0x3cb5b8b2	0.022182796
163	0xbea81b22	-0.328332
164	0x3dc05574	0.09391299
165	0x3e0fd1c6	0.14044866
166	0xbcc8010a	-0.024414558
167	0x3f11d08b	0.56958836
168	0xbdc0ed81	-0.094203
169	0x3d8a40c5	0.06750635
170	0x3ed8e83d	0.42364684
171	0x3b37a5c2	0.0028022383
172	0xbda07c80	-0.078362465
173	0xbe22273a	-0.15835276
174	0x3ef6d2a6	0.48207587
175	0x3c06b598	0.008222006
176	0x3d899eee	0.067197666
177	0x3f891c39	1.0711738
178	0x3d820355	0.06348292
179	0x3d959308	0.073034346
180	0x3b022ccc	0.0019863127
181	0x3e858a68	0.26082158
182	0x3e33ec9a	0.17570725
183	0x3d70e23b	0.0588095
184	0xbd1ea254	-0.038729027
185	0xbd836a6b	-0.06416782
186	0x3f2c9c15	0.6742566
187	0xbd9db8e2	-0.07701279
188	0x3e0c5c02	0.13706973
189	0x3e30e389	0.17274298
190	0x3d93ec92	0.072228566
191	0xbd90ac5d	-0.07064126
192	0x3ea30ef6	0.31847352
193	0x3e57356e	0.21016476
194	0xbc788e7a	-0.015170688
195	0x3ef359ea	0.47529536
196	0x3e165d76	0.1468409
197	0xbdc25477	-0.09488767
198	0xbe913c47	-0.283663
199	0x3ddf4f75	0.10903827
200	0xbe1e3166	-0.15448532
201	0x3b4b93e1	0.0031063484
202	0x3f32aed9	0.69798046
203	0xbde1abcc	-0.11019096
204	0x3de82c50	0.11336577
205	0xbddc0641	-0.1074338
206	0x3dad37b7	0.084578924
207	0x3d148900	0.036263466
208	0xbc3bf799	-0.011472606
209	0x3f47669f	0.7789096
210	0x3ece0c32	0.4024368
211	0x3ccdfd9f	0.02514535
212	0xbe1a122d	-0.15045996
213	0x3e007091	0.1254294
214	0xbe847665	-0.25871578
215	0x3e99f82d	0.30072156
216	0x3f0ad057	0.5422415
217	0xbda4fe3e	-0.08056305
218	0xbd1d326a	-0.038378157
219	0x3e52ea80	0.20597267
220	0x3f438be4	0.7638533
221	0x3d0b60c7	0.03402784
222	0x3db6780c	0.08909616
223	0xbe18c136	-0.14917454
224	0x3e813487	0.25235388
225	0x3ebec6b2	0.37260967
226	0xbe499397	-0.19685207
227	0x3e9e192e	0.30878586
228	0xbe0984db	-0.13429587
229	0xbea068f4	-0.31330073
230	0xbd528183	-0.051393043
231	0xbdccd086	-0.1000071
232	0x3db5e4c4	0.08881524
233	0x3e15a93f	0.14615344
234	0xbca3515a	-0.019936252
235	0x3ce723e2	0.028215352
236	0xbda2a43d	-0.07941482
237	0x3ea6e62b	0.3259748
238	0x3dc89614	0.0979425
239	0x3d771d9a	0.060330965
240	0x3e4ca6db	0.19985525
241	0x3f64f4b4	0.8943589
242	0x3deba63e	0.115063176
243	0x3eedaaf5	0.46419492
244	0xbe7af140	-0.24506092
245	0x3e62ba49	0.22141375
246	0x3da6ae23	0.08138683
247	0xbe397565	-0.18111189
248	0x3f182724	0.59434724
249	0xbe86e5a7	-0.26347086
250	0x3cc89777	0.024486287
251	0x3f41a33e	0.7563971
252	0xbe7e7c38	-0.24852073
253	0x3ce46b97	0.027883334
254	0xbd711ba1	-0.05886424
255	0x3f3fffd5	0.74999744

action_model._continuous_distribution.mu.bias f4 [2]
0	0x3e319a44	0.17344004
1	0xbf6c8cfe	-0.92402637
