results/hideandseek_04/Hide.onnx (onnx, 148430 bytes, 7 tensors)

network_body._body_endoder.seq_layers.0.weight f4 [128, 149]
000000 79 49 e9 bd 73 36 a7 3c e9 f0 82 bc 17 15 9d bd
       -0.11390967 0.020411706 -0.015984016 -0.07670038
000010 8b 52 a9 bd 80 c2 83 bd 1f ff 19 be a3 2d dc bd
       -0.08267697 -0.06433582 -0.15038727 -0.10750892
000020 0d 0d 24 3e e2 92 3d be 8a 9a 07 3e ba 28 57 be
       0.16020603 -0.18513063 0.13242546 -0.2101163
000030 87 bd d2 3d 45 c3 df 3c b8 c0 ba bd dc 16 07 be
       0.10290056 0.027314791 -0.091187894 -0.13192314
000040 48 25 72 be 5c e8 97 bb e2 4e 64 3c 96 1e 2f be
       -0.23647034 -0.0046358537 0.013934823 -0.17101511
000050 ff 55 8d bd a4 db 2c be b4 55 76 3d 2b 8d 5f bc
       -0.06901168 -0.16880661 0.060140327 -0.013644497
000060 7d 2b 40 bc e2 4a 72 bd 5a 44 87 be a6 2c 40 bd
       -0.011729118 -0.059153445 -0.26419336 -0.04691758
000070 30 e3 08 bd cd aa bd bd b7 60 8a bd 71 e4 8e be
       -0.033419788 -0.09261093 -0.06756728 -0.27908662
000080 9a 2b 9a bd 60 81 04 3d f1 bc 26 be 4f bf f7 3d
       -0.075278476 0.032349944 -0.16283013 0.12097036
000090 86 3c 2d bd 95 23 9d 3c 2f d4 96 3d 36 93 4b bc
       -0.042294048 0.019182006 0.073646896 -0.012425235
0000a0 9a 1c ed 3c 94 2f 54 be fa b3 76 3d ae 05 ba 3c
       0.028944302 -0.20721275 0.060230233 0.022707786
0000b0 71 da 06 3d 3d a8 30 3e 99 0e 1a be 49 7c a6 bd
       0.032923166 0.17251678 -0.15044631 -0.08129174
0000c0 6b 1b 72 3d 98 69 16 be 32 27 4a bc 21 d6 ad bd
       0.05910818 -0.14688718 -0.012338446 -0.084881075
0000d0 ba 47 0e 3e 00 a2 19 be 5a 40 26 be 8f 3f 29 3e
       0.13894549 -0.15003204 -0.16235486 0.16528152
0000e0 17 f4 41 be c9 9e e8 3d 45 13 11 be 39 91 1b be
       -0.18940769 0.11358411 -0.14167507 -0.15192117
0000f0 ef bd 5a bd e4 73 1e be ff 5d 74 3d 8d 6b c5 3c
       -0.05340379 -0.15473896 0.059659954 0.024099136
000100 fa 2f e5 bc 8c dd e5 bc cd a1 5d be 12 48 e6 3c
       -0.027976979 -0.028059743 -0.21643753 0.028110538
000110 26 78 81 bc 71 04 56 bd a8 a6 e0 bd db 9e f4 bd
       -0.015804362 -0.05225033 -0.10969287 -0.11944362
000120 78 4e ef 3d 90 d9 65 3d 06 25 d7 bd cf b8 b1 3c
       0.116848886 0.056115687 -0.105051085 0.021694569
000130 df b7 2a be d6 00 e5 3d 76 43 24 be 62 3e 30 be
       -0.16671704 0.111818 -0.1604136 -0.17211297
000140 48 0b 0d bd f5 e0 c9 bd 8c 11 1e be 6d a5 06 3e
       -0.034434587 -0.0985736 -0.15436381 0.13149042
000150 1c 21 b6 bc b6 30 11 3d 93 b6 7a be 0c eb 94 bd
       -0.022232585 0.035446845 -0.24483709 -0.07271394
000160 d3 c8 1a 38 17 ab 2b be be b6 72 3d 3f 43 76 bd
       3.6903493e-05 -0.16764484 0.059256308 -0.060122725
000170 39 be 11 be fa eb 1c be f0 53 d6 bc 8f 27 78 3c
       -0.1423272 -0.15324393 -0.026163071 0.01514615
000180 26 be 98 bc 8d 4b 21 be 23 b4 fd 3d 04 5c cd be
       -0.018645357 -0.15751477 0.12387874 -0.40109265
000190 db 2f 4e bd de f6 c9 bc d1 53 e4 bd 01 fd d9 3a
       -0.050338607 -0.024653848 -0.11148799 0.0016631187
0001a0 3a 2b 67 be 31 e6 04 3e be 21 4f be 5d 2d 2c bd
       -0.22575083 0.12978436 -0.20227715 -0.04203545
0001b0 dd 84 80 3d 97 a8 3a 3d 94 16 7f bd cf ae 11 be
       0.06275342 0.045570936 -0.06227739 -0.1422684
0001c0 4d 63 c6 bd 8b 67 22 3d 3b e4 8e be 41 6c 7a 3d
       -0.09686909 0.039649528 -0.279085 0.061138395
0001d0 7e 94 db bd b7 22 ee ba 6c 3c 84 bb 0a 54 4a be
       -0.10721682 -0.0018168305 -0.004035523 -0.19758621
0001e0 0a e7 75 bd ba b7 1c be 8f 1c df 3d 6d 88 01 3e
       -0.06003479 -0.15304461 0.10894119 0.12649699
0001f0 4d 9f 9e bd d5 04 07 be 0d 78 14 be 91 c9 62 bc
       -0.07745228 -0.13185437 -0.1449892 -0.0138420025
000200 4a c4 64 3d 1f 97 af bd 5b 40 a3 bb 09 08 ba bd
       0.05585126 -0.08573746 -0.004982037 -0.09083564
000210 5c e6 77 bd 1c 8b 9e bb b7 0e b4 bd 52 b2 4b be
       -0.060522422 -0.0048383605 -0.08791869 -0.19892243
000220 b8 b8 1a be b5 7f 3b bd 7c 65 67 bb f4 3d df bd
       -0.15109527 -0.045776088 -0.0035308292 -0.109004885
000230 3c 5a bc bc e4 c7 9a bd 06 33 ed bc 0d 3c 0b 3d
       -0.022992246 -0.07557657 -0.028954994 0.033992816
000240 37 8b e2 bb b2 47 9d 3c 12 da 95 3d 33 8b 0c bd
       -0.0069135684 0.019199226 0.07316984 -0.03431244
000250 30 fb 36 3c a5 61 17 3e bc 22 a8 bd 00 f7 32 3d
       0.011168286 0.14783342 -0.0820975 0.04369259
000260 51 f7 94 bd 46 0b 10 b9 d5 0b 9e bd c4 99 a3 b8
       -0.07273734 -0.0001373711 -0.077171005 -7.801087e-05
000270 53 a9 f1 3d e0 0b 1f be f4 ee 1f 3d 94 ec 17 3e
       0.11799874 -0.15531874 0.039046243 0.14836341
000280 f8 d2 0d bd 37 47 e5 3d 61 84 c1 3d 81 5a 0f 3e
       -0.034625024 0.11195224 0.094490774 0.13999368
000290 3f b7 67 bd e4 da 65 bd 65 c9 a8 bc 3f f1 1b be
       -0.05657124 -0.056116953 -0.020603845 -0.15228747
0002a0 8f c2 a0 bd a2 94 06 3d df 20 1d be b6 ed 9a bd
       -0.07849609 0.03285659 -0.1534457 -0.07564871
0002b0 25 6c f0 3d c3 d2 d8 3d e3 ab 5b 3d fe 92 ba 3d
       0.11739377 0.105870746 0.05363072 0.09110068
0002c0 99 4b 83 bd bd 7c 18 3e 5f db f9 3d d5 6e 21 3d
       -0.064109035 0.14891334 0.12200045 0.03941234
0002d0 05 e8 dc 3c ec 7c 90 bd 6a 9d d1 3d 15 34 cf 3d
       0.026966104 -0.07055077 0.102351025 0.10117356
0002e0 a6 81 28 be ac b0 9c 3c 1c 16 a4 bc e9 69 2a 3d
       -0.16455707 0.019127212 -0.020030074 0.04160491
0002f0 e7 a7 6d bd ad 7e 80 bd 07 43 4e bd e1 35 34 bd
       -0.058021452 -0.062741615 -0.05035689 -0.043996695
000300 5c df fa bc bc 39 ff bd 92 93 1a 3d 08 46 a1 bd
       -0.030624084 -0.12462184 0.03773839 -0.078746855
000310 d6 75 92 3c 7c ed da 3d 40 45 53 bd 53 c5 1c be
       0.017878454 0.10689828 -0.051579714 -0.15309648
000320 46 ee bd 3d 9f e0 21 3a af ad 14 3b 22 e2 68 3d
       0.09273963 0.0006175134 0.0022686531 0.056856282
000330 90 fa c5 bc ee c4 b0 bd 81 e1 08 be fe da 6c 3b
       -0.02416733 -0.08631311 -0.13367273 0.0036141272
000340 8e 91 26 be 48 b5 1a 3e ca 28 03 bd 36 e2 01 3d
       -0.16266462 0.15108216 -0.03202132 0.031709872
000350 67 be 78 bd 99 7e cf 3d 39 84 24 bc 21 65 2e bc
       -0.060728457 0.101315685 -0.01004129 -0.010644228
000360 61 64 24 3c a2 c0 c5 bd 7b db 15 be 51 4b eb bd
       0.010033698 -0.096558824 -0.14634506 -0.11488975
000370 f8 9a 8a bd 13 45 fb bb a5 7c 37 3c 9f ae 99 3d
       -0.06767839 -0.0076681464 0.011199151 0.075040095
000380 6c 8a 70 3e 22 f9 ae 3b 86 2e 45 bd 45 5b 81 bd
       0.23490304 0.0053397575 -0.04814007 -0.063162364
000390 96 85 25 3c 27 ec 1f be 08 66 1d 3d c8 da 8a 3d
       0.01010265 -0.15617429 0.038427383 0.067800105
0003a0 de 3b b8 bd df 0c 0d be 41 21 96 bd 1c d9 79 bd
       -0.08995794 -0.13774441 -0.073305614 -0.060998067
0003b0 f9 e5 31 3d 2d 89 21 bd 66 e7 ab bd 18 1a cb 3c
       0.04343221 -0.03943746 -0.08393745 0.024792716
0003c0 d5 af 00 3e 1b 77 4d bc 37 6c 4d be 58 f7 21 be
       0.12567075 -0.012540604 -0.20060812 -0.1581701
0003d0 7a 1f f4 3d 4c dc 88 3b 0a 92 ef bd 6a 4d ad 3c
       0.11920066 0.004176652 -0.116977766 0.021155078
0003e0 e6 ac 4d be d7 1d 72 bc fc 71 35 3d 4b 93 7e 3d
       -0.20085487 -0.014777622 0.044298157 0.06215219
0003f0 dd 65 cd bb ab d9 88 3b 94 1a cc 3d 61 f5 40 3c
       -0.0062682466 0.0041763387 0.09966007 0.011777253

network_body._body_endoder.seq_layers.0.bias f4 [128]
000000 9c a5 2e be e3 a5 77 bc ca 60 97 bd 91 e6 5c be
       -0.17055362 -0.015115234 -0.07391508 -0.21572329
000010 3d 13 03 bd 24 85 b5 bd 71 ad 20 bd 5e 3a 92 3d
       -0.03200077 -0.08863285 -0.039227907 0.07140039
000020 e1 ef 79 bd 23 3c d5 bd 3f b0 7d bc 5e 0b b1 bd
       -0.061019782 -0.10411861 -0.015483915 -0.08644746
000030 64 19 a6 b9 c0 f5 b6 bd d6 6a 76 bc d2 00 33 bd
       -0.00031680905 -0.08933592 -0.01504012 -0.043701954
000040 93 90 03 bd df fb d5 bd f4 56 d7 bc 18 53 8f 3b
       -0.0321203 -0.10448431 -0.02628658 0.004373919
000050 53 3b 74 bd cb 5b 88 bd 21 bd fd bc 46 64 5a bd
       -0.05962689 -0.06658133 -0.030973973 -0.053318284
000060 d7 90 d5 3b f9 d4 4c bd 63 c4 c6 bd 5a ee 03 be
       0.0065175104 -0.050007794 -0.097054265 -0.12883893
000070 f0 81 70 bd 77 fb 6f 3d c2 a7 9c bc 37 3e 06 bd
       -0.058717668 0.058589425 -0.019122962 -0.032774176
000080 55 9f f3 bc f1 46 7e bd aa 2f eb bc 03 31 86 3d
       -0.029739061 -0.062079374 -0.028709251 0.06552317
000090 fc 89 54 bd 50 1c 73 bd 3b c0 c2 bb fb f8 00 bd
       -0.051889405 -0.059353173 -0.005943326 -0.031487446
0000a0 7d c2 2c bd 62 76 ba bd 81 a4 18 be a2 0b 57 bd
       -0.042177666 -0.09104611 -0.14906503 -0.05250133
0000b0 e1 a2 d8 bd e7 76 0c bc df 30 60 bd 2f 94 17 3d
       -0.10577942 -0.00857327 -0.054734107 0.037006553
0000c0 3f c6 0c bb bb 17 3e 3d 94 3f fa bc 99 3d 5d bd
       -0.0021480469 0.04640935 -0.030547895 -0.054013822
0000d0 a0 b2 8c bd 31 19 48 3c a6 38 9b bc 11 8a 7b bd
       -0.068700075 0.012213037 -0.01894791 -0.061410967
0000e0 95 08 47 3b 42 fe c6 ba 07 f0 f6 bd 60 fc 6e bd
       0.0030370106 -0.0015181976 -0.120575 -0.058346152
0000f0 5b e6 8c bc be 66 93 bd 15 b5 ce bd 9a 8d 85 bd
       -0.017199686 -0.07197331 -0.100931324 -0.06521149
000100 64 90 6a 3c 27 66 a9 bd 6b 0e a4 3b 33 00 71 3c
       0.014316652 -0.08271437 0.0050066016 0.01470952
000110 58 d2 9b bd 16 c3 37 bd 7f 81 75 3c 80 00 7f bd
       -0.07608479 -0.044863783 0.014984488 -0.062256336
000120 81 4f 21 3d 6f 41 56 3c 55 62 01 3c 89 de 63 bd
       0.03938246 0.013077124 0.007896979 -0.055632148
000130 cc c9 72 bd 25 db 7b bd e8 aa aa bd cf 86 43 bd
       -0.05927448 -0.06148829 -0.08333379 -0.047735985
000140 10 43 d3 bd bf 92 03 be 47 e2 4f bd 14 99 9a bb
       -0.103155255 -0.12848948 -0.050752904 -0.0047179554
000150 18 d5 b0 bb 38 6c d7 bb c3 f6 2b bd f1 a9 30 3c
       -0.0053964965 -0.00657418 -0.041983377 0.010782705
000160 d8 26 85 3d 6f 84 c7 bd c0 4f b6 bc b1 12 f4 3c
       0.065015495 -0.097420566 -0.022254825 0.029794069
000170 0b c0 97 bc 02 02 12 bc 18 8f 63 bd 00 58 21 bd
       -0.01852419 -0.0089116115 -0.055556387 -0.039390564
000180 26 fb 98 bd 9c 26 b6 3c 02 55 df 3b e4 37 3e 3d
       -0.07469778 0.022235207 0.0068155536 0.04644002
000190 0a 9d 71 bd 7d 83 5f bd a4 7f 1f be 4a ee 8f bd
       -0.058987655 -0.054568756 -0.15576035 -0.07027872
0001a0 13 29 0b bd c2 94 b4 bd af c9 fb bd 17 d9 2d be
       -0.03397472 -0.08817436 -0.122943275 -0.16977344
0001b0 37 13 a4 bd 58 4c a7 bd be 8e e9 bd 84 bb 28 bd
       -0.080114774 -0.08168858 -0.11404179 -0.041194454
0001c0 39 53 4f bc 37 59 3b ba 7f fa ba 3c 7f 5e b9 39
       -0.012654119 -0.0007146778 0.022824524 0.00035356355
0001d0 65 20 c0 3c 6d 5d e1 bd 26 1b ba bd 4f 78 34 3c
       0.023452947 -0.11004148 -0.090872094 0.011015012
0001e0 be 50 3f bd da db d7 bd 3a 62 8a bd 51 92 60 bb
       -0.04670786 -0.1053998 -0.067570165 -0.00342669
0001f0 3e 9a 06 bd 6a 5f 50 bd c0 d1 4d bd c0 f1 96 3b
       -0.03286194 -0.050872244 -0.05024886 0.0046064556

network_body._body_endoder.seq_layers.2.weight f4 [128, 128]
000000 65 57 e5 bd 77 55 d8 bd 3c 8d 28 bd ad 0c 9c bc
       -0.1119831 -0.10563176 -0.041150317 -0.019049013
000010 78 c7 05 bc 70 fe a7 bd 1c d2 08 3e 83 7e 7d bd
       -0.008165233 -0.08202827 0.133614 -0.06188823
000020 9d 2d 5c 3c 39 60 ef bc e4 a2 15 be bd 9c 26 be
       0.013438609 -0.029220687 -0.14612919 -0.16270728
000030 86 a2 85 bc 42 22 0f be 34 ca e4 3d 2e f9 90 3c
       -0.016312849 -0.13977912 0.1117138 0.017696943
000040 37 14 29 3d f8 ce 49 bc 77 9a 89 3d 28 f1 7b bd
       0.041279044 -0.012317412 0.06718915 -0.06150928
000050 f7 37 88 3d 77 78 83 bd 77 c9 04 3d 77 68 d3 bb
       0.066512994 -0.06419461 0.032418694 -0.006451662
000060 9a 32 83 bc 1a a2 aa 3b 2f d8 61 bc 3e ca 0a bc
       -0.01601534 0.0052073123 -0.013784452 -0.00847107
000070 dd 0d 2c 3e e6 ae 0e be 51 18 d8 3d 88 0f ac bd
       0.16802163 -0.13933906 0.10551513 -0.084014
000080 97 cf 13 be 0e 08 09 3d b5 e0 41 3d ef fb ff bd
       -0.14434658 0.033454947 0.047333438 -0.124992244
000090 82 59 99 bd b9 ba 41 3d da 93 f5 bd e4 55 2b be
       -0.074877754 0.047297213 -0.11991091 -0.16731983
0000a0 ed 54 33 3e 77 d8 91 bd 8c fc 55 3e f2 b0 bb 3d
       0.17512865 -0.071213655 0.2089712 0.09164609
0000b0 0f 94 9d 3b 3d ad 9a bd 2d c1 4b 3d 65 99 83 bd
       0.0048089097 -0.07552574 0.049744774 -0.06425742
0000c0 3a 86 2f be a5 74 8c bd 3e 8a 04 3e 12 e3 fe bb
       -0.17141047 -0.06858186 0.1294336 -0.0077785337
0000d0 88 cc 68 be 97 99 58 bd 7f ed a0 bd ec f6 02 be
       -0.22734272 -0.05288085 -0.07857799 -0.12789506
0000e0 bb 86 d3 bd df f1 21 be 6c fe 95 3d b8 25 e3 3d
       -0.10328432 -0.15814923 0.07323918 0.11091179
0000f0 c0 5d ad be 89 6b f1 3d 9e 89 1d 3d 64 c4 77 3d
       -0.33860588 0.11788089 0.03846132 0.060490027
000100 fa ff 4a 3d dd 1d 99 3d 34 c9 2f 3d 02 3f a0 3c
       0.049560525 0.07476399 0.04291649 0.019561294
000110 7c 45 9a 3d fe 32 bf bd 33 83 69 3e 6d 4e e3 bd
       0.07532784 -0.09335898 0.22803955 -0.11098943
000120 38 de 8a bd 8b 2f 0c be 05 97 57 be 21 f7 82 bc
       -0.06780666 -0.13690011 -0.21053703 -0.01598698
000130 69 96 39 3e 8c 32 77 bc 29 02 52 bc 8a e0 e0 3d
       0.18123783 -0.015087735 -0.012817898 0.109803274
000140 c4 aa 15 bc 2a c5 10 bd 54 44 57 bd 8a ef 89 3c
       -0.009134952 -0.03534428 -0.052555397 0.016837854
000150 cd 1e ad bc 9d ef 09 be 10 68 b6 3d 19 d7 1c be
       -0.021132851 -0.13470311 0.08906567 -0.15316428
000160 d9 f1 75 be 6f 6c 35 3d d7 df 09 be 42 f6 9c bd
       -0.24018039 0.044292863 -0.13464294 -0.076641575
000170 db 88 13 bd 99 9e 6c bd 7c 53 be 3c 90 43 69 bd
       -0.036019187 -0.057768438 0.023233168 -0.0569492
000180 69 f4 86 bd 75 82 f7 3c 83 ee 35 be 43 8a 83 3c
       -0.06589586 0.030213574 -0.17766766 0.01605714
000190 16 44 3a 3d 30 ca 80 bd 62 79 2e bd 4d be 53 3d
       0.045475088 -0.06288564 -0.04259623 0.051695157
0001a0 f5 4f 03 be 8f 15 95 3d f8 3f 19 3e 40 ab f4 3c
       -0.1282347 0.072795026 0.14965808 0.029866815
0001b0 4e 8f 3b 3e d3 a3 b5 3d 26 b3 81 3d 32 3d a5 bd
       0.18316385 0.088691376 0.06332998 -0.08068313
0001c0 00 3b 42 be 9f be 2c be 3c f2 8e 3d 53 ad 24 bc
       -0.18967819 -0.16869591 0.06979796 -0.010051089
0001d0 f1 2b 8d bd 01 5a 1c 3e c0 72 d1 3d ec 31 73 bc
       -0.06893147 0.15268709 0.10226965 -0.014843445
0001e0 ce b9 26 bd 9c 02 b5 bc 76 02 06 be 07 11 45 be
       -0.04070454 -0.02209597 -0.13086876 -0.19244777
0001f0 33 95 8b 3b 1d 8e 05 be 98 58 c0 3c a4 19 47 be
       0.0042597293 -0.13042493 0.023479745 -0.19443375
000200 92 d8 dd 3c 3c 1e dd 3d 70 13 e1 bd 70 03 ad bd
       0.027080808 0.107967824 -0.109900355 -0.08447921
000210 c0 c7 1e bc 78 9e d0 bd 6b 65 4c 3d 92 69 84 be
       -0.009691179 -0.101864755 0.049901407 -0.25861794
000220 54 83 04 be 79 2e f5 bb e4 76 81 3c 0d 3b b8 bd
       -0.12940723 -0.0074823466 0.015803762 -0.08995638
000230 2a 7b b2 3d 71 aa 0f 3e 46 e6 8b 3d d3 b2 b4 3d
       0.08714898 0.14029862 0.068310305 0.088231705
000240 73 0e 72 3c a1 38 c8 bc 89 3b f1 3d cd 7a 45 bd
       0.014773953 -0.024441065 0.117789336 -0.048212815
000250 0f b8 69 3e b2 e1 85 bd 75 66 4f be 8b 4d 3a 3d
       0.22824119 -0.065371886 -0.20253928 0.045484107
000260 99 26 72 bc d9 b1 cb bd 81 c3 1e 3d a1 b4 5c bd
       -0.01477971 -0.09946031 0.038760666 -0.0538832
000270 f1 95 ef bc d2 3f a6 bd 55 1a a7 bc 9a 82 99 bd
       -0.029246302 -0.081176415 -0.020398298 -0.074956134
000280 5b 58 30 bb d9 4a 6e 3d 54 e9 69 bb e2 40 0f bd
       -0.0026908133 0.05817685 -0.0035692053 -0.034973986
000290 c0 fb f1 3c e7 fe 1f 3e 20 2e 0a 3e 51 eb 5f bd
       0.029538989 0.15624581 0.13494158 -0.054667775
0002a0 65 eb 33 bc a8 ac ca 3d 45 d5 56 3d eb 0a 29 3d
       -0.010981415 0.09896213 0.052449483 0.041270178
0002b0 9b 8d a3 bd 85 4f c1 bd b5 4d 17 3e 13 e0 c1 bd
       -0.079859935 -0.09438995 0.14775737 -0.09466567
0002c0 37 07 78 bd 32 4b 61 bd 9d 71 e7 3c 38 5a 15 3d
       -0.060553756 -0.055003352 0.028252417 0.036462992
0002d0 66 d0 78 bc 42 9b 42 bd ae 1e 12 bc 50 16 7d 3d
       -0.015186405 -0.047511347 -0.008918447 0.061788857
0002e0 8a 15 40 3e 15 39 27 be 6d a1 43 3c f7 b6 93 3c
       0.18758217 -0.16330369 0.011940342 0.01803158
0002f0 e8 22 c3 3a a5 35 7e 3c 0a 0b eb bd ec ce c1 3d
       0.0014887722 0.01551572 -0.11476715 0.09463295
000300 31 08 2b be 9f a2 34 be a2 41 41 3d 8f c5 aa 3d
       -0.16702344 -0.1764016 0.047181733 0.083384626
000310 39 02 bb 3d f0 00 91 3c bd aa 9e 3d d6 6e 3a 3b
       0.09131283 0.017700642 0.077474095 0.002844741
000320 a6 7e bf 3d 9d 1a 94 bc c3 3d 8d 3c 71 05 2d 3c
       0.09350328 -0.018079096 0.017241364 0.010560379
000330 23 1a 06 bc 8b 7e 80 bc 3b a9 89 bd 1b b8 3a 3c
       -0.008184942 -0.01568534 -0.06721731 0.011396433
000340 d9 6d 21 bd c1 a4 00 be ea 45 11 bd 84 16 1f be
       -0.0394114 -0.12562849 -0.035467066 -0.15535933
000350 e5 8c 0e be de b6 b3 3c 0e d3 87 3d 6d 24 3b bd
       -0.13920934 0.021937784 0.06632052 -0.045689035
000360 91 a8 03 be ac d5 cf 3d fb 58 eb 3c 27 a1 92 3c
       -0.12857272 0.101481766 0.028728953 0.017899109
000370 14 00 bf bc 13 dc 14 3e 87 3b c0 3c 4a b2 d6 bd
       -0.023315467 0.14537077 0.023465885 -0.10483225
000380 d2 40 24 3e dd 28 f9 bd a2 d4 e3 bd 69 07 00 bd
       0.16040352 -0.12165997 -0.11124541 -0.031257067
000390 14 88 6d bd d5 04 db 3d ad 1f 49 bc 0a 01 86 3d
       -0.057991102 0.10694281 -0.0122756185 0.06543167
0003a0 d1 ca 40 3e 3a b6 17 3e ad b1 f1 3d a8 8b 29 3e
       0.18827368 0.14815608 0.11801467 0.16557181
0003b0 0d 0f ed bd f8 84 aa 3d d0 fb 12 3e c0 f8 0d be
       -0.11575136 0.08326143 0.14353871 -0.13864422
0003c0 59 c8 cb bd 47 59 99 bc 84 05 04 3e 27 6d a6 3d
       -0.09950323 -0.018719329 0.12892729 0.08126288
0003d0 0c 7c 3d be 69 0b df b8 b8 83 6b bc 0b dc 11 bd
       -0.18504351 -0.00010635594 -0.014374666 -0.03561024
0003e0 a4 0b 76 3d 0d 61 a3 bd 21 ca d9 3d dd 69 9a bd
       0.060069695 -0.07977495 0.10634256 -0.07539723
0003f0 8a fc e6 3c b3 46 f8 3d 55 a4 65 ba db da f2 bd
       0.028196592 0.1212286 -0.0008760144 -0.118581496

network_body._body_endoder.seq_layers.2.bias f4 [128]
000000 02 2c c9 bd 0e 4e 4b bc 38 1c 27 bd b4 83 26 bd
       -0.09822847 -0.012408746 -0.040798396 -0.040652946
000010 73 2b a1 bd 11 2d 6c bd 6d ca 0b 3d 11 38 07 3d
       -0.078696154 -0.057660166 0.034128595 0.033012453
000020 d8 32 c4 3c 3b 6c f2 3c 2c 23 8b 3d fe 12 15 bd
       0.023950025 0.029592624 0.06793818 -0.036395065
000030 0c 44 f2 ba 32 df 5e 3d 6a 47 ee bb 74 00 b7 3b
       -0.0018483414 0.054412074 -0.007271697 0.005584771
000040 2b 30 e1 bc c4 8b 15 bd d7 79 b5 bd 35 a5 77 bd
       -0.027488789 -0.036510244 -0.0886113 -0.060460288
000050 5d 73 cb bc b2 a7 49 3c ce b1 a4 bd ae df 64 bb
       -0.024835283 0.012308048 -0.08041726 -0.0034923363
000060 44 46 96 3b 4c 7f 9e 3c 0f ab 7d bd 6a 49 aa bc
       0.004586013 0.01934781 -0.061930712 -0.02078696
000070 a0 0b 98 bd 0b 27 95 39 7c 40 a7 bd f6 37 a8 bd
       -0.07424092 0.00028448584 -0.08166596 -0.08213799
000080 50 96 89 bc 1c ee 0f bd fd 27 73 bd 63 86 b8 bc
       -0.016795307 -0.03513919 -0.059364308 -0.022525018
000090 60 8e 84 bd 6d 56 be bc ac d1 09 3b 38 35 9c bd
       -0.064724684 -0.02323457 0.0021029515 -0.07627338
0000a0 7a 94 11 ba fa c0 49 bd c1 03 1d bb 6a a9 40 bd
       -0.0005553436 -0.049256302 -0.0023958536 -0.047036566
0000b0 8b ab 0a 3d e7 46 8e 3d a9 64 65 bb dd c4 48 bc
       0.033855002 0.06947117 -0.0035002625 -0.012253967
0000c0 89 91 aa bb 9f 00 da bd 15 00 8c 3c 22 a8 d1 bb
       -0.0052053374 -0.1064465 0.017089883 -0.006398217
0000d0 62 44 5e 3c cc 1a 44 bd 74 7f 32 3b 69 a1 0c bd
       0.013566108 -0.047877118 0.0027236613 -0.03433362
0000e0 dd 15 42 3c 57 ce 56 3c 76 46 cf 3c 73 b9 a1 3c
       0.011846033 0.013110719 0.025302153 0.01974175
0000f0 c4 a8 7b bd 24 90 5a bd d3 db 53 bb 80 06 cb bd
       -0.061440244 -0.05336012 -0.003232707 -0.09913349
000100 cb 15 a7 bd 7c 8a 06 be 42 b4 56 bd c6 cf 48 bc
       -0.081584536 -0.13138765 -0.052418 -0.012256568
000110 c9 35 01 bd a8 d3 ea 3b 86 b5 a0 bd ca a9 19 bd
       -0.031545434 0.0071663447 -0.07847123 -0.03751544
000120 50 56 b1 ba 5c cd a3 bd c2 cc e6 bc 77 5e dd bd
       -0.0013529751 -0.079981536 -0.028173808 -0.10809033
000130 46 6d 7a bb 04 e6 d8 bc 56 71 8f bd b3 d9 a3 bc
       -0.0038212105 -0.026476867 -0.07004039 -0.020001268
000140 7c 38 14 bd 6a a3 9b 3b bc eb 82 bd 99 95 f6 39
       -0.03618668 0.004749705 -0.06392619 0.00047032235
000150 a8 7a e3 bc 8c de 8b bd e4 0a ad bd 58 d7 1d bb
       -0.027768448 -0.06829557 -0.08449343 -0.0024084654
000160 1c ab 1f bd 6a 80 ec bc d2 0e 9a 3d 95 3a a0 3c
       -0.038981542 -0.028869826 0.07522358 0.019559184
000170 1f df 61 3c 6c 98 8a bc 5a b5 98 b9 5b af 1a bd
       0.013786106 -0.016918384 -0.00029126817 -0.03776489
000180 fa 3e 8b bd 9c 3d 93 3d 8e 2a e0 bd 81 1b b7 3a
       -0.06799121 0.071894854 -0.10945617 0.0013969989
000190 7c 6e e3 bb ad 51 95 bb e2 f9 d3 3b 21 17 06 be
       -0.006940661 -0.0045568557 0.0064689973 -0.1309476
0001a0 42 26 fa bb 76 3d 51 3d 49 5f 54 bd aa 6d cd bc
       -0.007633955 0.051084004 -0.051848684 -0.025076706
0001b0 4a af f7 3c c6 35 aa bd 68 26 c7 bc 01 80 0b bd
       0.030234952 -0.08311038 -0.024310306 -0.03405762
0001c0 c3 84 0d 3d e5 28 66 3c ba 61 bc bc 30 7a 6c 3d
       0.03455044 0.014047836 -0.022995818 0.057733715
0001d0 e9 d3 02 bd 2e 7c 94 3d b0 f2 b1 bb ff 59 76 bd
       -0.031940375 0.07250248 -0.005430542 -0.06014442
0001e0 e5 0f 23 3d 23 70 85 3b a2 09 89 bb 6c de 1e bc
       0.03981008 0.0040722056 -0.0041820565 -0.009696584
0001f0 78 94 99 ba e2 57 44 3c 5c 11 23 bc c4 b1 19 bd
       -0.0011717221 0.0119838435 -0.009952869 -0.037523046

action_model._continuous_distribution.log_sigma f4 [1, 2]
000000 2a 8b 72 3e 63 67 f4 3d
       0.236859 0.11933782

action_model._continuous_distribution.mu.weight f4 [2, 128]
000000 96 88 c3 3c 3f ab f4 3c 9a 00 2a bd 21 51 df bb
       0.02386884 0.029866813 -0.04150448 -0.0068150912
000010 7b e9 41 bd 7d a4 b8 bc 7a e6 7b bd 3d 11 ea bc
       -0.047341805 -0.022539372 -0.061499096 -0.028572673
000020 0d 59 ff b9 df 4c 72 bd f8 a6 10 bd 90 54 3f bd
       -0.00048703738 -0.05915534 -0.035315484 -0.046711504
000030 6f c3 46 bd 55 c2 3d bd c8 12 14 3d c8 da 21 bd
       -0.048526224 -0.046327908 0.036150724 -0.039515287
000040 a7 79 f6 3c 1e 13 af 3c 1f 39 05 bc 07 de 91 bc
       0.030087305 0.02137142 -0.0081312945 -0.017806066
000050 63 d2 5e bd cb 9a 31 3d 56 b5 ac 3c 89 bb 3d bd
       -0.05439986 0.043360513 0.021082561 -0.046321426
000060 06 bf 19 bd 91 3d 13 bd 0d 2e 2c bc 4a ee 84 bc
       -0.03753569 -0.035947386 -0.010509026 -0.016226906
000070 47 dc bc 3c e2 76 0c 3d 19 16 b5 bc 87 23 b6 38
       0.023054255 0.034293063 -0.022105264 8.685054e-05
000080 de 6b 1b 3d 51 10 74 3c 9d 5b b2 bc 5f 21 71 3c
       0.037944667 0.014896468 -0.0217722 0.014717429
000090 21 ca 94 3b c4 1b 25 bc d5 02 36 3d b1 f4 47 bd
       0.004540697 -0.010077421 0.044436295 -0.04881734
0000a0 f0 04 2f bd 05 0b 7f bc a3 d8 1a bd 6c 50 04 3d
       -0.04272932 -0.015566592 -0.037804257 0.03230326
0000b0 a6 59 82 bd 3a 95 ab bd e3 30 9f 3c 0a 68 fa 3b
       -0.06364755 -0.08378072 0.01943249 0.007641797
0000c0 e8 f8 5a 3d a5 19 19 3b 01 78 69 bd 77 f4 51 bd
       0.05346003 0.0023361233 -0.05699921 -0.05125853
0000d0 ac 79 04 bd 14 23 d0 3b 29 93 6e bd ac 9f fd 3b
       -0.032342598 0.006351838 -0.05824581 0.0077399816
0000e0 54 d2 09 38 ee 49 72 3d 2e 82 0f bd 75 d1 84 3d
       3.285923e-05 0.059152536 -0.03503626 0.06485263
0000f0 83 66 35 bd 37 27 d7 ba e5 4a 28 bd a7 30 cd bc
       -0.044287216 -0.0016414885 -0.04108705 -0.025047613
000100 dd 6d 05 bd 25 47 0b bd e7 98 ec bb bb 32 3b 3c
       -0.032575477 -0.034003396 -0.007220376 0.011425669
000110 83 fb 69 3b 22 ce 04 bd 8f 4d 53 bc ab ca de 3c
       0.0035702891 -0.032423146 -0.012896909 0.027196249
000120 42 dd 37 3d 66 5e cb bb bf fb 74 3a 10 d5 a3 3c
       0.044888742 -0.0062063215 0.00093453744 0.019999057
000130 64 ac 59 3d ba 90 bf 3a 81 ad d4 3c 82 d7 4e bd
       0.05314292 0.0014615275 0.02596164 -0.050498493
000140 0a a7 56 bd 00 30 33 3d ce c9 28 3d e9 ed 4d bd
       -0.052405395 0.04374695 0.04120808 -0.050275717
000150 24 38 09 bd f7 be de 3c 29 20 cf 3c cb e6 3a bd
       -0.033500805 0.027190669 0.02528389 -0.045630258
000160 eb ad 81 bc 4b 87 cf bc 36 12 99 bd 82 3b 2b bd
       -0.01583 -0.025333067 -0.074741766 -0.041804798
000170 17 8e ab 3c 0b ac 1a 3d 08 ca 08 bd e2 9b 10 bc
       0.020941777 0.03776173 -0.033395797 -0.008826228
000180 3c 07 28 bb 6e b1 84 3d ff 5a 49 bc 66 37 49 bd
       -0.0025639078 0.064791545 -0.012289762 -0.049125098
000190 de 25 2f bd 6c c4 6f 3d 7b a6 ab bc 40 97 83 bd
       -0.042760722 0.058536932 -0.020953408 -0.06425333
0001a0 8b a4 3b 3d 13 e1 25 bd 8d d3 dd bc 23 b6 b0 bc
       0.045811217 -0.04049785 -0.027078414 -0.021571225
0001b0 29 58 4e bd d1 d7 cb bc dc d1 ed bc 7f 97 79 3c
       -0.050377045 -0.024883183 -0.029030733 0.015233873
0001c0 90 8d 11 bd 71 f9 07 3c 42 df 9b 3d a4 8a aa 3d
       -0.035535395 0.008299218 0.076109424 0.08327225
0001d0 67 45 d1 3c 40 67 57 bd 9d 74 82 bc 83 ba 17 3d
       0.025545789 -0.0525887 -0.015924746 0.037043106
0001e0 b2 59 49 3d 2f aa db bc 51 dd 3a 3d 84 19 d8 bc
       0.049157806 -0.026814548 0.04562122 -0.026379354
0001f0 47 e7 b6 bc fc 79 03 bc a1 0d 93 bc 17 0d 8a 3d
       -0.022327079 -0.008024689 -0.017950835 0.06740778
000200 af b1 88 bd e3 f5 2d bd 7d 57 dc bb 58 27 3b bd
       -0.066745155 -0.042470824 -0.0067242966 -0.045691818
000210 44 ad 09 3b 46 9c 94 bc a6 f7 39 3d 9c 53 be bc
       0.0021007815 -0.018140923 0.04540219 -0.023233227
000220 af 2c 95 bd 48 f2 93 3c 80 2d ce 3c 6e 0f 55 3c
       -0.07283913 0.018059865 0.02516818 0.013004167
000230 9d a2 9b bd dd 66 79 bc b2 dd 21 bd b5 58 2e bd
       -0.075993754 -0.015222278 -0.039518066 -0.042565066
000240 25 12 5e bd 3d 44 2b bd 15 15 89 bd f5 b6 9a bd
       -0.054216523 -0.041813124 -0.06693474 -0.075544275
000250 7f 69 77 3c 1e 4a 5d bd 6e 2a 86 bc aa 25 fd bc
       0.015100836 -0.05402576 -0.016377654 -0.030901749
000260 e9 43 74 bd c6 1f d5 bb e0 79 a9 bd 9d 4e 8b bd
       -0.059635077 -0.006504032 -0.08275199 -0.06802104
000270 bd 7f 9f bc 5a b7 0e bd 93 04 97 bd 21 ec a8 3c
       -0.01947009 -0.034842826 -0.07373919 0.020620408
000280 26 81 1c 3d 84 b9 74 bd cc e4 4d bd 3d 3f f2 3c
       0.038209103 -0.059747234 -0.050267026 0.02957117
000290 1a f0 51 bd 89 cc 89 bd 95 69 0a bd b0 24 b2 bb
       -0.05125437 -0.06728465 -0.033792097 -0.0054365024
0002a0 b4 e4 e2 bb 92 15 88 bd a1 1d ed bc 7e ec f3 bc
       -0.006924236 -0.06644739 -0.028944792 -0.029775854
0002b0 80 05 8d bc f8 6b f3 bb b3 1c 1e bd 75 70 15 bd
       -0.017214537 -0.0074286424 -0.03860159 -0.0364842
0002c0 a0 88 5c bd 52 2a db bc c8 e6 9e 3b 18 09 40 bd
       -0.053841233 -0.026753578 0.0048492886 -0.046883672
0002d0 ba fd 00 bd 68 73 18 bd 4f d1 b8 3b 9a 53 a5 3b
       -0.031491973 -0.037219435 0.005640186 0.0050453665
0002e0 b9 f7 77 bc a2 1d a5 bd 4e e2 60 bd 27 ed 28 bd
       -0.015134745 -0.08062293 -0.05490332 -0.04124179
0002f0 87 4e ac bd 20 65 40 bd 71 3e 02 bb e2 54 6a bd
       -0.084134154 -0.04697144 -0.0019873644 -0.057209857
000300 93 ac 05 bd 50 88 8f bd 47 f7 54 bd 65 d8 81 bd
       -0.032635283 -0.070084214 -0.051993635 -0.06340102
000310 92 c8 78 bd c6 d6 5f bc 18 33 10 3c c7 2a f3 bc
       -0.060738154 -0.013662046 0.008801244 -0.029683484
000320 70 8e 12 bd ce 1d 9b bd 73 b6 91 bd ea a4 78 bc
       -0.03578037 -0.07574044 -0.071148776 -0.015176037
000330 68 11 45 bd 9e 5f d1 bc 3a e2 62 bd 54 4f f9 bb
       -0.048112303 -0.02555829 -0.055391528 -0.0076083336
000340 4e 4c 5c ba 08 72 0a 3d 6a 33 2f bd fe db b5 bb
       -0.0008403704 0.033800155 -0.04277364 -0.0055499068
000350 41 ea 88 bd 9b cf dc bc ba 46 46 bc b8 f9 28 bc
       -0.066853054 -0.026954463 -0.012101823 -0.010313444
000360 45 47 e9 bc 17 b1 85 bd 90 3a 7a bc 75 7a 50 bc
       -0.028476367 -0.06527918 -0.015272751 -0.0127245085
000370 25 46 e9 bd 93 cd f0 3b 37 51 79 bd 7e d4 da bc
       -0.11390332 0.007348725 -0.060868468 -0.026712652
000380 26 6d 98 bd ce d3 cf bb d8 fa a7 bc 6d 6c ee bc
       -0.074426934 -0.0063423878 -0.020505354 -0.029104436
000390 8d 06 a4 bd aa e3 25 bd d7 f6 30 bc bd 64 55 bd
       -0.08009062 -0.04050032 -0.010801039 -0.052098025
0003a0 39 31 29 bd c4 cf 8b 3a 9c 35 5b 3d 4f 82 ba 3c
       -0.041306708 0.0010666777 0.053517923 0.022767214
0003b0 51 20 a9 bc 20 a7 82 bd dd 49 92 bd df 20 a0 bd
       -0.020645292 -0.06379533 -0.071429946 -0.0781877
0003c0 48 89 1e 3d cb 2a 9b bd 0a 53 05 ba 8d 4c 94 3d
       0.03870514 -0.075765215 -0.0005085921 0.072411634
0003d0 50 6f 8c bd c3 5b 37 bd 55 27 d0 bc 0c b5 ae 3a
       -0.06857169 -0.044765245 -0.02540938 0.0013329103
0003e0 aa 58 67 3d 47 02 d3 3c fa 6f 2d bd 62 5f 10 bc
       0.05648104 0.025757922 -0.042343117 -0.008811804
0003f0 25 ba a6 bd 59 2b 5b bd e0 bc 35 3c 33 69 b4 bc
       -0.08140973 -0.053508136 0.011092395 -0.02202282

action_model._continuous_distribution.mu.bias f4 [2]
000000 2a c6 73 3d e7 9b 7f 3b
       0.059515156 0.0039002837
