Assets/Neural Networks/hideandseek_22/Hide_22.onnx (onnx, 162766 bytes, 7 tensors)

network_body._body_endoder.seq_layers.0.weight f4 [128, 177]
00000000: a35a 233c 62ea 473d b356 663c d01c 083c
00000010: 2701 3ebd 40b9 7ab9 9de2 b7bd fe74 f93d
00000020: 3839 8bbd 2800 613b 8365 d83d 5e5d 0abe
00000030: b852 603c 3055 cbba 63eb 4c3d 9c4a 9bbd
00000040: 10d3 25be d0ec 1b3e b214 833d 1b23 2bbc
00000050: c998 95bd 556f 64bd e37f 26bc a135 fe3c
00000060: 8804 32bd bb47 013e dc92 103c f744 afbd
00000070: 4b8f 1dbe af2b 7cbc 81ee 84bd b6de 623c
00000080: a14c cd3b 572b d03d c875 023d a3ce 1fbe
00000090: 8d7f a43b 49d2 a03d 7603 5e3d 0e3f 6ebc
000000a0: 962b 46bc 6f76 dcbc 8381 d73d 4935 65bd
000000b0: a210 18be 0bc8 fbbd 9802 4a3d 7af9 8abd
000000c0: 164b 193d 2c92 09be 617b 5cbc 49cf afbd
000000d0: 6cf5 4dbd 2bb1 c03d b323 59bd 96e8 9cbd
000000e0: e9f9 7e3c 2964 973c 34a0 f03c 89e7 023d
000000f0: d56c 143d 938b bebd 82d1 c8bc ae0f 85bc
00000100: ec66 b2bb a9c1 1fbe ad53 0ebe 488d 693d
00000110: a249 7ebc 1124 82bd bc2a d03d 145d b53c
00000120: c761 c8bc 05b1 b63c dab2 0bbd bdaf 2f3d
00000130: 39a2 e33c 10f1 fe3d 5ac8 86bd 18f3 cabd
00000140: 71a4 a63c a937 d7bd 8aec d23d 82b5 a6bd
00000150: 89b4 fdbd de40 09be a28d 98bd 9257 cfbd
00000160: 4477 0a3d ca99 963d 54ff 833d c812 863d
00000170: 1ece 253d c2c9 3cbd 2633 a93b a2c1 073d
00000180: f5dc 35bc 0f66 763d ba9f 863a 0d8f 263e
00000190: d80f 053e 7796 4b3c 8e23 9dbc 33c5 8d3c
000001a0: 2a6c adbc 95ce f4bc eb32 9fbc 4b74 0f3e
000001b0: be9b 243e 37f8 103c 086c e53c 8be2 723d
000001c0: caba 5cbe 488b c13a c7a5 3bbe 566e 9b3d
000001d0: 963d 09bd c3e5 f1bb 0d6d 0ebd 5a66 36bd
000001e0: 106d 95bb f99b c6bb a555 02bc 9a9a 94bd
000001f0: b7b4 cd3c b26c 37bd 30e2 dc3d 1107 103d
00000200: 2fed bf3d 00c6 1abe 5ed0 503d 719f 37bc
00000210: 715d 493d 612a 913d 705e c83d 0af2 f13c
00000220: 2fc6 cd3c 298c 25bc 8642 0abd 2052 4c3d
00000230: 1d04 4bbd 2f18 8f3d 0c2d 03be 66b3 523d
00000240: 512b 483d 6954 3f3d 77fb eebc 9e3b e4bd
00000250: 32fa e93d f64c f33d d8bf 56bd 7638 26bd
00000260: 15a8 32bd 8589 49bc 7631 21bc a87e 3d3e
00000270: 166a 733b 001d a03d c882 e6bd f7b8 843d
00000280: a6c8 95bd 06ef ddbd 8deb bd3b b107 2d3d
00000290: 5001 2d3d e2a1 64bd 7717 e33d 32b3 563d
000002a0: 7a0c 293e 4f3a a43d c0b7 a0bd 10e5 febc
000002b0: d3c2 9dbc a796 e0bd d474 813d 9612 a5bc
000002c0: 183c b1bd 63c8 5f3c 474a e13d 1a5d aeba
000002d0: 588e f2bc 290d 603b 8ad6 f5bc dca5 9abd
000002e0: 2d30 4bbd 614f 863d e2da 81bd f0ce 8dbc
000002f0: b214 383d 768a 9cbc 270d 41bd 91c0 5cbc
00000300: 3993 37be 177c 3bbd 6523 e1bc 0063 8fbc
00000310: 2cd6 3fbc a457 01be 6bb7 dfbd a333 b43d
00000320: a040 b43d 8a10 4d3d 2e58 0b3e b523 e13d
00000330: 6946 abbc 8ca9 74bc 8291 78bd eca7 5c3d
00000340: 2b64 5a3d bf64 683d f15a 843c b36e 63bd
00000350: 382c 003e c2c5 5b3d 9bb2 8f3d 5091 80bc
00000360: 5ea7 3c3c ad18 c63d 6962 4d3d baf3 b3bd
00000370: f537 09be 251f 15be c498 3abd 6718 61bc
00000380: 0ae1 823c 4d52 bd3d 4166 433d ae40 a83c
00000390: 0ff8 a13a d3db ae3c 8e9c 52bc 0b48 5c3d
000003a0: 09c0 a43c c97b 3c3d 9ef4 34be 1589 4b3d
000003b0: a87b 7abd 7e5c 913d ffa0 1e3d c5ee 09bd
000003c0: bff2 963d 1d96 723d bff4 fd3d 41b0 b93c
000003d0: dd88 6b3c db94 3dbd bb9d 183e 9703 c2bc
000003e0: c9d9 673d 858c fb39 af91 27be 6641 6a3d
000003f0: 99e4 e63b ad2e f7bc fe20 6f3d 9a11 a039
0.00997034 0.04880751 0.014058757 0.008307651 -0.046387818 -0.00023910869 -0.0897877 0.121805176
-0.06798023 0.0034332369 0.10566237 -0.1351218 0.013691597 -0.0015513059 0.05002917 -0.0758259
-0.16193795 0.15227056 0.06400432 -0.0104453815 -0.07304532 -0.055770237 -0.0101623265 0.031031432
-0.043461353 0.12625019 0.0088240765 -0.08558076 -0.15386693 -0.015391274 -0.064908035 0.013847044
0.0062652384 0.101645164 0.031850606 -0.1560617 0.005020088 0.07852609 0.05420252 -0.014541401
-0.012095353 -0.026911942 0.10522749 -0.05595902 -0.14850095 -0.122940145 0.04931888 -0.06785865
0.037425123 -0.13434666 -0.01345715 -0.085844584 -0.05028288 0.09408792 -0.05301256 -0.0766155
0.015562513 0.018480377 0.029373266 0.03195909 0.036236603 -0.093039654 -0.024513964 -0.016242828
-0.005444398 -0.15601219 -0.13899107 0.057019502 -0.015520485 -0.06354535 0.10164401 0.02213911
-0.024460686 0.022301206 -0.034106113 0.042892206 0.027787315 0.12448323 -0.06581183 -0.09909648
0.020342084 -0.10508663 0.102990225 -0.081400886 -0.1238795 -0.13403651 -0.07448889 -0.101241246
0.033805147 0.07353552 0.06445184 0.06546551 0.04047977 -0.04609085 0.005163568 0.033143647
-0.011100044 0.060155924 0.0010270991 0.16265507 0.12994325 0.01242601 -0.019181993 0.017305946
-0.02116974 -0.029883662 -0.01943346 0.14009206 0.16075036 0.0088482415 0.028005615 0.05929808
-0.2155563 0.001476624 -0.18324958 0.07589404 -0.033506 -0.007382126 -0.034771968 -0.044531204
-0.0045601204 -0.006061074 -0.00795499 -0.072560504 0.025110586 -0.044781394 0.10785329 0.03516299
0.09371411 -0.15114594 0.050979964 -0.011207447 0.04916138 0.07088161 0.097836375 0.029534359
0.025118915 -0.010104218 -0.033754848 0.049883008 -0.04956447 0.069870345 -0.12810153 0.05144062
0.048869435 0.04671136 -0.029172642 -0.111441836 0.11424674 0.118799135 -0.05242905 -0.04058119
-0.043617327 -0.012300854 -0.009838453 0.18505347 0.003714209 0.07818031 -0.11255413 0.06480592
-0.07313661 -0.10836606 0.005795902 0.042243663 0.04223758 -0.055818446 0.1108846 0.052416988
0.16508666 0.08018934 -0.078475475 -0.031115085 -0.019257938 -0.10966235 0.06321111 -0.020150464
-0.0865404 0.013658616 0.110004954 -0.0013302893 -0.02960889 0.0034187532 -0.030009527 -0.075511664
-0.04960649 0.06558109 -0.06340577 -0.01731059 0.04494161 -0.019108992 -0.047131684 -0.013473646
-0.17927255 -0.04577264 -0.027482698 -0.017503262 -0.011708777 -0.12631088 -0.10923656 0.087989114
0.08801389 0.0500646 0.13607857 0.10993139 -0.020907598 -0.014933001 -0.060685642 0.05387108
0.053318184 0.056736704 0.016156645 -0.055525493 0.12516868 0.053655393 0.07016488 -0.01569429
0.011514513 0.09672675 0.05014268 -0.087867215 -0.13400252 -0.14562662 -0.045555845 -0.013738728
0.015976448 0.09244213 0.04770494 0.020538654 0.0012357252 0.021345055 -0.012854708 0.053779643
0.0201111 0.04601649 -0.17671439 0.04969128 -0.061153084 0.070977196 0.038727757 -0.033674974
0.07370519 0.05922519 0.12400197 0.022667052 0.0143758925 -0.046284538 0.1490392 -0.023683352
0.05660418 0.00047979146 -0.16364168 0.057191275 0.007046294 -0.030173624 0.058381073 0.00030530692

network_body._body_endoder.seq_layers.0.bias f4 [128]
00000000: 793c a73a a820 93bb bfda 4cbb 232d d33b
00000010: 9655 6cbc b286 90ba 5370 df3b 00b5 b0bb
00000020: 97c3 cb3b e044 03bc ebdc 403c c855 bf3a
00000030: 7f1e adba f6f2 383a 4ca9 f1bb d841 30bc
00000040: 1dfe 94bb 98c2 fd3b d602 a23b 825c 75bb
00000050: aa0d 02bc 555e 1eba 2427 023b 4d19 7c3a
00000060: 5942 de3a 59d7 ccbb f591 b43a 1608 f1ba
00000070: f8b2 34bc 4154 68bb 0692 e43b f06a a03b
00000080: 2b59 2c3b 104b 8aba b5a4 32ba de1e 043c
00000090: 86a8 89bb 0d0c d2bb 2b54 323a 9f39 22ba
000000a0: 1268 ee3b d0ca 8ebb b2a5 f8bb 257d ef3b
000000b0: aba3 d8bb 015e e7bb 5774 133c 4683 12bc
000000c0: 7554 60bb 1389 13bb 7f36 2cbc 4cc0 98bb
000000d0: eb7e 623b 22af 8cbb 8569 873b f5b8 e0ba
000000e0: 479d c0ba 8f05 bdbb 23e9 15bc 2af3 e5bb
000000f0: 8165 38bb fcf6 1b3b b067 0cbc 8bc4 2fbc
00000100: a7ff 0a3c 61b3 ab3b d675 8abb ab2a 7f3b
00000110: 319b 31bc 82b0 70ba 9fb9 233b b0f2 a53b
00000120: ca41 1cba 54ac 37ba aa4d 45bb 5a69 1aba
00000130: 6f31 5fbb ee19 f43b 611f 353a ee4a 28bb
00000140: 1793 05bc 9b36 17bb 6f6d fa3a 29c7 7a3a
00000150: 851b f8b8 a1f1 03bb 53bf 0cba de36 3fbc
00000160: 93a3 00bb 5903 ecb9 6579 753b 052d 53bc
00000170: f1cc adbb 55b9 293c efb8 3cbb 31ee 6a3b
00000180: db36 923a 2a04 363b 51bb 7e3b 6050 05bc
00000190: 1c5c 0e3c e634 11bc 819b 82bc 2dd6 b03b
000001a0: 3f07 25bb 5d18 42bb 98d9 d0ba c281 0a39
000001b0: b1df dbb9 1bf6 293c e24e 86bb 25e8 84bc
000001c0: c227 debb 6f1e a8bb d93c 4dbb c0e1 503a
000001d0: 41ea 19bc 3233 973b 136c 5abc 324a 5dba
000001e0: 9cb7 f43b e296 1dbb cbdf c4b9 26b8 b3bb
000001f0: d900 85bb 732f 02bc a82d 603c 92fd 133c
0.0012759111 -0.004489977 -0.0031258313 0.0064445897 -0.014424702 -0.001102647 0.00681881 -0.0053926706
0.0062183845 -0.008012027 0.011771421 0.0014597708 -0.0013207941 0.0007055247 -0.007374918 -0.010757886
-0.004546894 0.0077441446 0.0049441857 -0.0037439172 -0.007937828 -0.0006041278 0.0019859755 0.0009616807
0.0016957029 -0.0062512574 0.0013776409 -0.0018389251 -0.011028998 -0.003545061 0.006975415 0.0048955604
0.0026298265 -0.0010550935 -0.00068147044 0.008064 -0.0042009978 -0.006410128 0.0006802703 -0.0006188396
0.0072755897 -0.004357673 -0.007588112 0.0073086196 -0.0066113076 -0.0070607667 0.008999906 -0.008942431
-0.0034230028 -0.0022512123 -0.01051104 -0.0046615954 0.0034560512 -0.0042933384 0.004132452 -0.0017144965
-0.001469531 -0.005768485 -0.009149822 -0.007017513 -0.0028136673 0.0023798337 -0.008569643 -0.010728012
0.008483804 0.0052398895 -0.004225473 0.0038935344 -0.010840223 -0.0009181575 0.0024982465 0.005064331
-0.0005960731 -0.0007006575 -0.0030106106 -0.00058903324 -0.0034056564 0.00744938 0.0006909278 -0.0025679427
-0.008152745 -0.002307332 0.00191061 0.00095664203 -0.000118306874 -0.0020133036 -0.00053690857 -0.011670796
-0.0019628748 -0.00045015922 0.003745639 -0.012889151 -0.005303972 0.010359128 -0.0028796752 0.003584754
0.0011155264 0.0027773478 0.0038868973 -0.008136839 0.008688953 -0.00886271 -0.01594329 0.0053966255
-0.002518132 -0.0029616572 -0.0015933989 0.00013209044 -0.00041937598 0.0103736175 -0.004098759 -0.016223976
-0.006779642 -0.005130581 -0.0031316786 0.00079682097 -0.009394229 0.0046142573 -0.013331431 -0.0008441537
0.007468177 -0.0024046232 -0.00037550772 -0.0054845987 -0.004058939 -0.007945883 0.01368276 0.009032624

network_body._body_endoder.seq_layers.2.weight f4 [128, 128]
00000000: b1fd d5bd af21 2f3d 1908 113e 7519 00bd
00000010: 7525 0a3e 8dfa cfbd 5884 acbd 7122 12ba
00000020: f742 43bd da17 01bd 1c29 88bd e2da 46be
00000030: 492b d0bd f852 20bd b5a8 1dbe c59c 323d
00000040: 8868 63bd 9f2f b53c cbf1 56be 1dea fd3d
00000050: dcb4 69bd da97 013d ea0d 1a3e 26c1 75be
00000060: f9a8 22bc d346 0cbd 47f3 76be 0ea6 b43c
00000070: 2067 4f3d e37e 63bd c70d 0e3c a380 7abd
00000080: dbdc 5b3d a96b a43d 96b3 00bd d7f1 32bd
00000090: 1f17 49be 795f a2bc 31cf 1ebe 8d61 f53d
000000a0: 8d85 f5bb 6329 653d 8378 86bd af2a a23a
000000b0: e864 ad3d 6213 9c3d 8bb1 80bd b2b1 423c
000000c0: 1cc0 aabd 8f71 733b 1eff 09bd a152 00bb
000000d0: 0ae1 3bbd 0d9f e6bd b91b 6b3d a2fd 31bc
000000e0: 56ef fd3d 1e10 bd3d f15a 263d ed99 613e
000000f0: d34d 0ebe 75b3 dbbd 73fb 02bd 2e55 6d3d
00000100: e06a 8fbd e824 2ebc a200 debd b429 bfbd
00000110: 289e 7d3d 479e 073d 6f26 bdbd 607d 72bd
00000120: 509c fe3c 335f e43d a4f9 d33d 1953 bcbd
00000130: a2f1 1fbd 0038 66bd 0b0c 3dbc 09ce 393d
00000140: 8b52 11be 0c34 f3bd 501e 883d e427 d2bd
00000150: b169 f83d 0a66 b03c e097 2fbd 5e9d e33d
00000160: 3dbf 1dbd ea9c 9a3d 3d63 a1bd 3a4f 09bc
00000170: d584 c33d 2b39 31bc 72e3 fcbd 8d4e 3bbd
00000180: f001 83bc 958c 9f3d 1ff0 4b3d 0e60 0e3e
00000190: 6d3e 01be b2ca cfbd 615b 1a3d 3510 a7bc
000001a0: 4be5 34bd 9862 713d 7441 73bd 0460 91bc
000001b0: 85aa a93d 3fb7 f33c e162 93bd ab01 613d
000001c0: f437 91bd a9e8 12be bd7f de3d 0276 3cbd
000001d0: f057 75bd 8366 983d c49b a43b c4f4 8f3c
000001e0: fe86 323e a63b 9f3d eede c4bc ad0a 873d
000001f0: e48a 04be 9d48 86bb a407 923d 26ec 54bc
00000200: b1a0 54bd 23b7 c5bc 3b7f 30bd fb9a 5e3c
00000210: 5c55 55be ab63 a43d 56c2 a9bb ea86 13be
00000220: 432e c5bd 4432 34bd afc9 21bd 1d5f aebc
00000230: ed9c 8bbd 06a5 aabc aaf9 00be 8a1a 4c3d
00000240: e505 f6bc 9815 febd ef08 85bd f15b 9b3b
00000250: 672c 41be d1e5 4f3b 2610 c03d 38ec 8bbc
00000260: a938 433b e1b7 cbbb 7192 9d39 5d32 8c3d
00000270: 91d2 233e b973 39be 00b4 e3bd 998b 04bd
00000280: 2e7d 4c3d 2578 19be ae1e 2bbe 269d dbbd
00000290: bbda 57bd d72a 38bd c0ef 3a3d 92a9 0a3e
000002a0: 5c3c 293d 8e12 843d d737 8b3d 1938 01be
000002b0: 8227 7abd ca91 a93d 6714 a0bd 36c8 61bd
000002c0: fed7 57bc 6343 85bd 1b57 cb3d 1bd8 89bd
000002d0: b6ce f53d b4c1 d9bc d887 f43c 99d2 92be
000002e0: 92cc b2bc 75af 2a3d 3d1a 873d 3966 fb3c
000002f0: 3c10 46bd c101 893c e39e 6fbd 6454 87bb
00000300: feee e73c 7a87 8f3d eee2 6fbd 964f de3d
00000310: 13ef f9bd 1588 063e d131 4c3d 76a7 8dbd
00000320: c2b5 89bd 2ba7 fd3d 609e 27be f964 293e
00000330: f168 96bd ab98 653d d3cd c83d c3b8 423b
00000340: ffe1 25bd 3e96 573e 51d1 26bd 95e6 eb3c
00000350: a2ab c03d 5286 a43d f1a6 8cbd 4c00 e03d
00000360: c9c7 b63b 104f fabd a3ab 13bd b03b bd3d
00000370: c9f5 d9bc 2cca 2f3d d29e 3bbe a0c0 3dbd
00000380: 77a7 a53d aa79 2e3e 815a dd3c 8e0d 5fbd
00000390: 067d 1fbd c0f8 4fbc b38e f03d eff1 24bd
000003a0: 52b6 4dbe 985d 98bd 553b ce3d 80f0 ac3d
000003b0: b709 38bd b78b b9bc 72b8 89be 9a7d f9bd
000003c0: 1d5e b23c d5e4 0dbd 2ed1 49bd 91f1 56bd
000003d0: b691 acbd da10 e73c 1e9b 643e 7117 71bd
000003e0: 9d42 da3c 743d fabc ddd2 b23c 452d 12be
000003f0: 5a5a 3fbd d893 b7bd 5f3a aebd 4993 343c
-0.104487784 0.042756733 0.14163245 -0.031274278 0.13490851 -0.10155211 -0.0842368 -0.000557459
-0.047671285 -0.031516887 -0.06648466 -0.19419435 -0.10164506 -0.039141625 -0.15396388 0.04360654
-0.05551961 0.022117434 -0.20990674 0.12398169 -0.057057247 0.031638958 0.1504437 -0.23999462
-0.0099279815 -0.03424723 -0.2411624 0.022051837 0.050635457 -0.05554093 0.008670277 -0.061157834
0.05367742 0.08028347 -0.031421266 -0.043687668 -0.19637726 -0.019820916 -0.15508725 0.11981497
-0.007492727 0.055947673 -0.065659545 0.001237234 0.08466512 0.076208845 -0.06283864 0.011883186
-0.08337423 0.0037146544 -0.033690564 -0.00195805 -0.04586891 -0.11260805 0.057399485 -0.010863693
0.12399165 0.0923159 0.040614072 0.22031374 -0.13896875 -0.10727588 -0.031978082 0.05794256
-0.07002807 -0.010628916 -0.108399644 -0.09334126 0.061918408 0.03310993 -0.09235846 -0.0592016
0.031080395 0.1115097 0.103503495 -0.09195537 -0.0390488 -0.05620575 -0.011538516 0.045362506
-0.14191644 -0.118751615 0.06646407 -0.10261515 0.12129534 0.021533031 -0.04286945 0.11114
-0.038512457 0.0754946 -0.07880256 -0.0083807055 0.0954682 -0.010816853 -0.12348069 -0.04572921
-0.015992135 0.07790486 0.049789544 0.1390383 -0.1262147 -0.10146083 0.037684802 -0.02039347
-0.044163983 0.058931917 -0.059388593 -0.01774598 0.08284477 0.029750464 -0.07196594 0.05493323
-0.0709075 -0.14346565 0.10864208 -0.04601098 -0.059898317 0.074414276 0.0050234515 0.017572768
0.17434308 0.07775049 -0.024032082 0.06593833 -0.12943608 -0.0040980116 0.071303636 -0.012995755
-0.05191106 -0.024135178 -0.043090086 0.013586755 -0.20833343 0.08026823 -0.0051806374 -0.14406934
-0.09627964 -0.04399325 -0.03949898 -0.021285588 -0.068170406 -0.020830642 -0.1259524 0.049829997
-0.030032108 -0.124064624 -0.064958446 0.004741185 -0.18864594 0.0031722675 0.0937808 -0.017080411
0.002978841 -0.0062169884 0.0003005448 0.068455435 0.15998293 -0.18110551 -0.11118317 -0.032359693
0.04992407 -0.14987238 -0.16710922 -0.10723333 -0.052698832 -0.04496273 0.0456388 0.13541248
0.04131733 0.064488515 0.0679776 -0.12619056 -0.061072834 0.0827976 -0.078163914 -0.055122577
-0.013174055 -0.065069936 0.099287234 -0.06730672 0.120023176 -0.026581623 0.029849932 -0.28676298
-0.021826062 0.041671235 0.065968014 0.030688392 -0.048355326 0.01672447 -0.058501136 -0.004129933
0.028312203 0.07008262 -0.058566026 0.108550236 -0.12203803 0.13137849 0.049852196 -0.06916706
-0.06724121 0.123854004 -0.16369009 0.16542424 -0.07344235 0.0560538 0.09804883 0.0029712177
-0.04049873 0.21053407 -0.040726963 0.028796474 0.09407736 0.08033432 -0.06867779 0.109375566
0.0055780155 -0.12222111 -0.036052357 0.092399 -0.026606457 0.042917415 -0.18322304 -0.04632628
0.08088582 0.17038599 0.027020695 -0.054456286 -0.03893759 -0.012693584 0.11745968 -0.04026979
-0.20089081 -0.074397266 0.100699104 0.08444309 -0.04493114 -0.022649629 -0.26898533 -0.1218216
0.021773392 -0.03464206 -0.049271755 -0.05247647 -0.0842623 0.028206278 0.22324798 -0.058860246
0.026643092 -0.030546881 0.021829063 -0.14275081 -0.046717025 -0.08963746 -0.08507227 0.011021444

network_body._body_endoder.seq_layers.2.bias f4 [128]
00000000: 3f08 30bc 52c3 17bc e545 843b 8375 0dbb
00000010: b0f6 d23b c54f 98bb 4918 97bb cd23 8b3b
00000020: 1f95 2fbb d1ab de39 d7f6 1dbc 32df 93bb
00000030: 396a 1fbb 58e7 7ebc 5ae6 2dba c922 b2ba
00000040: a405 f7bb 8c15 1d3b 5a8d 8e3b e1bd 063c
00000050: f5f5 b43b 5c03 06bc 944e 9e3a 05ee bf3b
00000060: 3581 85bc 8cb8 cdbb a67b d3bb 5215 473a
00000070: 7a49 33bc 1461 fd3a 9b1e bbbc 0844 26bc
00000080: c368 e9bb 3dc9 3a3c 7d10 a8ba 316e 14bc
00000090: f5c0 bcbb 5809 e7bb a6df e6ba cb1e 9dbb
000000a0: 7de7 c13b 3198 dfbb 75a3 373b 6109 23bb
000000b0: d8a0 9aba a8b4 1abc be90 1d39 eee9 2dbc
000000c0: e676 ac3b a16a 02bc 0595 9db9 c68e 5c39
000000d0: a0c2 bebb ca8e d6bb be48 383b e4b6 ffb9
000000e0: f2e1 d2bb 5254 14bc 4dc0 033c a814 adb9
000000f0: 5e38 52bb dc3c 38bc df71 30bb c516 3dba
00000100: 6ba6 19bc d69e 793a 4c3f 76ba 4335 4d3b
00000110: dc02 d3bb accb e93b 8cad bfbb dcbc b4bb
00000120: 8569 07bc 0190 b13b b56c 9fbb f1e3 82bb
00000130: e9ee 77bc 71e8 0dbc 4368 a0bb 2f1b 823c
00000140: 7e70 c7bb 0980 13bc ee1c 8fbc b14e 11bc
00000150: e45a 8bbc 2151 e4bb 6e8a 59bc 9e02 30bc
00000160: c43e 3dba f03b 07bc 7d0d 37bc 7074 4db9
00000170: 2f6d 273c 17c1 253c 9a58 39bb 018f 3e3b
00000180: effa 58bb a75e 723b e1ca b53a 2e26 833b
00000190: f27b 81bc 6ea7 82bb de9e 3a3a b272 b1ba
000001a0: 6485 25bc 324c 093b 038d cbb8 d62c 3fbc
000001b0: b338 ab3b b394 0d38 53fd 24bc 67a9 93bc
000001c0: 0698 57bc f906 f6bb 677f 0c3c 9f4b b4bb
000001d0: 81eb e13b 3b38 433a af0e 0e3c b56b 48bb
000001e0: 7fa6 21bb dbf6 953b 4b97 4539 7246 8a3b
000001f0: 3f3f a2bb 8948 92ba 8451 85bb 99f8 423b
-0.0107441535 -0.009262877 0.0040366524 -0.0021584935 0.006438099 -0.004648181 -0.0046110493 0.004246211
-0.0026791764 0.00042471153 -0.009641371 -0.004512691 -0.0024324788 -0.015558086 -0.00066337513 -0.0013590689
-0.007538514 0.0023969142 0.0043503465 0.008223982 0.0055224844 -0.008179512 0.0012077861 0.0058572316
-0.016296962 -0.006278103 -0.006453949 0.00075944245 -0.010942811 0.00193313 -0.022841742 -0.010148056
-0.0071230843 0.011400518 -0.0012822297 -0.009059475 -0.005760307 -0.0070506744 -0.001761426 -0.0047949306
0.005917488 -0.0068235626 0.0028021012 -0.0024877416 -0.0011797203 -0.009442486 0.00015026607 -0.010614855
0.0052631972 -0.007959993 -0.00030056402 0.00021034022 -0.005821541 -0.0065477835 0.002811953 -0.00048773654
-0.006435626 -0.009053307 0.008041454 -0.0003301252 -0.0032077054 -0.011244979 -0.0026923341 -0.0007213171
-0.009378056 0.00095222646 -0.0009393587 0.0031312264 -0.00643955 0.0071348753 -0.005849546 -0.005515678
-0.008264904 0.005418778 -0.004865254 -0.003994458 -0.015132644 -0.008661375 -0.0048952415 0.015882103
-0.006086408 -0.009002694 -0.01746985 -0.008868859 -0.017011113 -0.006967679 -0.013277633 -0.0107428115
-0.00072191306 -0.008254036 -0.011172649 -0.000195937 0.0102189025 0.010116837 -0.002828157 0.0029076936
-0.0033108552 0.0036982687 0.0013869667 0.004002354 -0.015806172 -0.0039872443 0.000711901 -0.001353821
-0.010102604 0.0020949957 -9.70606e-05 -0.011668405 0.005225265 3.3755507e-05 -0.010070163 -0.018025113
-0.013158804 -0.0075081554 0.008575297 -0.005502179 0.0068945293 0.00074470387 0.008670493 -0.0030581777
-0.002466589 0.0045765466 0.00018843745 0.0042198235 -0.004951387 -0.0011160533 -0.0040685553 0.0029750227

action_model._continuous_distribution.log_sigma f4 [1, 2]
00000000: 869c a1bb eccd 05bb
-0.004931989 -0.0020416928

action_model._continuous_distribution.mu.weight f4 [2, 128]
00000000: 4412 953c 7633 3dbc ef73 b1bc b5f2 52bc
00000010: 49c3 883c 0847 f03a 1958 883c b1e9 aabc
00000020: e1fd e13b c2fa 09bc 5f1e 81bc 97fb aa3b
00000030: 801d 2a3c 0e73 62ba 9fec 99bb 449c 1f3c
00000040: 8556 88bb 9625 fcbc e899 f53c f356 af3b
00000050: c7f2 593c 3670 4abd ca51 053c 0dcc 57bb
00000060: 50b2 943c 9f65 0f3a 3e6f 9bbc 4ac2 15bc
00000070: 951e a03c 12a1 a93c 1226 c83b 494d 0abc
00000080: a5f6 c43c 9efc 04bd af68 01bd ea6e 4abc
00000090: d951 c83b dd45 25bc a9e6 403b 148a debc
000000a0: 6a31 823c bcf7 9d3c 5e43 dc3c 5851 10bc
000000b0: 7f79 bcbc 520b 943c c6ce 1e3d 6a26 46bc
000000c0: fa81 4c3d d29a 193a 0880 0d3c 0f99 b23b
000000d0: 4398 4bbd cfe7 1b3d 67fa 47bc 83e6 11bb
000000e0: 31dd a73c da43 fabb 4ba6 f13b 0875 1abd
000000f0: de9e 8abb f464 98bb a95a 85bc 3337 39bc
00000100: 08d9 9bbc ebf0 6dbc 03b5 1c3d 06d5 aebc
00000110: cbb1 8939 9936 3bbd cf64 c7bc 2b4d 3abc
00000120: 629a 13bd e1b9 d23c e436 80bc 1f61 30bc
00000130: ec0c e0ba 2c96 92bc cff9 4e3c 5f0a e3bc
00000140: f1ad b43a 70c6 18ba 6ba8 c0bb 4ba3 033b
00000150: a571 24bc 6ab4 b0bc 1006 9abc 8e81 98bc
00000160: 41dd 92bc ed24 0eba 0e72 c0bb ca07 423c
00000170: 1faf 783b ac89 cf3b 2ddb b239 cf9d cebb
00000180: 7fe4 233c 7965 7b3c 3774 53bc fdd2 943c
00000190: 2406 3cbb 3a42 d73b 51ac a2bc 3962 c53b
000001a0: 8690 91bb 1bee 733c 9d86 55bc ca6f 1fbc
000001b0: e166 443a 25a1 223c 4b1e e0bc 1bef 843c
000001c0: f0cd 2c3d f6af 913b 73e9 cb3c df44 47bc
000001d0: 0003 4e3c 9526 b23b 4045 c23c c4e7 183d
000001e0: eb1d dcbb 2c72 ab3c b985 1b3c a1fd f5bb
000001f0: 53bc d8bc e3b0 9fba 9d2b d2bc 00d1 f83c
00000200: f6fc ddbb 38f9 43bc cf37 2a3d 2763 11bd
00000210: 5a89 573c 4aa2 93bc e141 aabc ff41 71bb
00000220: e77d cabc 334f 143c e506 fbba 8ee5 17bc
00000230: 25b8 2bbc 86fd 5ebb 5cc5 d33b 6b13 16bc
00000240: c033 07bc 02f8 12bc a1c6 67bb 9e24 953b
00000250: 889c 153d 08ba acbb 3034 5dbc ab34 2c3d
00000260: fbdb f1bc 8826 6dbc 0c79 3fbc a371 5d3c
00000270: 4fd5 12bd 7080 cc3b e170 abbc 0908 07bc
00000280: fc24 60bd d38d a5bb 8ee8 693b 4f49 a4bc
00000290: 2d1e 93bc 946a b2bc 6ff8 643c 5f01 323b
000002a0: 5157 7f3c fc65 efb8 a3b0 ebba 5862 3f3b
000002b0: c471 9cbc fbfc f2bc 3580 e6ba 0197 1dbc
000002c0: 0347 1dbc 19d1 febc 6baa 2a3c f54e 933c
000002d0: 9468 15bd bed7 2ebd 70ac fa3b 39b9 1a3b
000002e0: 397f ecbb c20b 8fbc 0583 0b3d 0be1 a53c
000002f0: a9c3 c53b 8996 60bb 2abf 09bd 6274 c2bc
00000300: f2ba adbc d5e0 4a3c aa49 ff3b b2ea ae3c
00000310: fe3b f9b9 b035 d03c 28f0 2fb8 f7e0 12bd
00000320: aac4 b9bc c9ef 163c f099 033c ce3f 33bc
00000330: 28ef e7bb 5628 8cbb 5eee 22bc 3e2d 213d
00000340: f036 47bd 6ac6 cdbc 05e8 fdbb d7d7 10bd
00000350: 4408 61bc 2083 8039 46dc cbbc c26a 90bc
00000360: 982c c0bc 0235 76bc f395 1fbc 6215 e5bc
00000370: 28d4 dc3c 760a f23b 4db3 26ba 153a da3c
00000380: 0cb7 1dbc 6514 30bd fb5e 583c 3d17 0bbb
00000390: 815f 04bb 27e1 3dbc de7a d03b 2cd1 e6bb
000003a0: be9e 52bc a748 4bbc 31dc da3a 5560 2cbc
000003b0: 9ab4 413c 9cb8 c2bb 11ab 10bd c506 e1bc
000003c0: 7fd6 a4bc 1eed 7abc 2f6c bc3c 8542 14bc
000003d0: 7448 bb3b 613e 453c ee50 723c b1ec 8ebc
000003e0: ccae dbbc c01f 96bb afac 0cbc 9b60 2b3d
000003f0: dc23 fdbc bae7 d63b 0ec3 debc 164c 263b
0.018197186 -0.011547914 -0.021661727 -0.012875249 0.016694682 0.0018331716 0.01664357 -0.020863386
0.00689672 -0.008421602 -0.015761552 0.00521798 0.01038301 -0.00086383603 -0.004697397 0.0097418465
-0.0041607046 -0.030779641 0.029980615 0.0053509413 0.013302512 -0.04942342 0.008137176 -0.003292802
0.018151432 0.000547016 -0.018973943 -0.00914056 0.019545833 0.020706687 0.006108054 -0.008441278
0.02404339 -0.032467477 -0.031593975 -0.012355546 0.0061132726 -0.0100874575 0.002943436 -0.02716545
0.015892703 0.019283168 0.026887592 -0.008808456 -0.023007153 0.018071804 0.038771413 -0.01209412
0.049928643 0.0005859557 0.008636482 0.005450375 -0.049705755 0.038062867 -0.012205697 -0.002226264
0.020491214 -0.007637483 0.00737456 -0.037709266 -0.004230364 -0.0046507064 -0.016278582 -0.011304664
-0.019024387 -0.014522771 0.038258564 -0.021341812 0.00026263142 -0.045706365 -0.024340061 -0.011370937
-0.036035903 0.0257234 -0.015651174 -0.010765343 -0.0017093695 -0.017893873 0.012632801 -0.027714906
0.0013784749 -0.00058279093 -0.005879452 0.0020086344 -0.010036861 -0.021570403 -0.018801719 -0.018616464
-0.017927768 -0.00054223725 -0.0058729714 0.011842677 0.0037946177 0.0063335504 0.00034114104 -0.0063054333
0.010003208 0.015344017 -0.012906126 0.018167013 -0.0028690184 0.006569174 -0.019857557 0.006023672
-0.0044422774 0.014888312 -0.013032583 -0.009731242 0.0007492137 0.009926115 -0.027358195 0.016227296
0.042188585 0.004446025 0.02489159 -0.012162416 0.012573957 0.0054367282 0.023714662 0.037330404
-0.0067174337 0.020928465 0.009492331 -0.0075070416 -0.026456987 -0.0012183454 -0.025655562 0.030373096
-0.00677454 -0.011961274 0.04155713 -0.03549495 0.013155306 -0.018021721 -0.020783367 -0.0036813018
-0.024718238 0.009052086 -0.0019151835 -0.009271039 -0.010480915 -0.0034025623 0.006462736 -0.009159903
-0.008252084 -0.0089702625 -0.0035366195 0.0045514842 0.036526233 -0.0052712 -0.013501212 0.042042416
-0.02952384 -0.014474519 -0.011686575 0.013515863 -0.03584796 0.006240897 -0.020927848 -0.008241662
-0.05472277 -0.005052307 0.0035691592 -0.020054488 -0.017958725 -0.021779336 0.013975247 0.0027161462
0.015584783 -0.00011415404 -0.0017981719 0.0029202905 -0.019097216 -0.029661646 -0.0017585816 -0.009618522
-0.00959945 -0.031105565 0.010416607 0.017981986 -0.036476687 -0.042686217 0.0076499507 0.0023608936
-0.0072173146 -0.017461661 0.034060497 0.02024891 0.0060352874 -0.0034269413 -0.033629574 -0.023737136
-0.021207307 0.012382706 0.007790764 0.021352146 -0.0004753768 0.025416225 -4.1946914e-05 -0.035859074
-0.022676785 0.009212443 0.008032307 -0.010940505 -0.00707807 -0.0042772694 -0.0099445265 0.039349787
-0.048636377 -0.025119025 -0.007748606 -0.03536209 -0.013734881 0.00024511758 -0.024885308 -0.017629031
-0.023458764 -0.0150272865 -0.0097403405 -0.027964298 0.026956633 0.007386501 -0.00063591154 0.026639024
-0.009626161 -0.0429882 0.013206239 -0.0021223568 -0.0020198526 -0.011589325 0.006362303 -0.007043978
-0.01285523 -0.012407458 0.0016697702 -0.010521014 0.011822844 -0.0059424173 -0.03531939 -0.027469048
-0.020121811 -0.015315322 0.023000805 -0.009049063 0.005715424 0.012038798 0.014789803 -0.017446848
-0.026816748 -0.0045814216 -0.008586093 0.041840177 -0.030900888 0.0065583857 -0.027192619 0.002537494

action_model._continuous_distribution.mu.bias f4 [2]
00000000: 0d22 b53b 439e dc3b
0.005527741 0.0067327335
