results/hideandseek_10/Seek.onnx (onnx, 149966 bytes, 7 tensors)

network_body._body_endoder.seq_layers.0.weight f4 [128, 152]
00000000: 2dc8 aebc e15f 903d 81b0 7bbc fb34 aebd
00000010: c3cf 563d d7e1 1d3d c038 2d3e 95ac 043d
00000020: 002a 7abb 123a b83d 9b35 2b3e 8d39 933c
00000030: da8a debd bbfa 0a3e 8bcb 01bd 170a 39bc
00000040: ed4a 0a3e 7d2e 54bd b058 853b 8a96 bfbd
00000050: d03f 21be cdf1 48bd 39d8 b2bd 5a22 313d
00000060: d2d8 0a3d 5211 8d3d 9808 25be cef0 4abc
00000070: 0935 f4bd 62fa 7fbd 4b44 f8bd a938 f1bd
00000080: 5dff 17be afe8 86bd 37ce c5bd 20f3 4bbd
00000090: ee70 203d 2e4a 2ebd 2e76 a73d 3e82 1e3d
000000a0: 4e73 833d 1544 4d3e 9cae c7bd 3b9f b83b
000000b0: 9f32 2f3e 950d 1abe ecc7 723d a3cf eabd
000000c0: b636 563d 44f9 e43c 07f1 323d c925 29be
000000d0: e621 68bc a5a4 47be 12ee 7fbc ccf3 ebbd
000000e0: 0531 05bc dcd7 05bd 4cba 0ebe b3b8 a53c
000000f0: 85e7 38bd 2058 1bbe 1d1f 96bd 26c8 f2bd
00000100: 9e76 09be b6e5 43be 8c48 553d 25ec cbbd
00000110: 7e07 7bbc 7c7e a2bd ebe8 37ba 2a06 9abc
00000120: c0d3 173d b575 713e dfca 29bd c5ee 4b3d
00000130: fae8 b73d 246a 26bd a89a 10bc 2c11 17be
00000140: 9f84 123c 93fc db3c 2628 30be bf84 103e
00000150: 4d9d 25bc 2abf 0abd de76 043d 836b 14be
00000160: 8cc7 3fbc 5a05 98bd a597 4cbd 851e 5f3d
00000170: 535d 793d c9e7 733e 73c9 51bd a963 33bc
00000180: 3719 efbc 905f babc 551f b63d 7d94 da3c
00000190: 5b56 62bb 9418 f7bc e55d 2e3d 5332 36bd
000001a0: dec0 e4bd 3928 1cbd 7611 1fbd 4e88 54bd
000001b0: 4fd6 d0bc e2a0 153e c969 56bb d796 033e
000001c0: 52f9 513c 06a3 fdbd 7d5a e23b a90a 023d
000001d0: 04cb 28be 076a 0b3d 0bf5 053e 00c1 83bc
000001e0: 779e 84bd 80f6 5abb 0e76 24be 97b1 33be
000001f0: d6df 373d 74ef e33d b3c1 ed3d 3417 443c
00000200: 2f8f 06bd a7fb a1bd 8abe a03d ca27 75bd
00000210: 2570 3e3c eb8d 093a a778 283e 296a 23bd
00000220: 31ff 87bd 9ee4 0e3e cfbb 563d aff5 e63c
00000230: 1387 643e 4190 bdbd 01fb a03c 5b1f b73d
00000240: 7363 733d 567a 74bd 9dd4 6fbd 67c6 d33b
00000250: a735 013e 89a4 d23c 2cb6 82bd 6abe 3abd
00000260: 5c86 82bd 6bca 9bbd 9290 cf3d 06ad 9bbc
00000270: b713 b8bd 4eb8 ea3c b58e 19be 05d9 763b
00000280: 9526 b2bc 27d7 823d 0d62 263d 6d3c f0bd
00000290: 90da 1c3c dae6 553e 9cd7 c3bd 7afc b2bd
000002a0: 2c52 8fbe 3bac 073d d79e c939 8427 91bb
000002b0: 23df 92bd c542 e73c 1b2b 34bd ba81 84bd
000002c0: 44e8 3f3c c7f2 b8bd 7cf1 1ebe 182a f6bb
000002d0: 854a 3d3e b39d 2e3e 1562 41bb b1fe 29bd
000002e0: 6ff9 2ebe 6ee0 063d 0c96 05bd 1296 1dbd
000002f0: 6af3 80bd a19b 52bd 8c85 b4bd 79d9 593d
00000300: 2ee1 06bd a4cb 13bd 40d8 b3bd 4416 11bc
00000310: 520a 8cbd 5670 96bb 280b 0abe 6820 003c
00000320: 669f 8f3b 0afc b83c b295 a53d f2b5 b83d
00000330: 393d a7bd 0c6a eb3d ad08 a83d 4813 a03c
00000340: 10ef a0bd 1094 aa3d d3d9 e7bd eeb0 3a3d
00000350: cc95 cb3c 056c 69bd fd65 8b3d c3e5 1dbd
00000360: 7c86 72be 586b 1c3e fbab 83bd 79d0 b83d
00000370: 1976 033e 2190 05bd b5c5 5bbd 3a8d ce3d
00000380: f4a2 c0bc 0cf5 573a 8003 22bc f55e eb3d
00000390: 4598 9b3d 2427 a23d 82da 77bd 6afc 8dbd
000003a0: 00be 123e ff95 e13c 72ad bbbd 7731 d73d
000003b0: 37a1 60bd 7877 debc 164f d1b9 6117 12bd
000003c0: 42ff 133d 84d0 eaba 620b 243e dd2a 16be
000003d0: 1d24 1d3e 135a b7bd 2ed8 913d dbe5 353d
000003e0: 771e dbbc cfe8 8dbd 593a 523e da81 11bd
000003f0: df37 9f3d 46bf c93c e5c8 29be 53a2 c93c
-0.021335686 0.070495375 -0.015361906 -0.08506199 0.05244423 0.038545456 0.1691618 0.03239115
-0.0038172007 0.08995451 0.16719668 0.017971778 -0.108663276 0.13572209 -0.031688254 -0.0112939095
0.13505144 -0.051802147 0.0040694103 -0.09354885 -0.15746999 -0.049058724 -0.087326474 0.04324565
0.033898182 0.06888069 -0.1611656 -0.012386514 -0.11924178 -0.062494643 -0.12122401 -0.11778385
-0.14843507 -0.065873496 -0.09658473 -0.04979241 0.0391702 -0.042551212 0.08176838 0.038698427
0.06418477 0.20045502 -0.09750101 0.005634216 0.17109154 -0.15044244 0.05927269 -0.11465385
0.05229827 0.02795089 0.043686893 -0.1651832 -0.014168238 -0.194964 -0.015620725 -0.1152111
-0.008129363 -0.032676563 -0.13938254 0.020229673 -0.04514267 -0.15170336 -0.07330153 -0.118545815
-0.13424155 -0.19130597 0.05207114 -0.0995715 -0.0153216105 -0.07934281 -0.00070156035 -0.018801767
0.037067175 0.23580058 -0.04145324 0.049788255 0.08979984 -0.040628567 -0.008825935 -0.14752644
0.008942752 0.026853835 -0.17202815 0.14113139 -0.010108304 -0.033873715 0.032339923 -0.14494137
-0.0117052905 -0.07422896 -0.049949307 0.054472465 0.060880017 0.23818888 -0.051217508 -0.010949054
-0.029186828 -0.022750646 0.08892695 0.026682133 -0.0034536335 -0.030163087 0.042570014 -0.044481587
-0.11169599 -0.038124297 -0.03883501 -0.051887803 -0.025492815 0.14612153 -0.0032716861 0.1285051
0.01281579 -0.1238461 0.0069077597 0.031748448 -0.16483694 0.034036662 0.13081758 -0.01608324
-0.06475537 -0.0033411086 -0.1606066 -0.17548214 0.0448912 0.111296564 0.11609211 0.011968423
-0.032851394 -0.07909327 0.078488424 -0.0598524 0.011623417 0.00052472827 0.16452275 -0.039896164
-0.06640471 0.13954398 0.052425202 0.028193323 0.22317152 -0.0925603 0.019650938 0.089415275
0.059421014 -0.05968698 -0.058552373 0.0064628604 0.12618123 0.025713222 -0.06382403 -0.04559175
-0.06373283 -0.076069675 0.101349965 -0.019003402 -0.08988135 0.028652336 -0.14995845 0.0037665975
-0.021746913 0.06388693 0.040620852 -0.11730275 0.009573594 0.20888844 -0.095626086 -0.08739562
-0.2799238 0.033123236 0.00038456052 -0.0044297595 -0.07171466 0.02823008 -0.04398642 -0.06470056
0.011713091 -0.09030681 -0.15521806 -0.007512342 0.18485458 0.17052345 -0.0029507924 -0.04150266
-0.17087339 0.032928877 -0.0326138 -0.038473196 -0.062964275 -0.05141795 -0.088145345 0.053185914
-0.03292959 -0.03608288 -0.08781481 -0.008855406 -0.06837906 -0.004591028 -0.13480818 0.007820226
0.0043830154 0.02258112 0.08085193 0.09019078 -0.08165974 0.11494836 0.0820478 0.019540444
-0.078580976 0.08329022 -0.113208435 0.04557889 0.024851702 -0.05698778 0.06806562 -0.038549196
-0.23684114 0.15275323 -0.06429287 0.09024138 0.1283802 -0.032608155 -0.053655345 0.100855306
-0.023515202 0.0008238114 -0.00988853 0.11492721 0.075974025 0.07917622 -0.06051112 -0.0693291
0.14330292 0.027537344 -0.091639414 0.105074815 -0.054841246 -0.027156577 -0.0003992251 -0.035666827
0.036132105 -0.0017914926 0.16019967 -0.14664789 0.15345807 -0.08952727 0.07121311 0.04440866
-0.026747925 -0.0692917 0.2053007 -0.035524227 0.077743284 0.02462734 -0.16580541 0.024613535

network_body._body_endoder.seq_layers.0.bias f4 [128]
00000000: 3f19 0e3c 8591 0bbd 97ab cfbb b759 edbc
00000010: ff37 9abb ca32 82bc 475a 89ba ff94 43bc
00000020: ce5e f8bc b97c 5b3d c7a0 86bb 7861 493b
00000030: 2818 03bc 3291 59bd 8a1f 28bd daf3 e1bc
00000040: 39dd 413a 354e d5bc c703 4abd b605 5d3b
00000050: 43dc 77bd d0c1 67bc 52b8 e9bc 51cb 8cbd
00000060: 3c51 48bc 80c6 eabc 31ac c83b 9e2e c9bc
00000070: 6e75 efbb c13e dcbb 39bc 41bd 8386 dbba
00000080: ae94 8fbd 5e43 84bd 533c 743c fd73 1cbd
00000090: 1b8f 2fbd 5865 41bd b4fa 68bd 1b9e 9bbc
000000a0: aaf8 21bd 4935 e5bc 1c0c 5dbd d7bd ffba
000000b0: 8d2f 163d 91fe 7d3c 8247 ed3c 4dd6 27bd
000000c0: b163 4d3d 1ac2 05bd 3dbf 3fbd 6ccd a73c
000000d0: 845e 50bd 59e3 3cbc 8765 0abd 2fa3 b2bc
000000e0: 5aa0 6fbd 4ca2 11bd adbc 58bd 72f1 8ebd
000000f0: 1937 ddbc 51ab 643b 536b 98bd 40ee 80bd
00000100: 4dbe abbc 209c d13b 1939 78bd 3cf7 a0bb
00000110: cb58 e8bd fcfa 94bd d5b2 4c3d 053c 0cbd
00000120: 3855 743c 85da 7cbd df82 c63b df49 6cbd
00000130: ff42 52bd 345b 6bbd 56e9 acba e27f 05bc
00000140: 5841 c2bc 07ef 14bd 5e59 163c b5c8 10bc
00000150: fe4d e4bc 47cb 06bc 24c9 3bbd d9ab b1bc
00000160: 56c0 8abb 6b7d 27bc ca1b 83bc 99bd 663d
00000170: 4cab 54bc e88e aabc 4a9a bebc f0e8 3abd
00000180: 3fa9 f8bc b7b7 e83b d187 48bd 3471 03bd
00000190: b92c 0bbd 1c57 0ebd 51bb 38ba 3bae cbbc
000001a0: d8a1 e8bc 0811 20bd 708f 9cbd d525 8abc
000001b0: 39f1 89bd bb4f 6bbd 0c96 80bd bceb 5fbd
000001c0: c32f cbbc b47e 8cbd 21c0 f1bc 2015 5c3d
000001d0: f3ba e5bc 852b 58bd b36c 5abd edd2 cfbc
000001e0: 9a6f 093c 17cb 5ebd 3e63 95bc 9128 8abc
000001f0: 2996 8fbc 33ef e4bc e46c 73bc 6745 52bc
0.008673011 -0.034074325 -0.006337594 -0.028973443 -0.0047063823 -0.015893359 -0.0010479175 -0.011937379
-0.030318644 0.05358574 -0.0041085216 0.0030728262 -0.008001365 -0.053116985 -0.041045703 -0.027582098
0.00073953305 -0.026038269 -0.04932001 0.0033725328 -0.060512792 -0.01414533 -0.028530274 -0.06874717
-0.012226399 -0.028659105 0.0061240424 -0.024558362 -0.0073077 -0.006721348 -0.047298644 -0.0016748462
-0.0701078 -0.06458162 0.014906961 -0.038196553 -0.042861085 -0.04721579 -0.056879714 -0.018996289
-0.039543785 -0.02797951 -0.053966627 -0.0019511533 0.03666644 0.015502588 0.028964762 -0.040975858
0.0501439 -0.032655813 -0.04681324 0.020483695 -0.050871387 -0.011528813 -0.03378823 -0.021806328
-0.058502533 -0.03555517 -0.05291431 -0.06979646 -0.027003812 0.0034892152 -0.074423455 -0.062954426
-0.020964766 0.0063967854 -0.060601328 -0.004912285 -0.11345061 -0.07274434 0.049975235 -0.034236927
0.014912896 -0.061731834 0.0060580815 -0.057687636 -0.051333424 -0.057460025 -0.0013192098 -0.008148165
-0.023712799 -0.036360767 0.00917658 -0.008836915 -0.02786922 -0.008227176 -0.04584612 -0.021688389
-0.004234354 -0.010222773 -0.016004462 0.05633316 -0.0129802935 -0.020820096 -0.02326693 -0.045632303
-0.03035414 0.0071019786 -0.04895765 -0.03209038 -0.033978198 -0.034751043 -0.0007046955 -0.024863353
-0.028397486 -0.039078742 -0.07644546 -0.016863743 -0.06735463 -0.057449084 -0.06278619 -0.054668173
-0.024803048 -0.06860104 -0.02951056 0.053731084 -0.028043246 -0.05277588 -0.05332632 -0.025369132
0.008388424 -0.0543929 -0.018235799 -0.016865047 -0.017527657 -0.02794609 -0.0148575045 -0.01283393

network_body._body_endoder.seq_layers.2.weight f4 [128, 128]
00000000: f04a a9bd 8d84 eebc a9c2 893d b177 59bd
00000010: 7a29 f33d a3de aabd 15e4 abbd fd42 d7bc
00000020: ca7d e63d e903 2cbe 98ee 1c3d c687 9abd
00000030: 9760 c93a 60e3 b1bd dac2 52be 58a5 953d
00000040: d381 91bd 9525 babd 1877 b7bd 41be d83d
00000050: 0226 34bd 3cd2 d9bd bf30 eabd f868 fd3c
00000060: 8888 06be 6cf8 27bd 968c bc3b 0656 abbb
00000070: d826 b43d 3025 b6bd abca ccbd 6eaa 35be
00000080: 8872 1fbd a3c4 75bd aa46 6fbe 7090 d1bd
00000090: f750 853d a1b7 53be 89a7 8c3d 476c 1b3e
000000a0: c62a 86bc 9089 60be c23a 82bd 6f46 2c3d
000000b0: 0b94 dbbd 60fd 86be 3adf 10bc 2de3 cb3d
000000c0: 33c9 2dbe d1e8 1e3d 8914 133c 8e90 583d
000000d0: 3ab6 0b3e 3b2f 8b3d f8d1 c6bd 2678 a4bd
000000e0: 0af7 673d 9a40 593d c534 08bd af96 a2bd
000000f0: 7f99 86bd c565 9dbd 04c7 c03d 9700 e63d
00000100: 874c c3bc 4c0c 08be e060 d53c 9290 28bd
00000110: 7e7e bb3c 6e1f cbbc e024 12bd 647b c9bc
00000120: f320 efbc fa80 cd3d 53b2 4ebd 0199 443d
00000130: 0a56 023d d935 2bbe 09d4 143d 00ad 1fbe
00000140: 9e67 d03a ed04 37bd b64e c8bd af78 2fbd
00000150: 462e 233d 179b 4fbd 5a38 a8bd 3cee e1bd
00000160: 29df 343e 4a56 9dbc b586 1dbe a8ca fa3d
00000170: 3b10 0ebe da69 10be 9ca3 afbd 0a4c a6bd
00000180: f962 b13c 7524 e7bd ecbc f9bb c044 9bbd
00000190: 7bc8 523d d7ec 7ebd 40c9 67be 3c45 b13d
000001a0: d153 f8bd bb1e 373b 3737 41bd 0c06 cdbc
000001b0: 9cae 2fbe ac4d b2bd f4a3 49bd a8a4 bb3d
000001c0: 4604 093e 8051 0dbd fae6 f33d 880c 89bd
000001d0: b866 f4bb 474d 0c3e b0d9 893d 4feb 37be
000001e0: 44c2 87bd 13c9 173e 24a9 5c3d 675e 1cbd
000001f0: cff5 7ebd 3c14 2e3d 21df adbd b8ed c3bc
00000200: b920 09bd 1d37 93bd 897d dabd d337 babd
00000210: f13a a6bd 886f 73bc 5d0d 42be 5850 03bd
00000220: ca6b 29bd cfb5 9fbc 17e2 6cbd cad2 2fbd
00000230: e97d 8f3b 27a9 f4bc ebf8 dcbd ea85 b3bc
00000240: 8751 99b9 9f1d c13b d767 f3bc ad68 e5bd
00000250: 9ea9 e63d b2ed e0bd cf51 0b3e 4431 663d
00000260: c8b0 84bb 17e6 8bbc b8ed 983d e4ce 03be
00000270: 47a6 97b8 7375 d3bc 7818 a4bd b167 ebbd
00000280: 9c3a 523d 85ae 073d 0777 dbbc 9ab2 09bd
00000290: 9ef3 9d3d 1e9b 803b dce9 35be ab67 653c
000002a0: e07b 53bd be94 f4bd 86d9 e03c 9435 273e
000002b0: 29c3 773d 7436 87bd dbbd 393d fcb4 203c
000002c0: 9b37 cd3c 03b5 2d3d 56fe 6b3d a50a 09bd
000002d0: c120 d33c 409c 373b b2e5 03be 0145 86bb
000002e0: 59dc 3ebd ea1c 6bbc b222 423d 524a 0c3d
000002f0: 2e2d 03bc 66f8 c0bd d97b 2d3d 503b 1bbe
00000300: dde6 a63d 23b6 ebba 1fdc eebc dcec cebc
00000310: 1ba3 dabd 74bd 1a3d 7d69 35be dd8b 003e
00000320: 88ac 2cbd c0db fbbc ae37 303d e7e3 8cbd
00000330: 43ff 9cbd 570c 88bd c759 ee3d 378e 653d
00000340: d5fc 8b3d 411f 81bd fc1e cdbd 7a0b 113d
00000350: 06aa 2bbd 9e45 85bd fc4b 86bd 381c 90bd
00000360: 8d38 a83d 394e 02be 1ef9 1abe 2f2f e23c
00000370: b0ee 6c3d 929a 083b 860d a9bd 3ad9 4f3d
00000380: 06ed c1bd 1f06 57bd 2dc9 383e 57c0 883b
00000390: fa7b 94bc af4e 873c 653d 79be 6730 793b
000003a0: fcaf 203e f877 1f3c 920c ac3d 7553 92bd
000003b0: d951 a6bd 5cec 22bc 182d 5ebd 1308 903d
000003c0: 80ac 0139 7669 dbbd 1a6c f8bd b818 a73d
000003d0: af51 e53d c567 153d 36ec f5bc 058b a43b
000003e0: 7a67 c6bd bec8 bebd d3b8 3b3c d23e c0bc
000003f0: 9672 c83d b549 b0bd 6b7a 1d3d 98d2 d53d
-0.08266246 -0.02911594 0.067265816 -0.053092662 0.118731454 -0.08343246 -0.083931126 -0.02627706
0.11254461 -0.16798367 0.03831348 -0.07545428 0.0015363869 -0.086859465 -0.20582142 0.073069274
-0.0710484 -0.090891995 -0.08958262 0.10583163 -0.04398156 -0.10635802 -0.11435079 0.030933842
-0.1313802 -0.041008398 0.005754064 -0.0052287607 0.08796471 -0.08893812 -0.09999593 -0.17740795
-0.038927585 -0.06000198 -0.233668 -0.102326274 0.065095834 -0.20675518 0.06867892 0.15178023
-0.016377818 -0.21927476 -0.063588634 0.04205936 -0.10721596 -0.26365185 -0.008842284 0.0995544
-0.16971283 0.03879625 0.008977064 0.052872233 0.13643733 0.06796118 -0.09708017 -0.08030729
0.05663208 0.053040124 -0.03325345 -0.07938897 -0.06572246 -0.076854266 0.09412959 0.11230581
-0.023840202 -0.13285941 0.02604717 -0.041153498 0.022887465 -0.02479526 -0.035679698 -0.02459497
-0.029190516 0.10034366 -0.050463032 0.04799748 0.031820334 -0.1671976 0.036335025 -0.15593338
0.0015900021 -0.044682432 -0.09780638 -0.042839702 0.03983905 -0.050685015 -0.08213873 -0.11031768
0.17663254 -0.019206185 -0.15383418 0.12245685 -0.13873379 -0.14102879 -0.08576128 -0.08119972
0.02165364 -0.112862505 -0.007621398 -0.075814724 0.051460724 -0.062237587 -0.22635365 0.086557835
-0.12125362 0.00279419 -0.047171798 -0.025027297 -0.17156452 -0.08706221 -0.049228624 0.09162265
0.13380536 -0.034501553 0.1190929 -0.06691843 -0.007458534 0.13701354 0.06730974 -0.17960857
-0.0662885 0.14822797 0.053872243 -0.038175967 -0.06224614 0.042499766 -0.08489824 -0.023917064
-0.033478472 -0.071882464 -0.10668475 -0.09092679 -0.08116711 -0.014858134 -0.1895041 -0.032059044
-0.04136256 -0.019495873 -0.057832804 -0.042925633 0.0043790233 -0.029865814 -0.10789665 -0.021914441
-0.00029243177 0.0058934237 -0.0297126 -0.11201606 0.11262821 -0.10982837 0.13605426 0.056199327
-0.0040493943 -0.017077489 0.07467216 -0.12871891 -7.231213e-05 -0.02581284 -0.080124795 -0.11494387
0.051325426 0.03312542 -0.026790155 -0.033617593 0.07712482 0.0039247414 -0.17764992 0.014001767
-0.05163181 -0.11942433 0.027447473 0.16329032 0.060488854 -0.06602183 0.045347076 0.009808775
0.025050929 0.042408954 0.0576156 -0.033457417 0.025772454 0.0028016716 -0.1288059 -0.0040975814
-0.04659686 -0.014350155 0.04739637 0.034250565 -0.008006377 -0.09422378 0.04235444 -0.15159345
0.081495024 -0.0017983358 -0.029157696 -0.025259428 -0.10675641 0.037778333 -0.17716022 0.12553354
-0.042156726 -0.030744433 0.04302185 -0.068794064 -0.07665875 -0.06642979 0.116382174 0.05604383
0.06835333 -0.06304789 -0.100156754 0.035411336 -0.041910194 -0.06507419 -0.065574616 -0.07036632
0.08213911 -0.12725152 -0.15134093 0.02761039 0.057844818 0.0020844084 -0.082545325 0.050744273
-0.09469037 -0.052496072 0.18045492 0.0041733193 -0.018125523 0.016517011 -0.24339826 0.0038023235
0.15692133 0.009733193 0.08400835 -0.071448244 -0.0812108 -0.009944048 -0.054242224 0.0703279
0.0001236666 -0.107134745 -0.12129994 0.081590116 0.111972205 0.036475915 -0.03001986 0.005021455
-0.09687705 -0.09315632 0.01145764 -0.023467455 0.097874805 -0.086078085 0.038446825 0.10440558

network_body._body_endoder.seq_layers.2.bias f4 [128]
00000000: 0b2d 6abb 9d7e 39bd 9f56 d2bd bed6 8dbd
00000010: 42ee a3ba 0ee6 64bd a81a 57bd c9bc 01bd
00000020: 8bb8 8dbd f566 43bd 6e68 873c 7205 92bd
00000030: c4dd edbc da56 43bd 6001 303d 3c51 26bd
00000040: b6a5 8bbd 0395 b6bc 6fbd c5bc 8d6e 3abd
00000050: 32f5 f8bc 8cb6 76bb b6f9 8bbd 7445 70bd
00000060: d5c5 d5bc d94c 273d f859 fcbc eb35 73bc
00000070: 071c ecbc d094 3abd f540 903c fc69 c6bb
00000080: 75fa ecbc af1f 3ebd 929f ddbb 5942 e4bc
00000090: 61a0 febc db65 85bd f732 36bd b3ef a1bb
000000a0: 5856 54bd 021e cebc b6c1 bc3b 230a 50bc
000000b0: d021 48bc 697e ecbc 10d3 5dbc d5c7 5fbc
000000c0: 9c32 debc d68d fbbc ef79 b1bd af59 f3bc
000000d0: 3c19 57bd 745e 55bd 5e93 28bb db34 15bd
000000e0: fc8d a5bc b4fd 50bd 04bb c2bd 7249 3cbd
000000f0: 227b 8abd 3db9 2ebd d708 0dbd 8f59 6b3b
00000100: e291 43bc befe 153d 7778 9cbc dd26 00bd
00000110: bdf9 bdbc 0abf 7abd 9e9a 4ebc 8244 97bc
00000120: aa23 5bbd 854a ddbc 1d75 41bd 0291 06bd
00000130: f88f 13bd c6fa dbbc 7adf d9bc 9dea 8bbd
00000140: 273d 8dbb 8ac5 54bd 375e 3ebd 4ea6 f53c
00000150: 574f 53bd 70fc e03b 004d 1dbd 87b7 dc3c
00000160: 8230 1cbd 36d1 46bd d151 e8bb fd71 023b
00000170: 3079 a8bd 4f7f a9bc 29bd efbc 5cc1 19bd
00000180: b5ef 0cbd f496 dfbc 7468 a5b7 1ba9 58bd
00000190: cb41 6c3b abed 55bd 176f 92bd 1344 e3bb
000001a0: 90ff 40bd 08c7 49bd 3f90 663c c58f 6dbd
000001b0: 8039 0bbd 092f 7cbb 2c51 99bd f9c5 ebba
000001c0: c50f f23a 3efa 44bd 780c ca3c 6e0b 52bd
000001d0: 3664 f13c a0ff 9dbc dc71 34bc 6785 81bb
000001e0: ed22 82bd f8ec 90bd c615 0bbd fcd7 d2bc
000001f0: bdb3 62bd 739b 3dbd 6f01 0bbd e611 0ebd
-0.0035732414 -0.045286763 -0.10270428 -0.069257244 -0.001250692 -0.05588346 -0.052515656 -0.03167418
-0.069199644 -0.04770561 0.016529288 -0.07129945 -0.02903641 -0.04769025 0.04297006 -0.040604815
-0.06818716 -0.022287851 -0.02413818 -0.045515586 -0.030390356 -0.0037645428 -0.06834738 -0.058659986
-0.02609531 0.040844772 -0.03080462 -0.014844398 -0.028821958 -0.045552075 0.017609099 -0.006055115
-0.028928021 -0.046416935 -0.006763407 -0.027863668 -0.031082334 -0.06513568 -0.044482198 -0.0049419045
-0.051840156 -0.025160793 0.005760397 -0.012697729 -0.012215093 -0.02886887 -0.013539091 -0.0136584835
-0.027123742 -0.030707281 -0.08665835 -0.02970585 -0.0525143 -0.05209203 -0.0025722603 -0.03642736
-0.020209305 -0.0510232 -0.09508327 -0.04596848 -0.06761767 -0.042657126 -0.03443226 0.0035911535
-0.011936637 0.036619894 -0.01910041 -0.031287063 -0.023190374 -0.061217345 -0.012610106 -0.018465284
-0.05350081 -0.027013073 -0.04723083 -0.032853134 -0.03602597 -0.026852977 -0.02659582 -0.06831858
-0.0043102684 -0.0519462 -0.04647657 0.029986527 -0.051589336 0.0068660304 -0.03840351 0.026942981
-0.0381322 -0.048539363 -0.0070898314 0.0019904368 -0.0822624 -0.020690588 -0.029265003 -0.037537917
-0.03440829 -0.02729366 -1.9718173e-05 -0.052895647 0.0036049958 -0.05222861 -0.07150095 -0.0069356053
-0.047118723 -0.049262077 0.014072477 -0.057998437 -0.033990383 -0.0038480184 -0.074861854 -0.0017988078
0.0018467834 -0.048090212 0.024664149 -0.05128043 0.02946673 -0.01928693 -0.011013474 -0.0039526704
-0.06354318 -0.07076448 -0.03395631 -0.025737755 -0.055347193 -0.046290826 -0.033936914 -0.034685038

action_model._continuous_distribution.log_sigma f4 [1, 2]
00000000: 914e 1ebd 3c5d b4bc
-0.038649146 -0.022017114

action_model._continuous_distribution.mu.weight f4 [2, 128]
00000000: 86b8 a7bb 67af 80ba e415 e03b ada9 c73c
00000010: 11ea 54bc 0e81 68bc 6e9c 7b3b 33d7 b83c
00000020: 5de1 b4bc c891 d9bc 3cb8 d7ba 3cbe 42bb
00000030: 233d f03b 9746 60bb 60e3 6bbd 0510 20bc
00000040: 979e 403d 6147 14bd fdb0 503c fb6c 843a
00000050: 0ac8 2f3c 897b 18bc fc0d 263c ed4d 173c
00000060: b6e3 9bbc cb70 183d e1d7 443c e52b 973c
00000070: 82c1 7fbc dc01 813c c79b 75bd 2959 1fbc
00000080: 38d6 d0bb 64f8 473c 64ab b4bb 9ab9 173c
00000090: 449c feb9 4b99 003d 57bd ae3a 70e6 443d
000000a0: f8c2 9d3c 9d62 18bc 68ce 05bd fd7c dbbb
000000b0: 2d3a a63a eebb 603c e59d 17bc 7cd1 e6bc
000000c0: a2c0 913b bfe2 dbbc a1cf 3b3d c421 84bc
000000d0: 5a9e 2d3c 1c67 f13b 87cf 8e3c 5d2a afbc
000000e0: d36b 0d3c 3e55 803b 14bd c03b 6a14 f73c
000000f0: 1177 32bc 8891 86bb 3505 ceba 24d0 f1bb
00000100: 6983 7cbb be73 98bc 9a72 acba 8fc6 31bc
00000110: de9a a6bb 0032 b3ba 8bb4 fcbc 91ce 933b
00000120: d9fd 9f3a 1c12 bd3a 01bc c7bc 4829 c23c
00000130: f17d 7d3b fafc 0ebd acf2 473c a6b7 4fbc
00000140: 28cd a43c 1d4a 1fbc 4b31 85bb c1ca 053d
00000150: e79a 023b 77a2 813c 43c7 ab3c ea28 77bc
00000160: 6472 e03c c8b9 00bc 9036 afbc bdaf 17bd
00000170: 6bd3 46bb bcb4 32bd 6541 c1bb 45f2 33bc
00000180: c853 84bc 75e4 4a3c 085f 5b3a 3688 2d3b
00000190: 9fa5 ddbc ffac 2b3d 9bc3 d13a 4865 9d3c
000001a0: 9ac0 b4bb 59a2 963c 6c8d be3c 0b96 423a
000001b0: 6bdf f93b 97ff 3b3c eb5f 2c3d 9c9e b83c
000001c0: 55d7 963b 4fdb 7a3a 1d8a 96bd 0c1d 8cbb
000001d0: 9216 51bc 97d6 07bd 62b6 a4bc 6fbf 6abb
000001e0: fe0e d83a f1a2 153c fd54 d1bc 715d 3a3c
000001f0: aa1c 193b 7494 ae3a a24a 253d fbb2 163c
00000200: 0d7e e8bc 7e68 c8bc 3a1a 9dbc 5e7f 17bd
00000210: 7994 58bc 4bb8 b7bc cbc2 b63b 2657 dabc
00000220: 30f8 3ebd 20c7 34bd 6494 d93c 206b 09bd
00000230: 817c cfbb 9918 48bd 7559 5d3d b87b 5cbd
00000240: 8330 433b 54a3 66bc 27ab 36bd 5035 77bc
00000250: e3fe f4bc 719b 23bc e613 08bd 84dc 813c
00000260: 9d89 40bc 4939 3d3d b362 07bd 3c15 573b
00000270: 854c 79ba 2a46 b0bc 8608 36bb fd65 3c3d
00000280: cbb9 5abd 7720 233c d529 0fbd b545 0abd
00000290: 7189 3bbc 695a cfbc 3834 06bd 25ad bd3b
000002a0: 31ff a4bc 95f2 bc3b e7c5 c9bc 05db 813c
000002b0: 43fd 27bd 4ab9 00bd bf4a 0c3d 278d 383c
000002c0: 6fe7 643b 263b 5bbc bb42 8abc 1e0f 10bd
000002d0: 6355 75bc dc1c 2bbc 1987 06bd 54a4 eaba
000002e0: 7ba8 8e3b 3222 20bd 0dad 1dbc b849 1ebd
000002f0: 1888 a0bc c87b b5bc c997 9a3c 191c c93c
00000300: 5e09 0ebc cf1d ce3c f62c bfbc f914 a6bc
00000310: 4123 34bc 6680 07bd da09 fdbc 27b2 55bc
00000320: 2f37 0c3c e8e6 0f3d 2742 15bd f408 f8bb
00000330: 7adc 8fbc 3d13 f9bc 685d 10bd f1fd 2abd
00000340: 5d09 9dbc 6675 efbc f3c9 1dbd 64c2 f93b
00000350: 86e1 47bd 6518 aebc 5324 01bd d6c9 c6bc
00000360: a2d6 11bd 35a5 0bbd de8a 56bd 1152 a73b
00000370: 8f4c 5fbc 7c43 49bd a9ae 643c 5e20 02bd
00000380: 00a6 14bd d327 c5ba 47ce 6c3c 44dc 0bbb
00000390: 800d 2bbd 2f27 97bd fee0 93bc adb6 21bd
000003a0: a09d 7cbc c96a 26bd 1f82 f83b b854 413c
000003b0: f37c 0b39 732d 8bbc 3623 3dbd 0bf7 593c
000003c0: ba90 90ba cf5e 3d3a 2b13 1c3d daf1 8abc
000003d0: b74b c13c 9f23 5dbd e878 d8bb 46de 83bc
000003e0: d056 0d3c 7422 07bd d3ed febc e642 2bbd
000003f0: 4ea9 06bd f5ac e2bc 05b2 e2bc 87fe 67bd
-0.0051184325 -0.0009817899 0.006838547 0.0243729 -0.012995259 -0.014190925 0.00383928 0.022563552
-0.022080118 -0.026558772 -0.0016458104 -0.002971544 0.007331507 -0.0034221762 -0.05758989 -0.009769444
0.047026243 -0.036200885 0.01273751 0.001010328 0.010728845 -0.009306797 0.01013517 0.009234888
-0.01902948 0.037216943 0.01201436 0.018453548 -0.015610101 0.015747957 -0.059963014 -0.009725847
-0.006373193 0.012205217 -0.0055135954 0.009260559 -0.00048563082 0.03139619 0.0013331574 0.048071325
0.019258007 -0.009300855 -0.032667547 -0.0066982494 0.0012682133 0.013716681 -0.009253954 -0.028176062
0.0044480124 -0.02684152 0.045852307 -0.016129382 0.010596836 0.007367028 0.017432941 -0.021382505
0.008631664 0.0039164117 0.005881915 0.030161101 -0.010892645 -0.004106704 -0.0015718105 -0.0073795486
-0.0038530475 -0.018609878 -0.0013156713 -0.010850563 -0.0050843796 -0.0013671517 -0.030847808 0.0045107086
0.001220639 0.0014424953 -0.02438164 0.023701325 0.0038679803 -0.034909226 0.012203854 -0.012678063
0.020117357 -0.00972226 -0.004064714 0.032664064 0.0019928755 0.01582454 0.020969039 -0.015085438
0.027398296 -0.007856794 -0.021388322 -0.03703283 -0.0030338417 -0.043629393 -0.005897688 -0.0109830545
-0.016153231 0.01238357 0.0008368348 0.0026478893 -0.027056513 0.04191303 0.001600373 0.019213334
-0.005516124 0.01838796 0.023260795 0.0007422871 0.0076255105 0.011474512 0.042083662 0.022536568
0.0046033063 0.00095694227 -0.07350562 -0.0042759236 -0.012761729 -0.033163633 -0.020106498 -0.003581967
0.001648396 0.009133087 -0.02555322 0.011374817 0.0023363032 0.0013319389 0.04035438 0.009197946
-0.028380418 -0.024463888 -0.019177545 -0.0369867 -0.013218992 -0.022426745 0.0055774204 -0.026652884
-0.04662341 -0.044135213 0.026560016 -0.033549428 -0.0063319807 -0.048851583 0.05404039 -0.053828925
0.0029783554 -0.014077026 -0.044596817 -0.015088394 -0.029906696 -0.009985791 -0.0332221 0.01585222
-0.01175156 0.04619721 -0.03305311 0.0032819053 -0.00095099985 -0.021517832 -0.0027776076 0.0459957
-0.053399842 0.009956471 -0.034952004 -0.033757884 -0.011446343 -0.025311666 -0.032764643 0.0057884627
-0.020141216 0.0057662227 -0.0246305 0.015851507 -0.041013014 -0.031426705 0.03425097 0.011264122
0.0034927984 -0.013380801 -0.016877523 -0.035170667 -0.014973971 -0.010443892 -0.032843683 -0.0017901757
0.0043535805 -0.03909511 -0.009623778 -0.038644522 -0.019596145 -0.02215375 0.018871205 0.02454953
-0.0086692255 0.025160698 -0.023336869 -0.020273672 -0.010994733 -0.033081435 -0.030888487 -0.013042963
0.008558079 0.03513232 -0.03644004 -0.0075694267 -0.017561186 -0.030404681 -0.03524533 -0.041746084
-0.019169504 -0.029230785 -0.038522672 0.00762205 -0.04879906 -0.021251867 -0.031528782 -0.024266165
-0.03560508 -0.0340931 -0.052378528 0.0051062186 -0.013629093 -0.049136624 0.013957658 -0.03176915
-0.036291122 -0.0015041776 0.014453477 -0.0021341005 -0.04176092 -0.073805206 -0.01805162 -0.039480854
-0.01541844 -0.040629182 0.007583871 0.011799984 0.0001330262 -0.016989445 -0.046176158 0.013303529
-0.001102946 0.00072239054 0.038104217 -0.016961027 0.023595674 -0.05398905 -0.00660621 -0.0160972
0.008626655 -0.03299184 -0.031119263 -0.041811846 -0.032876305 -0.027670363 -0.027672777 -0.05663922

action_model._continuous_distribution.mu.bias f4 [2]
00000000: 30a6 72bd 4bed be3c
-0.05924052 0.02330651
